Best_models/wisdm_CNN_20210122_212207/CNN_wisdm_Rep_10_Seed_661.pt (torch_old, 224391 bytes, 12 tensors)

weight f4 [64, 6, 3]
-0.61812913 0.21579626 0.85734403 0.40814215 -0.07703093 -0.8536688 0.566976 -0.09010326
-0.7480743 0.07034102 0.38357827 -0.23415847 0.27201867 -0.2796833 0.026520198 0.1087888
0.07148862 -0.035533294 0.07502706 0.013691101 -0.14026935 2.4884052e-05 -0.14705968 -0.058926668
-0.007967758 0.04816758 0.16407019 -0.12474009 -0.10405512 0.09315413 0.08808088 -0.040731113
-0.13250591 -0.14589246 -0.37169972 0.03235902 0.06283908 -0.1132847 0.003961914 -0.018495733
-0.11625304 -0.15128362 -0.0057262927 -0.09014223 -0.040443644 0.17129053 0.049545806 0.22780958
0.015051458 0.0057131844 0.02264549 -0.47488782 0.11299675 -0.46768463 -0.059124414 -0.071066156
-0.28202984 0.0011855223 0.038557716 0.07652817 0.1412136 0.07972026 0.4263214 -0.10766117
-0.0322879 0.36792666 0.8323297 -0.44566432 -0.39175236 0.32944182 -0.5717 -0.09678994
-0.23796485 -0.40611538 -0.069687895 0.103504926 -0.013573666 0.012518091 -0.072622225 0.1658071
0.011011255 -0.32667425 0.27016038 -0.05968265 -0.33207858 -0.079996355 -0.16072382 0.092662424
0.08275867 0.10546416 -0.10942975 -0.01914413 0.16457543 -0.037848044 -0.17335889 -0.041247237
0.18347596 0.23784542 0.028956896 -0.19281676 0.3663755 -0.17815165 -0.5049 -0.22584687
0.4369898 0.31217727 0.04006369 0.2304464 0.22192405 -0.070009865 0.1872496 -0.09270017
0.14107881 -0.28058654 -0.3299908 0.055914663 0.046024546 0.27396092 0.056218073 -0.38511282
-0.52763987 -0.41587174 0.37850046 -0.4141057 -0.15443128 0.43741414 0.044521715 0.041840836
0.06244124 0.14826266 -0.041195698 -0.31372726 0.21460965 0.19475998 -0.10515397 -0.6450111
-0.05132535 -0.23554528 0.04872356 0.30699214 0.54177535 0.089770086 -0.11186588 0.055891726
-0.23732944 -0.06396336 0.14622003 -0.7573423 -0.45380574 0.5539256 -0.103688106 -0.105318375
-0.025640868 -0.003145871 0.16241898 -0.072721854 -0.8010706 0.6915575 0.0693947 -0.0640396
-0.1485674 -0.24547337 -0.4326207 0.07703084 -0.2813684 -0.021673806 -0.1077817 0.10713391
0.019735904 -0.049135547 -0.13339192 -0.32570612 0.7227609 0.00023073883 -0.051157597 -0.48568943
-0.2964506 0.16097294 -0.022610137 -0.5449755 -0.26584476 -0.11054581 0.6930226 0.44564906
0.1288895 -0.23887876 0.013869985 0.08242574 -0.08465637 -0.10849082 -0.1178467 -0.17752853
0.833594 -0.035007257 -0.44403338 0.38220012 0.23454629 -0.043391075 0.07859496 0.14731513
-0.11900097 0.05805078 0.029409222 0.09855779 -0.00038491233 0.32204556 -0.35430366 0.39630228
-0.023187762 -0.30456373 0.15721227 -0.25557283 0.36824632 0.21584967 0.29852557 -0.20761581
-0.0063626515 -0.067346215 -0.006869319 -0.21537313 0.07741289 0.29538378 0.1298688 0.047711223
0.17082003 -0.6774448 0.7024427 -0.114211835 0.20855643 0.23340346 -0.2790551 0.41441026
0.12182065 -0.3686404 -0.05833366 0.016305154 -0.03731733 0.11097652 -0.1147476 0.25932753
-0.05168011 0.03482708 -0.035436705 0.58289367 -0.4802142 -0.3531229 -0.376349 0.059716888
0.30944058 0.3704176 -0.08074458 -0.24737824 -0.5371093 0.016612342 0.673867 -0.006819049
00000000: b63d 1ebf b2f9 5c3e e67a 5b3f 02f8 d03e
00000010: 64c2 9dbd 0a8a 5abf 5725 113f 0f88 b8bd
00000020: cc81 3fbf f40e 903d 5f64 c43e 3dc7 6fbe
00000030: 0846 8b3e a632 8fbe e340 d93c aacc de3d
00000040: a068 923d 5c8b 11bd caa7 993d a450 603c
00000050: c5a2 0fbe 18be d037 d096 16be 175d 71bd
00000060: 338b 02bc 5e4b 453d 0402 283e bb77 ffbd
00000070: da1a d5bd 98c7 be3d c063 b43d abd5 26bd
00000080: a1af 07be d564 15be 6d4f bebe e48a 043d
00000090: c7b1 803d cf01 e8bd f2d2 813b 5d84 97bc
000000a0: 1316 eebd 18ea 1abe a0a3 bbbb 7d9c b8bd
000000b0: 3ca8 25bd c966 2f3e 8bf0 4a3d ea46 693e
000000c0: 649a 763c aa35 bb3b 0983 b93c 7f24 f3be
000000d0: d76a e73d 5c74 efbe 712c 72bd 228b 91bd
000000e0: 3766 90be 8763 9b3a b2ee 1d3d cdba 9c3d
000000f0: 4c9a 103e 6044 a33d cc46 da3e 767d dcbd
00000100: 5140 04bd e260 bc3e 8f13 553f 1d2e e4be
00000110: c493 c8be 99ac a83e ee5a 12bf ce39 c6bd
00000120: 0fad 73be 5bee cfbe 87b8 8ebd 64fa d33d
00000130: 1564 5ebc ae18 4d3c f6ba 94bd 56c9 293e
00000140: 8d68 343c d941 a7be 7652 8a3e cb75 74bd
00000150: 3406 aabe 21d5 a3bd c994 24be ccc5 bd3d
00000160: 617d a93d 98fd d73d b41c e0bd 27d4 9cbc
00000170: 7686 283e 8d06 1bbd fe84 31be ddf2 28bd
00000180: 1fe1 3b3e c08d 733e 0337 ed3c c271 45be
00000190: 9295 bb3e 636d 36be 2041 01bf 6744 67be
000001a0: 21bd df3e b3d5 9f3e d319 243d 24fa 6b3e
000001b0: 0f40 633e 5561 8fbd 5cbe 3f3e 96d9 bdbd
000001c0: f776 103e 0aa9 8fbe 8ef4 a8be c606 653d
000001d0: 3c84 3c3d 9b44 8c3e ec44 663d 822d c5be
000001e0: 6813 07bf 24ed d4be d0ca c13e aa05 d4be
000001f0: 3c23 1ebe bff4 df3e 675c 363d 4c61 2b3d
00000200: 63c2 7f3d 2bd2 173e d2bc 28bd dca0 a0be
00000210: a2c2 5b3e 296f 473e f75a d7bd 731f 25bf
00000220: 883a 52bd c832 71be 5b92 473d 132e 9d3e
00000230: cab1 0a3f 61d9 b73d f019 e5bd b9ee 643d
00000240: 7d06 73be 39ff 82bd b4ba 153e 2fe1 41bf
00000250: 3a59 e8be 11ce 0d3f 6e5a d4bd 29b1 d7bd
00000260: cc0c d2bc f52a 4ebb 2951 263e 32ef 94bd
00000270: f612 4dbf ea09 313f cf1e 8e3d 3227 83bd
00000280: 0d22 18be 5f5d 7bbe 7680 ddbe 58c2 9d3d
00000290: 850f 90be 448d b1bc a7bc dcbd 0669 db3d
000002a0: 31ad a13c 5b42 49bd e497 08be f4c2 a6be
000002b0: dc06 393f 7cf2 7139 a18a 51bd 49ac f8be
000002c0: 5fc8 97be 17d6 243e e538 b9bc 8483 0bbf
000002d0: ce1c 88be d765 e2bd ee69 313f 1d2c e43e
000002e0: 9cfb 033e a29c 74be ef3e 633c d4ce a83d
000002f0: 5260 adbd 6f30 debd 9c59 f1bd 0aca 35be
00000300: 6b66 553f c563 0fbd 5858 e3be bcaf c33e
00000310: e72c 703e d7ba 31bd 65f6 a03d c7d9 163e
00000320: c8b6 f3bd a8c6 6d3d 9ceb f03c abd8 c93d
00000330: 0fce c9b9 28e3 a43e 4a67 b5be 22e8 ca3e
00000340: 43f4 bdbc c7ef 9bbe 41fc 203e 71da 82be
00000350: c88a bc3e b207 5d3e 58d8 983e 3d99 54be
00000360: ca7d d0bb d0ec 89bd 0618 e1bb c68a 5cbe
00000370: a68a 9e3d 8b3c 973e 54fc 043e d86c 433d
00000380: 72eb 2e3e 066d 2dbf 49d3 333f e5e7 e9bd
00000390: d18f 553e 5101 6f3e 4fe0 8ebe 952d d43e
000003a0: 1b7d f93d 6fbe bcbe 47ef 6ebd 6392 853c
000003b0: 0eda 18bd a847 e33d ca00 ebbd 94c6 843e
000003c0: 86ae 53bd d7a6 0e3d 1426 11bd 8538 153f
000003d0: a3de f5be 86cc b4be d1b0 c0be b299 743d
000003e0: ff6e 9e3e 60a7 bd3e 6a5d a5bd b950 7dbe
000003f0: ff7f 09bf 9b16 883c 8c82 2c3f 5472 dfbb

bias f4 [64]
-0.57802683 0.11967985 -0.068994716 -0.8374103 0.21571408 -0.30840677 -1.0172362 -0.51907676
-0.61355174 -1.4722081 -1.1316944 -0.48469144 -0.4871554 -0.35915598 -0.39117774 -0.7718106
-0.41430095 -0.5354598 -0.13237931 -0.157981 -0.18654825 -1.2575936 -0.33225232 -0.47744948
-0.19958912 -0.30434182 -1.2074004 -0.7642412 -0.6867775 -0.82879025 -0.58071077 -0.1396118
-1.4140966 -0.67858666 -0.7641045 -0.36234272 -1.1244376 -0.37139782 -0.4184918 -0.7563844
-0.17253692 -0.81377286 -0.6748022 -0.20500723 -0.50558835 -0.7031042 -0.79821867 -0.2985885
-0.6062992 -0.8549609 -0.80669194 -0.88189507 -0.8768014 -0.38791576 -0.5789692 -0.36132497
-0.2762088 -0.05689182 -0.408918 -1.3798844 -0.6863529 -0.5011588 -0.6070569 -0.8916751
00000000: 91f9 13bf b61a f53d 1a4d 8dbd 8560 56bf
00000010: 27e4 5c3e 7ee7 9dbe cc34 82bf 37e2 04bf
00000020: ba11 1dbf 5171 bcbf 5ddb 90bf 7a29 f8be
00000030: 6f6c f9be 4be3 b7be 7348 c8be 6195 45bf
00000040: 411f d4be e513 09bf 718e 07be c5c5 21be
00000050: 8106 3fbe d4f8 a0bf fa1c aabe 4274 f4be
00000060: 1761 4cbe b1d2 9bbe 198c 9abf 50a5 43bf
00000070: a6d0 2fbf 992b 54bf 76a9 14bf 65f6 0ebe
00000080: 1e01 b5bf dbb7 2dbf 5a9c 43bf fc84 b9be
00000090: 92ed 8fbf db27 bebe 8f44 d6be 68a2 41bf
000000a0: 85ad 30be 6b53 50bf d6bf 2cbf 6aed 51be
000000b0: 3d6e 01bf a3fe 33bf 0f58 4cbf 98e0 98be
000000c0: 6d36 1bbf b8de 5abf 5d83 4ebf e0c3 61bf
000000d0: 0e76 60bf e59c c6be 5337 14bf 96ff b8be
000000e0: 3d6b 8dbe 6607 69bd b35d d1be 0da0 b0bf
000000f0: d3b4 2fbf f14b 00bf 1568 1bbf d244 64bf

weight f4 [64, 64, 3]
-0.15269879 -0.38882354 -0.7457317 -0.031382486 0.052459583 -0.14954793 -0.21006042 -0.07515997
0.05589325 -0.4715343 -0.34718478 -0.5105506 -0.5089348 -0.10175437 0.16090265 -0.11438026
-0.1684553 -0.0022846917 -0.03975424 -0.12407862 -0.23785369 0.4509176 -0.053886004 -0.70784324
0.09609304 -0.5297303 -0.1553295 -0.5457743 -0.21097068 0.87544036 -0.12510963 0.44736835
0.74450773 0.20646551 -0.112605214 -0.40100077 -0.5074648 -0.30924654 0.19793092 -0.08676229
-0.017556963 -0.39196414 -0.25113127 -0.55419356 -0.062882535 -0.2852979 0.016082251 -0.02178179
0.44964427 0.12845765 -0.5841473 0.103425615 -0.123066 0.15668963 -0.006184276 0.02183785
-0.28067693 -0.07183696 -0.030312106 -0.9533351 -0.037871867 -0.10645984 -0.11782607 0.48519656
-0.8766881 -0.29359373 0.172535 -0.20366845 -0.24525608 0.21544942 -0.064305335 -0.08649469
-0.10444858 0.2908111 -0.009986088 0.038190916 -0.082899146 -0.073837996 -0.28555503 0.04204249
-0.18496507 0.53356427 -0.14108995 -1.0852562 0.33115804 0.13901728 -0.5606668 -1.2493827
0.07831955 -0.08283931 0.05839577 -0.20040317 -0.49851656 -0.024356788 -0.19240293 -0.10231247
-0.052412562 0.8371683 -0.1819038 0.13218884 0.3657673 -0.6273316 0.35296002 -0.21460095
-0.009808028 -0.36684516 -0.19189298 -0.20581983 -0.55783904 -0.05144641 -0.82200474 -0.14018203
0.27678686 -0.02880776 0.06589232 0.04157106 -0.46705067 -0.37731126 -0.606726 -0.13230936
-0.018042345 0.25004107 -0.10399141 -0.13932075 -0.123265125 -0.6446621 0.1595904 0.087520555
-0.0014337365 0.053816512 0.025049606 -0.028810294 -0.18976417 -0.033375338 -0.8016988 -0.22423431
0.09347934 0.0615977 0.4797457 -0.27009535 0.32157478 0.06454454 -0.7498757 -0.79958093
-0.44020435 -0.75150144 0.06882407 0.21990007 0.00028918145 0.13352782 -1.0551745 0.0601993
0.4726649 -0.93461204 0.19074562 0.22598033 0.026623918 0.07809284 0.319405 -0.089579634
0.02387366 0.2712285 0.08111136 -0.115865454 -0.33364373 -0.026018647 0.07020034 -0.9447692
-0.1039105 0.16813721 -0.19421437 0.44371644 -0.056381203 -0.0055201775 0.101182856 0.1738771
-1.1924903 0.6907659 -0.4598259 -0.07215824 -0.300344 -0.4478634 -0.13113627 0.1360343
0.62748384 -0.49948606 -0.071310095 0.28934833 -0.5538611 0.038726952 -0.018809758 0.18966396
0.103700094 0.4195589 -0.34114152 -0.0057034707 -0.33675525 -0.28044978 -0.36652747 -0.032243922
0.07977293 -0.34218135 -0.6166069 -0.67094165 0.3651041 -0.051512513 -0.29846647 0.32877633
-0.06067867 -0.38884473 0.050476763 -0.52271724 -0.40277144 -0.0123811625 0.11770921 -0.23157291
0.26841673 -0.26262355 -0.34207797 -0.04931295 0.5315923 0.10128136 -0.03569554 0.052700136
0.1586484 0.087643616 -0.07722838 -0.7978137 0.031049911 0.029980483 -0.38234463 0.25862163
-0.19481842 -0.5155337 -0.14651363 0.08340591 -0.227422 -0.017972764 -0.16400588 -0.4035932
-0.076355636 -0.24798028 -0.25533313 0.644433 -0.47424242 -0.23656568 0.070804775 0.10890641
0.018930363 -0.2854594 -0.049878985 -0.13921054 -0.33298123 -0.02662079 0.01578794 0.20174457
00000000: 125d 1cbe e113 c7be 46e8 3ebf ec8a 00bd
00000010: dcdf 563d 1823 19be 141a 57be 78ed 99bd
00000020: 52f0 643d f26c f1be 34c2 b1be 72b3 02bf
00000030: 8d49 02bf 9864 d0bd aac3 243e 3340 eabd
00000040: 8c7f 2cbe c4ba 15bb 58d5 22bd ee1c febd
00000050: eb8f 73be acde e63e 92b7 5cbd 3735 35bf
00000060: 6ecc c43d 689c 07bf b20e 1fbe ddb7 0bbf
00000070: b308 58be dc1c 603f bd1c 00be 770d e53e
00000080: 0f98 3e3f b26b 533e 909d e6bd f94f cdbe
00000090: 37e9 01bf 9055 9ebe 67ae 4a3e 6db0 b1bd
000000a0: 9fd3 8fbc 86af c8be 4794 80be a1df 0dbf
000000b0: 8fc8 80bd 9112 92be edbe 833c b96f b2bc
000000c0: c637 e63e 678a 033e ad8a 15bf cfd0 d33d
000000d0: 070a fcbd 3f73 203e 78a5 cabb 4ae5 b23c
000000e0: e3b4 8fbe 421f 93bd 1851 f8bc c50d 74bf
000000f0: 881f 1bbd 9e07 dabd cb4e f1bd af6b f83e
00000100: a26e 60bf eb51 96be 04ad 303e 768e 50be
00000110: 6924 7bbe c69e 5c3e 84b2 83bd 2124 b1bd
00000120: 23e9 d5bd 31e5 943e b09c 23bc 146e 1c3d
00000130: 07c7 a9bd 6038 97bd 4534 92be bf34 2c3d
00000140: 7c67 3dbe ab97 083f e279 10be ade9 8abf
00000150: 8c8d a93e 8c5a 0e3e dc87 0fbf c6eb 9fbf
00000160: 0066 a03d a8a7 a9bd 6730 6f3d 7d36 4dbe
00000170: 903d ffbe e387 c7bc 4605 45be 3389 d1bd
00000180: 8eae 56bd a950 563f fd44 3abe 835c 073e
00000190: da45 bb3e ce98 20bf 2db7 b43e 5ac0 5bbe
000001a0: dab1 20bc 21d3 bbbe 987f 44be 6fc2 52be
000001b0: 8ace 0ebf 79b9 52bd e76e 52bf e18b 0fbe
000001c0: 02b7 8d3e 40fe ebbc 8df2 863d 6a46 2a3d
000001d0: 4421 efbe f12e c1be 6552 1bbf 1b7c 07be
000001e0: 8acd 93bc 6205 803e 73f9 d4bd 19aa 0ebe
000001f0: 6d72 fcbd 9308 25bf aa6b 233e fa3d b33d
00000200: 37ec bbba b46e 5c3d d534 cd3c 9103 ecbc
00000210: 8a51 42be 94b4 08bd 223c 4dbf ae9d 65be
00000220: 1972 bf3d df4d 7c3d 3aa1 f53e f049 8abe
00000230: 73a5 a43e ee2f 843d dbf7 3fbf 56b1 4cbf
00000240: 7762 e1be 6662 40bf a2f3 8c3d 7c2d 613e
00000250: 479d 9739 84bb 083e f50f 87bf 8b93 763d
00000260: 2201 f23e bc42 6fbf d252 433e 6367 673e
00000270: 671a da3c 24ef 9f3d 0d89 a33e 8775 b7bd
00000280: b292 c33c 76de 8a3e b61d a63d de4a edbd
00000290: 5ad3 aabe 0f25 d5bc 32c5 8f3d 65dc 71bf
000002a0: 07cf d4bd 292c 2c3e 22e0 46be cd2e e33e
000002b0: faef 66bd 9be2 b4bb f538 cf3d d70c 323e
000002c0: 86a3 98bf 09d6 303f 4d6e ebbe b3c7 93bd
000002d0: b0c6 99be 5a4e e5be 9648 06be 934c 0b3e
000002e0: c8a2 203f a3bc ffbe 070b 92bd 7725 943e
000002f0: d7c9 0dbf 27a0 1e3d ec16 9abc 4537 423e
00000300: b760 d43d 6dd0 d63e 1aaa aebe 2ee4 babb
00000310: 2f6b acbe 1d97 8fbe 7da9 bbbe 3412 04bd
00000320: fd5f a33d 6532 afbe f3d9 1dbf d5c2 2bbf
00000330: edee ba3e c9fe 52bd 99d0 98be 5f55 a83e
00000340: 328a 78bd a816 c7be b9c0 4e3d ccd0 05bf
00000350: 0f38 cebe 5cda 4abc 8711 f13d 7321 6dbe
00000360: eb6d 893e 9876 86be d824 afbe 60fc 49bd
00000370: 6f16 083f 9a6c cf3d 7d35 12bd 19dc 573d
00000380: ba74 223e 7f7e b33d ea29 9ebd 853d 4cbf
00000390: 625c fe3c a199 f53c adc2 c3be 0e6a 843e
000003a0: 7b7e 47be 04fa 03bf ab07 16be b8d0 aa3d
000003b0: 50e1 68be 9e3b 93bc 28f1 27be c5a3 cebe
000003c0: 5860 9cbd 8bee 7dbe 06bb 82be 90f9 243f
000003d0: e7cf f2be 463e 72be 1802 913d 530a df3d
000003e0: d913 9b3c bc27 92be e84d 4cbd 358d 0ebe
000003f0: 847c aabe d813 dabc b655 813c 2196 4e3e

bias f4 [64]
-0.26427573 -0.08578172 -0.27293155 -0.32993692 -0.82789946 -0.26643997 -0.119788274 -0.07725927
-0.95577604 -0.6756783 -0.84056956 -1.3191402 0.12880927 -0.16794045 -0.38427797 -0.6248952
-0.17520119 -1.5109866 -0.54902494 -0.047086574 -0.2575517 -0.4176287 0.18484667 -0.033885676
0.15646096 -0.23422717 -0.8561818 -0.2023402 -0.054127127 -0.4759937 -0.16577905 -0.3716386
-1.3053048 -0.20424676 -0.21241882 -0.15046835 -0.16638894 -0.103298925 -1.4551014 0.0037732776
-0.4263266 0.09315326 -0.13274662 0.17761472 -0.027177375 -0.30953074 -0.05755081 0.14900014
-0.72778517 -0.016090794 -0.55959713 -0.20062223 -0.7059117 -1.1729723 -0.18190293 -0.43577296
-0.4204293 -0.4242533 -0.39964452 -0.0794386 -0.23691699 -0.060129985 -0.6133905 -0.05040943
00000000: 264f 87be 54ae afbd afbd 8bbe 7eed a8be
00000010: 38f1 53bf d26a 88be 8e53 f5bd 1c3a 9ebd
00000020: bdad 74bf 41f9 2cbf 912f 57bf 96d9 a8bf
00000030: 94e6 033e 95f8 2bbe 15c0 c4be 22f9 1fbf
00000040: f167 33be 0268 c1bf e68c 0cbf dadd 40bd
00000050: d1dd 83be 6ed3 d5be 7248 3d3e b5cb 0abd
00000060: 4d37 203e 3fd9 6fbe bb2e 5bbf 4532 4fbe
00000070: 68b4 5dbd 72b5 f3be fcc1 29be 6a47 bebe
00000080: 3a14 a7bf 1026 51be 5284 59be 6014 1abe
00000090: dd61 2abe 638e d3bd c340 babf 1849 773b
000000a0: 7b47 dabe 23c7 be3d bbee 07be a2e0 353e
000000b0: 16a3 debc d07a 9ebe 66ba 6bbd 7e93 183e
000000c0: 2150 3abf d7d0 83bc c241 0fbf ea6f 4dbe
000000d0: a1b6 34bf f523 96bf c344 3abe a21d dfbe
000000e0: 8242 d7be bb37 d9be 359e ccbe b4b0 a2bd
000000f0: 5e9a 72be dc4a 76bd 2907 1dbf 1e7a 4ebd

weight f4 [256, 128]
-0.58648723 -0.48111066 0.12355679 -0.090043575 0.011666344 -0.10654407 0.07648938 0.13465536
-0.11875448 -0.059474654 -0.22546844 -0.007681711 -0.04196208 0.21337195 0.36745477 0.19787629
-0.09419762 -0.12690549 -0.1997073 -0.3075796 -0.09218432 -0.24642107 -0.26031283 -0.37822485
-0.056073982 0.24051277 -0.0043983874 -0.10499645 0.47810674 0.43056515 0.42558298 0.18677689
-0.6490564 -0.6052301 0.03341554 0.20001166 -0.37942702 -0.36661333 -0.11382195 -0.05607776
0.29344234 -0.1003995 0.6439753 0.0748782 0.06700799 0.14882986 0.34157762 0.48118326
-0.22970438 -0.40760753 0.050371733 0.08012987 0.008262456 0.20756975 0.34077415 0.5616297
-0.0063399356 -0.022270057 -0.2543999 -0.25979772 -0.15771681 -0.35297918 0.26383218 0.16323301
0.0070815505 -0.37691247 -0.032303143 0.13845187 0.17606781 0.1146684 0.10669528 0.21397598
0.07968113 -0.08592491 -0.20104958 -0.22224177 0.13811573 0.1486298 -0.15769194 0.3882833
0.2594652 0.5207068 -0.688655 -0.2993453 0.018106448 -0.39707148 0.062268987 -0.14405756
0.04099555 -0.097633116 -0.15895304 -0.09129883 0.025022307 -0.035429996 0.30478817 -0.11227714
-0.3271859 -0.3589289 -0.45218578 -0.11803293 0.08799352 0.3968567 -0.13079308 -0.22074278
0.14638914 0.12691385 0.40467596 0.338083 0.25296775 0.50949514 -0.09952264 -0.2619477
0.38453338 0.25575095 0.2856766 -0.08087455 -0.25436822 -0.3754687 0.052021455 0.19405484
0.8886813 0.6055538 0.1318602 0.1327727 -0.6358596 -0.17268091 -0.037289515 0.0048835725
0.13875993 0.055728395 -0.11636544 -0.05041461 -0.035981547 0.042983074 -0.015843095 -0.03344947
-0.28793725 0.067273155 0.018332776 0.1254234 0.20571686 -0.29394683 -0.044572357 -0.5387332
-0.63509846 0.30080056 -0.0057453797 0.18353513 0.032191772 0.21877879 0.035751056 -0.6123966
-0.18236701 -0.092156895 -0.79387105 -0.94661236 -0.4255137 -0.3811112 0.030780062 0.49222445
-0.11541023 0.15421765 0.048676927 -0.104904525 0.060641333 0.07750104 0.03205877 -0.034813825
-0.44383967 -0.4479367 -0.16632442 -0.49930745 -0.34005657 -0.571101 -0.64137006 -0.47183532
0.010180244 -0.25810686 0.16935562 -0.095567785 0.24653532 -0.087368086 0.02551905 -0.15898292
0.030867394 -0.024134887 0.4319322 0.3031711 -0.4103371 -0.23113616 0.02056646 0.036714442
0.39088792 -0.061317746 -0.08088813 -0.4205471 -0.4171269 -0.45022228 -0.30276307 -0.8200754
-0.22113582 0.14811614 -0.27228746 -0.5546338 0.35620263 0.18657799 -0.2605266 -0.3835858
-0.14327522 -0.38922954 0.636057 0.4320126 -0.018836344 -0.20087484 -0.74114466 -0.47864667
0.023104848 -0.021293147 0.21961479 0.027599698 0.06493778 0.11055753 -0.233366 -0.3156433
0.16253367 -0.049038265 -0.06458883 -0.015775757 -0.19024211 0.07650618 0.20611477 -0.12929572
0.23081501 -0.045950558 -0.055282235 -0.11742183 -0.31401697 -0.1568765 0.091769986 -0.005518472
-0.20624577 -0.25464457 0.053768642 0.19832113 -0.24356617 -0.034699008 -0.23184472 -0.23829477
-0.1672011 -1.1780171 -0.32927918 -0.7523865 0.09345178 0.12394933 -0.0019527086 -0.018510092
00000000: 0724 16bf 2354 f6be 580b fd3d c468 b8bd
00000010: 3124 3f3c c733 dabd 77a6 9c3d 18e3 093e
00000020: 8c35 f3bd b29b 73bd 33e1 66be ddb6 fbbb
00000030: 6ee0 2bbd 2d7e 5a3e 0823 bc3e 15a0 4a3e
00000040: afea c0bd 83f3 01be 1280 4cbe 137b 9dbe
00000050: 22cb bcbd ce55 7cbe b947 85be b0a6 c1be
00000060: d5ad 65bd fb48 763e 5920 90bb 6108 d7bd
00000070: 68ca f43e 0973 dc3e 03e6 d93e 7142 3f3e
00000080: 8f28 26bf 5cf0 1abf bcde 083d dbcf 4c3e
00000090: 4244 c2be beb4 bbbe 7c1b e9bd cbb1 65bd
000000a0: 133e 963e 419e cdbd 91db 243f be59 993d
000000b0: 7c3b 893d db66 183e 43e3 ae3e a75d f63e
000000c0: a037 6bbe efb1 d0be 9752 4e3d 211b a43d
000000d0: 415f 073c 2a8d 543e f379 ae3e f7c6 0f3f
000000e0: 3cbf cfbb b26f b6bc b440 82be 3504 85be
000000f0: 8480 21be b0b9 b4be 0315 873e 8e26 273e
00000100: 5a0c e83b acfa c0be 4d50 04bd 54c6 0d3e
00000110: 1f4b 343e 44d7 ea3d 0e83 da3d 851c 5b3e
00000120: dc2f a33d 66f9 afbd f1df 4dbe 5993 63be
00000130: 366e 0d3e 6932 183e ff79 21be 12cd c63e
00000140: 9fd8 843e 0a4d 053f b24b 30bf ca43 99be
00000150: f953 943c f44c cbbe c40d 7f3d d383 13be
00000160: f3ea 273d dff3 c7bd 96c4 22be e2fa babd
00000170: 95fb cc3c 0b1f 11bd 320d 9c3e 8ff1 e5bd
00000180: e984 a7be 87c5 b7be e584 e7be 40bb f1bd
00000190: f235 b43d cd30 cb3e 9fee 05be 650a 62be
000001a0: 09e7 153e b4f5 013e b031 cf3e 3719 ad3e
000001b0: fd84 813e 466e 023f 87d2 cbbd 021e 86be
000001c0: 8fe1 c43e caf1 823e 3444 923e 8ea1 a5bd
000001d0: 8d3c 82be 6f3d c0be 7314 553d 50b6 463e
000001e0: 9e80 633f 9305 1b3f 5c06 073e 91f5 073e
000001f0: b2c7 22bf 44d3 30be e4bc 18bd 6006 a03b
00000200: 1517 0e3e 7543 643d 0151 eebd 8d7f 4ebd
00000210: 6361 13bd 050f 303d 61c9 81bc 5002 09bd
00000220: 836c 93be 82c6 893d 9e2e 963c fe6e 003e
00000230: 71a7 523e 3380 96be 8191 36bd 6bea 09bf
00000240: d095 22bf 8802 9a3e bd43 bcbb a2f0 3b3e
00000250: 85db 033d 8c07 603e b36f 123d 06c6 1cbf
00000260: 6bbe 3abe c1bc bcbd 223b 4bbf 3055 72bf
00000270: efdc d9be 0221 c3be 7826 fc3c d804 fc3e
00000280: 335c ecbd 3beb 1d3e 7561 473d 2fd8 d6bd
00000290: 0c63 783d deb8 9e3d 0f50 033d f198 0ebd
000002a0: f43e e3be f657 e5be f350 2abe 3aa5 ffbe
000002b0: e51b aebe ad33 12bf d430 24bf 6694 f1be
000002c0: 0acb 263c 9526 84be 8f6b 2d3e 0bb9 c3bd
000002d0: c173 7c3e 0aee b2bd 540d d13c 6bcc 22be
000002e0: 9edd fc3c 87b6 c5bc 3826 dd3e 3e39 9b3e
000002f0: b417 d2be f5ae 6cbe fe7a a83c e261 163d
00000300: 7622 c83e 5128 7bbd ada8 a5bd f351 d7be
00000310: a891 d5be 8983 e6be c303 9bbe 76f0 51bf
00000320: 6e71 62be c2ab 173e 4369 8bbe 7bfc 0dbf
00000330: 3160 b63e 4d0e 3f3e be63 85be 5c65 c4be
00000340: bdb6 12be 1849 c7be a2d4 223f c130 dd3e
00000350: ad4e 9abc 22b2 4dbe a8bb 3dbf 2d11 f5be
00000360: 6146 bd3c f76e aebc b3e2 603e c318 e23c
00000370: 19fe 843d fc6b e23d 7ff7 6ebe 009c a1be
00000380: 3a6f 263e 59dc 48bd 2647 84bd 293c 81bc
00000390: d4ce 42be 46af 9c3d c00f 533e 1966 04be
000003a0: c55a 6c3e a736 3cbd a06f 62bd db7a f0bd
000003b0: d5c6 a0be 3ca4 20be e7f1 bb3d 4cd4 b4bb
000003c0: 1732 53be c660 82be 823c 5c3d b214 4b3e
000003d0: 6969 79be 8c20 0ebd b468 6dbe 8b03 74be
000003e0: c436 2bbe 44c9 96bf 4897 a8be 679c 40bf
000003f0: a663 bf3d 25d9 fd3d 07f2 ffba 7aa2 97bc

bias f4 [256]
0.11516183 -0.48590267 0.0550499 0.06284262 -0.2521266 0.2283523 0.2039338 -0.21951321
-0.312343 -0.28180742 0.49090806 -0.44179958 -0.18144177 -0.052841924 0.048968364 0.44307145
-0.014013281 0.04954298 0.7216326 0.1805756 0.30054626 -0.42276743 -0.077063456 -0.46486503
0.21930125 0.13763548 0.8263242 -0.22263822 -0.4711085 0.095708944 0.015331529 -0.39379296
-0.3121703 -0.43898752 0.4308244 0.07973214 0.7127294 -0.47426063 -0.39688203 0.4672818
0.3222004 0.12789026 0.67340964 -0.32329488 0.07430922 -0.021316435 -0.2343678 -0.3035433
0.17186423 -0.47398213 0.011675702 -0.021824399 -0.043197297 -0.47135556 0.21837206 0.25071585
0.16208646 0.25287157 -0.47387686 0.10273438 0.109754235 -0.563301 -0.25645858 -0.07789125
0.013253575 0.06264236 -0.3754988 0.31520942 -0.31618184 -0.23790698 0.2591273 -0.19617067
-0.4583516 -0.4467079 -0.32185316 0.08651806 -0.21546252 0.04253668 0.19808462 -0.2927199
-0.55069345 0.22230369 -0.14178781 0.20156406 0.17100245 0.052577324 -0.00391571 0.73257875
0.21723895 -0.5668638 -0.46942642 0.18000346 -0.38595366 -0.34070724 0.12032268 0.083275944
0.30391774 0.41178206 0.3279705 0.1425396 -0.37259248 -0.260234 -0.37097093 0.5514169
0.18246274 -0.21088824 0.07820468 -0.3399661 -0.370386 0.111893125 0.24652453 -0.37646982
-0.25456846 0.30291456 0.21740732 -0.502308 0.1285028 0.31499353 0.23072316 0.15551281
0.45476815 0.096269116 0.4429276 -0.40162778 0.11979417 0.119872205 0.48865587 0.241163
0.3206264 -0.09004561 -0.04217721 -0.37755963 0.04514231 0.08993492 0.17043558 0.14203952
0.16418825 0.4399698 0.25037146 0.42837918 0.27652818 -0.5586533 -0.41704205 -0.19395767
-0.36523446 -0.48031554 0.2614344 -0.30268705 -0.27729464 0.59443694 0.20563865 -0.121258266
0.10974831 0.20780794 -0.1962909 0.2708266 -0.4804321 0.02823779 0.1878513 0.07486296
0.27505538 0.017835164 0.13692309 -0.14267088 -0.47606167 -0.2630136 -0.34438533 0.34625816
0.20375684 0.20589833 0.54984087 -0.001243611 -0.27372903 0.17747296 0.2377546 0.14589798
0.24147356 0.18619786 0.22619286 -0.3182869 0.19161756 0.09608057 0.11698352 -0.38419446
-0.29748607 0.1935943 0.47291481 -0.26880282 0.23619108 -0.23457003 -0.3743615 -0.041849256
-0.39115897 -0.008033227 0.1453704 -0.25942817 0.32184866 0.122018926 0.027375964 0.34715015
-0.37745917 0.11702533 0.09141906 -0.20604159 0.008257748 0.82800764 -0.42144316 0.25161088
0.18046333 0.023799082 0.6250389 0.16514763 -0.11952837 0.23628916 0.31820145 0.24212931
-0.16942418 0.3389377 -0.1991248 -0.58636427 0.10645219 0.57644695 0.31987396 -0.3600368
0.3586267 0.36983764 0.20987707 -0.056430995 -0.27494133 0.018898245 0.18980986 -0.4104167
0.23784342 -0.46922982 0.8608244 -0.39189634 -0.2791862 -0.3850266 -0.39202967 0.30034864
-0.009666885 0.34620604 -0.27919683 -0.045644764 0.21437944 -0.04006731 0.29092136 0.7299527
-0.28504783 0.10827187 -0.19196804 0.9665258 -0.26192856 -0.58075273 -0.22971214 0.34814143
00000000: f7d9 eb3d 3cc8 f8be 017c 613d a2b3 803d
00000010: bd16 81be 2fd5 693e 06d4 503e 12c8 60be
00000020: 6ceb 9fbe 1049 90be 4d58 fb3e 8e33 e2be
00000030: dfcb 39be c670 58bd 0d93 483d 43da e23e
00000040: f697 65bc 94ed 4a3d eabc 383f cfe8 383e
00000050: 33e1 993e f974 d8be 72d3 9dbd ca02 eebe
00000060: 8290 603e 51f0 0c3e fc89 533f 46fb 63be
00000070: 2235 f1be 0d03 c43d 1831 7b3c 3b9f c9be
00000080: c9d4 9fbe f9c2 e0be 0495 dc3e 9b4a a33d
00000090: 6f75 363f 4ad2 f2be 1f34 cbbe 8f3f ef3e
000000a0: 73f7 a43e aaf5 023e 9364 2c3f e886 a5be
000000b0: 6f2f 983d ce9f aebc 1dfe 6fbe 076a 9bbe
000000c0: 2dfd 2f3e c9ad f2be 724b 3f3c 15c9 b2bc
000000d0: a6ef 30bd 8455 f1be ed9c 5f3e d45d 803e
000000e0: fef9 253e 6278 813e fd9f f2be 6766 d23d
000000f0: d4c6 e03d 7f34 10bf 8a4e 83be 7385 9fbd
00000100: 8625 593c a34a 803d 6141 c0be 2163 a13e
00000110: 96e2 a1be e39d 73be 55ac 843e f7e0 48be
00000120: 10ad eabe e6b6 e4be f0c9 a4be 6130 b13d
00000130: 35a2 5cbe f13a 2e3d b2d6 4a3e 62df 95be
00000140: 3ffa 0cbf 94a3 633e d330 11be cf66 4e3e
00000150: 441b 2f3e 525b 573d 5b4f 80bb 488a 3b3f
00000160: e373 5e3e fc1d 11bf a958 f0be d452 383e
00000170: b89b c5be 2e71 aebe bd6b f63d 948c aa3d
00000180: 1b9b 9b3e 19d5 d23e c0eb a73e e7f5 113e
00000190: 71c4 bebe 643d 85be e7ef bdbe a829 0d3f
000001a0: 83d7 3a3e 16f3 57be c629 a03d 0910 aebe
000001b0: 3ca3 bdbe 3928 e53d ed70 7c3e a7c0 c0be
000001c0: cc56 82be 9e17 9b3e 06a0 5e3e 4297 00bf
000001d0: 3d96 033e d546 a13e b142 6c3e c03e 1f3e
000001e0: 5fd7 e83e be28 c53d 68c7 e23e 28a2 cdbe
000001f0: a556 f53d 8f7f f53d 1a31 fa3e 6ff3 763e
00000200: 2529 a43e d569 b8bd 03c2 2cbd 7f4f c1be
00000210: 25e7 383d cd2f b83d aa86 2e3e cf72 113e
00000220: f720 283e b943 e13e b030 803e 8454 db3e
00000230: 1a95 8d3e e703 0fbf 8986 d5be d79c 46be
00000240: 0300 bbbe ebeb f5be bbda 853e ccf9 9abe
00000250: 90f9 8dbe 052d 183f f092 523e 4156 f8bd
00000260: b9c3 e03d 9bcb 543e 7b00 49be c9a9 8a3e
00000270: 32fb f5be f052 e73c 175c 403e c051 993d
00000280: 0fd4 8c3e 0d1b 923c 9135 0c3e 5118 12be
00000290: 5bbe f3be b8a9 86be 4653 b0be c048 b13e
000002a0: a2a5 503e 03d7 523e 5fc2 0c3f a900 a3ba
000002b0: 3626 8cbe 79bb 353e f175 733e 4866 153e
000002c0: d844 773e a7aa 3e3e 1a9f 673e 80f6 a2be
000002d0: 6537 443e e4c5 c43d 0e95 ef3d 23b5 c4be
000002e0: 1850 98be 963d 463e e421 f23e 86a0 89be
000002f0: 13dc 713e 2033 70be 4fac bfbe 206a 2bbd
00000300: fd45 c8be cc9d 03bc fadb 143e c5d3 84be
00000310: 59c9 a43e 0fe5 f93d 8f43 e03c aabd b13e
00000320: 5442 c1be faaa ef3d eb39 bb3d 91fc 52be
00000330: 814b 073c 4ff8 533f 66c7 d7be 24d3 803e
00000340: 61cb 383e 4bf6 c23c 8d02 203f 761c 293e
00000350: 4acb f4bd c9f5 713e 4deb a23e bff0 773e
00000360: 887d 2dbe 3e89 ad3e 5fe7 4bbe f81b 16bf
00000370: 9b03 da3d 0792 133f 85c6 a33e be56 b8be
00000380: eb9d b73e 5c5b bd3e 04ea 563e 3024 67bd
00000390: 1cc5 8cbe 7ed0 9a3c 845d 423e 2322 d2be
000003a0: 3a8d 733e e43e f0be fd5e 5c3f a3a6 c8be
000003b0: 7ef1 8ebe 3522 c5be 1db8 c8be 4cc7 993e
000003c0: db61 1ebc eb41 b13e e3f2 8ebe 01f6 3abd
000003d0: 4986 5b3e 9f1d 24bd a5f3 943e 2ede 3a3f
000003e0: caf1 91be a4bd dd3d 4593 44be 3c6e 773f
000003f0: 801b 86be 36ac 14bf a939 6bbe 983f b23e

weight f4 [256]
0.84533197 1.0267442 0.90644354 0.9717377 1.0677251 1.1124955 1.0808864 1.1472003
1.2146595 1.0216995 1.0722152 1.1763908 1.1804578 1.3394799 1.2044188 1.0997348
1.0598706 1.2139336 1.06804 0.8207568 1.0431857 1.1742941 1.0079652 1.1403694
1.2757537 1.4033084 0.9101336 1.0141199 1.176483 1.5524846 1.1546366 1.0399659
0.8547367 1.2083782 0.811026 0.8884641 1.0947038 1.175212 1.1092662 1.0150578
1.0951478 0.98364484 1.1859593 1.0209149 1.1168158 1.2149286 0.90492344 1.1300594
0.9035909 1.042159 0.89665645 1.1400713 1.4170318 1.3020927 0.70341057 1.2794797
1.1980149 0.9946976 1.1775328 0.88373286 1.2745645 1.3110588 1.3511626 1.1869274
1.647049 0.93711 1.1568754 1.1559563 1.0015528 1.327635 0.8961879 1.2237127
1.0840217 0.7311488 1.2075776 0.9928323 1.0129946 1.0488093 1.1556154 1.2796136
1.1284167 1.1575502 1.1457385 1.4157163 1.0739238 1.4523318 1.9469112 0.76054853
1.3550078 0.98845756 1.1964513 1.0196488 1.0940381 1.3281963 0.94978267 0.8210921
0.92697597 0.92599565 1.1620594 1.442402 1.1425629 1.0863234 1.1029105 0.8119807
1.6696777 1.130129 1.0548931 1.0500394 1.2012732 1.092684 0.8588914 1.227237
1.1474202 1.0320327 0.9409587 1.2722464 1.2997379 1.284986 1.1336937 1.2168676
0.908735 0.9697735 0.90613383 0.9707167 1.0627536 0.9478859 1.3413355 1.4558468
1.0104165 0.95306194 1.0424329 1.0302454 1.2021198 1.2623906 1.2219676 1.0303586
0.876179 0.9787014 0.99682814 1.0096371 0.9491562 1.2262375 1.2922518 1.1092718
1.2949066 1.1484803 0.7699628 1.1469518 1.4347838 1.3996489 1.2846918 1.2108128
1.6815112 1.3066645 1.1139307 1.2819713 1.11769 1.0958074 0.9728451 1.0362535
1.0183175 1.1725713 1.1597122 1.0507463 1.1061707 1.3393474 1.6523855 1.1600357
1.1942351 0.97605133 0.8545296 1.3361207 1.0633441 1.7793716 1.0739812 1.2581116
1.0325584 1.2269331 1.4698437 1.1190073 1.2881491 1.3497107 1.4713045 1.1709911
1.0786372 1.4686143 1.0895334 1.2583807 1.127581 1.4682498 1.3456216 1.8039972
1.0970188 0.7867685 1.2274569 1.1618053 0.8568683 0.99035394 0.97333515 0.8339833
1.0864984 1.1463543 0.81339365 1.0921144 0.8562431 1.2017763 1.1985437 0.9201982
1.1434342 1.3975179 1.0415447 0.7773847 1.5210423 0.9972366 0.67454946 1.1963578
1.2880094 1.0793297 1.3362285 1.0915899 1.0577582 0.85026526 1.3980988 1.1249905
1.2808732 1.3693323 0.5522916 1.11919 0.8890484 1.1405189 1.3916441 1.1089005
1.5497587 1.2104053 1.2306529 1.2014799 1.0773711 1.0718385 0.91047484 0.9154498
1.957739 1.006836 1.0791819 1.5398586 1.0125492 1.0864836 1.2397324 1.2518252
1.0794227 1.199025 0.8385766 0.8632752 1.0316995 1.1853707 1.205743 0.90564305
00000000: ad67 583f 5b6c 833f af0c 683f cdc3 783f
00000010: 37ab 883f 4166 8e3f 7c5a 8a3f 76d7 923f
00000020: f679 9b3f 0dc7 823f 593e 893f f993 963f
00000030: 3e19 973f 1474 ab3f 652a 9a3f 1cc4 8c3f
00000040: d7a9 873f 2d62 9b3f 89b5 883f 1e1d 523f
00000050: 1c87 853f 454f 963f 0105 813f a0f7 913f
00000060: e64b a33f 9c9f b33f 84fe 683f aece 813f
00000070: ff96 963f d1b7 c63f 22cb 933f 9a1d 853f
00000080: 06d0 5a3f 23ac 9a3f 669f 4f3f 6272 633f
00000090: 411f 8c3f 596d 963f 6ffc 8d3f 6aed 813f
000000a0: ce2d 8c3f 26d0 7b3f 84cd 973f 57ad 823f
000000b0: d2f3 8e3f c882 9b3f 10a9 673f c9a5 903f
000000c0: bc51 673f 7765 853f 478b 653f dbed 913f
000000d0: 4c61 b53f f9aa a63f b712 343f fec5 a33f
000000e0: 8d58 993f 80a4 7e3f 65b9 963f 513c 623f
000000f0: ee24 a33f c6d0 a73f e5f2 ac3f 3ded 973f
00000100: 80d2 d23f 71e6 6f3f 7e14 943f 60f6 933f
00000110: e232 803f f2ef a93f 926c 653f 9ea2 9c3f
00000120: 39c1 8a3f 912c 3b3f e791 9a3f 422a 7e3f
00000130: cfa9 813f 623f 863f 35eb 933f 61ca a33f
00000140: f56f 903f 9b2a 943f 8fa7 923f 3136 b53f
00000150: 5676 893f 02e6 b93f 6334 f93f 4fb3 423f
00000160: e570 ad3f 8e0b 7d3f 5125 993f da83 823f
00000170: 7109 8c3f 5602 aa3f f524 733f 1833 523f
00000180: 4c4e 6d3f 0d0e 6d3f 5dbe 943f a1a0 b83f
00000190: 803f 923f a50c 8b3f 2c2c 8d3f f8dd 4f3f
000001a0: 00b8 d53f 11a8 903f bd06 873f b167 863f
000001b0: 52c3 993f 12dd 8b3f 4fe0 5b3f 1a16 9d3f
000001c0: aade 923f a619 843f abe2 703f f8d8 a23f
000001d0: d05d a63f 6c7a a43f e01c 913f 51c2 9b3f
000001e0: dba2 683f 1343 783f 63f8 673f e480 783f
000001f0: 4f08 883f a6a8 723f e2b0 ab3f 3059 ba3f
00000200: 5455 813f defb 733f 716e 853f 15df 833f
00000210: 10df 993f 0496 a13f 6f69 9c3f cae2 833f
00000220: 444d 603f 2d8c 7a3f 2130 7f3f ca3b 813f
00000230: e7fb 723f 5af5 9c3f 8268 a53f 9efc 8d3f
00000240: 80bf a53f 6701 933f 481c 453f 51cf 923f
00000250: ffa6 b73f b227 b33f c870 a43f eafb 9a3f
00000260: c23b d73f c840 a73f 4895 8e3f a317 a43f
00000270: 7710 8f3f 6b43 8c3f 600c 793f f4a3 843f
00000280: 3a58 823f d116 963f 7371 943f db7e 863f
00000290: 0097 8d3f bc6f ab3f 5e81 d33f 0d7c 943f
000002a0: b2dc 983f 80de 793f 74c2 5a3f 0106 ab3f
000002b0: a91b 883f 73c2 e33f 3778 893f cd09 a13f
000002c0: e02a 843f 250c 9d3f d723 bc3f a23b 8f3f
000002d0: 12e2 a43f 52c3 ac3f b553 bc3f 09e3 953f
000002e0: c910 8a3f 8efb bb3f d575 8b3f 9e12 a13f
000002f0: 9354 903f 9cef bb3f 543d ac3f 61e9 e63f
00000300: 1d6b 8c3f a969 493f 4f1d 9d3f 09b6 943f
00000310: b95b 5b3f d687 7d3f 7e2c 793f ee7f 553f
00000320: 6112 8b3f bdbb 923f 913a 503f 68ca 8b3f
00000330: bf32 5b3f ced3 993f e169 993f 1c92 6b3f
00000340: 0d5c 923f dee1 b23f 5651 853f af02 473f
00000350: 84b1 c23f e64a 7f3f 46af 2c3f 4122 993f
00000360: 7edd a43f 7a27 8a3f 8909 ab3f 38b9 8b3f
00000370: 9f64 873f fcaa 593f e7f4 b23f b0ff 8f3f
00000380: a7f3 a33f 4846 af3f fb62 0d3f 9e41 8f3f
00000390: ad98 633f 86fc 913f 6521 b23f 74f0 8d3f
000003a0: 7e5e c63f 90ee 9a3f 0986 9d3f 18ca 993f
000003b0: 4ce7 893f 0132 893f e114 693f eb5a 6a3f
000003c0: 3197 fa3f 01e0 803f a222 8a3f 161a c53f
000003d0: 369b 813f e511 8b3f 8daf 9e3f cf3b a03f
000003e0: 862a 8a3f a779 993f f5ac 563f 9aff 5c3f
000003f0: bb0e 843f 3aba 973f c955 9a3f 39d8 673f

bias f4 [256]
0.037662834 0.32740366 0.050579503 0.02068608 0.47478756 -0.09895027 0.1562562 0.31589514
0.32532313 0.30667228 0.035816506 0.348881 0.501223 -0.02527876 0.44110632 0.07314047
0.3116619 0.016854346 0.048273806 -0.08964611 0.122764826 0.35421672 0.23798454 0.28378448
0.4782261 0.38750234 -0.3147623 0.2813269 0.3477711 0.11912922 0.3771202 0.3009601
0.16101122 0.3133556 -0.1493371 0.059717752 0.07271888 0.3142464 0.30847982 -0.1393227
0.15979588 0.16037378 -0.022472179 0.28926453 0.08952253 0.10455634 0.18514334 0.52872795
0.04346105 0.35781917 0.17853907 0.22767027 0.5527452 0.3480111 -0.21112393 0.11056442
0.4235968 0.14078213 0.30852965 0.06838868 0.43655914 0.3815093 0.5633682 0.28782678
0.12796755 0.060649794 0.2629847 -0.011629057 0.24871224 0.68278325 -0.14971204 0.26816458
0.3143465 0.18841076 0.15428695 0.11407569 0.26391754 0.25461957 0.04985126 0.49001414
0.29990187 0.1890329 0.27457264 -0.07415686 0.008842815 0.5976506 0.18539287 -0.3487991
-0.06546118 0.37700418 0.2918918 -0.10430285 0.37590885 0.5341696 0.06327966 0.026207399
-0.16024643 0.14408015 0.23118234 0.58686143 0.52943355 0.11524473 0.31313553 -0.26084253
0.04809157 0.3133183 0.18489073 0.32941735 0.47803968 0.20990294 -0.056981932 0.31451976
0.2779456 -0.013005746 -0.013045901 0.306877 0.050099447 0.2614626 0.23023944 0.36363116
-0.2823128 0.02528941 0.25866345 0.20075545 0.23163234 -0.074237324 0.3376739 0.51486427
0.053162683 0.2260706 0.10810755 0.27328777 0.5084313 0.13489339 0.072482064 0.14265771
-0.033067998 0.024159638 0.029375952 0.112768754 0.21200009 0.31500012 0.30045933 0.28816435
0.27008334 0.38315797 -0.215096 0.3108563 0.58248985 0.47537926 0.4000167 0.20226292
0.04756586 0.019974936 0.36067846 0.09612918 0.22292589 0.18973042 -0.10674643 0.09064146
0.10868587 0.28454676 0.27317092 0.0065568746 0.29643723 0.50949264 0.57999307 -0.042663705
0.06875125 -0.035030495 -0.11775279 0.19828872 0.31306437 0.28919855 0.26204845 0.32938623
-0.11070582 0.4366712 0.48987883 0.34241462 0.1668405 0.45622692 0.4766756 0.32417855
0.31448793 0.47177482 0.15507613 0.19837941 -0.0007659478 0.6251557 0.5800622 0.10520279
0.3229856 -0.09172256 0.4664801 0.32984987 -0.084901355 -0.025549723 0.11671304 -0.13870114
0.34549308 0.062172174 0.10524573 0.32593262 0.0750472 0.06166436 0.3023201 -0.03215268
0.00852869 0.22897772 0.12182907 -0.019775834 0.542891 0.19085895 -0.1373175 0.31610695
0.5062499 0.027820552 0.52015203 0.34708393 0.18499684 0.21327631 0.3274747 0.32848912
0.34095293 0.20334467 0.19281434 0.119117066 0.18740213 0.11133103 0.59479874 0.4462919
0.38178322 0.33263803 0.077937156 0.34315515 0.30818084 0.3364655 0.34558973 -0.07741895
0.13324183 -0.005218712 0.30563882 0.20508651 0.009044243 -0.010947066 0.107561484 0.09158743
0.24533305 0.3495371 0.24389976 -0.38382006 0.4372158 0.3188945 0.42274508 -0.06815502
00000000: 5844 1a3d 74a1 a73e 742c 4f3d db75 a93c
00000010: 5b17 f33e 70a6 cabd a001 203e 02bd a13e
00000020: c190 a63e 2604 9d3e 54b4 123d 88a0 b23e
00000030: 2750 003f 6715 cfbc b0d8 e13e acca 953d
00000040: 2692 9f3e 2012 8a3c c1ba 453d 6198 b7bd
00000050: 206c fb3d e55b b53e 38b2 733e 334c 913e
00000060: 0dda f43e b566 c63e 8628 a1be 140a 903e
00000070: 0e0f b23e 05fa f33d e615 c13e 7117 9a3e
00000080: 20e0 243e 2570 a03e d3eb 18be 9a9a 743d
00000090: a3ed 943d e7e4 a03e 11f1 9d3e 9caa 0ebe
000000a0: 88a1 233e 0639 243e 9317 b8bc 7b1a 943e
000000b0: 9757 b73d a221 d63d 3796 3d3e b75a 073f
000000c0: 3704 323d 1334 b73e f2d2 363e 6522 693e
000000d0: b680 0d3f 832e b23e df30 58be 996f e23d
000000e0: aee1 d83e 3129 103e 99f7 9d3e 5d0f 8c3d
000000f0: ae84 df3e 3055 c33e e638 103f 085e 933e
00000100: ed09 033e eb6b 783d eea5 863e cd87 3ebc
00000110: 6cae 7e3e e2ca 2e3f 1d4e 19be de4c 893e
00000120: 06f2 a03e c0ee 403e 66fd 1d3e 84a0 e93d
00000130: 3320 873e 7f5d 823e d630 4c3d 22e3 fa3e
00000140: bd8c 993e d791 413e c994 8c3e 8ddf 97bd
00000150: 74e1 103c a1ff 183f a1d7 3d3e cc95 b2be
00000160: 8310 86bd b106 c13e d872 953e bc9c d5bd
00000170: 2077 c03e 57bf 083f c498 813d e6b0 d63c
00000180: a417 24be bf89 133e 10bb 6c3e 8d3c 163f
00000190: f588 073f 6e05 ec3d 4d53 a03e 278d 85be
000001a0: abfb 443d 426b a03e ff53 3d3e 64a9 a83e
000001b0: 9ec1 f43e ccf0 563e e365 69bd bc08 a13e
000001c0: e34e 8e3e 0d16 55bc 7abe 55bc fb1e 9d3e
000001d0: 1435 4d3d 6dde 853e e3c3 6b3e dd2d ba3e
000001e0: 4e8b 90be bd2b cf3c 896f 843e d692 4d3e
000001f0: 0731 6d3e bd09 98bd 98e3 ac3e 25ce 033f
00000200: 1dc1 593d 0d7f 673e 7e67 dd3d 60ec 8b3e
00000210: 8e28 023f 7e21 0a3e 7a71 943d dd14 123e
00000220: 4f72 07bd 6fea c53c d6a5 f03c 4ef3 e63d
00000230: 8d16 593e b247 a13e ced5 993e 478a 933e
00000240: 5d48 8a3e 482d c43e 2042 5cbe 8f28 9f3e
00000250: 0e1e 153f e964 f33e fdce cc3e 031e 4f3e
00000260: 6bd4 423d 7aa2 a33c d9aa b83e 60df c43d
00000270: af46 643e b148 423e df9d dabd 3ba2 b93d
00000280: b396 de3d 1db0 913e 0fdd 8b3e 0ddb d63b
00000290: 9fc6 973e 1c6e 023f 6d7a 143f 23c0 2ebd
000002a0: 75cd 8c3d 237c 0fbd 6028 f1bd 330c 4b3e
000002b0: f949 a03e d511 943e 372b 863e 50a5 a83e
000002c0: bcb9 e2bd 5e93 df3e 66d1 fa3e f850 af3e
000002d0: 3cd8 2a3e 9396 e93e d30e f43e bbfa a53e
000002e0: 9004 a13e 788c f13e 47cc 1e3e f923 4b3e
000002f0: e3c9 48ba 340a 203f f57e 143f 8f74 d73d
00000300: 5e5e a53e 0ad9 bbbd 7bd6 ee3e 15e2 a83e
00000310: c3e0 adbd a74d d1bc 3f07 ef3d ac07 0ebe
00000320: 78e4 b03e 40a8 7e3d 138b d73d a4e0 a63e
00000330: 59b2 993d c593 7c3d b3c9 9a3e 87b2 03bd
00000340: ebbb 0b3c 2379 6a3e 8581 f93d ee00 a2bc
00000350: e8fa 0a3f 8770 433e f59c 0cbe c5d8 a13e
00000360: 9899 013f ede7 e33c af28 053f fcb4 b13e
00000370: d06f 3d3e 1b65 5a3e c4aa a73e ba2f a83e
00000380: 6291 ae3e 9639 503e 1f71 453e a6f3 f33d
00000390: 58e6 3f3e 8601 e43d bb44 183f 5f80 e43e
000003a0: 1779 c33e 884f aa3e 849d 9f3d 08b2 af3e
000003b0: e1c9 9d3e 3545 ac3e 23f1 b03e d48d 9ebd
000003c0: 8c70 083e bb01 abbb b17c 9c3e 3302 523e
000003d0: 4e2e 143c 535b 33bc 3249 dc3d 3192 bb3d
000003e0: 9638 7b3e 87f6 b23e dcc0 793e 1084 c4be
000003f0: c0da df3e 2446 a33e 0b72 d83e dc94 8bbd

running_mean f4 [256]
0.24859512 0.14163892 0.0044852234 0.0049446975 1.6948669 0.05145167 0.34978905 0.92534125
0.66824454 0.41127765 0.72134 0.64612496 2.630259 0.051389016 2.9966028 0.544371
1.1250248 0.009067438 0.93253905 0.043352976 0.45434543 0.29473576 0.43073857 0.4497966
1.8920593 1.2630476 0.35280845 1.1920943 0.5048523 0.08610398 1.531863 0.37019292
0.05383556 0.5782032 0.14208992 0.00505978 1.2606181 0.3333607 0.8059566 0.20110613
0.5880755 0.40188873 0.8243255 0.39916337 0.018535236 0.005246297 0.17436141 2.1902719
0.0047713653 0.50526196 0.021368684 0.72587353 1.1179584 0.14068379 0.051457424 0.38231462
2.4075425 0.264385 0.34966972 0.0038453059 1.4699184 0.5941648 1.9500339 1.0772617
0.025249217 0.0028352945 0.47157103 0.2106931 0.35349315 2.5967245 0.12015601 1.2084583
0.5144266 0.012661601 1.4341986 0.08314332 0.28695315 0.21944113 0.24450763 2.0956886
0.14897524 0.20530142 1.1996105 0.106314495 0.12904711 1.3339311 0.093019694 0.12786362
0.026240919 0.5243453 0.63717437 0.065628625 1.279909 1.6518934 0.09981377 0.005648613
0.066868745 0.6594823 0.70052385 1.8844808 2.6405482 1.1044513 0.59889215 0.10389797
0.046138056 0.80378324 0.019838711 0.40789795 0.5702256 0.25211772 0.07100152 1.4562559
1.274585 0.04979153 0.013517537 0.106338754 0.025104793 0.46269342 0.8009853 2.0818226
0.31386402 0.0032058535 1.5221965 0.20755382 0.6439696 0.03826383 1.3668762 1.1182568
0.5042016 0.7270055 0.08840565 0.30459526 1.8097229 0.30883497 0.09501462 0.040768363
0.053344157 0.7456848 0.60323614 0.39769137 0.8285529 0.39954865 1.5625733 0.25281757
1.7955064 0.4838624 0.03339055 0.21972793 2.2103765 1.635166 1.6897798 0.60199845
0.02397992 0.012699852 0.80139685 0.78994757 0.31958392 0.088031426 0.07748783 0.34495568
0.2948212 0.21720508 0.70390743 0.010750144 1.3641362 1.5444534 1.8980013 0.22119057
0.027282685 0.08432996 0.15403 0.067235455 0.3552537 0.20603664 0.65910745 0.61448175
0.063033804 1.8258682 1.1535289 0.60284704 0.1491101 1.2310805 0.89927363 1.1932054
0.366139 0.586866 0.5597878 1.7115526 0.06926995 1.9379977 1.9842799 0.015938347
1.561154 0.03183767 1.4715347 0.5314322 0.16152439 0.13584219 0.0035726086 0.047406662
1.3975145 0.31317 0.024368078 1.32055 0.049879067 1.383205 1.485162 0.15523192
0.31127444 0.09418656 1.3376415 0.004411001 2.195162 0.853405 0.09552127 1.0856271
2.5092556 0.3297485 1.816346 0.66138875 0.15018725 1.5920503 1.1851224 1.3936131
1.1349534 0.45801005 1.1460876 0.088794455 0.29479495 0.015150827 2.0532272 1.9090996
1.6120003 0.40332064 1.6359384 0.49418166 0.13240553 0.86422956 0.96471643 0.1543864
0.03979453 0.32646242 0.4268377 0.07883136 0.012398409 5.918166e-38 0.547087 1.6636941
0.11178894 0.89517343 0.8011652 0.31557366 2.751355 0.28063044 0.9632954 0.5833026
00000000: b88f 7e3e cb09 113e c8f8 923b 2107 a23b
00000010: 66f1 d83f fcbe 523d 8d17 b33e 2ae3 6c3f
00000020: 1312 2b3f fc92 d23e bda9 383f 7268 253f
00000030: 2a56 2840 4a7d 523d 57c8 3f40 e65b 0b3f
00000040: d000 903f 978f 143c e1ba 6e3f e492 313d
00000050: f79f e83e 9be7 963e c489 dc3e bd4b e63e
00000060: 002f f23f 8bab a13f 4fa3 b43e 8c96 983f
00000070: 003e 013f 4957 b03d 1614 c43f ed89 bd3e
00000080: ad82 5c3d 2005 143f 0580 113e 83cc a53b
00000090: ef5b a13f 41ae aa3e 2c53 4e3f c4ee 4d3e
000000a0: 1e8c 163f 5cc4 cd3e ff06 533f 245f cc3e
000000b0: 35d7 973c 21e9 ab3b cc8b 323e 6a2d 0c40
000000c0: 1d59 9c3b d958 013f 610d af3c d9d2 393f
000000d0: 4319 8f3f 690f 103e 05c5 523d bebe c33e
000000e0: 2d15 1a40 795d 873e e907 b33e 8701 7c3b
000000f0: 4926 bc3f 2f1b 183f b69a f93f b6e3 893f
00000100: 72d7 ce3c 59d0 393b c271 f13e efbf 573e
00000110: 0efd b43e bc30 2640 5b14 f63d c3ae 9a3f
00000120: 76b1 033f 9b72 4f3c d293 b73f 0c47 aa3d
00000130: 86eb 923e 2db5 603e 3560 7a3e c31f 0640
00000140: f78c 183e 893a 523e d68c 993f 6abb d93d
00000150: ed24 043e 41be aa3f 1c81 be3d aeee 023e
00000160: 32f7 d63c 7e3b 063f dc1d 233f 4d68 863d
00000170: 0fd4 a33f 3e71 d33f 296b cc3d 0018 b93b
00000180: 7bf2 883d d5d3 283f 8855 333f ab36 f13f
00000190: befe 2840 a95e 8d3f ff50 193f 75c8 d43d
000001a0: 42fb 3c3d bdc4 4d3f cb84 a23c 00d8 d03e
000001b0: 4efa 113f 9315 813e 3f69 913d 9866 ba3f
000001c0: 9a25 a33f 34f2 4b3d a978 5d3c 22c8 d93d
000001d0: 91a8 cd3c 27e6 ec3e 5f0d 4d3f 953c 0540
000001e0: c9b2 a03e 4c19 523b 56d7 c23f fd88 543e
000001f0: 31db 243f 89ba 1c3d cdf5 ae3f 0a23 8f3f
00000200: 5b13 013f 081d 3a3f 050e b53d e9f3 9b3e
00000210: 00a5 e73f 9e1f 9e3e 0697 c23d bafc 263d
00000220: 677f 5a3d 33e5 3e3f af6d 1a3f 349e cb3e
00000230: 0b1c 543f a491 cc3e 6702 c83f 4e71 813e
00000240: 27d3 e53f d0bc f73e 88c4 083d 5c00 613e
00000250: cf76 0d40 1f4d d13f b44a d83f 921c 1a3f
00000260: 8a71 c43c 0a13 503c 5828 4d3f 013a 4a3f
00000270: 81a0 a33e d249 b43d f0b1 9e3d 089e b03e
00000280: cef2 963e 026b 5e3e 4733 343f 5f21 303c
00000290: 049c ae3f a6b0 c53f b5f1 f23f c87f 623e
000002a0: f07f df3c 30b5 ac3d 0aba 1d3e beb2 893d
000002b0: d0e3 b53e 45fb 523e 44bb 283f ad4e 1d3f
000002c0: de17 813d 0db6 e93f d6a6 933f 2f54 1a3f
000002d0: 51b0 183e 0c94 9d3f cc36 663f f4ba 983f
000002e0: 9276 bb3e da3c 163f 414e 0f3f 2814 db3f
000002f0: 67dd 8d3d 4f10 f83f e2fc fd3f 2391 823c
00000300: e5d3 c73f 3768 023d 405b bc3f f10b 083f
00000310: a666 253e 371a 0b3e 6d22 6a3b 7d2d 423d
00000320: c1e1 b23f d157 a03e 909f c73c c807 a93f
00000330: fe4d 4c3d dd0c b13f ca19 be3f 1ef5 1e3e
00000340: 5d5f 9f3e e2e4 c03d d637 ab3f 298a 903b
00000350: 897d 0c40 c078 5a3f a8a0 c33d d4f5 8a3f
00000360: a597 2040 ccd4 a83e 077e e83f c650 293f
00000370: b0ca 193e 4ec8 cb3f 17b2 973f ea61 b23f
00000380: 2746 913f 4b80 ea3e 00b3 923f ded9 b53d
00000390: 5def 963e 2d3b 783c 1368 0340 605d f43f
000003a0: 0756 ce3f 0b80 ce3e 6e66 d13f 6105 fd3e
000003b0: 5195 073e 263e 5d3f a8f7 763f 7817 1e3e
000003c0: 97ff 223d 1526 a73e 798a da3e 5672 a13d
000003d0: b222 4b3c 991b a101 e50d 0c3f eef3 d43f
000003e0: 9af1 e43d 162a 653f 2a19 4d3f df92 a13e
000003f0: 3316 3040 cbae 8f3e 879a 763f 5253 153f
