Best_models/wisdm_CNN_20210122_212207/CNN_wisdm_Rep_9_Seed_706.pt (torch_old, 224391 bytes, 12 tensors)

weight f4 [64, 6, 3]
000000 dd e8 9c be 88 96 a7 bd 38 f0 7c 3e f7 40 c0 3c
       -0.3064641 -0.081830084 0.24701011 0.023468478
000010 eb 34 f6 bd 9b 4c 1b bd 0d e2 99 bd 55 14 27 3d
       -0.12021812 -0.037914854 -0.07513819 0.040790875
000020 39 3a 12 bd 60 05 7c 3e ac 72 6d bd 68 b1 92 3d
       -0.035700057 0.24611425 -0.057970688 0.07162744
000030 3e b1 b8 3e b3 7a 0c 3e 2f 68 0d 3f 38 bc 56 bd
       0.36072725 0.13718681 0.55237097 -0.052425593
000040 5c 88 53 bd 85 48 2b 3e 0d f0 fb 3c cc 2c cd 3d
       -0.051643714 0.16726883 0.030754114 0.1001831
000050 94 ee 64 3e ae 24 2b 3e 78 c7 2d 3d 16 6c 31 be
       0.22356635 0.16713211 0.042426556 -0.17326388
000060 5a 83 21 be dc 59 c1 3d f9 2e 69 3e 1f 84 7a be
       -0.15772763 0.094409674 0.22771825 -0.24464463
000070 58 55 9a 3c 1f e7 0d be 8e f0 50 3e 2a ec ed 3d
       0.018839523 -0.13857697 0.20404264 0.1161731
000080 6d 57 03 3f 2f ef bd 3e 08 97 84 be ed 92 09 3d
       0.51305276 0.37096545 -0.25896478 0.033587385
000090 5d 36 c3 be 91 ad f4 bd 0a 95 80 3d 12 1e c3 3e
       -0.38127413 -0.11947168 0.06278427 0.3810888
0000a0 f1 77 13 be 82 00 1c bf de 88 ae 3d 6e be 1c 3f
       -0.14401223 -0.60938275 0.08522199 0.6122807
0000b0 1a 0b ea 3e 07 05 8b 3d 04 f2 28 3e ac 01 8c be
       0.45711595 0.06788068 0.16498572 -0.27345026
0000c0 20 e8 25 3d 66 9c f2 bd 84 eb d1 3d 13 61 9c bd
       0.040504575 -0.11846237 0.10249999 -0.07635703
0000d0 2c 04 dd 3d bb f5 db bd e1 54 fb bc 36 c9 8e bc
       0.10791811 -0.10740229 -0.030680122 -0.01742993
0000e0 1c 62 09 be c0 92 a7 bd 44 f0 81 3c 22 60 1b 3d
       -0.13416332 -0.08182287 0.015861638 0.037933476
0000f0 15 e2 b6 bd 1f 36 0f be 51 7e 61 3e 9a 13 6f 3e
       -0.089298405 -0.1398549 0.22020842 0.23347321
000100 6d fc 84 be 8f 88 23 be 35 8f e9 be 52 9b 30 be
       -0.25973836 -0.15970062 -0.4561707 -0.1724675
000110 bf 7b a9 3e ec 3d 61 3e a4 df 75 3e 0e 0c 85 3d
       0.33102223 0.21996278 0.24011093 0.0649644
000120 36 8f 29 3e 29 ad 33 bd 25 03 01 be 7d df f2 bd
       0.16558537 -0.04386631 -0.12598856 -0.11859033
000130 76 c2 a4 bd 8f 94 86 3c d8 01 11 be 40 2d 58 3d
       -0.08044903 0.01642826 -0.1416086 0.05277753
000140 f4 36 30 3e 2a 7e e6 bc a1 27 c5 bb 37 d0 d9 3e
       0.17208463 -0.028136332 -0.006016687 0.42541668
000150 d8 9d 6c 3e 48 1a 80 3e 45 2c f9 3d 00 89 32 3e
       0.23107088 0.2502005 0.12166647 0.17435074
000160 c8 cf 95 3d bc 26 74 be c4 5a ba bd 99 c6 82 3d
       0.07315022 -0.23842901 -0.090993434 0.06385536
000170 80 43 85 3d f3 a6 31 bd 7e dc a8 3d 47 25 b2 3e
       0.06507015 -0.043372106 0.082451805 0.34794065
000180 9f fc e5 3d e5 39 22 3e b9 66 33 bd 3c 5d 14 3d
       0.11229824 0.15842398 -0.043799136 0.036221728
000190 10 ee 1c 3e 60 31 f6 bd 94 55 07 bf 33 20 73 3e
       0.15325189 -0.12021136 -0.52864957 0.23742752
0001a0 37 02 c0 3e 45 ee 57 3e c8 0e b4 bd 60 ee 1a be
       0.3750169 0.21086986 -0.08791882 -0.15129995
0001b0 b3 06 07 3f 7e 41 9e 3e 3c 71 87 be e6 d5 2c 3e
       0.527446 0.30909342 -0.26453578 0.16878471
0001c0 8e b3 3b be 94 f0 e2 be 01 0b 58 3e 77 e3 a2 be
       -0.18330213 -0.44324172 0.21097948 -0.31814167
0001d0 d8 4f ed be ef 90 12 3d 13 ac ae bd 5e aa 8c 3d
       -0.46349978 0.03578275 -0.08528914 0.068684325
0001e0 1d 8d 85 3d 71 be b1 bd df c1 12 3c 99 38 ae 3c
       0.06521056 -0.08678902 0.008957355 0.021267222
0001f0 50 8d 67 bd 7d 59 98 3d f0 fe 7e be 29 ab bd be
       -0.05653125 0.074389435 -0.24901938 -0.37044647
000200 d3 5c 21 be 83 b8 c3 3e 71 84 07 3d 32 93 d9 be
       -0.15758066 0.3822671 0.03308529 -0.42495114
000210 8d b3 fc bc ba b4 91 bc 22 e1 56 be da 34 51 3e
       -0.030847335 -0.017786372 -0.20984319 0.20430318
000220 e1 70 d4 bc ea 6f 32 3e 0d ba 39 3c 83 1a b5 bc
       -0.025932731 0.17425504 0.011335862 -0.022107368
000230 de f0 58 3e f7 d5 2f 3e 52 5e 01 be f5 62 0b be
       0.21185634 0.17171465 -0.12633637 -0.13611968
000240 51 5d 1d be 24 f3 fa bd fb 16 88 bd 04 10 3e be
       -0.15367629 -0.12253407 -0.06645008 -0.18560797
000250 4a 0d ef bc ab 17 db 3c de 01 ff 3c 03 6d f7 bd
       -0.029181141 0.026744684 0.03112882 -0.12081339
000260 c5 35 af 3c 93 16 10 be 5d 38 0f 3f cb 2f c4 bd
       0.021387944 -0.14071111 0.5594538 -0.09579428
000270 a1 dc cc 3d d4 c5 df 3e 34 67 c2 be 14 24 2b be
       0.10003019 0.43705618 -0.37969363 -0.16712981
000280 e1 49 7d bd ed 75 d8 3e 74 cc 39 bf 31 25 a1 be
       -0.061838035 0.4227747 -0.72577596 -0.31473687
000290 fc 18 e1 3e 9d e7 02 be c6 d3 00 be a1 87 41 3e
       0.43964374 -0.12783666 -0.12580785 0.18899395
0002a0 90 01 77 bd d8 89 bf bd fd 7e a0 3c 6e 4e 8d 3c
       -0.060304224 -0.093524635 0.019591803 0.017249312
0002b0 50 34 d6 bd e9 83 a6 3d 94 7d db 3d c2 ec b5 bd
       -0.104591966 0.081306286 0.107173115 -0.088830486
0002c0 2e 38 c2 be 68 b3 5b 3e 5f ee d7 3c 86 54 75 3e
       -0.37933487 0.21455157 0.026358781 0.23958024
0002d0 bc 2c 03 3c 97 38 05 3e 6e bc ff 3d a9 29 22 bd
       0.008006271 0.13009869 0.12487112 -0.03959051
0002e0 bd ff 9b 3c 26 1b 96 bd 21 44 19 3e 0a 74 ab 3e
       0.019042844 -0.07329397 0.14967395 0.33486968
0002f0 ef 44 e7 3d c9 f5 19 3e 87 81 0f 3d 60 e8 64 be
       0.11292445 0.15035166 0.035035636 -0.22354269
000300 56 8e 51 be d0 c7 08 bd 03 de 45 bd 8c 76 e5 3e
       -0.20464453 -0.03339368 -0.04830743 0.44817007
000310 59 4c ff bd 0a ac e0 3e 20 de 44 3d 74 6a 3e bd
       -0.12465734 0.43881255 0.048063397 -0.04648824
000320 e0 e6 c0 3d 32 eb 21 3d 20 be 07 3e 56 5f 05 3e
       0.09419036 0.03953094 0.1325612 0.13024649
000330 c1 f1 f3 3d f9 24 77 bd eb 02 27 bc ab 7b a2 be
       0.11911345 -0.060337994 -0.010193567 -0.31734976
000340 e2 16 a9 be f6 51 ee bc 04 cf a9 be 39 75 d2 be
       -0.3302527 -0.029091816 -0.33165753 -0.4110506
000350 80 6f 84 3d af 3c 10 bd 80 59 30 3e 30 15 a2 3e
       0.064665794 -0.035214122 0.17221642 0.3165679
000360 fb d3 eb 3c e3 a5 d9 3d b2 f6 9a 3d a9 e7 80 bc
       0.028787604 0.106273435 0.07566585 -0.015735464
000370 0d 20 33 be 08 11 41 be 3b c6 12 3d b8 65 5a 3d
       -0.17492695 -0.18854153 0.03583358 0.053319663
000380 fc 1f 3d bd b6 c7 e6 be 4e a0 11 bd e6 b6 fa 3e
       -0.04617308 -0.45074242 -0.03555327 0.48967665
000390 21 60 32 3e 41 68 9a 3e 08 c2 55 bd ce b0 00 bf
       0.17419483 0.30157664 -0.052186996 -0.5026978
0003a0 ec 08 ad be 68 ce 67 3d c0 64 5d bd 47 59 85 be
       -0.3379587 0.05659333 -0.05405116 -0.26044676
0003b0 2a 31 37 be f5 42 9a 3d 7b ad 28 3d c7 f6 3b 3c
       -0.17889848 0.07532302 0.04118107 0.0114724105
0003c0 54 f7 11 3d 01 a1 bf be 5e a8 a3 be ac 10 ea 3d
       0.03563626 -0.37427524 -0.3196439 0.11428961
0003d0 70 96 56 be b7 2f c1 3d 92 4b a3 bd e9 19 04 be
       -0.20955825 0.09432929 -0.07973398 -0.12900509
0003e0 a1 67 2f 3e 65 f4 02 bf 4d 1e 70 bd 01 27 d6 be
       0.17129375 -0.51154166 -0.058622647 -0.41826633
0003f0 e9 3c 0d bd 85 be 43 bd f9 15 e9 3c 69 6a 78 3d
       -0.034481917 -0.047789115 0.02845286 0.060648356

bias f4 [64]
000000 b1 78 a3 be 9f ad 26 be 12 3a dc bd 70 a0 93 be
       -0.31928018 -0.16277169 -0.107532635 -0.28833342
000010 d4 c4 84 be 9f 7b d2 be d7 96 8f be 03 6f 2c be
       -0.25931418 -0.4110994 -0.2804477 -0.16839223
000020 4f 3d df be a1 d3 de be b4 b2 96 bd b6 8a 25 bf
       -0.43601462 -0.43520835 -0.07358304 -0.6466478
000030 44 43 56 bf e1 5f 12 bf 33 3a fa 3d d5 67 2e bf
       -0.8369639 -0.5717755 0.12218132 -0.68127185
000040 cc 17 3e bf 20 bc 20 3d 1c 65 17 bf f0 51 a6 be
       -0.7425506 0.03924191 -0.59138656 -0.32484388
000050 6d ce 96 bd 3f f3 6d 3d f4 d5 5e bf d8 1f 9f be
       -0.07363591 0.058093306 -0.87045217 -0.31078982
000060 f0 6e 17 bf 04 3c 1e bf f8 d9 d4 be 7b 8f 11 bf
       -0.5915365 -0.61810327 -0.41572547 -0.5685956
000070 ea 7b 32 bf 91 3a a3 be 2c c3 cc be c4 21 24 be
       -0.6972033 -0.3188062 -0.39992654 -0.16028506
000080 d4 10 f2 be 54 91 99 be 37 45 71 be c6 4c 3b bf
       -0.47278464 -0.2999369 -0.2356156 -0.7316402
000090 0f 92 bb 3d 37 bd 02 bf 84 a8 1c bf 8b d0 4a bf
       0.09158718 -0.5106997 -0.61194634 -0.7922446
0000a0 3e c0 0c bf 05 fb eb bb 88 e2 14 bf b5 3c 95 be
       -0.5498084 -0.0072015547 -0.5815816 -0.29147878
0000b0 af c5 7b be 33 7a 87 be f0 87 5d be 1d 42 97 be
       -0.24587129 -0.26460418 -0.21633887 -0.29542628
0000c0 3e aa 9a be 05 81 c1 be bc ef 9a be 4a 77 1b be
       -0.3020801 -0.37793747 -0.30261028 -0.15182224
0000d0 71 86 87 be 64 59 6c bf 5a 3b 2e bf 9d a5 97 be
       -0.26469758 -0.923239 -0.68059313 -0.2961854
0000e0 67 a1 d6 be ed ae 9b be 9e 1a 08 bf 1e f2 0e bf
       -0.41920015 -0.30406895 -0.53165615 -0.5583819
0000f0 3e 22 44 3e ea 16 b2 be 05 4e 34 be 00 12 05 bf
       0.19153687 -0.34783107 -0.17607887 -0.5198059

weight f4 [64, 64, 3]
000000 79 f9 6c 3d 1c fb 56 3e b4 e1 d9 3d 3d 53 5f 3d
       0.057855103 0.20994228 0.106387526 0.05452274
000010 ea 41 fd ba e4 d1 11 3d bd a9 b0 bd 87 e0 c8 bd
       -0.0019322012 0.035600558 -0.08626125 -0.0980845
000020 9d 8a 5c bd 8e 26 2f bd 08 4d 70 bd 1a 74 96 be
       -0.05384313 -0.042761378 -0.058667213 -0.29385453
000030 e4 4d 0e be 5c 54 7b 3d 8f e1 64 3e 3b 4f fb be
       -0.138969 0.06135975 0.22351669 -0.49083886
000040 82 93 1d bf d4 73 f3 be 6b 6d fa bc 4a 4b 25 be
       -0.61553204 -0.47549307 -0.030569753 -0.16142002
000050 90 92 4f 3e b3 3d 25 3e 10 ed 39 3d 4c 37 d6 3d
       0.20270753 0.16136818 0.045392096 0.10459766
000060 ee 5a f9 bd 8b 9a 2f 3d 68 69 25 3b 35 e7 17 be
       -0.121755466 0.042871993 0.002523983 -0.14834292
000070 d4 a8 17 3d e5 74 27 bf 8d 24 9f bc 57 c2 71 be
       0.03702624 -0.6541274 -0.019426608 -0.23609291
000080 b1 cc 6e be 35 8f b2 3e b1 25 cb 3e d0 0d f0 3d
       -0.23320271 0.34874883 0.39677194 0.117213845
000090 5f b5 f5 be b4 69 67 bf 14 cd 21 be 61 47 0f be
       -0.47989938 -0.90395665 -0.15800887 -0.13992073
0000a0 65 46 58 be 07 e3 2f 3e a1 7d d2 be 25 4f 8f be
       -0.21120603 0.17176448 -0.41111472 -0.2799007
0000b0 4c 13 96 be 2e 4f 35 bf 6c 16 e8 be 32 f0 c5 be
       -0.29311597 -0.70823944 -0.45329607 -0.38659817
0000c0 0e e5 74 3e c4 5e bf 3e 3d a4 5f 3e 57 5e 0e be
       0.23915502 0.37376988 0.21839996 -0.13903175
0000d0 c7 09 21 bd b3 89 77 bd fa 3e 5d bf 57 81 10 be
       -0.039315965 -0.060434055 -0.8642422 -0.14111839
0000e0 04 32 32 3e 73 d7 1f 3d 00 39 a2 3c 1b 83 23 3e
       0.17401892 0.039023828 0.01980257 0.15967982
0000f0 cd 86 1f 3c 98 31 8c 3d 05 80 27 3b 5a 67 d5 be
       0.009736729 0.06845397 0.0025558483 -0.41680413
000100 49 99 11 3c 5e ae 61 bb e3 82 db bb c8 74 df bd
       0.008886644 -0.0034436206 -0.0066989525 -0.10910946
000110 55 fc 3d be 38 62 d1 3c f1 b1 52 bd 5a 9d d4 3d
       -0.18553288 0.02555953 -0.05143923 0.10381575
000120 17 42 61 be d4 b9 2b be 8e 4d 1b be e6 2a 9e bd
       -0.21997868 -0.16770107 -0.15166304 -0.07723026
000130 da 65 54 3b 0b ad 1a 3e ac af 27 be 7d 0a 2a bc
       0.003240934 0.15105073 -0.16375607 -0.010378477
000140 01 e4 c9 be 19 7e e1 be 0f 12 17 bf e0 54 a7 be
       -0.39431766 -0.44041517 -0.5901193 -0.32681942
000150 ae 93 96 39 f5 d8 66 bc 00 fd f7 3d d9 ef 49 be
       0.0002872026 -0.0140898125 0.12108803 -0.19720401
000160 a2 4a 1b 3e 50 39 0c 3d fc 5b 06 be e4 4a a0 bd
       0.15165189 0.034234345 -0.13121027 -0.07826784
000170 3d fc a9 3e 94 55 98 be 76 f6 7a be ee d4 b0 3c
       0.33200255 -0.2975279 -0.2450808 0.021585908
000180 43 62 ed bd 79 99 1b bf 55 4c cf be e4 84 8f bd
       -0.115910076 -0.60781056 -0.40487924 -0.07007769
000190 c8 49 aa be 1d 36 05 bf 5e 6f da bc e6 8e 64 bd
       -0.33259416 -0.52035695 -0.026664432 -0.05580034
0001a0 a8 ff 31 bd 14 61 0b be e8 4b 17 3e 42 88 b7 3e
       -0.043456703 -0.13611251 0.1477505 0.35846144
0001b0 9a 2f 71 bd 00 f4 96 bd 6d 0b 84 3d 5e c9 d3 3e
       -0.058883287 -0.07370758 0.06447492 0.41364568
0001c0 d5 9f af bd 68 34 b2 3e b5 11 ea 3d 96 d9 1c 3e
       -0.085754074 0.34805608 0.114291586 0.15317377
0001d0 fd 7d 19 3e a5 61 58 3e bb d9 c1 3d 69 b6 85 3e
       0.14989467 0.21130998 0.09465357 0.2611573
0001e0 b0 fa 8a be ef dc cf be 1a 88 70 bd f5 d6 e9 bd
       -0.27144384 -0.40598246 -0.058723547 -0.11417953
0001f0 cc 30 1c bd 72 72 40 3d 3f 89 f4 bc 88 ed 8e 3c
       -0.038132474 0.046984144 -0.0298506 0.017447248
000200 7a fa bc 3d 5c 1a ae be 16 dd cd be b6 57 2a 3d
       0.09227462 -0.34004486 -0.40207738 0.041587554
000210 23 04 26 be 5a de dd 3b ec 6d 43 3e ce 7e f7 bd
       -0.16212516 0.006770891 0.190849 -0.12084733
000220 63 62 ab bd b3 ac 02 be 93 33 10 be 9d 55 28 be
       -0.08368375 -0.12761192 -0.14082174 -0.16438909
000230 67 65 0d 3e b2 50 71 bf 74 b7 07 be 16 d0 8f 3d
       0.13808213 -0.94263756 -0.13253576 0.07022111
000240 06 8f 6e be a3 30 83 be f4 04 1e bd 0a e5 3a be
       -0.23296747 -0.25623044 -0.038578942 -0.18251434
000250 63 52 81 be 16 fe ff bd 60 19 3d 3c 7f 42 08 3e
       -0.2525817 -0.12499635 0.011541694 0.13306616
000260 6f 37 82 3d e7 60 21 bd d5 af d3 bd 01 34 00 3e
       0.06358229 -0.039399054 -0.10336272 0.12519838
000270 3f 7a 66 3e 3e 04 f7 3d f4 a1 8b 3d e4 d7 a8 bd
       0.2250757 0.12061356 0.068179995 -0.08244303
000280 5d 1c bd be bf d2 68 be 53 84 7c be 7d f7 a3 be
       -0.36935702 -0.22736643 -0.24659853 -0.32024756
000290 4c 58 02 3f d8 4e 56 3d 50 4f db 3d 8e 58 6b 3e
       0.5091598 0.052321285 0.10708487 0.22983
0002a0 f0 59 d5 be f9 26 1d 3c 45 13 71 3e 9d e2 c6 bd
       -0.4167018 0.009591811 0.23542507 -0.09711192
0002b0 c6 99 43 be ac 18 90 3d 3a 10 72 be 9b f6 98 3d
       -0.19101629 0.07035956 -0.23639002 0.07468911
0002c0 5b 5a 16 bd cc 51 fd bd d1 4b 03 bf 76 51 b7 be
       -0.036707263 -0.12369117 -0.5128756 -0.35804337
0002d0 54 38 96 be 61 65 90 be 6a cd 8c be 68 09 2b be
       -0.2933985 -0.28202346 -0.27500468 -0.16702807
0002e0 d6 35 48 be 99 66 fd bd 58 95 ae be 80 7b 09 3e
       -0.19551787 -0.123730846 -0.34098315 0.13426018
0002f0 70 e3 82 be 73 b3 bf 3d ac b4 28 be 44 48 b1 bd
       -0.25564146 0.09360399 -0.16475171 -0.08656362
000300 cf ec 44 3e f5 68 e9 bb ad 99 5b bd 44 31 22 3c
       0.1923096 -0.0071231076 -0.053613354 0.009899441
000310 7a 71 39 3b 08 d7 2d be e6 18 8d 3e ce 18 b0 bd
       0.0028296397 -0.16976559 0.27558059 -0.08598481
000320 4e 4a c4 bc e1 ae 11 3e 24 fb 36 be 13 fc 4f bd
       -0.023961212 0.14226867 -0.1786924 -0.050777506
000330 2c 65 80 bd 0e 07 93 3b c5 3d 79 3c b9 75 05 3d
       -0.06269297 0.004486925 0.015212481 0.032582972
000340 cc f6 c9 bc ad 82 8d 3d f5 c8 7f 3e 0c 9d ee 3d
       -0.024653815 0.0690969 0.24979003 0.11651048
000350 f3 27 85 3e a6 c8 85 3e b8 78 43 be ea bb 56 bc
       0.2600704 0.26129645 -0.1908902 -0.013106326
000360 69 01 78 3d 08 ca e6 bd 46 d9 e7 3d ea 64 7e 3e
       0.06054822 -0.11269003 0.113207385 0.24843183
000370 ee 0a 03 bc 74 06 b9 3d 37 46 77 3d bd 5e 4f be
       -0.007998211 0.09034434 0.060369696 -0.20250984
000380 26 8e b1 3d df 1b 2d 3d 4b 3c 9a 3c 77 8e 0f 3e
       0.08669691 0.042262908 0.018827578 0.1401919
000390 4a c2 06 3e a6 ba 00 be 3c ff 14 bd ce c5 a3 be
       0.13160053 -0.125712 -0.036376223 -0.3198685
0003a0 09 ef 00 be 79 bb b0 be 4f cc f9 bd d3 88 4f be
       -0.12591185 -0.3451803 -0.12197172 -0.20267038
0003b0 b2 2e 77 ba ec 57 07 3e 4c e3 2a 3e be 5f dd 3e
       -0.00094292604 0.13217133 0.1668827 0.43237108
0003c0 dc f8 9a be 93 f1 42 be 5d ac 27 3c 74 20 57 3c
       -0.3026799 -0.19037466 0.010233966 0.013130296
0003d0 13 36 37 3a 4c 42 59 be b8 91 8a bd 27 46 03 3d
       0.00069889537 -0.21216697 -0.06766075 0.032049324
0003e0 fb 6a a8 be 65 bc 28 3d c9 c7 57 bd 72 e5 86 3e
       -0.3289412 0.041195292 -0.052680764 0.26346928
0003f0 ea 90 81 be 69 98 32 be d5 67 33 be a2 12 56 bb
       -0.25305873 -0.17440952 -0.17520078 -0.0032664915

bias f4 [64]
000000 9f 8f 7b bd a5 ea ed be f1 d9 17 be 4b d8 c6 bd
       -0.061416265 -0.46468082 -0.14829232 -0.09709223
000010 bd e4 16 be 4a 56 b5 bd 09 11 39 be 8f c1 f0 be
       -0.14735694 -0.08854349 -0.18072905 -0.47022673
000020 08 8e 42 be 22 a0 4b bf e3 33 d8 3b f3 0a 48 bc
       -0.18999493 -0.7954122 0.0065979823 -0.012209642
000030 4f 43 9f bc f5 55 02 bf 59 f4 6c be ee f2 1c bf
       -0.019441275 -0.5091241 -0.23140086 -0.6130818
000040 81 00 eb be 8f 60 95 be 7f f5 69 be c4 e3 71 be
       -0.45898822 -0.2917523 -0.22847556 -0.23622042
000050 53 09 d5 bc a5 18 09 be cb 99 89 3e 82 50 18 be
       -0.026005423 -0.13388307 0.26875147 -0.14874461
000060 df 16 88 be 8e ab 61 bd f9 5b d6 bd 4b ec 51 3c
       -0.2657995 -0.055095248 -0.10466761 0.012812684
000070 04 34 f8 be 30 f2 1d bf 63 15 c3 bd ba ee a8 bd
       -0.48477185 -0.61697674 -0.095255636 -0.082486585
000080 98 5b 18 be eb 63 5e bf ed 08 24 bf 26 d9 0d be
       -0.1487869 -0.8687121 -0.6407612 -0.13852367
000090 d8 61 3d bd 4e 91 23 be 9d 3d 02 bc 93 7b cb bc
       -0.04623589 -0.15973398 -0.00794926 -0.024839198
0000a0 5e 83 9d bd 5c 70 3f bc 11 c8 d7 bd 71 9e ed be
       -0.07691072 -0.011684503 -0.105362065 -0.46409944
0000b0 28 85 b5 bd 04 52 31 be c5 06 7e bd 09 39 29 be
       -0.08863288 -0.17316443 -0.062018175 -0.16525663
0000c0 1e 38 4c bd 8b e8 9c 3d 13 55 a9 be 09 52 03 be
       -0.049858205 0.076615416 -0.3307272 -0.12824263
0000d0 f2 2b 2a bd d0 70 a8 bd 55 27 6d be cc 0a 7d bd
       -0.041545816 -0.08224642 -0.23159535 -0.061777875
0000e0 de ce 9d bd dc 6f 65 be 94 cc ca bc 01 47 d5 be
       -0.077054724 -0.22405952 -0.024755754 -0.41655734
0000f0 47 ce af bd f3 37 dc be 24 3e 25 be 6a a4 51 be
       -0.08584266 -0.43011436 -0.16136986 -0.20472875

weight f4 [256, 128]
000000 74 1b 56 3e 24 7f 01 bd 78 47 ca 3d 1c 1e 04 bb
       0.2090891 -0.03161539 0.09876913 -0.0020159548
000010 1f 66 15 3e df e9 25 bd b9 46 7d 3d 11 d3 07 bd
       0.14589737 -0.04050624 0.061835025 -0.033160273
000020 48 d0 13 be d7 b9 37 3e a0 0b f0 bd 97 3b 4e 3d
       -0.14434922 0.17941986 -0.11720967 0.050349798
000030 b2 06 f1 bd 51 be c0 be 0a 25 f4 3d 81 7b f3 3d
       -0.11768855 -0.376452 0.11921127 0.11888791
000040 ef f8 03 3e 30 3a ea 3d 3b 3a bc 3d c3 30 ce 3e
       0.1288793 0.1143688 0.09190794 0.40271577
000050 14 82 07 bd 54 02 17 bd 72 c4 4b bd bb 1c f8 3b
       -0.033083037 -0.036867455 -0.04974789 0.0075717843
000060 a5 98 dd 3c 45 a4 28 bb 35 f7 96 3e c8 38 7d 3d
       0.027050326 -0.0025732678 0.2948548 0.06182173
000070 78 53 81 3d ea 5a 07 3d 8d 51 03 3e d4 34 88 3d
       0.063147485 0.033045687 0.12824078 0.06650701
000080 fd a7 9c bd ba b6 9a 3d b3 08 c3 bc 55 09 08 3d
       -0.07649229 0.075543836 -0.023807859 0.033212025
000090 29 e9 56 3a db 5c 94 3d f1 44 8d 3e 23 ed c4 3e
       0.0008198196 0.07244273 0.2759166 0.3846217
0000a0 9c 6d d5 bd ea e6 1f 3e d2 83 e8 bb 63 36 85 bd
       -0.10421297 0.1561543 -0.0070957923 -0.06504514
0000b0 e6 50 53 bd 65 1e 23 be fb 62 7a be 17 3e 93 bd
       -0.051590823 -0.15929563 -0.2445182 -0.07189577
0000c0 ea 27 a6 3e 18 fd e3 3d 02 d9 1c 3d 21 41 a9 3d
       0.32452327 0.11132258 0.038292892 0.082643755
0000d0 e1 3b 16 3e 32 61 38 3e 37 fe 83 bc c0 e7 36 bd
       0.1467128 0.18005827 -0.01611243 -0.044654608
0000e0 98 bf 38 bd cc 87 93 bc 68 19 24 3c f5 a0 fb 3d
       -0.045104593 -0.018009089 0.010015823 0.122865595
0000f0 c3 c2 49 bc 86 6a 42 3d c8 69 3a bd 7f 16 6f be
       -0.012314501 0.04746487 -0.045511037 -0.23348425
000100 67 17 15 3d b5 1a 6d bb df e2 d4 bc 27 a9 a3 3e
       0.03639927 -0.0036179249 -0.025987087 0.3196499
000110 85 f4 95 3c 6a 25 27 3e 35 ea e1 3c 31 4b 06 3e
       0.018305073 0.16322866 0.027577499 0.13114621
000120 d8 92 1c be e3 8e b1 be 82 b8 36 bf 05 63 1d be
       -0.15290391 -0.34679326 -0.71375287 -0.15369804
000130 bb 44 dd bd a4 fb 30 be bd 72 63 bd 25 0c ac bd
       -0.10804125 -0.17283493 -0.055529345 -0.08400754
000140 ff 14 98 bc 51 ed ac bd b5 c2 29 be 76 30 33 be
       -0.0185647 -0.08443702 -0.16578181 -0.17498955
000150 52 21 91 be ed 2a 77 be dc 47 94 3d 7d 9d e8 3d
       -0.28345734 -0.24137469 0.072402686 0.113581635
000160 4c 4b 4b 3e d5 3e 84 3e 6a 87 38 3d 38 1e 44 be
       0.19852942 0.25829187 0.045051016 -0.19152153
000170 0b 7d 5d 3d 0c b7 57 3a ca df 31 3d 59 85 79 be
       0.05407433 0.0008228875 0.043426313 -0.24367274
000180 ed 7d b2 3d b6 33 9d 3d 9a 50 b6 be 57 0c e1 be
       0.08715425 0.07675879 -0.3560837 -0.43954727
000190 eb 9a 4d bd 3e 7c 2c bd 74 79 0a 3e 3b 68 5d 3d
       -0.05019657 -0.042110674 0.13522893 0.05405448
0001a0 a9 6a e5 3d 17 42 2a 3e 8c a3 90 be ad ad 2d be
       0.112019844 0.16626774 -0.28249776 -0.16960783
0001b0 53 3a 1d 3e 43 de b2 3c fa 63 cd 3d 1a ff 6b 3e
       0.1535428 0.021834498 0.10028835 0.23046532
0001c0 0f 20 36 3e 3d 6a 52 3e 85 c1 72 3e e5 1a 3e 3e
       0.17785667 0.20548339 0.23706634 0.18564947
0001d0 d5 de e8 3e d8 e2 ad 3e 8d 6b b9 3d 66 a7 ad 3d
       0.45482507 0.3396213 0.09053717 0.08479194
0001e0 a8 ba c6 bc e3 cb 2b bd f7 f4 54 3e b8 9d b2 3e
       -0.024258927 -0.04194249 0.20796572 0.34885955
0001f0 f0 09 d0 bd a5 b8 6f 3d bc 17 e3 bc be 87 88 3e
       -0.101581454 0.0585257 -0.027721278 0.26666063
000200 d4 dd 55 be 6f c1 99 be 71 31 78 be e4 ec fd bd
       -0.20885402 -0.3003039 -0.2423761 -0.12398699
000210 5e 47 40 bd da 6c 38 3d bb ef 87 3c 9a a3 1f 3d
       -0.04694306 0.045025684 0.016593805 0.038974382
000220 fe 59 db bd 02 30 da be 75 7b fb bc 91 63 f1 bc
       -0.10710524 -0.42614752 -0.030698517 -0.029466422
000230 ed b9 91 3e 65 b1 83 3e ca 66 69 be 4e 11 4a be
       0.28462163 0.2572128 -0.22793117 -0.19733164
000240 9e 8e 8c 3e f0 97 c6 3e 74 ee ec bd 63 9d 9a bd
       0.27452558 0.38787794 -0.11568919 -0.075495504
000250 bc 79 88 be af 07 e8 bd 67 f6 2e 3d 50 c2 09 3d
       -0.26655376 -0.113295905 0.042715456 0.033632576
000260 94 2f b4 3d 91 5d 27 3c 62 a1 96 bd e5 8d cd be
       0.08798137 0.010215179 -0.07355 -0.4014732
000270 7e 21 fa bd c4 b7 43 be 52 08 32 be f9 e2 b0 bd
       -0.122134194 -0.1911307 -0.17385986 -0.086370416
000280 b5 e9 97 be ad cd aa 3c c3 e5 07 bd f4 55 dd 3c
       -0.29670492 0.020850027 -0.033178102 0.027018525
000290 55 8e 49 bc 25 30 be bd 2f b8 00 3e 23 5a 8a 3e
       -0.012302001 -0.092865266 0.1257026 0.27021894
0002a0 fe 63 e5 bd e7 db 9b 3d 56 1e 53 3d 1f cb a2 3d
       -0.112007126 0.076103024 0.051542602 0.079488985
0002b0 31 64 45 3e 5b f2 10 3e f3 22 7a 3e 3b fe e8 3e
       0.19276501 0.14154951 0.24427395 0.45506462
0002c0 a6 cb 76 be 65 3b a8 be ed 56 a4 3d 78 e0 16 3e
       -0.24101123 -0.32857814 0.08024392 0.14734066
0002d0 bb d5 8e be 22 fe 5e be d0 2b 46 be d5 b8 c6 bc
       -0.27897438 -0.21776631 -0.1935265 -0.024258057
0002e0 8b a5 c6 be ba 0b b4 be 92 0e a5 be 14 09 83 be
       -0.38798174 -0.35165197 -0.3223768 -0.25592864
0002f0 0e 5a 54 bc f4 25 fa bc d8 9d e9 3d 27 9c 84 bd
       -0.012960924 -0.030535676 0.114070594 -0.06475096
000300 d7 60 a5 3e 94 08 26 3e 4f 50 04 be 23 3a 26 be
       0.32300445 0.1621421 -0.1292126 -0.16233115
000310 26 9b ed bd 35 ea 94 be 64 ae 56 3d ad bd 5d 3d
       -0.11601858 -0.29084936 0.052412406 0.054135967
000320 14 3d a4 bd 65 12 38 3e 1c 78 a3 3d b3 25 80 3e
       -0.08019462 0.17975767 0.079818934 0.25028762
000330 90 66 31 bc 14 c3 35 bd 3c fc ca 3c 7e 09 7c bd
       -0.010827675 -0.044375494 0.024778478 -0.06153249
000340 0b ca 02 3d 2b 77 62 3d 07 3e 50 bc 61 da a1 bd
       0.031930964 0.05528943 -0.012710101 -0.079029806
000350 09 8e fc 3d fa 5e 29 bc 1e aa 25 be f7 dd d9 bd
       0.123317786 -0.010337586 -0.16178176 -0.106380396
000360 89 26 8b bd eb a9 2a be df 93 80 3e 0e 73 c6 3e
       -0.067944594 -0.16666381 0.25112817 0.38759655
000370 18 3b e0 bc ad ef a0 bd 35 10 b9 bc 23 44 f2 3d
       -0.027371928 -0.078582145 -0.022590736 0.11829402
000380 01 4b 2c 3d 0f c3 9a bd dc 37 a3 3e 42 a0 3c 3e
       0.042063717 -0.07556736 0.31878555 0.18420509
000390 ff b9 7e be 33 05 06 be 96 b7 44 be 63 66 2f be
       -0.2487564 -0.13087921 -0.19210657 -0.17128901
0003a0 6e af 99 3c 61 90 4e bd b7 58 f1 3c a3 56 20 3e
       0.01876041 -0.05043066 0.029461248 0.1565805
0003b0 e0 17 b9 3e 25 40 80 3e 3b 74 cc be 01 23 81 be
       0.36151028 0.25048938 -0.39932427 -0.25222018
0003c0 0a 1a 83 3b 53 0b e1 3d dc ad cf 3d 57 0d 59 be
       0.004000907 0.10988488 0.10140583 -0.21196495
0003d0 25 fe 44 3c 2b 53 10 3d 70 0e 6c be cd 28 83 bd
       0.012023483 0.035235565 -0.23052382 -0.064042665
0003e0 fd 71 12 be 49 d3 68 be ff d9 8e be 00 e3 42 bc
       -0.14301296 -0.22736849 -0.27900693 -0.011894941
0003f0 ab b8 50 bc cd 05 cb bd ba 9f 05 be db 59 bd 3d
       -0.012739341 -0.09913216 -0.13049212 0.09245654

bias f4 [256]
000000 4b a6 67 be 6f 01 88 3d 0c a4 82 be 56 01 2e be
       -0.2262203 0.066408984 -0.25515783 -0.16992697
000010 96 da 4a 3e ae a3 9a 3d d7 44 42 3e c1 13 95 3d
       0.19809946 0.07550751 0.18971573 0.072791584
000020 cf 48 af bc 0c 57 de 3c 99 7b 34 bd b4 4a f3 3c
       -0.021397023 0.027141117 -0.044063184 0.029698707
000030 d9 cf 4a be 36 f3 81 bd 09 80 8b be e3 d7 5a bd
       -0.1980585 -0.06345217 -0.2724612 -0.053428542
000040 cd ae 67 bd a0 84 c7 3e 2b 27 7d 3e fb 97 cc 3d
       -0.056563187 0.38968372 0.24721973 0.099899255
000050 0b d7 ba bd 27 ed 1b 3d e8 06 37 be c2 0a 29 be
       -0.091230474 0.038067963 -0.17873728 -0.1650801
000060 8e 68 ed bd 7e d2 28 3d c3 2e 9e 3e a8 e4 b6 3d
       -0.11592208 0.041216366 0.3089505 0.089303315
000070 07 cb 87 3d fb 25 1a 3e 8d 2c 66 3e f9 11 cb 3d
       0.06630521 0.15053551 0.22477932 0.099155374
000080 8d 32 00 3e 23 ae 13 be 8a 1b cd 3d 26 0e 84 3e
       0.12519284 -0.14421897 0.10015018 0.25792044
000090 6a 88 e8 3c 50 49 5f b8 e3 a1 3b be 9c fb 21 3d
       0.02838536 -5.323562e-05 -0.18323474 0.039546594
0000a0 c9 2a dc 3b 12 f1 ec bd 55 c9 2b be 0a 13 82 be
       0.0067189676 -0.11569418 -0.16776021 -0.2540515
0000b0 c8 c9 9e 3d ec b4 06 3e af 23 87 3e 91 32 31 3d
       0.077533305 0.13154954 0.26394412 0.043261115
0000c0 8b b4 13 be 42 96 e6 3d fa 66 6e be 98 c4 54 3e
       -0.1442434 0.11259128 -0.2328147 0.2077812
0000d0 bc 4b 18 be d9 a6 05 be 99 29 fa bd 96 5e 51 3d
       -0.1487264 -0.13051929 -0.122149654 0.051115595
0000e0 07 3f 1b 3e ac 82 92 bd 00 c1 a5 3e a7 ec 45 be
       0.15160762 -0.0715383 0.3237381 -0.19328557
0000f0 79 c3 ab 3d 96 8d 6d bc f7 d3 1e 3e 98 10 be 3d
       0.08386893 -0.014499089 0.15510546 0.09280509
000100 ea cb 4d be 27 f2 4f 3e 55 7f 43 3e 44 f5 88 bd
       -0.20097318 0.20307218 0.19091542 -0.06687406
000110 80 6d 51 bc c2 07 0a 3e 9d 38 ee bd 63 91 d9 3d
       -0.0127824545 0.13479522 -0.11631892 0.106234334
000120 0b f0 07 3c d5 e4 f3 3c b4 02 d8 bd b1 46 49 be
       0.008296977 0.029772202 -0.105473906 -0.19655873
000130 84 3b ad 3d 95 9f df 3d 4c ca af 3d 8b 13 89 3d
       0.08458617 0.1091911 0.08583507 0.06693181
000140 4b 71 f9 bd 66 34 11 3e 47 4a 49 3d e9 07 5b 3b
       -0.12179812 0.14180145 0.049143102 0.0033421463
000150 43 17 c4 3d 18 3a 0f 3f 12 ca 61 3d bf 8a 0b be
       0.09574749 0.5594802 0.05512435 -0.13627146
000160 60 53 53 3e a9 26 c9 3e 09 50 72 3c 48 bb bc 3c
       0.20637274 0.39287308 0.01478959 0.023038521
000170 fc aa 1f be 68 f6 33 3c 79 b9 1f 3a dd c9 03 be
       -0.15592569 0.010984041 0.0006093006 -0.12869973
000180 37 39 10 be 51 cb 8c 3d 52 06 2e be 04 b2 24 3e
       -0.14084326 0.06874717 -0.16994599 0.16083533
000190 d4 f7 52 be 36 63 90 bd 9c 03 5c bd 99 21 d3 3d
       -0.20602351 -0.07050173 -0.05371438 0.103091426
0001a0 3f f7 c0 bd a5 59 f1 bd 8a e4 ff ba 22 b7 de bd
       -0.094221584 -0.117846765 -0.0019523066 -0.108747736
0001b0 51 59 07 bd e1 3d 9f bd 82 53 03 3f b1 96 62 bd
       -0.033044163 -0.07775474 0.512993 -0.05531949
0001c0 e4 9a 45 be 6b 3a 37 be f0 64 0b 3f 3f 72 bc 3d
       -0.19297367 -0.17893378 0.54450893 0.09201478
0001d0 77 72 0d be 9f a3 9d 3d 29 ff 6a be 37 f0 63 3e
       -0.13813196 0.07697224 -0.22948898 0.22259603
0001e0 15 ae 34 3e 83 5c 52 3e ab 37 ad 3d 58 46 0b be
       0.17644532 0.20543103 0.084578834 -0.13601053
0001f0 4d 67 47 bd a0 c2 df 3d 0e 72 69 be be 3e ef 3d
       -0.0486825 0.10925794 -0.22797415 0.11681889
000200 55 e5 8d bd ef 06 9e 3e 69 0f 04 be 53 8d 3e be
       -0.06928507 0.30864665 -0.12896504 -0.18608598
000210 16 86 d4 38 7c 36 8c 3d 48 38 fe bd ab 23 9e bd
       0.00010133923 0.068463296 -0.124130785 -0.07721647
000220 8d 7d 06 3e 93 36 15 be 21 99 2e be d1 27 47 bb
       0.13133831 -0.145716 -0.17050602 -0.0030388723
000230 ae cb 6d be 05 ca d7 3d a1 e1 63 3c 89 88 10 be
       -0.23222229 0.10536579 0.013908775 -0.14114584
000240 b4 8e 84 bb 00 be cc bc 87 24 c8 bd 24 96 3d be
       -0.004045332 -0.024992943 -0.09772592 -0.18514305
000250 7b fd 3d 3e 9e f6 fd bc e9 c6 47 3e 27 f0 c6 3c
       0.18553726 -0.031001385 0.19509472 0.024284435
000260 01 d8 de 3e f7 c0 99 3e 42 2e ab bd 04 40 ca 3e
       0.43524173 0.30030033 -0.08358432 0.39501965
000270 e9 95 e9 bd ca 89 97 3d 00 a1 b6 bd f8 d7 90 3d
       -0.11405546 0.07399328 -0.08917427 0.07072443
000280 e2 05 41 3e 63 7f 09 39 c9 15 82 bd 57 1f 70 3e
       0.188499 0.00013112793 -0.063518114 0.23449455
000290 d6 06 d8 3c 0f 0a 18 3e 57 2f 31 bd e3 72 2b be
       0.026370447 0.14847587 -0.043258037 -0.16743045
0002a0 2b 83 2c be f9 fd 7d 3b db 51 68 be c7 a9 80 3e
       -0.16846912 0.0038756116 -0.22687475 0.2512953
0002b0 3d ae 49 bd 84 6f d0 bc 40 69 48 be dc 54 dc 3d
       -0.049238432 -0.0254438 -0.195714 0.10758373
0002c0 e9 b1 83 3b a6 5b 21 3b b0 3d c5 bc ca ab 33 3c
       0.0040190113 0.0024621277 -0.024077266 0.010966251
0002d0 29 69 68 bd b7 b8 3c be 07 8e 8a 3e 5c b4 83 be
       -0.056740914 -0.18429838 0.27061483 -0.2572354
0002e0 ae fb 5c 3d 4e e0 af 3d 5f 0d a3 bd 7a dd 88 be
       0.053950958 0.085877046 -0.07961535 -0.26731473
0002f0 58 15 c3 3d d8 0b 75 3d 5f 11 09 be ae 8e 0e 3e
       0.09525555 0.05982575 -0.13385533 0.13921615
000300 74 d8 b6 3d 1e 6d 57 3e 82 12 ac 3d 6e 2e b9 bd
       0.08928004 0.21037719 0.084019676 -0.09042059
000310 36 6f 1c 3e 3a 61 90 be 3e 11 ea bd 47 ca 10 3e
       0.15276799 -0.28199178 -0.1142907 0.14139663
000320 68 39 09 3e 15 f5 36 3e ff 22 c4 bd 8d d1 4c be
       0.13400805 0.17866929 -0.095769875 -0.20001812
000330 d3 80 92 3c c0 32 92 bc 29 e6 d6 bd 69 6b 14 be
       0.017883694 -0.017846465 -0.10493118 -0.14494099
000340 08 ae 51 3d e8 9b e7 bd 0e 40 29 3e a2 1b 60 be
       0.05119136 -0.11309034 0.16528341 -0.21885541
000350 61 f5 c1 3e 12 96 1d 3e 5e 88 6e 3b 52 4a 08 3e
       0.37882522 0.15389279 0.00363972 0.13309601
000360 bd 2a 14 3e d9 bb 31 bd 31 2d aa 3d ca dd 11 3d
       0.14469428 -0.043392036 0.08309401 0.035611905
000370 6d 19 70 3e 2a 77 3e be 12 50 25 3e 22 4e 40 be
       0.23447199 -0.18600145 0.16143826 -0.18779805
000380 60 1e 1a 3e 3b ce d8 3c 42 d0 7e 3e b0 f3 4d 3e
       0.1505065 0.026465526 0.24884132 0.2011249
000390 7a fa 84 be 1c f4 3f 3e e2 2c 28 be b7 e8 fa 3c
       -0.25972348 0.18745464 -0.16423371 0.030628545
0003a0 85 ee a1 bd 40 ea 7f bd 93 c1 53 3c f1 38 e6 bd
       -0.07906822 -0.062479258 0.01292457 -0.112413295
0003b0 df 06 cf 3e 68 ca 28 3b df c2 df 3d 2c ac d3 3e
       0.4043493 0.002575541 0.109258406 0.41342294
0003c0 7a a6 e8 3d 18 ee 23 be 4f 7f 4c 3d 1e c1 a0 be
       0.11359878 -0.16008794 0.0499261 -0.31397337
0003d0 15 c4 3c be 08 c8 95 be 66 d5 c3 3d 4e 6d 6a 3d
       -0.18434174 -0.29254174 0.09562187 0.057233147
0003e0 fa 5d 73 3e b7 82 11 bd 69 37 e4 bc 44 53 80 3d
       0.23766318 -0.03552505 -0.027858453 0.06265882
0003f0 2e 21 89 3d b7 48 47 3d f4 66 12 3e 09 40 e2 bd
       0.06695782 0.04865333 0.14297086 -0.1104737

weight f4 [256]
000000 95 e3 9a 3f 93 62 85 3f b6 6d 70 3f ec 94 94 3f
       1.2100703 1.0420707 0.93917406 1.1607947
000010 bf 69 70 3f c4 1f 8e 3f ed c4 96 3f 4b aa b3 3f
       0.93911356 1.1103444 1.1778847 1.4036344
000020 30 9f a1 3f 3a 43 9d 3f 11 b4 6d 3f b3 68 85 3f
       1.2626705 1.2286141 0.92852885 1.0422577
000030 6a ce 95 3f c3 64 a4 3f e2 e6 93 3f 5d 49 98 3f
       1.1703618 1.284325 1.1554835 1.1897389
000040 6b f9 93 3f 55 28 83 3f db c4 7a 3f 53 3f ac 3f
       1.1560491 1.0246683 0.9795663 1.3456825
000050 a0 04 99 3f 4f e9 9c 3f 5e ae 96 3f 12 65 81 3f
       1.1954536 1.22587 1.1771963 1.0108969
000060 79 84 9a 3f 1a ea 96 3f b9 a5 a8 3f dd 88 98 3f
       1.2071677 1.1790192 1.3175575 1.1916767
000070 25 30 8b 3f ff 7d 6a 3f d5 74 9c 3f c1 61 6f 3f
       1.0874068 0.91598505 1.2223154 0.93508536
000080 88 ab a3 3f c8 e2 a1 3f 6a 32 90 3f 2e 21 88 3f
       1.2786722 1.2647333 1.1265385 1.0635126
000090 74 b1 9e 3f 43 34 a0 3f cc 55 a1 3f 0e 65 a1 3f
       1.2397904 1.2515949 1.2604308 1.2608964
0000a0 a8 1e 84 3f 3e ad 72 3f 2d bd 70 3f 43 6e 76 3f
       1.0321856 0.94795597 0.9403866 0.96261996
0000b0 48 15 80 3f e2 92 69 3f f5 a8 b8 3f 3f ee b0 3f
       1.0006495 0.9123975 1.4426562 1.3822707
0000c0 26 4d 8b 3f 07 81 91 3f f6 6b a0 3f 5b 09 9e 3f
       1.0882919 1.1367501 1.2532947 1.2346605
0000d0 b5 f5 96 3f f1 df 73 3f 26 9f 8d 3f fe 30 a0 3f
       1.1793734 0.9526358 1.1064193 1.2514951
0000e0 4f 5b 92 3f 5a 89 a8 3f 8c 3b ad 3f 72 6f a9 3f
       1.1434115 1.3166916 1.3533797 1.3237135
0000f0 b1 c7 9f 3f 6e 38 a4 3f 74 d6 84 3f 8d 11 9d 3f
       1.2482816 1.2829721 1.0377946 1.2270981
000100 78 63 9b 3f ad 9a 99 3f 61 9d a4 3f 02 f1 85 3f
       1.213973 1.2000328 1.2860528 1.0464175
000110 52 71 a4 3f 18 f0 9b 3f 1b 60 92 3f db a6 8f 3f
       1.2847083 1.2182646 1.1435579 1.1222795
000120 4e 12 87 3f 20 32 81 3f 59 99 86 3f 76 38 90 3f
       1.0552461 1.0093422 1.0515548 1.126723
000130 72 e8 91 3f e8 3e 78 3f 72 45 8e 3f ff 19 73 3f
       1.1399062 0.9697099 1.1114943 0.9496154
000140 41 89 9d 3f b3 b1 a5 3f f1 70 85 3f b9 0c 6a 3f
       1.2307512 1.2944854 1.0425092 0.91425663
000150 3a 0c 8b 3f 76 07 94 3f 12 82 9a 3f 0e 29 82 3f
       1.0863106 1.1564777 1.2070944 1.0168779
000160 a2 7e a8 3f f8 8e b9 3f 98 59 d0 3f b7 94 8f 3f
       1.3163645 1.4496756 1.6277342 1.1217259
000170 2b c1 ad 3f f8 81 7d 3f ae 1e a7 3f 59 d9 92 3f
       1.3574575 0.9902644 1.3056238 1.1472579
000180 24 9d 8b 3f 59 9f 7c 3f c5 ea 75 3f b7 fe 61 3f
       1.090733 0.98680645 0.96061355 0.8827929
000190 de 76 9e 3f 91 77 60 3f 62 58 a3 3f 94 ef 83 3f
       1.2380025 0.87682444 1.2761347 1.0307488
0001a0 9c 3f 9c 3f ba 1e c8 3f 9b ba 9d 3f 55 51 89 3f
       1.2206912 1.5634377 1.2322572 1.0727946
0001b0 98 74 98 3f b2 90 94 3f 25 61 92 3f 71 22 8e 3f
       1.1910582 1.1606658 1.1435896 1.1104261
0001c0 a2 d2 92 3f 23 25 81 3f ee 8c 8d 3f 10 ae a9 3f
       1.147053 1.0089458 1.1058633 1.3256245
0001d0 70 51 87 3f 4c 21 bd 3f b0 30 9a 3f 6b b1 8a 3f
       1.0571728 1.4775786 1.2046108 1.0835394
0001e0 66 68 93 3f 54 11 80 3f 04 6e 64 3f b5 5a 92 3f
       1.1516235 1.0005288 0.8923037 1.1433932
0001f0 ee 60 a5 3f d0 db 98 3f 7a e1 99 3f fc 0e 9e 3f
       1.2920206 1.1942081 1.2021935 1.2348323
000200 30 a9 9e 3f 51 fe ac 3f 37 0c 95 3f 66 1d 9a 3f
       1.2395382 1.3515111 1.1644353 1.2040222
000210 46 79 8d 3f 91 90 9b 3f aa 16 a8 3f a8 26 a6 3f
       1.1052635 1.2153493 1.3131917 1.2980547
000220 a2 23 b8 3f f3 ec 94 3f 4f a0 91 3f 7f 12 9d 3f
       1.4385874 1.1634811 1.1377047 1.227127
000230 5c 20 93 3f d1 45 9a 3f 99 7e 9b 3f 60 6f a0 3f
       1.149425 1.2052556 1.214801 1.2533989
000240 02 bf a9 3f 87 f6 93 3f fa aa 8a 3f 54 2a 8b 3f
       1.3261416 1.1559609 1.0833428 1.0872293
000250 c7 00 a1 3f 1d 8f 9a 3f f1 06 91 3f e7 5d 97 3f
       1.2578362 1.2074925 1.1330243 1.1825532
000260 3a 34 94 3f 8c 9d 98 3f c1 41 a9 3f 7d cb 94 3f
       1.1578438 1.192308 1.3223191 1.16246
000270 8c 2e 5d 3f 46 46 9e 3f f3 17 92 3f 2c 95 af 3f
       0.8639915 1.2365196 1.1413559 1.3717399
000280 4f c2 7c 3f a7 27 b1 3f f1 3f 8d 3f 92 15 a0 3f
       0.9873399 1.3840226 1.1035138 1.2506583
000290 81 27 3b 3f 43 69 9f 3f ad 77 9f 3f f6 8b 97 3f
       0.73107153 1.2453998 1.2458397 1.1839588
0002a0 bd 3b 8e 3f 7b b0 74 3f dc d4 92 3f 0d 88 8d 3f
       1.1111981 0.9558179 1.147121 1.1057144
0002b0 e0 37 8c 3f e5 29 ad 3f 4c b0 51 3f ff 4f b2 3f
       1.0954552 1.352841 0.8190963 1.3930663
0002c0 45 bf 89 3f cf b7 96 3f eb 15 9a 3f d1 36 84 3f
       1.0761496 1.1774844 1.2037939 1.0329229
0002d0 5e 02 b7 3f fe d0 97 3f 1b 80 a6 3f f7 1b 8e 3f
       1.4297597 1.1860654 1.3007845 1.1102284
0002e0 54 4e ab 3f 6a d0 ac 3f 23 46 9b 3f 03 34 9b 3f
       1.3383279 1.3501103 1.2130779 1.2125248
0002f0 94 1b aa 3f 4a df 8e 3f b5 93 8c 3f 18 52 a2 3f
       1.3289666 1.1161892 1.0982577 1.2681303
000300 5a ee 82 3f e6 87 85 3f a3 dd 80 3f cf 70 6f 3f
       1.0228989 1.0432098 1.0067638 0.9353151
000310 6b e6 9b 3f 69 f8 ae 3f 25 83 97 3f bf 60 b4 3f
       1.2179693 1.3669559 1.1836897 1.4092025
000320 bf e5 a7 3f 16 c9 b9 3f 6e fa 91 3f 2b 9c 99 3f
       1.3116988 1.4514492 1.140455 1.2000784
000330 38 2e 95 3f 26 89 95 3f 94 bb 90 3f 8c e3 98 3f
       1.165473 1.1682479 1.1307244 1.1944442
000340 c7 a3 7b 3f da 57 a8 3f f3 04 9b 3f e0 5d 7a 3f
       0.9829678 1.315181 1.2110885 0.9779949
000350 89 ec ae 3f a8 18 69 3f 37 83 80 3f 4a 0c 73 3f
       1.3665935 0.9105325 1.0040044 0.94940627
000360 ae 05 c4 3f 5c bb 8c 3f cc cf 74 3f eb 1b 9c 3f
       1.5314233 1.0994678 0.9562957 1.219602
000370 b4 f2 93 3f b6 e7 86 3f 93 72 8e 3f 59 14 a5 3f
       1.1558442 1.0539463 1.1128715 1.2896835
000380 25 1a a8 3f 90 93 b0 3f a5 54 a8 3f 47 6e 9c 3f
       1.3132979 1.3795033 1.3150831 1.2221154
000390 d6 99 a2 3f 83 1a 96 3f 1a 0d 7e 3f 15 04 8f 3f
       1.2703197 1.1726841 0.9923874 1.1173121
0003a0 46 07 94 3f 5c dd 91 3f 3c 24 9d 3f 69 ba 92 3f
       1.156472 1.1395679 1.2276683 1.1463138
0003b0 c6 e6 b0 3f df db ab 3f b9 87 ab 3f 7b 10 aa 3f
       1.3820426 1.3426474 1.3400794 1.328628
0003c0 97 2e 9f 3f 70 85 9b 3f 9b f2 92 3f 87 00 9e 3f
       1.2436093 1.2150097 1.1480287 1.2343911
0003d0 3d f5 99 3f e0 49 79 3f e4 ee a8 3f fa e7 80 3f
       1.2027966 0.9737835 1.3197904 1.0070794
0003e0 26 e1 a3 3f e6 cf 5e 3f c6 29 a7 3f 8d b9 8c 3f
       1.2803085 0.8703598 1.3059623 1.0994126
0003f0 7b 90 76 3f 93 b4 7b 3f e8 f7 a1 3f 19 76 70 3f
       0.9631421 0.9832241 1.265378 0.939302

bias f4 [256]
000000 89 8c 91 3e e9 c2 bd 3d 29 37 2f 3e 44 ff 61 3e
       0.28427532 0.09265692 0.17110886 0.22070032
000010 52 97 11 be 54 6c 53 3e 58 8c 2a 3e b9 67 6b 3e
       -0.1421788 0.20646793 0.166551 0.22988786
000020 ef c0 90 3e 00 36 33 bd 81 da 3d 3e 50 0a 7b 3e
       0.28272197 -0.04375267 0.18540384 0.24515653
000030 b6 dd 5a 3e a0 5c 02 3e 3f a2 73 3e 5a 1e 7c bd
       0.21373639 0.12730646 0.2379236 -0.061552383
000040 b4 be 6d 3e b5 47 66 be 47 4b 81 be b2 46 4a 3e
       0.23217279 -0.22488292 -0.25252745 0.1975353
000050 1e 89 8e 3e 66 c8 ae 3e 7e 1a e6 3d 20 e3 20 3e
       0.27838987 0.34137267 0.11235522 0.15711641
000060 ba 3e 4a 3e 77 72 b3 bd 53 07 97 bd 2c 39 8d 3e
       0.19750491 -0.08762067 -0.07374444 0.2758268
000070 18 99 59 3e 87 9c e3 3d ce d7 ce 3d 58 9d bf bd
       0.21249807 0.111138396 0.10099755 -0.09356183
000080 8b fa 45 3e 23 25 07 3e dc bc 79 bd 70 8a fb bd
       0.19333856 0.1319776 -0.060971126 -0.12282264
000090 aa f3 9b 3e dc 13 cc 3b 9e f0 1d 3e ea 4b ff 3d
       0.30459338 0.0062279534 0.1542382 0.12465651
0000a0 a5 c8 82 3e 8b d0 f1 bc 44 01 4b 3e 13 e1 57 3e
       0.25543705 -0.029518386 0.19824702 0.21081953
0000b0 f8 fc 7c 3e 9a 1b db 3d 72 5f 1f 3e 0d 94 b1 3e
       0.24705875 0.10698624 0.15563753 0.34683266
0000c0 dd 39 51 3e 59 95 b1 bd 41 60 32 3e 6d 6a 76 3e
       0.2043223 -0.08671064 0.1741953 0.24064036
0000d0 89 ae 9d 3e e0 9e cc 3c cd 4a 97 3e 1a 5b bc bd
       0.30797222 0.024978101 0.29549256 -0.09197064
0000e0 28 cd bc bc 08 81 78 3e 4b e6 90 3c 57 99 89 3e
       -0.023047045 0.24267972 0.017687937 0.26874802
0000f0 fb f9 90 bc 90 be 73 3e a1 7c f1 bd 31 f4 5a 3e
       -0.017697325 0.23803163 -0.11791349 0.21382214
000100 11 32 95 3e 04 16 e1 3d 3f 40 9a 3e 6f bd 43 bd
       0.2913976 0.10990527 0.3012714 -0.04778808
000110 60 42 40 be 10 03 87 bc fd 15 74 3e 4e 82 ef 3b
       -0.1877532 -0.016480953 0.23836513 0.0073092347
000120 59 00 4e bd 21 90 5b bd ab dd 6a 3e c1 f3 85 3e
       -0.0502933 -0.05360425 0.22936122 0.26162532
000130 41 5c 0d 3e 64 8a cf 3d d6 d3 2c be bd 6a 2d 3e
       0.13804723 0.10133818 -0.16877684 0.16935249
000140 94 2f 0e 3d b9 b4 01 3e c1 6c 3d 3b 12 ea 44 3e
       0.034713343 0.12666596 0.0028903934 0.19229916
000150 0f 0d 78 bd f0 b3 74 be 24 29 54 bb 34 8d 3c 3e
       -0.06055933 -0.23896766 -0.0032373155 0.1841324
000160 51 84 dd bd 85 99 f1 bd c6 09 01 3d 2d 83 8f 3e
       -0.10816253 -0.1179686 0.03150346 0.28029767
000170 7c 20 8e 3e c8 e0 1b 3e 58 83 40 3e b5 c5 9e 3e
       0.2775916 0.15222466 0.18800104 0.31010213
000180 91 2a 87 3e 86 8f 48 bd c8 4a 70 3e 9e f3 2f be
       0.26399663 -0.048965 0.23466027 -0.17182776
000190 85 11 9c 3e 96 c3 5c 3d e0 6f e8 3d ae ba 36 bd
       0.30482116 0.053897463 0.113494635 -0.044611625
0001a0 c1 6b 0b bc ec d9 a8 3e ec c8 84 3e ec a8 36 3e
       -0.008509577 0.3297876 0.2593454 0.17837876
0001b0 1f c6 84 bd c6 17 46 3e 26 5c 8f be e4 b6 a6 3e
       -0.06483101 0.19345006 -0.2799999 0.3256141
0001c0 a9 87 7f 3e 66 54 82 3e ed 29 9a be 38 e6 b1 bd
       0.24954094 0.25455016 -0.30110112 -0.08686489
0001d0 66 79 8b 3e 2a 03 07 bd 4a 94 8e 3e 21 b0 62 3c
       0.27241057 -0.032962 0.2784751 0.013835938
0001e0 16 6c f4 3c 92 38 56 be b5 6b ca bd ed c5 8e 3e
       0.029836696 -0.20920017 -0.09883825 0.2788538
0001f0 db 48 e5 3d de 3f 77 3e 8f cf f3 3d df ea 9f bd
       0.11195537 0.24145457 0.11904823 -0.0780847
000200 03 6d c3 3e 7f 0c 0b bd fc ba 95 3e ba 73 a2 3e
       0.38169107 -0.033947464 0.2924422 0.31728917
000210 00 73 1c bd df 26 8e 3e cb c8 93 3e 30 3a 86 3e
       -0.03819561 0.2776403 0.2886413 0.2621627
000220 64 73 9b 3e ab 93 b9 3b 94 26 81 3e 52 6f a9 3e
       0.30361474 0.0056633553 0.25224745 0.33092743
000230 ca ce 97 3e 59 68 3c 3e e7 7a 6f bd 42 45 28 3e
       0.29649955 0.1839918 -0.05846682 0.1643267
000240 16 95 8d 3d 25 59 e7 3d 07 1d 46 3e 74 b3 92 3e
       0.069132015 0.112963 0.1934701 0.28652537
000250 77 37 49 be f6 06 70 3e dc 69 b8 bd 83 6f 8a 3e
       -0.19650064 0.23440155 -0.09004566 0.27038202
000260 d0 fe 6b be 25 0a e0 bd 87 fd 97 3e ca 60 17 be
       -0.23046422 -0.10939435 0.29685614 -0.14783016
000270 ee 96 05 3e b2 62 5e bd 8b ee 7f 3e fa 28 10 3e
       0.13045856 -0.054293342 0.2499334 0.14078131
000280 8a 56 46 3e 7d 99 8a bd e4 7e 2b 3e 2b 55 6d 3e
       0.1936895 -0.06767557 0.16747624 0.2317702
000290 66 21 ad bd d3 a3 ab bd bf f4 6c bd ca 93 8f 3e
       -0.08453636 -0.08380856 -0.057850596 0.28042442
0002a0 30 81 8a 3e 01 76 fb 3c b7 52 99 3e e7 9a 1f bb
       0.27051687 0.030695917 0.2994592 -0.0024353804
0002b0 9e 02 69 3e b3 9d 8c 3e 39 e6 62 3e 2b 2e b7 3d
       0.22754905 0.27464065 0.22158135 0.08944353
0002c0 a6 9e 36 3e c7 ec ae 3e d2 c2 83 bd 92 0b f4 3d
       0.17833957 0.34165022 -0.064336434 0.11916269
0002d0 22 8c 81 3e d7 62 58 3e 74 ab 4a 3d 7c 30 53 3e
       0.25302225 0.21131454 0.049479917 0.20623964
0002e0 6f 7c a6 3e 3a ce 7b 3d 93 b5 60 3e 35 92 a0 3e
       0.3251681 0.06147597 0.21944265 0.31361547
0002f0 04 36 11 bd bf 83 b5 bd ac 7d 1f 3e 97 48 2b bd
       -0.035451904 -0.08863019 0.15575284 -0.041817274
000300 3d bb 1c be 65 05 87 be 02 c4 84 bc 71 ca a5 3e
       -0.153058 -0.26371303 -0.016206745 0.32381013
000310 f5 9a 79 3e 85 02 a2 3e 83 ef 8b 3e c5 23 d1 bd
       0.24375518 0.31642547 0.2733117 -0.102119006
000320 ac 6d bd bb 53 97 7b 3e 8b 5a 75 3e 33 dc 83 3e
       -0.005780896 0.24569444 0.2396032 0.25753936
000330 38 d7 46 3e a4 00 c0 3d 40 c1 97 3e 65 dc 48 3e
       0.19418037 0.09375122 0.29639626 0.19615324
000340 e1 d2 94 3e 8c bb 94 3e 67 37 36 3e 4e 7f 8a 3e
       0.29067138 0.29049337 0.17794572 0.2705025
000350 a2 50 7b bd 3b 7a 4e be d8 b9 33 3e 63 0d 07 be
       -0.061356194 -0.20163815 0.17551363 -0.131887
000360 70 57 e3 3d 6d 93 73 3e 71 f8 cc bc 2a 32 d2 bd
       0.11100662 0.23786707 -0.02502081 -0.10263474
000370 67 d0 aa bd 18 bf 80 3e fe e0 b4 bd 4a e1 92 3e
       -0.08340531 0.25145793 -0.08831976 0.28687507
000380 7f e3 b3 3d bd 50 c4 3e a5 bd 47 bd 9e 4f 21 bd
       0.08783626 0.38342848 -0.048764843 -0.03938257
000390 c0 a9 89 3e 07 f3 3d be 5a 07 f3 3d b4 47 92 3e
       0.2688732 -0.18549739 0.118666366 0.2857033
0003a0 b3 80 95 3e 96 3f 9a 3e 17 29 b2 3e 51 7c 80 3e
       0.29199752 0.30126637 0.34796974 0.25094846
0003b0 af 5d 03 be 86 de 03 be 45 3e 73 3e 00 47 84 bc
       -0.12828706 -0.12877855 0.23754223 -0.016147137
0003c0 bb f8 7d bd b5 71 85 3e 49 a8 bb 3c f9 01 95 3e
       -0.062004786 0.26063314 0.022907393 0.29103068
0003d0 36 26 75 3e ea bc 0a 3e 62 4e a1 3e 04 64 67 bc
       0.23940358 0.13548627 0.31505114 -0.014122967
0003e0 84 f0 4c be 37 1a 09 3e 3a b5 bf bc e6 22 86 3e
       -0.20013624 0.13388906 -0.023401845 0.261985
0003f0 93 eb d6 bc 50 f9 0a 3e 97 55 a5 bd 3e d7 2e 3e
       -0.026235377 0.13571668 -0.080729656 0.17074296
