Best_models/wisdm_CNN_20210122_212207/CNN_wisdm_Rep_8_Seed_208.pt (torch_old, 224391 bytes, 12 tensors)

weight f4 [64, 6, 3]
00000000: 9fa6 88bd ff57 4b3d 9927 8d3d aac1 773e
00000010: 69b0 423d e086 c0bd d3a2 183e ca5e 0abd
00000020: 02a2 2a3d 66d9 a5bc aa0d 2d3d a1f7 b2bd
00000030: 7f0d 143d 0617 0dbf 9167 dc3e 7a90 3abe
00000040: c32d f6be a5a7 2e3f b916 063f b7c7 ed3d
00000050: 7bdc 133e 6255 c8be 3f09 103e 49fc 5e3e
00000060: d402 e93e 40bf b3bd c8d2 a23d f541 cd3e
00000070: 79a5 f33d a494 8abe 73e3 0ebf 72da 23be
00000080: 4c91 0b3d 2524 b43e 1c19 b1be dad5 57be
00000090: 896c 53bd 953d f8bc 5085 073e 3c6c 9ebe
000000a0: 45f7 073d 7a45 8ebe 0d8e f7bd d079 f03d
000000b0: 972e 8cbc cc07 afbe ad25 f6bd 9555 0a3f
000000c0: 6f92 36bf 3dc1 653f abb1 fabe 5703 073e
000000d0: d7af 76be 3e41 293e 27ed 883f f37e f13e
000000e0: 1c2e 2cbf 0e3d 163e 48bb fc3e 23c6 e53d
000000f0: 6d25 0cbf bba4 c33e 6c7e 923f 6535 5d3e
00000100: 2114 b8be 5656 8c3d 742e d33d dd7a c43c
00000110: 6a9d 7bbe 36de d63d de17 1a3c 77d0 703d
00000120: 8f0f 95bc 30ff 2abe aa8d eebd 37e5 c5bd
00000130: 3c24 f0bd 3fae 983d 4e9b 593e 2ea2 d63e
00000140: 0b1a 95bd 01c6 dabe 60e0 3e3e c1bc b93d
00000150: c6f8 bebe 40d0 0a3f 5c7e 49be 01ac 49be
00000160: f9d5 fb3e fcfb 49bf 40ad e53e 9d57 d5bd
00000170: 4b4d 2ebf c06d 2d3e af56 1dbe 0b41 e7be
00000180: 5458 903e 06ea 6a3e 2904 23bf f46b 1a3e
00000190: 666b 543c c74c b5bd 1bbb ed3e b577 34be
000001a0: b440 2f3d 03fe aa3e 4076 d7be 1d10 833e
000001b0: db62 0f3e 714d c8bb f482 d33e b159 613e
000001c0: 8539 cb3d 3ed9 34bf efc3 f03d b73a 60be
000001d0: 5b04 433e 69fe ec3e b651 d33b d2dc 02bf
000001e0: 8ff1 17bc 360e fb3d 1c29 99be 06ad 17be
000001f0: 5aca 9c3e acc5 48be cbac babe 43b8 56bd
00000200: 5b54 573e bf82 61be 9020 2f3e 568a 333d
00000210: db0a 89be 596b 49be 960e 9f3b 3cd2 0dbf
00000220: 17fc 6cbb 319f 243f 59b3 6c3d e97e 793d
00000230: 4beb fcbe 8866 52be f274 db3e 4337 db3e
00000240: 7501 723f 3832 53be 663f 56bf 353d 41bf
00000250: 9a7c 42bf 7feb a43e 6a17 6cbe 2c2c a8be
00000260: 6b80 ab3d a8d0 713d 3d97 0e3d 746b 5d3e
00000270: c16e a3bd e2c5 033f f1db a1be fc71 5fbd
00000280: b899 823e cd1f 05be 5a9c 8cbf e5b9 bcbe
00000290: 9a5a 5e3f 4404 f9be 90e8 07bf 0c92 2c3e
000002a0: 9450 c7be 2f67 94be d77f 32bd e307 9dbe
000002b0: 7334 443e 84b9 023e 59fc 0ebe 3477 08be
000002c0: edb4 403e 7637 01be b94a fe3d 6943 86be
000002d0: 6b5f 06bd dc8f 8fb9 6f56 433e 3f23 663e
000002e0: f80a 1d3d 43a2 5e3e 3f61 4cbc 2e5e d1bb
000002f0: 0ba4 a0bd bb51 5d3e bce3 9e3e 9623 b4be
00000300: e480 48bf d3f6 0a3e 42d7 193f 4b3e 0d3f
00000310: 3db6 48be 12af cdbc 2f6a 5d3e 409b 923e
00000320: 5723 0cbe 44ea 01bf 99d6 09bf f5ce 9a3e
00000330: a103 ecbe 2457 f93e 9088 653f ecac 093e
00000340: 199f 9dbe 4644 cf3d ff05 b03e cd38 b5be
00000350: 2706 0ebe a85e 8fbd f925 0b3e 3910 93be
00000360: 82de a8bb 3d16 de3d c5f3 74bc a065 e4bd
00000370: ee1f 20bd 5e49 2a3c a484 34be c118 9dbc
00000380: 46f7 163d 49b5 41bf 1fa0 a0be 6d2e 723f
00000390: c6a8 1e3e 6179 36be 25d7 253e 7304 9dbe
000003a0: 49f8 80bd 01f3 5fbe 9f28 88be 4cd6 b53d
000003b0: 9fee e53e 3e2b b13e 81af f83d ab1e b8be
000003c0: 194c 493d f6fd 2dbe 21a7 e4bd ac57 933d
000003d0: 8c2b 123e 8bd6 e6be 5eaf 88be 0126 bcbe
000003e0: f17a 193d 5bd8 8dbe 6692 8bbe 1945 85be
000003f0: 9b7b 86be 0daa 7ebd c801 2fbe 4b22 80be
-0.066724055 0.049644466 0.06892318 0.2419497 0.04753152 -0.09400725 0.14905863 -0.033781804
0.04165841 -0.020245265 0.04224936 -0.08738638 0.036145683 -0.55113256 0.43047765 -0.18219176
-0.48081788 0.68224555 0.5237842 0.11610358 0.14439575 -0.39127642 0.14066027 0.21775927
0.4550997 -0.087767124 0.079503596 0.40089384 0.11896796 -0.2706653 -0.5581581 -0.16001299
0.034074113 0.35183826 -0.3458947 -0.21077672 -0.05161718 -0.030302802 0.13234448 -0.3094195
0.0331948 -0.2778738 -0.12087641 0.11741984 -0.01711206 -0.34185636 -0.12018905 0.5403684
-0.7131719 0.89747983 -0.48963675 0.13184868 -0.24090515 0.16528794 1.0697373 0.47167167
-0.6725786 0.14671728 0.49361634 0.11219432 -0.5474461 0.38211617 1.1444831 0.216024
-0.35952857 0.06852405 0.103115946 0.023984367 -0.24571767 0.10491602 0.009405104 0.058792558
-0.018195895 -0.16698909 -0.11648114 -0.0966286 -0.11725661 0.0745511 0.2125065 0.41920608
-0.07280358 -0.4272919 0.1864028 0.09069205 -0.37299174 0.54224014 -0.19677109 -0.1969452
0.49186686 -0.7890012 0.44858742 -0.104171015 -0.6808669 0.16936398 -0.15365098 -0.4516681
0.2819239 0.22940835 -0.6367822 0.15080243 0.012965059 -0.08852535 0.46431813 -0.1762379
0.042786315 0.3339692 -0.42082405 0.2559823 0.14002554 -0.0061127474 0.41310847 0.22006871
0.0992308 -0.70643985 0.11756121 -0.21897398 0.1904463 0.4628785 0.0064489497 -0.51118195
-0.009273901 0.1225857 -0.29914176 -0.14812097 0.30623132 -0.19606656 -0.36459956 -0.05242182
0.21028273 -0.22022532 0.17102265 0.0438331 -0.26766095 -0.19669856 0.0048540337 -0.5539892
-0.0036161 0.64305407 0.057788227 0.060912047 -0.49398264 -0.20546925 0.4286266 0.428156
0.94533473 -0.20624626 -0.8369049 -0.7548402 -0.75971377 0.3221092 -0.23055807 -0.328462
0.08374103 0.05903688 0.0348122 0.21623021 -0.07980109 0.5147382 -0.31613114 -0.054552063
0.25507903 -0.13000412 -1.0985215 -0.36860576 0.86856997 -0.48636067 -0.5308924 0.16852587
-0.38928664 -0.28984973 -0.04357895 -0.3067008 0.19160633 0.12766081 -0.1396345 -0.13326722
0.18819018 -0.12618813 0.12416596 -0.26223305 -0.03280584 -0.0002738227 0.1907594 0.22474383
0.03834054 0.21741585 -0.012474357 -0.006389401 -0.07843789 0.21613209 0.31033123 -0.351834
-0.7832167 0.13570718 0.6009408 0.55173177 -0.19600768 -0.025107894 0.21622537 0.2863407
-0.13685356 -0.50748086 -0.53843075 0.3023602 -0.4609652 0.48699296 0.896615 0.1344487
-0.30785444 0.10120444 0.34379575 -0.35394898 -0.13869534 -0.07000476 0.13588704 -0.28723314
-0.005153478 0.10844085 -0.014950697 -0.11152196 -0.03909295 0.010393469 -0.17628723 -0.019176843
0.036856912 -0.75667244 -0.31372163 0.9460209 0.1549407 -0.1781974 0.16195352 -0.30667457
-0.06297357 -0.21870042 -0.2659349 0.088787645 0.44908616 0.34603304 0.1214285 -0.35960898
0.049144838 -0.1699141 -0.1116469 0.071944565 0.14274424 -0.45085558 -0.26696295 -0.36747745
0.03747076 -0.2770413 -0.2726013 -0.2602928 -0.26266178 -0.06217389 -0.17090523 -0.25026163

bias f4 [64]
00000000: 2eb9 5fbe 4eb2 92bf f302 eabe 06d8 1ebf
00000010: 04e2 1fbf 6e91 07bf 779b 26bf 8fc7 28bf
00000020: d7eb 6dbf 4f54 54bf 0fd2 1abf 64c3 0cbf
00000030: dfad 3fbf 47e1 03bf 5914 11bf 1ec7 b9bf
00000040: 6208 dcbe 3503 35bf 38e9 bbbe 4aae acbf
00000050: 372a 0bbf 2430 cdbe 80c0 91bd 308d 00be
00000060: 1552 e2be db5d 06bf 0a2d 94bd bd6b 8e3e
00000070: 152d 96be 1bde 11be 0ebe 22bf 2e64 34bf
00000080: 0c4f 88be ce70 a0bf b87b 66bf 2ac2 babe
00000090: a63f 4ebf e529 41bf 4e9e 33bb a2e7 a7be
000000a0: e873 6cbf eac7 85bf 8339 813e 9538 94bf
000000b0: faf4 57bf 1bf7 50bf 23b0 84bf ba60 72bf
000000c0: 7642 9abf eb8e c3be a62f efbe 5f09 05bf
000000d0: 5a07 c1be b11e 9bbe 18a0 55bf b81b 8dbf
000000e0: b7b9 2dbf e140 d0be 76bf 2abf e29e 98bf
000000f0: 3666 11bf 66fa cebe cde2 74bf f6c9 67be
-0.21847984 -1.1460664 -0.45705375 -0.62048376 -0.6245425 -0.52956283 -0.6508097 -0.659295
-0.9293799 -0.82941145 -0.60476774 -0.5498564 -0.7487468 -0.5151562 -0.56671673 -1.4513891
-0.42975146 -0.7070802 -0.3670137 -1.3490689 -0.5436129 -0.4007579 -0.071167946 -0.12553859
-0.4420325 -0.5248696 -0.07235153 0.27816573 -0.2933127 -0.14244883 -0.6357125 -0.7046536
-0.26622808 -1.2534425 -0.9003253 -0.3647626 -0.8056587 -0.7545455 -0.002740759 -0.3279391
-0.9236436 -1.0451634 0.2523919 -1.1579767 -0.8435818 -0.81627053 -1.0366253 -0.94678843
-1.2051532 -0.38194975 -0.4671604 -0.51967424 -0.3770092 -0.30296853 -0.8344741 -1.1024084
-0.67861503 -0.406745 -0.66698396 -1.1923487 -0.56796587 -0.40425414 -0.9565857 -0.22635636

weight f4 [64, 64, 3]
00000000: 7226 673e b57c 32be 5adc 073f b928 d53e
00000010: 2448 f2bb 6208 3cbf cb77 e9be 668c 2e3d
00000020: 896f 0dbf da39 12bf 156d 74bf 9d75 d4bb
00000030: d261 00be eb44 ea3d 597b e63e 2630 ce3e
00000040: f984 adbd 415f 103f 354d c9bd eb42 ffbe
00000050: b796 293e a0ac 723c 9824 40be 0b1b b1bf
00000060: 6728 96be e73d 0cbf 634a b73e 0094 46bf
00000070: 1418 23bf 36f9 c1bd fb49 79bf f35a 1dbf
00000080: 6470 9cbf 7bbb 30bd 9814 62be 9ac4 c23e
00000090: ecd8 7fbf fdf5 08bf dd24 983d 2754 6bbe
000000a0: 8702 9bbd 53f1 813e 4528 613e c96c 93be
000000b0: 62f2 283d 0cb8 ce3e 101c 88bf a137 4b3d
000000c0: c6db 04be 8f87 68be 61a4 9bbe e8fc 61bf
000000d0: 1f5c 57be 5ca9 6d3e 0ef6 30bf 4c1c dabe
000000e0: f90b 63be b436 a03e 0166 2fbe 2e92 cbbe
000000f0: 39bc dbbd d637 18be 785d 85be 7e4a 933c
00000100: bf63 a13e 1643 11bf efb5 3abe 328d 0abe
00000110: ccd2 23bd 7e8c 72be d071 36bd 3f89 a43c
00000120: f6ee 48be c9f1 8ebe 8774 4b3f 77d8 ce3e
00000130: 0ebc c5bd 6d72 be3d 24d5 afbe 6344 11bd
00000140: 96d4 1c3e a10b 473e 5dd2 3dbe 1a06 15bd
00000150: a69b c93c 0b56 09bc a8d9 673e cad5 713d
00000160: b611 98be 7d52 5fbd 9648 95bf 8664 3ebf
00000170: 642c 0fbf b30f 76be 4cdf 3dbf 9ed3 003f
00000180: a789 2b3e f719 203e 6ffb 883e d1ee 513e
00000190: cee2 213f 2908 b63c 7de6 823d c4a6 a5bd
000001a0: 4e06 cabd 7834 88be 7498 83be 7488 c8be
000001b0: ab87 e9be 11d1 41bf 7264 47be 2af4 9f3e
000001c0: 1b04 103f 8744 6abe 9fcf 093e 0702 3b3d
000001d0: 903f 90be 6365 e03e 32f0 85be 6a94 99bd
000001e0: 8216 633b f62b bcbe 8eb2 3fbf efdc d93e
000001f0: 59c5 003f c292 c03e 2317 38be 6745 723d
00000200: 1656 d2be e337 1ebc bf70 c23e 3d61 943e
00000210: 97a3 b23e 2d14 383e d515 503d ef0c bcbf
00000220: c29b aabf bb97 7bbe 32fd c53e 28bb 49bf
00000230: bee8 6d3e bdc8 f0bd d380 a1bf 136c a5bf
00000240: 426d d3be b7da aabf f1a5 28bf f729 703c
00000250: b902 d43e 237f 0e3d 2992 f83e 0197 55be
00000260: f3d5 a63d e35a 573e e0b2 963e 3f5b 8ebe
00000270: 0378 84bf b465 aabe 6a1f 52bf bca2 5dbd
00000280: 9e86 413d 73eb 3a3e 54e7 9cbe 0c9f 6d3e
00000290: 69c6 d33d 269e 66be d0ce 6ebb ccbe 413e
000002a0: 394f 8d3e 3292 15bf 2bc6 54be 8e8f f5be
000002b0: c60e 73bf 2b27 073e cb03 223e df73 cfbe
000002c0: 7034 b93d 5f41 6abf ab75 08be 1e1d 84be
000002d0: 33b0 113d 0879 c03d bfdd 5ebf 8509 7c3d
000002e0: 3965 053e a5e7 d1bd 2584 5bbe 7474 89bf
000002f0: d8e2 0a3e 2493 09bf 5edf 033e 8cd3 5dbe
00000300: b114 9c3e 8f9e 703e 745a 9ebd 5325 5ebc
00000310: 2385 d83c eba5 793e 14f0 2f3e 6de9 89bd
00000320: 4662 17be 1623 3c3e 6ecc dc3d 5807 9fbe
00000330: 3284 67be 23ad 373e 7fbd 6dbd 69ba 0abe
00000340: 291d 23bf dcb1 b4be ab78 643e 63c1 2abe
00000350: b5af 3b3e 6499 db3c 42ad fd3d d0f0 833d
00000360: 29df 3dbf 743a db3c d10e 98bd 381c 6f3e
00000370: 04bd 6b3e c414 893d 1a62 26bd ade4 973d
00000380: 4c0c 3e3c 3604 8c3e 36e0 2a3d a8f6 5e3d
00000390: 7dea bf3e 46cd 5cbe 39f9 213f bd83 0ebe
000003a0: e67e 3fbd 8486 9cbe 4a4f a8bc 9c3c cc3d
000003b0: a96e 47bc 661c aebe 691d 513e 81fe 853e
000003c0: dbcf 0d3e f282 30bd 43c4 ecbe c89d b4be
000003d0: d143 3e3d c3b8 3fbe 3077 183e f9a2 393c
000003e0: d046 583e c1a6 e33e ea0f bd3e 34e6 93be
000003f0: 3d47 cbbe 83d6 263e 960a d43e 0591 763e
0.2257326 -0.17430384 0.53070605 0.4163263 -0.0073938537 -0.7345029 -0.45599207 0.042614363
-0.55248314 -0.57119524 -0.95478946 -0.006483747 -0.12537315 0.11438926 0.45015982 0.4027111
-0.08472628 0.56395346 -0.09829179 -0.49855742 0.165614 0.014811665 -0.1876396 -1.3836378
-0.293277 -0.54781955 0.3579894 -0.7756958 -0.63708615 -0.09471361 -0.9737851 -0.614669
-1.2221799 -0.043147545 -0.22078168 0.3804062 -0.9994037 -0.5350035 0.07428906 -0.2298132
-0.075688414 0.25379428 0.21988018 -0.28793934 0.04124678 0.40374792 -1.0633564 0.0496136
-0.12974462 -0.22707961 -0.3039885 -0.8827653 -0.21031235 0.23209137 -0.6912545 -0.42599714
-0.22172536 0.31291735 -0.17128755 -0.39759964 -0.1072926 -0.1486505 -0.26047873 0.017979857
0.31521413 -0.5674299 -0.18233465 -0.13530424 -0.039995953 -0.23686406 -0.044542134 0.020084975
-0.19622406 -0.27918842 0.7947468 0.40399525 -0.09655009 0.09299169 -0.343423 -0.03546561
0.1531547 0.1943803 -0.18537278 -0.036382772 0.024610352 -0.008382331 0.22641623 0.059041776
-0.29701012 -0.054522026 -1.1662776 -0.74372137 -0.5592711 -0.24029426 -0.7416885 0.503229
0.16751729 0.15634905 0.2675433 0.20501257 0.632367 0.022220688 0.063916184 -0.08088449
-0.09864484 -0.2660253 -0.2570225 -0.39166605 -0.4561132 -0.75709635 -0.1947191 0.3124097
0.56256264 -0.22877704 0.13458107 0.04565623 -0.28173494 0.43827352 -0.26159817 -0.07499011
0.0034650867 -0.3675229 -0.7488183 0.4255137 0.5030113 0.37611967 -0.17977576 0.05914822
-0.41081303 -0.009656879 0.37976643 0.28980437 0.34890434 0.17976446 0.05080207 -1.4691447
-1.3328784 -0.245696 0.38669735 -0.788012 0.23233315 -0.11757038 -1.2617439 -1.2923607
-0.41294295 -1.3347996 -0.65878206 0.014658443 0.41408327 0.034789216 0.4854901 -0.20858385
0.08146276 0.21030764 0.29433346 -0.2780399 -1.0349125 -0.33280718 -0.82079184 -0.054110274
0.04724752 0.18253879 -0.3064524 0.23205203 0.10340578 -0.22521266 -0.0036439188 0.1892044
0.27599505 -0.584262 -0.2077872 -0.47961086 -0.9494442 0.13198535 0.1582176 -0.4051809
0.09043205 -0.91506 -0.13326137 -0.25803465 0.035568427 0.09398085 -0.8705711 0.061532516
0.13026895 -0.10249261 -0.21437128 -1.0738664 0.13563097 -0.53740144 0.12878177 -0.2166273
0.30484536 0.23497985 -0.07732096 -0.0135587035 0.026430672 0.24379699 0.17181426 -0.067339756
-0.14783582 0.18372759 0.10781179 -0.3106029 -0.22609022 0.1793714 -0.058042046 -0.13547672
-0.6371637 -0.35291946 0.22311656 -0.16675334 0.18328746 0.02680654 0.12386562 0.06442416
-0.7416864 0.026761271 -0.07424701 0.23350608 0.23021322 0.06693414 -0.0406209 0.07416663
0.0115996115 0.27346963 0.04171773 0.05443445 0.37483588 -0.2156268 0.6327091 -0.13917442
-0.04675188 -0.30571377 -0.02054562 0.09972498 -0.0121723795 -0.3400604 0.20421375 0.26170734
0.13848822 -0.04309363 -0.46243486 -0.35276628 0.046451394 -0.18722825 0.14889216 0.01133036
0.21120763 0.4446316 0.36926204 -0.2888657 -0.39702788 0.16292767 0.41414326 0.24078758

bias f4 [64]
00000000: 70f8 e6bd c257 58bf c6fd 66be cf90 0ebe
00000010: 03bb fbbe edff 75bc bed4 753d ff7c 96be
00000020: 1b79 8abe c98d 9dbd 7253 c2bf 2121 c3be
00000030: e390 14be 0db9 2f3d 35c0 4bbd c75e 8abf
00000040: 336a 1ebf 9128 04bf f74e b6be 010d 82be
00000050: 247b a3be 19d3 2d3e 3b99 b5bd 08e5 20be
00000060: c5e1 2bbf 943d 86be a368 88be f7b4 b0be
00000070: e8f8 61bf 0a06 88bd 1333 c2bb b1fd 35bf
00000080: 5574 71be b6e7 93be a88b 9c3c 4691 ddbe
00000090: 9636 13be 833a 8abe 93ff 0dbf 0ee9 f0be
000000a0: 7d53 a7bf a1dc d6be 9900 3bbf 4981 89bd
000000b0: b093 1dbf ff20 cabe 646f afbc 3a58 0ebf
000000c0: bb34 9c3d 5f62 4bbf cba7 4ebe d4f0 efbc
000000d0: da96 29bf a10e afbe 7170 9bbe 2bd9 10be
000000e0: 0e67 a3bd 0f6f c9be 904e 39bf d24c 9cbf
000000f0: c041 bdbe 66cd e5be b191 57bf 2c2c 8cbe
-0.112778544 -0.8450891 -0.22557744 -0.13922428 -0.49166116 -0.015014631 0.06001734 -0.2939224
-0.2704552 -0.07693059 -1.5181715 -0.38111213 -0.14508395 0.042901088 -0.04974385 -1.0810174
-0.618808 -0.516244 -0.3560712 -0.25400546 -0.31929886 0.16975059 -0.08867117 -0.15712368
-0.6714137 -0.26218855 -0.2664233 -0.34513065 -0.88270426 -0.06641777 -0.0059264987 -0.7109023
-0.23579533 -0.2888772 0.019109562 -0.43274897 -0.14376292 -0.26997766 -0.554681 -0.47052807
-1.3072354 -0.41965201 -0.73047787 -0.06714112 -0.6155348 -0.394783 -0.02141542 -0.55603373
0.07627245 -0.7944698 -0.20181195 -0.02928964 -0.66245806 -0.34190848 -0.30359223 -0.14145343
-0.079786405 -0.39342543 -0.723855 -1.2210944 -0.36964226 -0.4488327 -0.8420668 -0.2737745

weight f4 [256, 128]
00000000: af76 033e 218b 203e 17de eb3e 3f83 163e
00000010: fdf3 83be d315 82be 3dd2 e73c f702 9ebc
00000020: dade da3e 0ef4 4b3e 3511 e33d 1f94 263c
00000030: 37d3 bebd 8bd6 98be 0795 1b3e 5992 32be
00000040: 1134 093e c67e d3be 68e5 363e 4772 d83d
00000050: f6e0 403e 1b59 933e 0707 f03e 6b1d a43e
00000060: 0a8b a33e cf9d f33e 9d25 7cbe 59ae 13be
00000070: c605 453e bea5 57be fc01 5f3e 5abd 9f3e
00000080: 0ae5 de3e bb13 a73e 7d53 7c3e 86d9 47bd
00000090: 5367 2d3e 10a2 11bd 9e21 b3be 0edc 03bf
000000a0: 98b3 4e3e 64da 9bbe 9b53 a8bd aa0a 0fbd
000000b0: 643c 813c 91db cc3d 274a 813e 1eec 3e3d
000000c0: b52b 123e bebf 90be bdd3 5d3e 4901 31bd
000000d0: 52fc cd3e 4083 773e f00c 15bf fc25 0fbf
000000e0: aa01 b63e c4a1 ba3d 1faf 8dbe 4a8d 28be
000000f0: a309 46bf 5eae c7be 83d8 a43e ba46 653e
00000100: aedb 8e3a f222 4f3d 0e84 aabc f1d4 7d3e
00000110: 6822 44be 1b08 3ebf 7eb9 9cbd 9296 b0bd
00000120: 511e fc3d d36c bebd af46 8dbe e66b a3be
00000130: 7456 e43e 1a0c 4ebd 8f6d d93d 160f fa3e
00000140: 1fb2 d63e 3f45 053e 083e c53d bb3d 803e
00000150: 74fb e43e b2d0 903e 279c 13bd 5da3 adbc
00000160: 6ad9 943d 4c8b 223e e095 293d df99 7a3e
00000170: e442 163f bb73 983e 2e16 923d cecc 58bd
00000180: 63e3 62bd 0134 abbe 464e 9b3e 8f0d 8c3d
00000190: e419 1c3c 71aa a93e 17c0 9f3c f1c6 35bd
000001a0: a9f8 823e 45f8 b63e 2e7b 253d a0d6 9e3e
000001b0: 6340 973e 4106 e73e c2ce 193d 9b86 403d
000001c0: e71f 81bb 0310 22bd 7c11 b3bc 1594 883e
000001d0: 380f 383e b960 3cbe 3ed7 9f3e 241b 2d3e
000001e0: 88b2 64bd 0728 ff3e 919b 3cbe 52f7 afbe
000001f0: b399 f63d 07bd 8dbe ec55 403f dfc8 0e3f
00000200: 2160 b93d d741 80bd d33c 063d 5921 a1be
00000210: dc0c b3bd 7196 6bbe 2afd cf3c ec50 f4bc
00000220: dbc9 f9bd 073b f5bd d2e0 54bd 49b9 43bc
00000230: 6488 05be faea 5c3d 2ce1 16bf 5c6f c8be
00000240: f8fc 83be 7969 2fbf 631c 09bf 321e 28bd
00000250: a91e d5be 3235 e2be 03f3 1cbf 49da 41bf
00000260: 1660 86bd f441 d3bd b7ce 393e 5f3f 50bd
00000270: 54a8 a3bd 5976 d03d 80e6 b5bd 6379 6dbe
00000280: d965 c23c d969 00bf 48b6 a4bc 1c40 d73b
00000290: 44a7 87bf 9c5f a3bf e3df abbe ac83 b7bd
000002a0: 9694 8ebd f9ae c23d 670e 993e bb0e ca3e
000002b0: 4b5a 503d 966a 04bd b4d9 15be 37e3 8abe
000002c0: 50e9 2dbf 38e3 aabe ad5a d3be 8cd4 c13c
000002d0: a386 76be 9eb4 8ebe f589 623e b84e 5cbe
000002e0: 8014 27bf f5f5 02bf c400 333d 1900 3cbf
000002f0: 2194 453e 779e c23c 9601 41bf c425 13bf
00000300: 5988 8fbe 0843 1bbe cdfd 1bbf f930 c9be
00000310: 3b49 a0be 7d4b 0bba b79c 20bf d6f5 183e
00000320: 71ab 903d 8ad2 5dba 0eb6 a53e e9b0 303e
00000330: bc71 b2be 9239 e0be ec09 3cbf de81 c2bf
00000340: ed4d abbe 6ba8 bdbe 2f8e ebbd b920 21be
00000350: 3568 18bf 055a 8ebf aefd 80bd 3648 5bbd
00000360: 7083 dcbe c89e 03bf c3d1 fb3d 2c08 603d
00000370: 809a 55bf ec62 04bf aaf3 12bf e20e 16bf
00000380: f67c e0bb 130a fc3d da38 bf3d d1f3 e4be
00000390: eab4 e6be f40d c6be 1ee2 7bbb 4b77 edbc
000003a0: d7ee a1be 7141 51be 2753 5d3c 892f 57be
000003b0: 8919 afbe 26d5 37bf 914f 88bd 1a69 cbbd
000003c0: c878 6b3d befe e83b 94c3 2fbf 8e41 0cbf
000003d0: 0477 8fbe 6d85 1cbf 5036 3bbf 4e90 2bbf
000003e0: 57f0 1bbf 560e 93bf 10ea a13d 2497 233e
000003f0: 9728 36bf ec47 d6be aa04 003d 4757 75bf
0.12838243 0.15678073 0.4606788 0.14698504 -0.25772086 -0.25407276 0.028298492 -0.019288523
0.42748147 0.19917318 0.11087266 0.010167151 -0.0931763 -0.29851183 0.15193568 -0.1743864
0.13398768 -0.41307658 0.17860949 0.10568672 0.18835816 0.2877892 0.4688036 0.32053694
0.31942016 0.47581336 -0.24623723 -0.14421977 0.19240484 -0.2105932 0.217781 0.3119915
0.43534118 0.3263224 0.24641223 -0.04879143 0.16933946 -0.035554945 -0.34986585 -0.5150765
0.20185697 -0.30440056 -0.082190715 -0.03492228 0.015775867 0.100028165 0.25251886 0.046611898
0.14274485 -0.28271288 0.21662803 -0.043214116 0.40231568 0.24171162 -0.58222866 -0.55917335
0.35548145 0.091128856 -0.2767267 -0.16460148 -0.77358454 -0.3900022 0.32196435 0.22390261
0.001089921 0.050570436 -0.020814922 0.24788262 -0.1915375 -0.7423112 -0.07652567 -0.08622469
0.1231047 -0.092981 -0.2759299 -0.31918257 0.44597208 -0.05030451 0.106166 0.48839635
0.4193277 0.13014697 0.09630972 0.25047097 0.44723094 0.28284222 -0.03603759 -0.021196062
0.07268031 0.1587345 0.041402698 0.2447276 0.58695817 0.29775795 0.07133137 -0.052929692
-0.055392634 -0.33438113 0.30333155 0.068385236 0.009527657 0.3313785 0.019500775 -0.04437918
0.25580338 0.3573629 0.040400676 0.3102312 0.2954131 0.4512196 0.037550695 0.04700337
-0.0039405706 -0.03956605 -0.021858923 0.26675478 0.17974555 -0.18396272 0.31218904 0.16904885
-0.055834323 0.49835226 -0.18418719 -0.34368378 0.120410345 -0.2768328 0.75131106 0.55775255
0.09051538 -0.06262558 0.03277285 -0.31470755 -0.08742687 -0.23006608 0.025389273 -0.029823743
-0.12196704 -0.11974149 -0.051972218 -0.011946031 -0.1304031 0.05393503 -0.58937335 -0.3914746
-0.25778937 -0.68520314 -0.5355894 -0.04104442 -0.41624954 -0.4418121 -0.61308306 -0.757237
-0.06561296 -0.10315314 0.18145262 -0.050841685 -0.079910904 0.10178823 -0.08881855 -0.23190837
0.023730205 -0.5016151 -0.02010645 0.0065689217 -1.059792 -1.2763553 -0.3356925 -0.08960661
-0.06961934 0.0950603 0.298938 0.39464363 0.05086736 -0.03232821 -0.14633828 -0.27126476
-0.6793413 -0.3337648 -0.41280118 0.02366092 -0.24074797 -0.27872175 0.22122939 -0.21514404
-0.65265656 -0.5115655 0.043701902 -0.7343765 0.19294788 0.023757203 -0.75393045 -0.574795
-0.28033713 -0.15162289 -0.60934144 -0.39295176 -0.3130587 -0.0005313678 -0.6273913 0.14937529
0.0706395 -0.0008461854 0.3236546 0.17254986 -0.34852397 -0.43793923 -0.7345264 -1.5195882
-0.3345789 -0.37042555 -0.11501729 -0.15735139 -0.5953401 -1.1121222 -0.062983856 -0.053535663
-0.4306903 -0.51414156 0.12295868 0.054695293 -0.83438873 -0.5171344 -0.5740305 -0.5861646
-0.006850834 0.12306609 0.093370155 -0.44717267 -0.450599 -0.3868252 -0.0038434337 -0.028987547
-0.31627533 -0.2043512 0.013508595 -0.21014227 -0.3419917 -0.71809614 -0.06655801 -0.09932156
0.057488233 0.0071104458 -0.68657804 -0.5478753 -0.2802049 -0.6114109 -0.7312975 -0.67017066
-0.60913604 -1.148875 0.07905972 0.15975624 -0.71155685 -0.41851747 0.031254448 -0.958363

bias f4 [256]
00000000: 7d2d 09bf 490e 923e 2f9b af3e 4b10 8b3d
00000010: 419c dcbd 524b 013e e8f7 173e 21ca 03be
00000020: 3c1a 3d3e 9eb5 c83e faf4 4d3e d84e 1abf
00000030: 41bd 9b3e f230 ce3e 2335 213e 7aba 273e
00000040: 174d 19bb d1aa 2ebf 772f 833e 4ff8 533e
00000050: 2432 723e a828 cc3d cc02 ecbe 00d3 89bd
00000060: 0e73 f03e 6918 bd3e 0bed 04bf 6acf cc3d
00000070: d666 123e 643a d53e 406e febe 43a9 98be
00000080: cfaf a7be cf45 54be dab8 27bf 2b8b 22be
00000090: 776c 84bd 6cbc 9bbe f33c 16be 216f b13e
000000a0: aa26 4d3e 4efa 2fbf a9c3 dfbe 359d 06be
000000b0: cfbb ab3d 09ea 3ebe 3af7 823d 4a88 393e
000000c0: 7447 a8be 8cb9 13bf 7600 e4be e14a 3d3f
000000d0: 8870 0c3e 14d3 af3e a1d6 443e dcfa d63c
000000e0: 9a38 d9b9 688b 2b3e 22fa 1c3f 041c e5be
000000f0: 7558 e93e c8dc 463f 0387 053d bb5e ee3d
00000100: 62ca 9f3d 22f1 213e 0a38 77bd f530 513e
00000110: 3020 1b3f b858 db3e 03db 21bf f864 123f
00000120: 53f1 b2be 0488 d1be 9b4e 3b3d 9851 263e
00000130: b9c3 28bf 6412 c5be 436a b03c dcf9 d03d
00000140: 38ad 0a3f b812 49bd 124a 46be af64 713e
00000150: baee de3d 5bd8 813e a746 f33d 4a29 6e3e
00000160: 66bb 9e3e d59c e6bc 9665 a53d b6e7 2d3e
00000170: 5ef4 473e bd40 5a3f be26 7d3d ce32 27be
00000180: 9012 803e 462c c23d f00c 723e db10 013d
00000190: 1c24 e6be f800 113d 2008 12bf 4912 6e3d
000001a0: fb3b 5c3f 2d6f c8be 597d 65be 9c4c e9be
000001b0: f81b bebe 512a f6be fe15 603d 81b4 da3c
000001c0: ffa1 003f 5ce3 973e 371b c43e fb7c 8ebe
000001d0: 7163 283f 354b d03d 355c 4d3e 2008 da3e
000001e0: 978b c7be 5e62 29bf 72c0 9f3d 9e46 03bf
000001f0: fecb 0c3d 9bba 21bf 9948 1c3e 4848 f53e
00000200: e480 6d3e c8a9 e1be 0dfe c1be b8b5 2abf
00000210: 1500 71be d822 34be 4bf5 a2bc a357 123f
00000220: 2c5e 9b3d 354d 323f 4e92 b9be 4bad 01bc
00000230: 22ee bd3d 9a94 86be e92e 0f3e 2c16 913d
00000240: 3515 6e3e 4208 0fbf 4ab3 603e 97e5 44bf
00000250: ae82 1ebf 6a38 3fbf 3f9a a8be 9e10 e9be
00000260: 319c 0abf 2a63 f43e d22d 65bb 8920 643e
00000270: b1d9 6d3d 5407 c73d b5c2 e73e bbe2 f23e
00000280: 54be 263f f4de 0d3e 22da c53d 1aaf d4be
00000290: ef9c 02bc 3b1f 0dbf c719 ca3e 7325 08bf
000002a0: c0dd e03e 9335 073e f19a 5ebd 49fb 253e
000002b0: 6731 21bf 1d0d 98be 3347 023e 3192 413b
000002c0: 909a 1b3e 3eb3 543f 316e 2ebe 8f5c e63d
000002d0: f6d8 aebe 9eed 193e 17c9 e9bc b51c 8bbe
000002e0: 82e3 0d3e 45d9 633e fcca f23d 0d5e fdbe
000002f0: 5637 393e e276 383e 51dc 24bd e87a 2bbf
00000300: 5c20 bfbe a113 d6bd 33e0 15bf 08af 6fbe
00000310: 6369 fabe d108 3e3e 3921 503e 886c 4b3e
00000320: bfce ee3e 3838 2c3e 8c95 cbbb f7f8 08bf
00000330: 93ea 883d a4f3 bebe 6e5b d43e d3f3 66bf
00000340: 3b64 803c d4d5 6a3f 761f 7dbe afab cdbe
00000350: 983d 96be ea54 c83d e2a7 69be 2eaa 9d3c
00000360: dc24 b9be 1537 47be b701 d6be 0d63 ac3e
00000370: c278 673e cd77 b8bc 1074 803d 6757 053b
00000380: 2aee 3b3e c8d2 09bf b6a3 893e 4422 05bf
00000390: 1b51 7d3e 9184 a7be 5917 20bc 73a6 803e
000003a0: 7276 973d c7bd 89be 895f 953d c750 0e3e
000003b0: 8c31 513e 5617 5ebd 8e73 b9bd a7c4 773e
000003c0: 325c 3fbf eac8 89be da61 813e cf70 bf3d
000003d0: 4d20 483f 47df 333e c3eb 76bd 4ef0 8dbe
000003e0: cbe3 313e c857 823d 413c c5be 079f e13e
000003f0: dadb 32be 630a 2fbe 8852 a03b eb8f 953e
-0.53585035 0.28526524 0.34298083 0.06790217 -0.107719906 0.12626389 0.14840662 -0.12870075
0.18467039 0.39201063 0.20112982 -0.60276556 0.30417827 0.40271717 0.15742926 0.16379729
-0.0023391896 -0.68229395 0.2562215 0.20700191 0.2365194 0.09968692 -0.46095884 -0.06729698
0.4696278 0.36932686 -0.519242 0.100004986 0.14297041 0.4164611 -0.4969349 -0.29816636
-0.3275132 -0.20729755 -0.65516436 -0.15873401 -0.064660005 -0.30417192 -0.14671688 0.34655097
0.2003428 -0.6874131 -0.43703964 -0.13145907 0.08385431 -0.18643965 0.06394811 0.18118396
-0.32867014 -0.57705 -0.44531602 0.7394238 0.13714802 0.34340727 0.192225 0.026242666
-0.00041431637 0.16752398 0.6131917 -0.44747937 0.455753 0.77680635 0.03259946 0.11639162
0.07802273 0.15814641 -0.060356177 0.20428832 0.6059599 0.42841125 -0.6322481 0.57185316
-0.3494974 -0.40924084 0.04572926 0.16242063 -0.6592365 -0.38490593 0.021535045 0.10203907
0.5417056 -0.049090117 -0.19364193 0.23573564 0.10885377 0.2536038 0.1187871 0.23257938
0.3100235 -0.028150955 0.080760166 0.16982922 0.19526812 0.8525503 0.061804526 -0.16327974
0.25014162 0.09481101 0.23637748 0.031510215 -0.44949424 0.035401314 -0.5704365 0.058122907
0.8602902 -0.3914732 -0.22411098 -0.4556626 -0.37130713 -0.4807916 0.054708473 0.0266974
0.50247186 0.2966565 0.38302013 -0.27829728 0.65776736 0.101705946 0.20054705 0.42584324
-0.38973686 -0.6616572 0.07800378 -0.5127963 0.03437423 -0.6317536 0.15262069 0.4790671
0.23193699 -0.44074845 -0.37889138 -0.6668353 -0.23535188 -0.17591417 -0.019892355 0.57164973
0.07586321 0.6964906 -0.36244434 -0.007914851 0.09273936 -0.2628525 0.13982739 0.07084307
0.23250277 -0.55871975 0.21943393 -0.76912826 -0.6191815 -0.74695456 -0.3293018 -0.4552049
-0.5414458 0.47731906 -0.0034969938 0.22278036 0.058068935 0.097181946 0.45265737 0.47438607
0.6513417 0.13854581 0.09660746 -0.41539842 -0.007971986 -0.5512578 0.39472792 -0.5318214
0.43919182 0.1320403 -0.054346982 0.16209139 -0.62966007 -0.29697505 0.12722473 0.00295366
0.1519568 0.83086 -0.17034222 0.11248123 -0.34149903 0.1503205 -0.02853827 -0.2717034
0.13856319 0.2225085 0.118551224 -0.49485818 0.18087515 0.180141 -0.040249173 -0.66984415
-0.37329376 -0.10452963 -0.58545226 -0.23406613 -0.4890853 0.1855805 0.20325173 0.1986562
0.4664211 0.16818321 -0.0062128957 -0.5350489 0.066853665 -0.37295258 0.41476005 -0.90215796
0.015672794 0.91732526 -0.24719033 -0.40170047 -0.29343867 0.09781821 -0.22817948 0.019246187
-0.36160934 -0.19454606 -0.41798183 0.3366932 0.22604659 -0.022518063 0.06272137 0.0020346285
0.18352571 -0.5383725 0.26882714 -0.5200541 0.2473797 -0.32718328 -0.0097711915 0.2512699
0.073956385 -0.269026 0.072936125 0.13898002 0.20429057 -0.054221474 -0.090552434 0.2419611
-0.74750054 -0.26911098 0.25269967 0.093476884 0.7817429 0.17565642 -0.060283434 -0.277224
0.17372052 0.06364399 -0.38522533 0.4406664 -0.17466679 -0.17093806 0.004892651 0.29211363

weight f4 [256]
00000000: 64dc 913f 19fe 8f3f 7714 be3f 67e9 5b3f
00000010: 317f 853f a39b 913f b375 bc3f 0550 bf3f
00000020: 051a 6b3f 6206 8f3f acf7 333f 5a48 893f
00000030: 761d 913f 2447 a83f d38d 4b3f 3f35 983f
00000040: f636 9b3f 633d a13f 9f6b 4b3f 38ba 6e3f
00000050: df14 953f cf19 563f d2c6 9f3f 6595 863f
00000060: 1ae4 003f 3400 8c3f f584 883f 4f42 923f
00000070: 3710 943f 3667 9d3f 9d65 9c3f 9ebb 913f
00000080: c66a 913f e9e6 8f3f 442b 993f 7c51 763f
00000090: 821f 8d3f 0d61 943f 4ca6 753f f15a 873f
000000a0: 76bb 913f 3497 9e3f 0a04 a23f 7563 8d3f
000000b0: c66b 6b3f a2c4 a03f 14fa 793f 4c71 813f
000000c0: 134f 953f 9b30 943f b984 9e3f abd6 a33f
000000d0: 4ee0 873f 0e15 823f 3aaf 9b3f 9f96 b13f
000000e0: f65a 9c3f 00e0 613f 016f 983f fd4b 713f
000000f0: dfb9 ad3f bd34 9c3f 2224 b03f be5f 443f
00000100: 1384 b63f 2f5d c23f 0b33 8b3f 616d 573f
00000110: 7472 843f cc5a b23f 5931 8c3f 4147 9d3f
00000120: 5aa5 8d3f cf92 913f 9661 b53f b969 963f
00000130: 1676 993f 625b 9b3f 8427 bb3f 8e99 7a3f
00000140: 6317 8f3f 2e7f 823f b213 913f 83e1 203f
00000150: a47b 263f 0528 543f 0c9a 923f fc78 463f
00000160: ef8a 913f 8b80 803f 8d65 4b3f 9f12 c33f
00000170: cdc6 9f3f 25f4 a73f 9597 a53f 24a0 703f
00000180: 4707 a53f 38b5 633f 5d27 933f 5bb6 593f
00000190: f58a 8d3f faac ee3f 0900 8f3f 8209 a93f
000001a0: dceb 553f f91a 8b3f 5049 6e3f 3463 a63f
000001b0: 87fd a83f 0328 8b3f a134 873f 9269 d83f
000001c0: 780c 313f a97e 983f ca09 823f af33 933f
000001d0: 758b 823f fdc4 743f b294 ab3f 4832 a13f
000001e0: b059 7a3f ec97 943f fc0f 8a3f 1bab 8b3f
000001f0: e838 8a3f f024 963f fab3 593f 8582 703f
00000200: c38a 6b3f ba32 823f a286 953f 34b7 a33f
00000210: 1f6a 8e3f 5e50 823f b247 a93f 4468 7e3f
00000220: 91fa 583f 35be 9c3f cd8d 803f f4e2 c03f
00000230: 6650 5d3f 54e0 933f 3e5b c23f d3b0 aa3f
00000240: 43e2 883f 482c 853f 9d5e ca3f 5471 8a3f
00000250: 5716 903f c8c4 9d3f 2416 893f 1f9a 9a3f
00000260: efa4 963f cf6a 8f3f b971 9b3f 1c69 4d3f
00000270: 2d41 4b3f 819e 823f a5a5 913f 5ce3 223f
00000280: b214 8e3f d1a6 c63f d9ff a03f d3f7 963f
00000290: a418 8a3f 2d0b 983f 4a3c 8c3f c222 a83f
000002a0: 7589 3a3f b17b 443f 4b13 a13f b3ea 493f
000002b0: f195 8a3f 7142 8a3f a84c c23f 6e73 9d3f
000002c0: 4a7a 5d3f 80af 983f 9f6f d93f 3f43 4c3f
000002d0: 5518 713f fae5 563f ae4f a43f 4d8e 723f
000002e0: 5d93 503f 44b0 973f 85a4 6d3f 3e24 9b3f
000002f0: 523e b63f f19d 3f3f 8837 533f d328 883f
00000300: cc39 9a3f bfed 6f3f 746e 4c3f b037 943f
00000310: 775e ae3f 0263 243f 5dd6 dc3f c1e0 383f
00000320: 6fad a23f 1224 a53f 4ddc 343f e5a3 a53f
00000330: e705 9a3f b55d a93f 0acf 8b3f db67 8b3f
00000340: aa0a da3f 87b1 1f3f 5920 8b3f 4837 9f3f
00000350: b3d3 953f f817 593f 744a 433f 9b37 f43f
00000360: ae9a a43f 3733 683f b54a 963f 8737 523f
00000370: a375 503f 4ce3 8b3f d9b9 343f d17d de3f
00000380: e651 b03f 2b85 993f 6a2c 813f fd6a 873f
00000390: 803e 743f a37e 903f 37a9 f23f 236d 903f
000003a0: 6a20 8f3f 1036 793f 0760 ca3f db42 d53f
000003b0: 888a 623f 1d8f 703f 47fb b23f 6c54 a23f
000003c0: 02f4 683f bcc1 a83f 27a8 7a3f 32e3 7d3f
000003d0: 8af7 1f3f c194 893f eda8 803f 07c0 863f
000003e0: 32ca c33f becb 9d3f 147b 8b3f 76b3 ab3f
000003f0: b33f c53f c4fc ac3f a968 d33f 5f78 a23f
1.1395383 1.124942 1.4849995 0.8590302 1.0429441 1.1375622 1.4723419 1.4946295
0.9183658 1.1173823 0.7029979 1.0725205 1.1337116 1.314671 0.7951328 1.189125
1.2126148 1.2596859 0.7946109 0.932529 1.1646994 0.8363313 1.248255 1.0514342
0.50348055 1.0937562 1.0665575 1.1426486 1.1567448 1.2297122 1.221851 1.1385381
1.136071 1.1242343 1.1966329 0.96218085 1.102524 1.1592118 0.95956874 1.0574628
1.1385334 1.2389894 1.2657483 1.1045977 0.91961324 1.2560008 0.97647214 1.01127
1.1664757 1.1577333 1.2384254 1.2799886 1.0615327 1.0162675 1.216285 1.3874091
1.2215259 0.8823242 1.1908876 0.94256574 1.3572348 1.2203594 1.3761027 0.7670859
1.4259056 1.5184687 1.0874952 0.84151274 1.0347428 1.3933959 1.095256 1.228737
1.1066086 1.1372927 1.4170406 1.1751014 1.1989162 1.2137263 1.4621434 0.97890556
1.1179012 1.0195062 1.1334136 0.62844104 0.6503241 0.82873565 1.1453261 0.7752836
1.1370524 1.0039228 0.7945183 1.5240058 1.2482544 1.3121382 1.2936884 0.93994355
1.2892846 0.8894839 1.1496388 0.8504388 1.1058031 1.8646538 1.1171886 1.3206027
0.8356302 1.0867606 0.93080616 1.2999024 1.320237 1.0871586 1.0562936 1.6907218
0.6915965 1.1913654 1.0159237 1.1500148 1.0198809 0.9561308 1.3404753 1.259347
0.977931 1.1608863 1.0786128 1.0911592 1.0798616 1.1730022 0.8504025 0.93949157
0.9200861 1.017173 1.1681712 1.2790284 1.1126136 1.0180776 1.3225005 0.99377847
0.84757334 1.2245547 1.0043274 1.5069261 0.86450803 1.1552835 1.5184095 1.3335212
1.069405 1.0404139 1.5810124 1.0815835 1.1256818 1.2325678 1.0709882 1.2078284
1.1769084 1.120447 1.214408 0.8023851 0.79396325 1.0204622 1.1378676 0.6362817
1.1100066 1.5519658 1.2578079 1.179438 1.078877 1.187841 1.0955899 1.3135607
0.7286599 0.7675124 1.2584013 0.7887375 1.0827008 1.0801526 1.5179644 1.2300851
0.86514723 1.1928558 1.6987189 0.7979011 0.9417775 0.83944666 1.2836816 0.94748384
0.8147486 1.1850667 0.9282916 1.2120435 1.4237769 0.74850374 0.8250661 1.0637459
1.2048888 0.93722147 0.7985604 1.1579494 1.3622578 0.64213574 1.7252918 0.7221795
1.2709178 1.2901633 0.7064865 1.2940642 1.2033051 1.3231722 1.0922558 1.0891069
1.7034504 0.6238026 1.0869247 1.2438745 1.170523 0.848022 0.7628548 1.907947
1.2859704 0.9070315 1.1741549 0.8211598 0.814295 1.092874 0.7059608 1.7382146
1.3774993 1.1993765 1.0091679 1.0579525 0.9540787 1.1288646 1.895789 1.1283306
1.1181767 0.9734812 1.5810555 1.6661028 0.8849263 0.93968374 1.3982934 1.2682014
0.90997326 1.3184123 0.9791283 0.991748 0.6248709 1.0748521 1.0051552 1.0527352
1.529608 1.2327802 1.0896935 1.3414142 1.5410064 1.3514638 1.6516315 1.2692984

bias f4 [256]
00000000: d2f7 c43e 633b d43c 7d9e b83e e9c4 3d3e
00000010: 9523 043e 6538 a53d 5eda 8c3d fee9 bc3e
00000020: 1d94 713d 43df 093e e907 20be 2e9c ad3e
00000030: c071 c23c 3684 3a3e 18fb ca3c f9cf 1f3e
00000040: 6869 8a3e 1f54 b13e 3b8b 0bbd 6ac2 f93b
00000050: 37cb 833e a913 833d 04a0 a83e 8306 673e
00000060: 6e80 94be 0835 b5bd 786d a53e ffcd 993e
00000070: 2091 3c3e 2811 093e 6b73 b83e cccb 873e
00000080: 7563 3a3e b672 9d3d 640f c73e 99e2 8fbb
00000090: e7ce ae3e 26a3 a03e 8c03 853a 2d49 f5bd
000000a0: 18ff d13e 180e 9b3e a662 a83e c316 b7bb
000000b0: 2204 e3bd 150c ce3d 9009 933c c920 9a3e
000000c0: 3a30 883e f7ea d83e b267 9a3e 9dc1 d73c
000000d0: 4c6f 6b3e d767 a4bd 1c31 c23c 05e1 233e
000000e0: 2239 3e3e c295 0a3d e7cc ab3d 2993 953e
000000f0: b052 c63e c50c 853d 3d05 ff3e f195 05bc
00000100: 47a3 073f 45b2 da3e 079c dd3d a5b8 23be
00000110: 6bae 853e 8b22 b13e d3c7 b53e 7302 a83d
00000120: 599c 833e 1fc4 913e ef2a 053e bda9 7d3e
00000130: 8706 a73e 3d32 903e aa98 fa3d ea6b 773d
00000140: 833e a93d cf2e 373d c19f b03e e68c b5bd
00000150: 3d4e f4bd 9c56 d1bd 7c9c 703e 36ca bf3d
00000160: 6a9b a8bc d424 643e 9a08 ad3b bd75 003f
00000170: 0ed9 963d 87be 803d ed5e 113f 2c75 643e
00000180: c88f c73e d7fc 8c3d 8753 753e be82 d23d
00000190: 8676 a53e 5d79 2d3e 7a98 963e 67dc fa3e
000001a0: 9edd 97be f2d7 723e 82b3 b83b a5ea 403e
000001b0: 909a 053f 9872 923e f6c2 ee3d af4c 053e
000001c0: 2d35 45be 3797 6a3e bee9 8c3d aecf 823e
000001d0: 2026 fd3d 8e30 d53c 7709 063f 8f8a 2ebd
000001e0: 2533 c93e 2f78 c63e e03e 633e 6aa5 963e
000001f0: eb3d 4a3e fe7b cd3e b403 25bd dc34 e9bd
00000200: 3e53 a5bc 59be fd3e 5c42 a43e e4dc dc3e
00000210: 5d17 043e 22d7 813e 02d5 18bc 13ec 253e
00000220: d8af 9b3d 3238 143d 3e02 8e3e 70a1 ff3d
00000230: 2317 b13d a64a 9f3e e31f 003f 33dc 043f
00000240: cf73 133e 3f87 b73e 1e4c a03e 34da c53e
00000250: c473 a53e 9d94 c63e 7d87 a53e 5d8f 8f3e
00000260: ee1e da3e 089e c8bc f7e4 8a3e 0166 973e
00000270: e17b 283d dcb0 3b3e 01fb ee3d 4a5a 08be
00000280: 5540 863e 9bbf a43e 2c61 503d 24ce 9b3e
00000290: 449f 103e 9f59 c13e 0d05 c53d a0a3 6a3e
000002a0: 1b2a 74be de9b 923d 013d 053f 9998 9dbd
000002b0: 5a96 923e dd8e 313e 777f 263f 5d6a 033e
000002c0: 3b1a 29bc ddbd 0c3d 8170 363f 6d7c 853d
000002d0: fb6e 3c3e a78b 203d d73c 0d3f 67d6 7c3e
000002e0: ad60 a2bc ab8f 66bd bc4e 513e 093a aa3e
000002f0: cd4f 953e 8709 713d aba3 bd3d ef64 ab3e
00000300: 89b5 f43e 396f 08bc 3526 f33d 37aa a33e
00000310: a923 053f af67 64bd 1f3c 133f 03cc 35bd
00000320: d5e4 d53d efc3 f63e 4136 c7bc e6c4 a93e
00000330: 9d75 e33e ed71 a53e 1952 a13d 4685 e43e
00000340: bcbf 263e 5739 bfbe b737 a83e 9c73 953e
00000350: 128b b83e 4839 583d 1c01 b13e 671b 243e
00000360: 37ef b23e 9454 4c3e 4466 a43e 99b9 68be
00000370: 4055 963c b3b5 fb3d 9697 5f3c 9cb1 003e
00000380: de94 193e 9181 a83e 5538 853d 883a b33e
00000390: a05d 893b 96c3 b63e 1e7c 483e 82f4 033e
000003a0: 7ea2 543e 7bce 983e 10ed fb3d 4bfb 383e
000003b0: dc0b 23be f9c3 2c3e 39c7 fe3e 3189 653e
000003c0: 9958 a83e 1618 083f 1191 113d b75e c63d
000003d0: 0489 90be daf9 fc3d 86aa a13b b5a8 7d3e
000003e0: 31d4 873e fb8e 4f3e a207 a63e de5d 8e3e
000003f0: 524e 183f 1886 f73e 1ca1 173f e8ab 6b3c
0.38470322 0.025907224 0.36058417 0.18532147 0.12904198 0.08067397 0.06877588 0.36897272
0.058979142 0.13464074 -0.15628017 0.33908218 0.02373588 0.18214497 0.024777934 0.15606679
0.27033544 0.34634492 -0.034068327 0.007622053 0.25740978 0.06400234 0.32934582 0.22561078
-0.29004234 -0.088480055 0.3231008 0.30039975 0.18414736 0.13385451 0.36025557 0.26522672
0.18202002 0.07687895 0.3887893 -0.004391026 0.3414223 0.31374472 0.0010148152 -0.11976848
0.41014934 0.3028419 0.32887763 -0.00558743 -0.11084773 0.10060898 0.017948896 0.30103138
0.26599294 0.42366764 0.30157238 0.02633744 0.22991675 -0.080276184 0.023705058 0.16003807
0.18576482 0.033834226 0.083886914 0.29213837 0.3873496 0.06496576 0.49808684 -0.008153425
0.52983516 0.42714134 0.108207755 -0.15988405 0.26109633 0.34596667 0.35504016 0.08203592
0.2570522 0.2846994 0.13004659 0.24771781 0.32622167 0.2816333 0.122361496 0.06040565
0.08263876 0.044722375 0.34496883 -0.08864765 -0.11928985 -0.102215976 0.23497194 0.093647406
-0.02058192 0.22279674 0.0052805664 0.50179654 0.07365619 0.0628634 0.5678547 0.22310323
0.38976884 0.06884163 0.23957644 0.10278843 0.3231699 0.16940828 0.29413205 0.4899628
-0.29661268 0.23715189 0.0056366334 0.1883951 0.5218897 0.28603053 0.116582796 0.13017534
-0.19258566 0.22909246 0.0688052 0.25549072 0.123607874 0.02602413 0.5235819 -0.04261261
0.39296833 0.38763568 0.22191954 0.29423076 0.19750182 0.4013366 -0.040286735 -0.11387035
-0.020181295 0.49559286 0.32081878 0.43137276 0.12899537 0.25359446 -0.009328129 0.16203336
0.07601899 0.036186405 0.27736086 0.12481964 0.08646991 0.3111164 0.50048655 0.518985
0.14399646 0.35845372 0.31308073 0.38643038 0.32314885 0.38785258 0.32329932 0.28039065
0.42601722 -0.024489418 0.2712781 0.2957001 0.041133765 0.18329185 0.11668969 -0.13315693
0.26220956 0.32177433 0.05087392 0.3043071 0.14123255 0.37763688 0.09620104 0.2291398
-0.23844187 0.071586356 0.5204621 -0.07695121 0.28630334 0.17339654 0.65038246 0.12833543
-0.010321195 0.034360755 0.7126542 0.06517873 0.1840171 0.039195683 0.5517096 0.24691163
-0.01982149 -0.056289356 0.20440191 0.33247402 0.29162446 0.058846977 0.09259733 0.33475444
0.4779475 -0.008327299 0.11872522 0.319658 0.5200754 -0.055762943 0.5751361 -0.044384014
0.10444037 0.4819636 -0.024317862 0.33158034 0.4442567 0.3231348 0.07876987 0.4463293
0.16284078 -0.37348434 0.32855007 0.29189765 0.36043602 0.052789003 0.3457116 0.16026078
0.3494813 0.19954139 0.32109272 -0.2272705 0.018351197 0.12290516 0.013646981 0.12567753
0.14998195 0.3291135 0.06504885 0.35005593 0.004192069 0.35696095 0.19578597 0.12886241
0.20765111 0.29845032 0.123010755 0.1806461 -0.15922493 0.16871633 0.4976137 0.22415616
0.32880095 0.5316175 0.035538737 0.09686034 -0.28229535 0.12352343 0.004933658 0.24771388
0.26529077 0.20269386 0.32427698 0.2780599 0.5949451 0.48344493 0.5923021 0.014384247

running_mean f4 [256]
00000000: fb53 d23f 9c60 363d fb46 7d3f 24fa a83f
00000010: bbdd ae3d 257a 1b3e 3113 d83c a7d5 c53e
00000020: 1660 c23c bf84 1e3e 85d0 cb3c 8c82 cb3e
00000030: 5526 d13e e735 df3e fb6f a93d bd63 093e
00000040: d046 db3e a8ee 5a3f 7f81 523d 48bf d33e
00000050: 1cbd 2e3f 82b2 823b 1996 c13e 2f01 0b3f
00000060: b58b b43d 03b4 873e 98bc d73e bb89 863f
00000070: 9712 9d3e 5a4e 853f 55b0 b33e a43d d73f
00000080: 5a8b 8e3e b786 2d3d 54e3 153f c77c fd35
00000090: ea7c 863f 32dd c53f 433f 6e3c b9dd ac3d
000000a0: 6c92 0540 3bc0 223e 804d 523e 0400 0000
000000b0: 7709 a83d 0483 bf3d 101d c43b 105b b03f
000000c0: 93b8 2e3f dd08 4f3f 1dca c83f 39f2 bc3f
000000d0: cbaf 263f bb2b 0b3e 37d1 ff3c 639e 323d
000000e0: 6c2d 093e 8578 d73d 1ccc 413f 9816 af3e
000000f0: 4bd4 c53f 6456 c43f d961 1c40 0d78 973b
00000100: b59b 0c40 64f0 933f fe1d 283c 204f 1e3d
00000110: f943 ce3f 38bc cd3f 930d f13e b9a9 9d3f
00000120: 39da 813e 7e72 923e 385b 593d 9053 c93e
00000130: 7661 8c3e effa 7e3e ef28 a63d 2ce3 b93b
00000140: 93b1 713e 87f1 ed3c a11f ea3f 4d41 4e3c
00000150: 74a9 893d e495 6e3d 1ee0 113f 8f7a eb3c
00000160: 1c6a aa3d 04d5 603d 7193 c73d c540 2c3f
00000170: 41aa 883c bde9 ba3f 55e0 2840 3ad5 313f
00000180: 95a7 953f 0a76 bc3b 35e7 113f 5d66 b53e
00000190: 874e 013f 15dc bc3d 4af0 ac3e 00fd 5640
000001a0: 0a48 c33e 0ec3 a83e ae0a 2d0e 58a8 9d3f
000001b0: a59d 7c40 9902 323e 6fa0 553e 9174 813d
000001c0: b52e 953d 94e4 8b3f c968 cc3e 7fc1 813e
000001d0: a8ea ab3f 884d 063c 36fa 9c3f 72c4 6f3e
000001e0: c11e a93f f464 c83e 45db c13e 237d 933e
000001f0: 2c5a 933e e91f 203f 35cf 083e 3109 003e
00000200: 6155 913d a950 1a40 0473 dd3f 446e 2e3f
00000210: 114d 963f 0a98 3a3f 1bf2 053e be49 883f
00000220: da20 753b eb3f be3f 3ffc 883e eb95 cb3c
00000230: f7fd 873e d7ae 613e 0d33 9b3f c1ac f03f
00000240: 362c a13e 7c12 443f c017 ad3e 8749 3d3f
00000250: 344a 2e3f 9667 963e bf6f 0a3f 529e 353e
00000260: 66c0 623f 3bde 013f 8196 813f 2489 833f
00000270: a471 5a3b e589 c23f 2ee1 8a3e d5fd aa3d
00000280: c43a f03f 750e 533e 80e6 723e 50c9 1d3f
00000290: abbe 3e3f f1ed 1f3f 8aba 343f 7136 a13f
000002a0: fa23 043e eaa6 fd3c 1681 2340 d623 eb3c
000002b0: b925 2f3e 676a 353e 870f 3340 9f83 e43c
000002c0: 67e2 8c3d e537 de3f 1dd5 2140 91fe d63e
000002d0: d3bd 093e 53de 823d 5b0b bb3f 0a03 e03e
000002e0: 1451 253b 1988 e53d 9825 043f 8433 e23f
000002f0: 4e30 ba3f ba61 8c3d a256 633d bbad 8f3e
00000300: 7bf3 6240 0400 0000 b3f2 1f3e 6778 953f
00000310: ad38 4c40 7d9e 933d 0c50 553f 0a8a 353d
00000320: d5a5 443f d17e 653f 42b4 463b ba93 553e
00000330: 7638 ef3f 128c c83f 6d13 433e f9e1 5d3f
00000340: 19fd 553d 7de9 253e e33c e53e e5bb 813f
00000350: c607 993f 73ca 8a3b 95f5 ad3f 95b4 913d
00000360: 70d7 7e3f 4233 fb3d ba1b 003f 5a09 383d
00000370: df72 413c 141d 7b3d eaed d63d fa12 a03d
00000380: ba42 513d 6112 793f 6f14 c63e adf0 a43f
00000390: 19a0 7c3d 560c fb3f f641 be3d 644b c03e
000003a0: 1990 793e 2c88 7c3e a393 a43d eece 513e
000003b0: ebed a93d 4973 a93e 4d58 0840 b53b 223f
000003c0: 1f38 ff3e ca88 5740 ad71 1d3d f72a 4a3b
000003d0: f5ab ec3d cd0e 353e 0400 0000 6e9c 473e
000003e0: 21ae 8c3f 7ae2 643e 7901 d33e d401 973f
000003f0: 6544 1940 f581 2040 8cf4 f83f eec2 933d
1.6431879 0.044525728 0.9893643 1.3201337 0.085383855 0.15183313 0.026376339 0.38639566
0.023727458 0.15480326 0.024879703 0.39748037 0.40849558 0.43595812 0.08273312 0.13416953
0.42827463 0.8552041 0.05139303 0.41356874 0.6825731 0.003988565 0.37809828 0.5429868
0.088157095 0.26504526 0.42136073 1.0510782 0.30678245 1.0414536 0.35095468 1.6815686
0.27840692 0.042364802 0.5855 1.8886284e-06 1.0506871 1.5458128 0.01454145 0.08440728
2.087062 0.15893643 0.20537376 6e-45 0.0820493 0.09351161 0.00598491 1.377779
0.6825039 0.808729 1.568668 1.476142 0.6511199 0.135909 0.031227691 0.04360808
0.13396233 0.10521034 0.7570207 0.34196925 1.5455412 1.5338864 2.4434721 0.0046224655
2.1970036 1.1557736 0.010261057 0.03864968 1.6114494 1.6073065 0.4708067 1.231742
0.25361803 0.28602976 0.05306551 0.39321566 0.27418107 0.24900411 0.08113276 0.005672833
0.23602895 0.029045833 1.8290902 0.012588811 0.06721774 0.058248416 0.569826 0.028744964
0.0832102 0.054890648 0.09744919 0.6728633 0.016682746 1.4602581 2.6386921 0.6946598
1.1691767 0.005751376 0.5699342 0.3542966 0.5051045 0.09221665 0.33777076 3.359192
0.381409 0.32961315 2.1329038e-30 1.2317 3.9471219 0.17383803 0.20861982 0.063210614
0.07284299 1.0929132 0.39923695 0.25342938 1.3430986 0.008197196 1.2263858 0.23414782
1.321251 0.3913952 0.37862602 0.2880641 0.28779733 0.6254869 0.13360293 0.12503506
0.07096363 2.411173 1.7300725 0.68137 1.1742269 0.72888243 0.13080637 1.0647504
0.0037403614 1.4863256 0.26754948 0.02485176 0.26560947 0.22039352 1.2124954 1.880272
0.31479043 0.76590705 0.33807182 0.7394032 0.68081975 0.29375905 0.5407676 0.17736176
0.88574827 0.5072972 1.0124055 1.0276227 0.0033331895 1.5198332 0.27124923 0.08349196
1.8767934 0.20610984 0.23720741 0.61635303 0.74509686 0.62472445 0.70597136 1.2594739
0.12904349 0.03096338 2.5547538 0.028703611 0.17104234 0.1771637 2.7978227 0.027894793
0.0687912 1.7360808 2.5286324 0.41991094 0.13451318 0.06390061 1.461284 0.4375232
0.0025225328 0.11207599 0.51619864 1.7671971 1.4545991 0.06854577 0.05550254 0.28062233
3.5461109 6e-45 0.15619926 1.1677369 3.1909592 0.072079636 0.83325267 0.044321097
0.7681554 0.8964663 0.0030319844 0.20857134 1.8689106 1.5667746 0.19050379 0.8667293
0.052243326 0.1620235 0.44773015 1.0135466 1.1955497 0.0042355596 1.3590571 0.071145214
0.9954748 0.12265636 0.5004231 0.044930793 0.011807173 0.061307028 0.10494597 0.078161195
0.051089026 0.9729367 0.38687465 1.2885948 0.06167612 1.961314 0.09289925 0.37557518
0.24371375 0.2466132 0.08035972 0.20489094 0.082973324 0.33095768 2.1303895 0.63372356
0.49847504 3.367724 0.038438488 0.0030848363 0.11556236 0.17681427 6e-45 0.19493267
1.099064 0.22352019 0.4121206 1.1797433 2.3947995 2.507932 1.944963 0.07214914
