Best_models/wisdm_CNN_20210122_212207/CNN_wisdm_Rep_6_Seed_887.pt (torch_old, 224391 bytes, 12 tensors)

weight f4 [64, 6, 3]
0	0xbe714ad0	-0.23563695
1	0x3da95f82	0.0827017
2	0x3d88a295	0.06671635
3	0xbb9d3f96	-0.00479884
4	0xbc6a7927	-0.0143111115
5	0xbcbe242a	-0.023210604
6	0x3e04cbbb	0.12968342
7	0x3e2e2475	0.17006095
8	0x3d672c26	0.056438588
9	0xbe44e83a	-0.19229212
10	0x3dd50e11	0.104030736
11	0x3e2d5233	0.16925888
12	0xbcd14535	-0.025545696
13	0xbe643c21	-0.22288562
14	0xbe8ad049	-0.27112034
15	0x3e88db48	0.26729798
16	0x3cfcf565	0.030878732
17	0x3ea80df9	0.3282316
18	0x3bc30a80	0.0059521794
19	0xbd1753c5	-0.036945123
20	0x398950dc	0.0002619092
21	0x3e2f8782	0.17141536
22	0x3e037279	0.12836637
23	0xbe0b8bee	-0.13627598
24	0xbf34e958	-0.70668554
25	0xbea7702a	-0.32702762
26	0x3f197a59	0.5995231
27	0xbdb7b190	-0.08969414
28	0x3db6af81	0.089201935
29	0x3e055a8d	0.13022824
30	0xbca7eec4	-0.020499595
31	0x3dc65069	0.09683306
32	0xbdf95ad2	-0.12175526
33	0xbd26effe	-0.040756218
34	0xbc654b54	-0.01399501
35	0x3ca987ca	0.020694632
36	0xbde9254e	-0.113840684
37	0xbdfb2101	-0.12262154
38	0xbd2dfb5d	-0.042476047
39	0x3e705357	0.23469292
40	0x3e928e1d	0.2862405
41	0x3c35da55	0.011099418
42	0xbe265609	-0.16243757
43	0xbccd4179	-0.025055634
44	0x3e104b86	0.1409131
45	0x3df5b902	0.11998178
46	0xbd850438	-0.06494945
47	0xbdce0808	-0.100601256
48	0x3c0bd253	0.008534032
49	0xbe3d0bf2	-0.18461588
50	0x3ee1de83	0.44115075
51	0x3f0096af	0.50229925
52	0x3e7dd5eb	0.24788634
53	0x3d22d284	0.039751545
54	0xbd712daf	-0.058881458
55	0x3dd00aae	0.10158287
56	0x3e945ca3	0.28976926
57	0x3dcd5e7d	0.10027788
58	0x3df883c1	0.12134505
59	0xbe17ea08	-0.1483537
60	0x3e1c9018	0.15289342
61	0xbe855b0e	-0.26046032
62	0xbdd4a6c8	-0.103833735
63	0x3d3756a7	0.044760372
64	0x3d3f884b	0.04676084
65	0xbe02355d	-0.12715669
66	0x3e79fb29	0.24412216
67	0xbe496740	-0.19668293
68	0xbe57517b	-0.21027176
69	0xbccb7055	-0.024833838
70	0x3dc7f24d	0.09763012
71	0xbe01d0c4	-0.12677294
72	0x3de47005	0.111541785
73	0x3e18d2b2	0.14924124
74	0x3d01c524	0.03168215
75	0x3d35786f	0.044304308
76	0x3d80818e	0.062747106
77	0xbd014576	-0.031560384
78	0x3d4759e3	0.048669707
79	0x3d514bc4	0.051097646
80	0x3d7fa978	0.062417477
81	0xbefa7954	-0.4892069
82	0xbe8d3c4a	-0.2758506
83	0x3f18f29f	0.5974521
84	0x3e5a652f	0.21327661
85	0xbd8af6e7	-0.06785374
86	0x3ce10fcc	0.027473353
87	0xbe70271d	-0.2345242
88	0xbe4f2f2e	-0.20232841
89	0x3c26be9b	0.01017728
90	0x3ebfb85c	0.37445343
91	0xbdf6a2a9	-0.12042744
92	0x3e093287	0.13398181
93	0xbe2e2cd8	-0.17009294
94	0x3dc16480	0.09442997
95	0xbe2643fe	-0.16236874
96	0x3e05efb9	0.13079728
97	0xbc2c1f2d	-0.01050548
98	0x3df9cc50	0.12197173
99	0x3e269df2	0.16271189
100	0xbeb220d2	-0.34790665
101	0x3e3eb450	0.18623471
102	0xbe8e8e94	-0.27843153
103	0x3e33a9af	0.17545198
104	0xbd35ed88	-0.04441598
105	0x3e0b768b	0.1361944
106	0xbecac700	-0.3960495
107	0x3d2250c8	0.03962782
108	0xbeca3492	-0.39493233
109	0xbe5229c9	-0.20523752
110	0x3cbb4806	0.022861492
111	0xbea144b3	-0.31497726
112	0x3e934b72	0.28768498
113	0x3e6731ff	0.22577666
114	0xbe45eb0c	-0.19327945
115	0x3d977c94	0.07396808
116	0x3e0118b0	0.12607074
117	0xbec1ae5a	-0.37828332
118	0x3d496a75	0.04917379
119	0x3de5e28a	0.112248495
120	0xbde1629a	-0.11005135
121	0x3e209268	0.1568085
122	0x3e7344cd	0.23756714
123	0xbe182fe9	-0.14862026
124	0x3d9f399b	0.07774659
125	0xbe0a641c	-0.13514751
126	0x3d0ccf2d	0.034377266
127	0xbd60f5e9	-0.05492202
128	0x3d419d49	0.04726914
129	0x3dc96110	0.09832966
130	0xbab160b7	-0.0013532852
131	0x3d460518	0.0483447
132	0x3d157e76	0.036497556
133	0xbd2d73b4	-0.04234667
134	0xbd2e80c4	-0.04260327
135	0x3e90edda	0.28306466
136	0xbe1bf3fa	-0.15229788
137	0xbe566c4a	-0.20939746
138	0xbe980e79	-0.29698542
139	0xbe65bef5	-0.22436126
140	0x3eda7063	0.4266387
141	0x3e9bd976	0.30439347
142	0x3cd2fd39	0.025755512
143	0xbe91622d	-0.28395215
144	0xbdd1d78f	-0.10246193
145	0xbc73afc0	-0.014873445
146	0xbd8ae55e	-0.067820296
147	0xbd019f6a	-0.03164617
148	0x3d5e0f11	0.054213587
149	0x3b8d5240	0.0043127835
150	0x3e98fe88	0.29881692
151	0xb8b0bb71	-8.427248e-05
152	0x3ec58858	0.38580585
153	0x3e74ce80	0.23906898
154	0x3d1d8c3b	0.038463812
155	0xbdcc3957	-0.09971874
156	0xbdb942b3	-0.09045925
157	0x3e0bb77e	0.13644215
158	0x3d5f6642	0.05454088
159	0x3ecd51da	0.4010151
160	0xbdd0f68c	-0.10203275
161	0xbe8fabb1	-0.28060678
162	0x3e138b8f	0.14408706
163	0x3d7ef2bb	0.062243205
164	0x3e4b13ba	0.19831744
165	0xbd0e946f	-0.034809526
166	0x3d73b390	0.059497416
167	0xbe11350c	-0.14180392
168	0xbd99b679	-0.07505507
169	0x3c01150c	0.007878553
170	0xbe5337fb	-0.20626824
171	0xbd11d496	-0.03560313
172	0x3de63b2c	0.11241755
173	0xbe9b8ff1	-0.30383256
174	0x3e3b1c63	0.18272547
175	0xbefbf9c2	-0.49213988
176	0x3e16ed55	0.14738972
177	0xbeaec1df	-0.34132287
178	0xbe6af4a5	-0.22944887
179	0x3d523387	0.05131867
180	0x3c910161	0.017700853
181	0x3e02fd88	0.12792027
182	0x3d6bb934	0.05754967
183	0xbd9dced2	-0.077054635
184	0xbdf2ed75	-0.118616976
185	0x3b6879b7	0.0035472938
186	0x3c996ccd	0.018728638
187	0x3d66da01	0.05636025
188	0xbc962226	-0.01832683
189	0x3e1290d5	0.14313062
190	0xbdfcba03	-0.123401664
191	0xbe0a3199	-0.13495483
192	0xbe13905b	-0.14410536
193	0x3dcbc91a	0.099504665
194	0xbe148b03	-0.14506154
195	0xbd5ac593	-0.053411078
196	0xbe5d87f6	-0.21633896
197	0xbd347611	-0.04405791
198	0xbc89d3ba	-0.016824592
199	0xbd9d9b1c	-0.076956004
200	0xbd76faca	-0.060297765
201	0xbd8bd465	-0.068276204
202	0x3dd8f8e2	0.10594346
203	0x3e544856	0.20730719
204	0x3e6ca2b1	0.23108937
205	0x3ba642d7	0.005073886
206	0x3e51f986	0.20505342
207	0xbe6e5881	-0.23275949
208	0xbe3baa65	-0.18326719
209	0x3f038e56	0.5138906
210	0x3ec06970	0.37580442
211	0xbdadbdf0	-0.08483493
212	0xbe9d5e21	-0.30735877
213	0x3d8898d8	0.06669778
214	0xbe7c0610	-0.24611688
215	0x3e534c3d	0.20634551
216	0x3ca164ce	0.019701388
217	0x3d94d1f4	0.07266608
218	0x3ca65c11	0.020307573
219	0xbaadf4c6	-0.0013271801
220	0x3d5e10e9	0.054215346
221	0xbd3883cb	-0.045047563
222	0x3d00dac3	0.031458627
223	0x3ada4117	0.0016651478
224	0xbcf23543	-0.029566413
225	0xbea2dde4	-0.31809914
226	0xbeaea8f2	-0.3411327
227	0xbe7ef65b	-0.24898665
228	0xbd5db9c6	-0.054132245
229	0xbde0f6d9	-0.109845825
230	0x3ed3c757	0.41363022
231	0xbdb48b5c	-0.08815643
232	0xbcfdc1ee	-0.030976262
233	0x3e6c8f96	0.23101649
234	0xbe7f3997	-0.24924313
235	0xbe8d2dcc	-0.27574003
236	0x3c36a155	0.011146863
237	0x3da9d231	0.08292044
238	0x3e8fdfe1	0.28100494
239	0x3e1b33a3	0.15156417
240	0x3e339bf5	0.17539962
241	0x3e5a30ae	0.21307632
242	0x3d7b0c49	0.061291013
243	0xbba1cf67	-0.0049380544
244	0xbe09d7e1	-0.13461258
245	0x3df1c211	0.11804593
246	0xbe60aec7	-0.21941672
247	0xbc5b9b29	-0.013403692
248	0xbe245fea	-0.16052213
249	0x3e2d4cbc	0.16923803
250	0x3d40ed2b	0.04710118
251	0x3d0dd97e	0.034631245
252	0xbe3d1ca4	-0.18467957
253	0xbd3935ec	-0.04521744
254	0x3b0e80d2	0.0021744263
255	0xbe23470c	-0.15945071

bias f4 [64]
0	0xbedc05be	-0.4297313
1	0xbe9b7ed6	-0.30370206
2	0xbed71568	-0.4200852
3	0xbd436a95	-0.047709066
4	0xbef5577c	-0.47918308
5	0xbeeac1c9	-0.4585097
6	0xbf1bf334	-0.60917974
7	0xbe6c33f7	-0.23066698
8	0xbeb515be	-0.3536815
9	0xbed24cbf	-0.41074178
10	0x3e089389	0.1333753
11	0xbea4791f	-0.32123658
12	0xbf645971	-0.89198977
13	0x3e16dac0	0.14731884
14	0xbe1a9d68	-0.15099108
15	0xbe6dc46e	-0.23219463
16	0xbeed8580	-0.46390915
17	0xbf14e0a4	-0.58155274
18	0xbe9096d5	-0.28240076
19	0xbe013b27	-0.12620221
20	0xbefd91ec	-0.49525392
21	0xbe656382	-0.2240124
22	0xbcb4e77d	-0.022083038
23	0xbf3e132d	-0.7424801
24	0xbea85c3b	-0.32882866
25	0xbf15fb7f	-0.5858688
26	0xbf0b1b9f	-0.5433902
27	0xbebacf7a	-0.36486417
28	0xbe3fe0ff	-0.18738173
29	0xbf15b82f	-0.58484167
30	0xbee11d3e	-0.43967623
31	0x3dec557f	0.115397446
32	0xbf10bc62	-0.5653745
33	0xbf0ffe19	-0.562471
34	0xbdc029b4	-0.09382954
35	0xbe516da1	-0.20451976
36	0xbef51a36	-0.4787156
37	0xbe3f916d	-0.1870782
38	0xbf0191c9	-0.50613075
39	0xbe5b2806	-0.21401986
40	0xbe921300	-0.2853012
41	0xbe98c6e3	-0.2983924
42	0xbe9c8fe8	-0.30578542
43	0xbf0e8659	-0.5567375
44	0xbecf4de7	-0.40489122
45	0xbf16ee3b	-0.5895726
46	0xbf111433	-0.56671447
47	0x3d1c8fa1	0.038222913
48	0xbe4d7152	-0.2006276
49	0xbe90f488	-0.28311563
50	0xbe12fcf1	-0.14354302
51	0xbecf35c6	-0.40470713
52	0xbf01e533	-0.50740355
53	0xbedf46b2	-0.43608624
54	0xbf36a715	-0.71348697
55	0xbeccc76e	-0.39995903
56	0x3e1119ec	0.14170045
57	0xbe83d364	-0.25747216
58	0xbf3a0941	-0.7267037
59	0xbe6cd592	-0.23128346
60	0xbeaff946	-0.34369868
61	0xbf0b68db	-0.5445687
62	0xbe9d31f9	-0.3070219
63	0xbd8dbf48	-0.0692125

weight f4 [64, 64, 3]
0	0x3d419fa2	0.04727138
1	0xbdb8a316	-0.09015481
2	0x3c897f51	0.016784342
3	0x3c540c1c	0.01294234
4	0xbda69f49	-0.0813585
5	0xbdb7fad0	-0.089833856
6	0xbc83bf02	-0.01608229
7	0x3d6b2baf	0.057414707
8	0xbd5c5905	-0.053795833
9	0x3d07a0e2	0.033112414
10	0xbd8771e9	-0.066135235
11	0xbdbbc6cf	-0.09168779
12	0xbcf2a8ef	-0.02962157
13	0xbc872c62	-0.016500656
14	0xbd293c2b	-0.041317146
15	0xbd16368f	-0.036673125
16	0xbdbd5826	-0.092453286
17	0xbd894931	-0.06703413
18	0x3ce88ee4	0.028388448
19	0x3a9a7128	0.0011782991
20	0xbdc7ff99	-0.09765548
21	0xbcebc1f7	-0.028779013
22	0xbd34118a	-0.04396204
23	0xbcb7e0fd	-0.02244615
24	0x3c9ec6e5	0.01938195
25	0x3c2a7083	0.010402801
26	0xbd3cb34b	-0.046069425
27	0xbdcda961	-0.10042072
28	0x3c93b590	0.018030912
29	0x3c0f38e1	0.008741588
30	0xbd9fb251	-0.07797683
31	0xbdae19bd	-0.08501003
32	0xbc6347f1	-0.013872133
33	0xbd1ba3d3	-0.03799803
34	0xbdaee6b0	-0.08540094
35	0xbdb1d9c4	-0.086841136
36	0x3ce3a105	0.027786741
37	0x3bcf13cb	0.006319498
38	0xbd3a7620	-0.04552281
39	0xbdbc094b	-0.0918146
40	0x3ca22300	0.01979208
41	0xbdafd135	-0.08584825
42	0xbdac48f0	-0.08412349
43	0xbd86c7d6	-0.065810844
44	0xbcc21f33	-0.023696518
45	0xbda8117d	-0.082064606
46	0xbdafb693	-0.08579745
47	0x3ccb1ee3	0.024795001
48	0x3cafca7b	0.021458855
49	0x3b9d94c2	0.004808993
50	0xbd6dd344	-0.058062807
51	0x3d2506a0	0.04028952
52	0xbd79a89a	-0.060951807
53	0xbd4b2a55	-0.049600918
54	0xbce8f35e	-0.028436359
55	0xbc2fdb69	-0.010733464
56	0x3c900d0d	0.017584348
57	0xbba6ca01	-0.0050899987
58	0x3d4dff0e	0.050292067
59	0xbd8d99a6	-0.06914072
60	0xbd767554	-0.060170487
61	0xbce1aa8b	-0.027547142
62	0xbd864bbd	-0.06557415
63	0xbc09305c	-0.008373346
64	0xbd13bed5	-0.036070663
65	0x3cadd987	0.02122189
66	0x3d25086c	0.040291235
67	0xbc4c9ba4	-0.0124882795
68	0x3d915a58	0.0709731
69	0x3cae1351	0.021249445
70	0xbd8b107e	-0.06790255
71	0xbc0bd476	-0.008534541
72	0x3c23c59d	0.009995845
73	0xbcd79078	-0.026314005
74	0x3d298268	0.04138413
75	0xbd968ebf	-0.073514454
76	0xbd96bd63	-0.073603414
77	0x3d0e1110	0.03468424
78	0xbd3c76ab	-0.046011608
79	0xbdaab73c	-0.083357304
80	0xbd9579b5	-0.072986044
81	0xbce334fa	-0.027735222
82	0xbd338b9f	-0.043834325
83	0x3d0abbdf	0.033870574
84	0xbd731eaa	-0.059355415
85	0xbda01de4	-0.07818201
86	0xbd646d51	-0.055768315
87	0xbdc34e84	-0.0953646
88	0x3d267a60	0.04064405
89	0xbd9949fd	-0.07484815
90	0xbd768a4e	-0.06019049
91	0xbaef4ea4	-0.001825769
92	0x3cc951e4	0.024575181
93	0xbdaf5c3a	-0.08562513
94	0xbcf37951	-0.029720934
95	0xbcbd3e3e	-0.023100968
96	0xbbfb0fb1	-0.0076617827
97	0x3b1d46e9	0.0023998565
98	0x3ccbeba0	0.024892628
99	0xbda2699c	-0.079303
100	0x3ca86fa8	0.020561054
101	0xbcffade7	-0.031210853
102	0xbcb334e3	-0.021875804
103	0xbc8a05b2	-0.016848419
104	0xbd99bb5f	-0.07506441
105	0xbd267d86	-0.040647052
106	0xbc98802c	-0.018615805
107	0x3d1f1f06	0.038847946
108	0x3c386bb4	0.011256147
109	0xbd2a7140	-0.04161191
110	0xbcc93cd2	-0.024565134
111	0xbd7797c9	-0.060447488
112	0x3ddf7e82	0.10912801
113	0x3c7bbd2e	0.015364928
114	0xbd033454	-0.032032326
115	0xbc6f5326	-0.0146072265
116	0x3cc32a79	0.023823963
117	0xbc6148ec	-0.013750296
118	0xbd26d3ed	-0.040729452
119	0xbd1cb4ed	-0.03825848
120	0xbd7bb358	-0.061450332
121	0xbd43e4e9	-0.047825728
122	0x3bc96d5b	0.0061470694
123	0xbd6e9694	-0.05824907
124	0xbd1a8236	-0.037721835
125	0xbb5c1d45	-0.0033586782
126	0x3ca67574	0.020319678
127	0xbdac47b3	-0.08412113
128	0xbd450027	-0.04809585
129	0xbd0e3e87	-0.0347276
130	0xbda92890	-0.0825969
131	0x3c379898	0.011205815
132	0xbda1e77a	-0.07905479
133	0xbd632f5e	-0.055465095
134	0xbca67c38	-0.020322904
135	0xbd50bb35	-0.050959785
136	0xbd2891fc	-0.041154847
137	0x3d1d2d1b	0.038373094
138	0xbd0816c1	-0.033224825
139	0xbc8dd3f7	-0.017312987
140	0x3d111fbf	0.035430666
141	0xbd7f3058	-0.062301964
142	0xbbc9fbeb	-0.006164064
143	0xbd072733	-0.032996368
144	0xbdb4a67e	-0.08820818
145	0xbc70a795	-0.014688392
146	0xbb460d17	-0.0030220204
147	0xbdc2a9b1	-0.09505022
148	0xbc8f9f34	-0.017531969
149	0x3cfe4df1	0.031043025
150	0x3d0fc878	0.03510329
151	0x3d17f6fb	0.037100773
152	0xbdafe0d3	-0.08587804
153	0xbdc9cbd1	-0.09853328
154	0x3d0fc0b5	0.03509589
155	0xbdb15d67	-0.08660393
156	0xbd6c164c	-0.05763845
157	0x3c33bf88	0.010970958
158	0xbd94951b	-0.07255002
159	0xbd9b6fbc	-0.07589671
160	0xbdbdac94	-0.09261432
161	0xbc05cc80	-0.008166432
162	0x3bba725c	0.005689902
163	0xbd6996bd	-0.05702852
164	0xbcf2db19	-0.02964549
165	0xbd89101c	-0.06692526
166	0xbcb27afa	-0.021787155
167	0xbd90e894	-0.07075611
168	0xbd1958a1	-0.03743804
169	0xbcb16392	-0.021653924
170	0xbd98aad4	-0.07454458
171	0x3b6512ec	0.0034953905
172	0x3ce2f19a	0.027703095
173	0xbcf2d03b	-0.029640308
174	0x3d4f0f44	0.050551668
175	0xbc7fbe74	-0.015609372
176	0x3d2021b7	0.039094653
177	0xbdc7bf8c	-0.097533315
178	0xbdd56296	-0.104191944
179	0xbc4e087b	-0.012575264
180	0xbdcc2151	-0.09967292
181	0xbd9a13d4	-0.07523313
182	0xbdcc29aa	-0.09968884
183	0xbc98dbb4	-0.01865945
184	0xbce9d13c	-0.028542154
185	0x3cc70104	0.024292476
186	0x3cf2e32f	0.029649345
187	0xbd170820	-0.036872983
188	0x3c734c3c	0.014849719
189	0x3d104de3	0.03523053
190	0x3d1cf468	0.03831902
191	0xbc07726d	-0.008267027
192	0x3d80d964	0.06291464
193	0x3d9250f1	0.071443446
194	0x3cc61901	0.024181845
195	0xbe239a48	-0.15976822
196	0xbd4fe4f2	-0.05075545
197	0x3e1e28ed	0.154453
198	0xbee5320c	-0.44764745
199	0xbebc7aca	-0.3681243
200	0xbe926ee5	-0.2860023
201	0xbccd18ce	-0.025036242
202	0xbdf290f6	-0.11844055
203	0xbe3bc502	-0.18336871
204	0xbef349b6	-0.47517174
205	0xbe9f3360	-0.31093884
206	0x3de3b7ba	0.111190274
207	0x3d164100	0.036683083
208	0x3d022f3d	0.03178333
209	0x3e0bff8c	0.13671702
210	0x3e12564c	0.14290732
211	0x3cff1bc9	0.031141179
212	0x3d738581	0.05945349
213	0xbda9c1ca	-0.082889155
214	0xbe030fca	-0.12798992
215	0xbd59802d	-0.053100754
216	0x3d740a7e	0.05958032
217	0x3e3df64f	0.1855099
218	0x3d10d82e	0.035362415
219	0x3e14360f	0.14473747
220	0x3d85a22b	0.06525072
221	0xbe584a3e	-0.21122071
222	0x3d564a6d	0.05231707
223	0xbe5f4e6d	-0.21807261
224	0xbdf63aaa	-0.12022908
225	0xbd907f27	-0.070555024
226	0xbdf2f08e	-0.118622884
227	0x3dc41d62	0.09575917
228	0x3c668861	0.014070601
229	0x3ec3d589	0.38248852
230	0x3edb7e78	0.42869925
231	0xbe536b7c	-0.20646471
232	0xbdb34b0d	-0.08754549
233	0xbebd0905	-0.36920944
234	0x3e065741	0.13119222
235	0x3dcf6f44	0.10128644
236	0x3da96c35	0.08272592
237	0x3c3c1656	0.011479935
238	0xbe4bea91	-0.19913699
239	0xbe8727d3	-0.2639757
240	0x3d34494e	0.04401522
241	0xbe392ce4	-0.1808353
242	0xbe631365	-0.22175367
243	0xbdad2ea4	-0.084561616
244	0xbcb52fbb	-0.022117486
245	0x3e7fb848	0.24972641
246	0xbd92307c	-0.07138154
247	0xbe8a4af0	-0.27010298
248	0x3e7bb56a	0.24580923
249	0xbe94b43e	-0.29043764
250	0xbe027846	-0.12741193
251	0xbe582308	-0.21107113
252	0xbc201391	-0.00977029
253	0xbd391453	-0.0451854
254	0xbd95e00e	-0.07318126
255	0xbd8421ef	-0.06451785

bias f4 [64]
0	0xbd6ecec6	-0.058302663
1	0xbe68827d	-0.22706027
2	0xbed10092	-0.40820748
3	0xbe9617d8	-0.29315066
4	0x3dc0686e	0.093949184
5	0xbebe7e74	-0.3720585
6	0xbd165da4	-0.036710396
7	0xbec6b8c2	-0.38812834
8	0xbe130c9e	-0.14360282
9	0xbd8fe570	-0.070261836
10	0xbccb5ea6	-0.024825405
11	0xbe0c5fdf	-0.13708447
12	0xbd329ef9	-0.04360864
13	0xbe69bd91	-0.2282622
14	0xbe2577d1	-0.16158988
15	0xbe43309e	-0.19061515
16	0xbe080536	-0.13283238
17	0x3df98d47	0.1218515
18	0xbdc1afdc	-0.09457371
19	0xbdbbdc41	-0.091728695
20	0xbe307ed2	-0.17235878
21	0xbee6b5f1	-0.45060685
22	0xbd0e02eb	-0.03467075
23	0xbd97f2ef	-0.07419383
24	0xbea60244	-0.32423604
25	0xbc4d01d2	-0.012512641
26	0xbe24ded7	-0.16100632
27	0xbca00430	-0.019533247
28	0xbeb16d7d	-0.34653845
29	0xbd8fd941	-0.0702386
30	0xbe5900a5	-0.21191652
31	0xbe14bb13	-0.14524488
32	0xbe877023	-0.2645274
33	0xbe0cacba	-0.13737765
34	0x3d98a23d	0.074528195
35	0xbd8b8fbb	-0.06814524
36	0xbdb3f228	-0.08786422
37	0xbe91d045	-0.2847921
38	0xbc4c149c	-0.0124560855
39	0xbe572edb	-0.21013968
40	0xbe451640	-0.19246769
41	0xbec5ad98	-0.38609004
42	0xbe4eb532	-0.20186308
43	0xbd869627	-0.06571608
44	0x3dc6ad7f	0.097010605
45	0xbeeadd08	-0.45871758
46	0xbeab6fa4	-0.33483613
47	0xbe371af7	-0.1788138
48	0xbc824db5	-0.015906194
49	0xbd82f2f0	-0.06393993
50	0xbd8cbf32	-0.06872405
51	0xbedd8d0f	-0.43271682
52	0x3ce5809f	0.028015433
53	0xbda54c04	-0.080711395
54	0xbf124fc9	-0.5715299
55	0xbe031a45	-0.1280299
56	0xbea1cacc	-0.31600034
57	0xbe2abaae	-0.16672775
58	0xbeb3ce61	-0.35118392
59	0xbe65350d	-0.22383519
60	0xbd6418eb	-0.055687826
61	0xbe521090	-0.2051413
62	0x3d6e75d0	0.058217824
63	0xbec0fe3e	-0.3769397

weight f4 [256, 128]
0	0xbdd10309	-0.10205657
1	0x3dc34463	0.09534528
2	0xbd8bc666	-0.06824951
3	0x3d9e23f2	0.077217
4	0x3c92f39f	0.017938433
5	0x3c991f0b	0.01869156
6	0x3dd93cf0	0.10607326
7	0x3de17e56	0.11010425
8	0x3cca69b0	0.024708599
9	0xbe75393a	-0.23947611
10	0x3e2bacf2	0.16765192
11	0xbca259e4	-0.019818254
12	0xbc855fb0	-0.016280979
13	0x3dbd9899	0.09257621
14	0x3d9abe17	0.07555788
15	0x3d832aa4	0.064046174
16	0x3cf79d89	0.030226486
17	0xbc5b8405	-0.013398175
18	0xbd88e620	-0.06684518
19	0xbe844f45	-0.25841728
20	0xbe8a9a14	-0.27070677
21	0xbd463d95	-0.048398573
22	0xbef17e66	-0.47166747
23	0xbe94e965	-0.29084316
24	0xbcbfb6ce	-0.023402598
25	0x3d84b4e3	0.06479814
26	0x3e08fb50	0.13377118
27	0x3eb9d8c7	0.362982
28	0xbdb45fcd	-0.08807335
29	0xbe110e69	-0.14165653
30	0x3e62b224	0.22138268
31	0x3e86a2dc	0.26296127
32	0xbcad17e1	-0.02112955
33	0xbd829668	-0.06376344
34	0xbdfa7ca8	-0.122308075
35	0xbea620b9	-0.3244684
36	0x3df10464	0.117684156
37	0x3cf30b9b	0.02966862
38	0xbd959c30	-0.07305181
39	0xbe343ee5	-0.17602117
40	0x3d89a884	0.06721595
41	0xbcddb0ec	-0.027061902
42	0xbd8ed0e3	-0.06973436
43	0x3e445941	0.19174673
44	0x3bcfd145	0.0063420855
45	0xbbe68d5d	-0.007035895
46	0xbdfd1141	-0.123568065
47	0xbea24e9d	-0.31700602
48	0xbc4f88ee	-0.012666924
49	0x3c49f80c	0.012327205
50	0xbd33345a	-0.0437511
51	0x3d43f02f	0.04783648
52	0xbe235df1	-0.15953805
53	0xbd910a56	-0.070820495
54	0x3db5bc60	0.0887382
55	0x3cc552fb	0.02408742
56	0xbe3dab34	-0.1852234
57	0x3e91fd63	0.2851363
58	0x3ddc3bc9	0.107535906
59	0xbdd34df0	-0.103176
60	0xbd8ba08a	-0.0681773
61	0xbd60148d	-0.0547071
62	0xbe8c1316	-0.2735831
63	0xbee659dc	-0.44990432
64	0x3e136b0b	0.14396302
65	0x3e5a6d8f	0.21330856
66	0xbddcf581	-0.10789014
67	0xbdff45b1	-0.124644645
68	0x3cf81850	0.03028503
69	0xbdcb67b4	-0.09931889
70	0xbdbde0e2	-0.092714086
71	0xbe7ffcf3	-0.24998836
72	0xbe16cbf5	-0.14726241
73	0xbe9a4149	-0.30127934
74	0xbe4b3924	-0.19846016
75	0x3e8f41a3	0.27979764
76	0xbda86585	-0.08222488
77	0x3ca7dc85	0.020490894
78	0xbb9ff581	-0.0048815613
79	0x3c9584f6	0.018251877
80	0x3d05106c	0.032486364
81	0xbbdc8c4c	-0.006730592
82	0x3e2e5f88	0.1702863
83	0x3d256177	0.040376153
84	0xbd799b02	-0.060938843
85	0xbeafb92f	-0.3432097
86	0xbed923cd	-0.42410126
87	0xbefd8d24	-0.49521744
88	0x3c497749	0.012296506
89	0xbcec0afe	-0.028813835
90	0xbd3c6396	-0.04599341
91	0xbd8c4443	-0.068489574
92	0x3b8708ae	0.0041209077
93	0xbce492e9	-0.027902083
94	0xbd568e49	-0.052381787
95	0xbd763dbb	-0.060117465
96	0xbb41c8ae	-0.0029569077
97	0xbe2456ce	-0.16048738
98	0x3e618e77	0.22027002
99	0x3d8b7c6f	0.06810843
100	0xbe047c7c	-0.12938112
101	0xba8102a0	-0.0009842701
102	0x3e316e8e	0.1732733
103	0xbcba60b6	-0.022751193
104	0xbe332943	-0.17496209
105	0xbdc8fbea	-0.09813674
106	0x3e1b0a38	0.15140617
107	0x3e31c705	0.17361076
108	0xbdada077	-0.08477872
109	0xbcebed92	-0.028799806
110	0xbde944e1	-0.11390091
111	0xbda2921e	-0.07938026
112	0x3e63ca83	0.22245221
113	0x3dce03fc	0.10059354
114	0xbdc0944a	-0.09403284
115	0xbe10cf27	-0.14141522
116	0x3d80578f	0.062667005
117	0xbd98d09d	-0.07461665
118	0xbdfe48a0	-0.12416196
119	0xbd3d40a1	-0.046204213
120	0xbd907753	-0.07054009
121	0xbdfa45dd	-0.122203566
122	0xbd9fe5f4	-0.07807532
123	0x3dd3b78a	0.10337742
124	0xbcc76404	-0.024339683
125	0xbe7c1015	-0.2461551
126	0x3e74f163	0.23920207
127	0x3d7013aa	0.058612503
128	0xbd9c5474	-0.07633296
129	0x3d7c1882	0.06154681
130	0x3d8de3db	0.069282256
131	0xbe03f6ea	-0.12887159
132	0xbcc012fb	-0.02344655
133	0x3def4d89	0.116847105
134	0x3ded8a5e	0.11598657
135	0xbc7a74de	-0.015286652
136	0xbdc6fcbc	-0.09716174
137	0xbeb17a06	-0.3466341
138	0x3da2c32f	0.079473846
139	0x3b578745	0.0032887023
140	0x3d68b20e	0.05681043
141	0x3d7c72c8	0.0616329
142	0x3d418dbd	0.047254313
143	0x3e0f70d8	0.1400789
144	0x3dbbe66b	0.09174808
145	0x3cf17412	0.029474292
146	0x3d061616	0.032735907
147	0xbb8131c0	-0.0039426982
148	0xbc92e754	-0.017932571
149	0xbd6346ba	-0.055487372
150	0xbd1897b3	-0.037254047
151	0xbda9fdb6	-0.08300345
152	0xbdc21d8e	-0.09478293
153	0x398dbbb7	0.00027033474
154	0xbe25e90d	-0.16202183
155	0x3e44791d	0.19186826
156	0xbd3f45d9	-0.04669747
157	0xbe026d4b	-0.12737004
158	0x3d790487	0.060795333
159	0x3e281d33	0.16417389
160	0x3c6cd603	0.014455321
161	0x3d2396d6	0.03993877
162	0x3db8c47e	0.09021853
163	0x3d8dba93	0.06920352
164	0x3dca911b	0.09890958
165	0x3d8c874b	0.068617426
166	0xbe1a213c	-0.1505174
167	0xbcfc2537	-0.030779464
168	0x3d0547c9	0.032539163
169	0xbe04dfc8	-0.12975991
170	0xbd8c103e	-0.068390355
171	0x3eefc5e5	0.4683067
172	0x3ddfbcc4	0.10924676
173	0x3c0f9931	0.008764551
174	0xbdea3591	-0.11435998
175	0xbdfd91fb	-0.12381359
176	0x3c0be4ae	0.008538408
177	0x3e3bb6b8	0.1833142
178	0x3dd7f03c	0.10543868
179	0x3d2c9ec2	0.04214359
180	0xbc3a85c2	-0.011384429
181	0x3e674409	0.22584547
182	0xbc8b7c3b	-0.017027011
183	0xbd6bfbf6	-0.057613336
184	0xbc8f6f01	-0.017508985
185	0xbd1590d7	-0.036515083
186	0x3c6f581a	0.014608407
187	0x3d998b1a	0.07497235
188	0x3c87feb8	0.016600952
189	0xbe1f4674	-0.1555422
190	0xbd8b6f96	-0.06808393
191	0xbe4dc9c3	-0.20096497
192	0x3e07f036	0.13275227
193	0x3d99a7f2	0.07502736
194	0xbe806155	-0.25074258
195	0xbe3c76ac	-0.18404645
196	0x3c9387db	0.018009117
197	0xbda2d281	-0.07950307
198	0xbc24f51e	-0.010068206
199	0xbde8a354	-0.11359277
200	0xbcaaae58	-0.020835087
201	0xbe81d27e	-0.25355905
202	0x3e62546a	0.22102514
203	0xbe2ae1fd	-0.1668777
204	0x3be9bd74	0.0071331803
205	0xbd8b3484	-0.06797126
206	0xbe1612ac	-0.1465556
207	0xbcbc2e81	-0.022971394
208	0xbd90add0	-0.07064402
209	0xbd01b84b	-0.031669896
210	0x3d9b4aa4	0.07582596
211	0x3d6f7ec3	0.0584705
212	0x3e3db1aa	0.18524805
213	0xbc6fa195	-0.0146259265
214	0xbe0ed849	-0.13949694
215	0xbe98822d	-0.29786816
216	0x3caddaea	0.02122255
217	0xbd6e66da	-0.058203556
218	0xbdf9a7e7	-0.12190228
219	0xbc05e2bf	-0.008171736
220	0x3e7e7756	0.2485021
221	0x3decf165	0.1156948
222	0x3de46434	0.11151925
223	0x3d16a981	0.036782745
224	0xbd1f9f52	-0.0389703
225	0x3910137b	0.00013740167
226	0xbe3a9dd2	-0.18224266
227	0xbd985c17	-0.0743944
228	0xbde09a8f	-0.1096698
229	0xbbc971b1	-0.0061475863
230	0x3e163d26	0.14671764
231	0xbd2f14d8	-0.042744488
232	0xbd2a9bd8	-0.04165253
233	0x3c24d089	0.010059484
234	0xbde5219e	-0.111880526
235	0xbe065222	-0.13117269
236	0x3a44e039	0.00075102184
237	0xbd3f78b2	-0.046745963
238	0x3a66fb71	0.00088112714
239	0xbdaa9c26	-0.08330564
240	0xbe28f486	-0.16499528
241	0x3e6be44a	0.23036304
242	0xbcbaac7e	-0.022787329
243	0xbd6056f0	-0.05477041
244	0x3e37e465	0.1795822
245	0xbde3f53a	-0.11130758
246	0x3d093d75	0.033505876
247	0xbc9a6c5e	-0.018850502
248	0x3dd89512	0.10575308
249	0x3d06d601	0.032918934
250	0x3cfc40cb	0.030792614
251	0x3d974435	0.07386056
252	0xbe37ac53	-0.1793683
253	0xbe3ea802	-0.18618777
254	0xbc0f61de	-0.008751361
255	0x3da90956	0.08253734

bias f4 [256]
0	0xbe19d0b6	-0.15021023
1	0xbe2069f2	-0.15665415
2	0x3e2094c4	0.1568175
3	0x3d90db62	0.07073094
4	0x3d98fdbf	0.07470273
5	0x3d88eafc	0.06685445
6	0x3d546299	0.051851843
7	0x3d9072d7	0.07053154
8	0xbc2b1095	-0.010440965
9	0x3e383c9c	0.1799187
10	0x3df9ac56	0.121910736
11	0x3df1e0f0	0.118104815
12	0xbc81e481	-0.01585603
13	0xbe3ddd2d	-0.18541403
14	0xbe561c43	-0.20909218
15	0xbe372bff	-0.17887877
16	0x3d90bd5e	0.07067369
17	0xbddf8ff6	-0.1091613
18	0xbd3804b6	-0.044926368
19	0xbd71c334	-0.05902405
20	0xbd870739	-0.065931745
21	0xbde2669e	-0.11054729
22	0x3d950e94	0.07278171
23	0xbcb22bbd	-0.021749372
24	0xbda1c483	-0.0789881
25	0x3de8af63	0.11361577
26	0x3e2fda51	0.17173125
27	0xbae1cdbc	-0.0017227451
28	0xbe2491f0	-0.16071296
29	0x3d9abf22	0.07555987
30	0x3bde84d8	0.0067907386
31	0xbd3230dc	-0.043503627
32	0x3eb47f20	0.3525324
33	0x3df87984	0.12132552
34	0x3d427069	0.047470484
35	0x3e534193	0.20630483
36	0x3e034e18	0.12822759
37	0xbcd1eac1	-0.025624635
38	0x3de7f87d	0.11326692
39	0x3e3d25ab	0.184714
40	0x3d6e68db	0.058205467
41	0x3e2bcdb2	0.16777685
42	0x3eadaffe	0.33923334
43	0x3c000fe3	0.007816288
44	0x3db8b0f1	0.09018124
45	0x3dbb7c20	0.09154534
46	0x3e01311c	0.1261639
47	0x3b254352	0.0025217128
48	0x3eab6d1e	0.33481687
49	0xbd6e5c89	-0.058193717
50	0x3e0f4db5	0.13994487
51	0x3e9814d0	0.2970338
52	0xbdeba4ae	-0.115060195
53	0x3de5cf9d	0.1122124
54	0xbd28b3ac	-0.041186973
55	0xbd4117c4	-0.047141805
56	0x3df2e2d1	0.11859668
57	0x3d8a804b	0.06762751
58	0x3d3660b1	0.044525806
59	0x3da18aee	0.07887827
60	0xbc65575a	-0.013997877
61	0x3c4889b8	0.012239866
62	0x3e586b99	0.21134795
63	0xbdc3d48e	-0.09562026
64	0xbdd37dc7	-0.103267245
65	0xbd598814	-0.05310829
66	0xbc5eec18	-0.013606094
67	0x3db8f19e	0.0903046
68	0x3d0e3d7c	0.034726605
69	0xbe196ca7	-0.14982854
70	0xbdb2c30b	-0.08728608
71	0x3da8231b	0.08209821
72	0xbc5b1e3e	-0.0133739095
73	0x3d3fdc09	0.0468407
74	0xbdc2f823	-0.095199846
75	0x3c19d928	0.009390153
76	0x3d531126	0.051530026
77	0xbdaf3f36	-0.085569784
78	0x3cbb9460	0.0228979
79	0xbddd1d4c	-0.107966036
80	0x3de54a1f	0.11195778
81	0x3d835749	0.06413133
82	0xbe3325b5	-0.17494853
83	0xbe5580af	-0.2084987
84	0x3dd67788	0.104720175
85	0x3d6145c9	0.054998193
86	0x3e8beaa7	0.27327463
87	0xbdec4e2e	-0.11538349
88	0xbe069f00	-0.13146591
89	0xbdc319ea	-0.09526427
90	0x3e6ddbe6	0.23228416
91	0xbe679e92	-0.22619084
92	0xbb9f5ec4	-0.004863592
93	0x3c0c7c60	0.008574575
94	0xbdaf92c9	-0.08572919
95	0xbd397605	-0.045278568
96	0xbe12ee78	-0.14348781
97	0xbd8fa906	-0.070146605
98	0x3e4fc0fc	0.20288461
99	0x3e0d8a82	0.13822368
100	0x3eaddd2d	0.33957806
101	0x3e0d5993	0.13803701
102	0xbe1ae18e	-0.15125105
103	0xbe02be03	-0.12767796
104	0xbda87216	-0.08224885
105	0x3dab1136	0.08352892
106	0x3cd017c2	0.025401954
107	0xbcd9483f	-0.026523707
108	0x3db8da66	0.09026031
109	0xbe083a1f	-0.13303421
110	0x3e1b4cee	0.15166065
111	0xbda7e9ab	-0.081988655
112	0x3e2ad406	0.16682443
113	0x3e9b19be	0.30293077
114	0xbd74720a	-0.05967907
115	0x3d9bc62f	0.0760616
116	0x3d893ebc	0.06701419
117	0x3e00cc1b	0.1257786
118	0x3da9dac3	0.082936786
119	0x3ce3ae85	0.027793178
120	0x3c182f74	0.009288657
121	0x3cf79895	0.030224124
122	0x3d35bdba	0.04437039
123	0x3d2734c5	0.04082181
124	0xbcb079bd	-0.021542424
125	0x3ceb89c8	0.028752223
126	0x3de9f6eb	0.11424049
127	0x3de1da76	0.11027996
128	0x3d70dfe9	0.058807287
129	0x3e21c2a7	0.1579691
130	0xbe63150f	-0.22176002
131	0xbe03086b	-0.1279618
132	0x3d8fbac9	0.07018048
133	0xbe2c0031	-0.16796948
134	0xbe5c867b	-0.21535675
135	0x3dfae9c3	0.12251618
136	0x3de96d68	0.11397821
137	0x3dc82935	0.097734846
138	0x3c949bf1	0.018140765
139	0xbc8cd981	-0.017193558
140	0xbcf5194d	-0.02991929
141	0x3cee6c26	0.029104304
142	0xbe10ec48	-0.14152634
143	0x3d6bf6ec	0.05760853
144	0x3d8dba99	0.06920356
145	0x3e425177	0.18976389
146	0x3ccaf41b	0.024774602
147	0xbad0cfe2	-0.0015931095
148	0xbd741b63	-0.05959643
149	0xbd7fd2ba	-0.062456824
150	0x3daddca1	0.08489347
151	0x3d4107a6	0.047126435
152	0x3d926fbe	0.071502194
153	0xbd0e51b5	-0.03474589
154	0x3ca21078	0.019783244
155	0x3c18fcf2	0.009337651
156	0x3dd018fe	0.10161017
157	0xba8a8354	-0.0010567703
158	0xbc7bfb0f	-0.015379681
159	0xbdf4b614	-0.11948791
160	0x3e1d6d81	0.15373804
161	0x3d1b5a72	0.037928052
162	0x3e135d58	0.14391077
163	0xbe526dd6	-0.20549712
164	0x3d94a65f	0.07258295
165	0xbe42e246	-0.19031629
166	0x3c46a8b0	0.012125179
167	0xbe2df487	-0.16987811
168	0x3d7b5df5	0.0613689
169	0xbdd0732c	-0.10178217
170	0xbe1ba031	-0.15197827
171	0xbe1be8fa	-0.15225592
172	0x3e27f299	0.16401137
173	0xbdc2be57	-0.09508961
174	0xbd71eedc	-0.059065685
175	0xbdf9b6cc	-0.12193069
176	0x3db23353	0.087011956
177	0x3d702952	0.058633156
178	0xbbe84e60	-0.007089421
179	0x3d076d0e	0.033062987
180	0xbd069894	-0.032860354
181	0x3e0541b2	0.13013342
182	0x3c86f723	0.016475266
183	0x3c360ae9	0.011111
184	0x3eb5df45	0.35521904
185	0x3dc0f094	0.09420887
186	0x3d926c72	0.071495906
187	0xbd7c0dfb	-0.06153677
188	0x3d601a95	0.05471285
189	0x3d1111ac	0.035417244
190	0xbd9d9719	-0.07694835
191	0xbc01ef88	-0.007930644
192	0x3dc13dec	0.09435639
193	0xbde4e4e4	-0.1117647
194	0xbe3e31ff	-0.1857376
195	0xbe4ef3a6	-0.20210132
196	0x3d388719	0.045050714
197	0x3e86b3bf	0.2630901
198	0x3d95df5d	0.07317994
199	0xbe53b37e	-0.2067394
200	0x3db7f9a9	0.08983166
201	0xbde0de08	-0.10979849
202	0x3d159c15	0.036525805
203	0x3d2f8990	0.0428558
204	0x3d8516f3	0.06498518
205	0x3da5ded9	0.080991454
206	0x3db308e2	0.08741929
207	0x3de38d25	0.111109056
208	0xbcfe5e14	-0.03105072
209	0x3eab4d3e	0.3345737
210	0xbe84c7c1	-0.2593365
211	0x3df66ce1	0.12032486
212	0x3e199101	0.14996721
213	0xbe0e17a1	-0.13876201
214	0x3d7dca6b	0.06196062
215	0xbdf1b066	-0.118012235
216	0x3cf296b3	0.029612875
217	0x3d6f1963	0.05837382
218	0xbd338940	-0.043832064
219	0x3dc965a0	0.098338366
220	0xbdd293d3	-0.102821015
221	0xbd177398	-0.036975473
222	0xbd318101	-0.04333592
223	0xbdf4e1d9	-0.119571395
224	0xbd25c287	-0.04046872
225	0x3e901ffb	0.281494
226	0x3ea82790	0.32842684
227	0xbde60578	-0.11231512
228	0x3eb7e2a8	0.35915112
229	0x3ea982fc	0.33107746
230	0xbe2a776f	-0.16647123
231	0xbb44ee69	-0.003004933
232	0xbe0bcb94	-0.13651878
233	0x3d8968f3	0.067094706
234	0xbdd337a5	-0.10313348
235	0x3da0b59e	0.07847141
236	0xbde76682	-0.11298849
237	0x3eb110a6	0.34583014
238	0x3e063f74	0.13110143
239	0xbe2d5ebd	-0.16930671
240	0xbd7580df	-0.059937354
241	0x3e074ee2	0.13213685
242	0xbd9494f5	-0.07254974
243	0xbd648646	-0.055792116
244	0x3d2b1886	0.041771434
245	0xbda883f0	-0.0822829
246	0x3ccf9450	0.025339276
247	0x3ddbb4d7	0.10727852
248	0x3d392756	0.04520353
249	0xbdb01cdb	-0.08599254
250	0x3cebd9fd	0.028790468
251	0xbe19816a	-0.14990774
252	0x3e0a51b0	0.13507724
253	0x3db29334	0.08719483
254	0x3c2b2f7c	0.010448333
255	0x3e70446b	0.234636

weight f4 [256]
0	0x3f986b34	1.1907716
1	0x3f84a785	1.0363623
2	0x3fa27f53	1.2695106
3	0x3f8d4086	1.1035316
4	0x3fa180cd	1.2617432
5	0x3fa1ab88	1.2630472
6	0x3f83609e	1.026386
7	0x3f9103be	1.1329267
8	0x3f9c3cef	1.2206095
9	0x3fa5293a	1.2903206
10	0x3f8ad10c	1.0845046
11	0x3f8ff925	1.1247908
12	0x3fa3cc69	1.2796756
13	0x3f98e9a0	1.1946297
14	0x3f897777	1.0739583
15	0x3f840f5a	1.0317185
16	0x3f9b0cf4	1.2113328
17	0x3f8feba1	1.1243783
18	0x3f812eb4	1.0092378
19	0x3f85c316	1.045016
20	0x3f95f62f	1.1715754
21	0x3f85d5c3	1.045586
22	0x3f9a619f	1.2061042
23	0x3fa08517	1.2540616
24	0x3f88390f	1.0642413
25	0x3f9573c9	1.167596
26	0x3fa1ceb9	1.2641212
27	0x3f9fc67e	1.248245
28	0x3f947226	1.1597335
29	0x3f99b9f4	1.2009873
30	0x3fafbc57	1.3729352
31	0x3f8ef820	1.1169472
32	0x3fa4053d	1.2814099
33	0x3f923b32	1.1424315
34	0x3fa218c2	1.2663805
35	0x3fa16029	1.2607471
36	0x3fadb5cd	1.3571106
37	0x3f90c300	1.1309509
38	0x3f71fe8b	0.94529027
39	0x3f98c661	1.193554
40	0x3f933e02	1.1503298
41	0x3f8ba7ce	1.0910585
42	0x3fa858a1	1.3152047
43	0x3fa1f250	1.2652073
44	0x3fa910af	1.3208216
45	0x3f8f1827	1.1179246
46	0x3f8eac8b	1.1146406
47	0x3f89ee11	1.0775777
48	0x3fae8188	1.363328
49	0x3f6fd7be	0.9368857
50	0x3fa1c0aa	1.2636921
51	0x3f95cdac	1.1703391
52	0x3f9b95ca	1.2155087
53	0x3f8f9656	1.1217754
54	0x3f807b7f	1.0037688
55	0x3fa4395a	1.2830002
56	0x3f920157	1.1406659
57	0x3f9062d8	1.1280165
58	0x3fa99824	1.3249555
59	0x3f9a5f57	1.2060345
60	0x3f93ad17	1.1537198
61	0x3fb7280e	1.4309099
62	0x3f950acb	1.1643919
63	0x3f7ca642	0.9869119
64	0x3fa56d2f	1.2923945
65	0x3f9dd567	1.233075
66	0x3fa3e9c9	1.280572
67	0x3f9976b2	1.1989348
68	0x3f9e6160	1.2373466
69	0x3f9d49fc	1.2288203
70	0x3fa34012	1.2753928
71	0x3f935a23	1.1511883
72	0x3f869abd	1.0515972
73	0x3fb1f73a	1.3903573
74	0x3f951939	1.1648322
75	0x3fa2115c	1.2661548
76	0x3f91d8e7	1.1394318
77	0x3f9f5ca0	1.2450142
78	0x3fa6a23c	1.301826
79	0x3f9131ba	1.13433
80	0x3fa04761	1.2521783
81	0x3f92da4d	1.147287
82	0x3f9baf9a	1.2162964
83	0x3f918363	1.1368221
84	0x3f7a9818	0.97888327
85	0x3f9b585b	1.2136339
86	0x3f973745	1.1813742
87	0x3f91c42f	1.1387995
88	0x3f95742a	1.1676075
89	0x3fb905f2	1.4454939
90	0x3f8e3f8c	1.1113143
91	0x3f996fe7	1.1987275
92	0x3f8c5fba	1.0966713
93	0x3f95fc3e	1.1717603
94	0x3fa23b3e	1.2674329
95	0x3f95589e	1.1667669
96	0x3f94c620	1.1622963
97	0x3f99f9ba	1.2029335
98	0x3f99c08f	1.2011889
99	0x3fa5f8c7	1.2966546
100	0x3f8b454d	1.0880524
101	0x3fa44894	1.2834649
102	0x3f900566	1.1251647
103	0x3f8d460e	1.1037004
104	0x3f8b8fcf	1.0903262
105	0x3fbc22b7	1.4698094
106	0x3faf0b7f	1.3675383
107	0x3f980490	1.1876392
108	0x3f7b23c4	0.9810145
109	0x3f92f9fe	1.1482542
110	0x3f8dac94	1.1068292
111	0x3fa75b35	1.3074709
112	0x3f9507a9	1.1642963
113	0x3fa69e4e	1.3017061
114	0x3f9a6a5c	1.2063708
115	0x3f8bf7e5	1.0935026
116	0x3f81b48e	1.0133226
117	0x3f8f7d4a	1.121011
118	0x3fc9040d	1.5704361
119	0x3f94cda4	1.1625257
120	0x3f99f4c4	1.2027822
121	0x3fb094d4	1.3795419
122	0x3fd89354	1.6919961
123	0x3f8af637	1.0856389
124	0x3f8c7a90	1.0974903
125	0x3f888ae5	1.0667387
126	0x3f8e62b2	1.112387
127	0x3f9a9bfa	1.207885
128	0x3f93e66e	1.1554697
129	0x3f9a6088	1.2060709
130	0x3f8de402	1.1085207
131	0x3f90cfea	1.131345
132	0x3f9b21a6	1.2119644
133	0x3f8f09b7	1.117484
134	0x3fb0374d	1.3766876
135	0x3f81022c	1.0078788
136	0x3f9f4ae1	1.2444726
137	0x3fa478bb	1.2849344
138	0x3fa20a35	1.2659365
139	0x3f8f7a72	1.1209242
140	0x3f914fc6	1.135247
141	0x3f924a3e	1.1428907
142	0x3f8e7780	1.1130219
143	0x3f8f1a1c	1.1179843
144	0x3f9b757c	1.2145228
145	0x3f9ae0d9	1.2099868
146	0x3f9c9e18	1.2235746
147	0x3fa9220c	1.3213515
148	0x3f9722f7	1.1807545
149	0x3f86057a	1.0470421
150	0x3f9c2475	1.2198626
151	0x3f8f4c30	1.1195126
152	0x3f9e749e	1.2379339
153	0x3f94b529	1.1617786
154	0x3f884a06	1.064759
155	0x3f9e8b7c	1.2386317
156	0x3f9b8a6d	1.2151619
157	0x3faf5690	1.3698292
158	0x3f8050cb	1.0024656
159	0x3f9016f3	1.1257004
160	0x3f87dc22	1.0614054
161	0x3f917ada	1.1365616
162	0x3f98cf44	1.1938252
163	0x3f94e3c3	1.1632007
164	0x3f9caf1c	1.2240939
165	0x3f9e517a	1.2368615
166	0x3f8ec24a	1.1153042
167	0x3f9a509c	1.205585
168	0x3fa65a7b	1.2996362
169	0x3f8f6b28	1.1204576
170	0x3f98e3e3	1.1944546
171	0x3f930cbd	1.1488262
172	0x3fa0b329	1.2554675
173	0x3fa882ed	1.3164955
174	0x3fa63f70	1.298811
175	0x3f747b35	0.955005
176	0x3fa23db3	1.2675079
177	0x3f7fa01d	0.9985369
178	0x3f8ea4cc	1.1144042
179	0x3fa92ffe	1.3217771
180	0x3f905bba	1.1277993
181	0x3fa08b09	1.254243
182	0x3fb3aa10	1.4036274
183	0x3fc210ab	1.5161337
184	0x3fb6af97	1.4272336
185	0x3f88473d	1.064674
186	0x3f96b65c	1.1774402
187	0x3f98f177	1.1948689
188	0x3f8d4496	1.1036556
189	0x3fa5a5ea	1.2941258
190	0x3f7a02b1	0.97660357
191	0x3f8caf3f	1.0990981
192	0x3f882250	1.0635471
193	0x3f8d9eda	1.1064103
194	0x3f5050ce	0.813733
195	0x3f9b5e67	1.2138184
196	0x3f9e23d4	1.2354684
197	0x3f8b3f59	1.0878707
198	0x3f9ae9b1	1.2102567
199	0x3f9048c5	1.1272207
200	0x3f9a77dc	1.2067828
201	0x3f980868	1.1877565
202	0x3f8c2bff	1.0950927
203	0x3f943e87	1.1581582
204	0x3f87ad6c	1.0599799
205	0x3f999c10	1.2000751
206	0x3f8d8925	1.1057478
207	0x3fa483e9	1.2852756
208	0x3f9b43ee	1.2130105
209	0x3f9b348a	1.2125409
210	0x3f9128d3	1.1340584
211	0x3f9c91f5	1.2232043
212	0x3f92c91d	1.1467625
213	0x3fa836b2	1.3141692
214	0x3fa5844f	1.2931002
215	0x3f8daf41	1.1069108
216	0x3f94bdce	1.1620424
217	0x3f9499a0	1.1609383
218	0x3facf330	1.3511715
219	0x3f8552e3	1.041592
220	0x3f9a5272	1.205641
221	0x3f852055	1.0400492
222	0x3f91a942	1.1379778
223	0x3fa59b01	1.2937928
224	0x3fa21948	1.2663965
225	0x3f813424	1.0094037
226	0x3f8d90dc	1.1059833
227	0x3f99144a	1.1959317
228	0x3f817410	1.0113544
229	0x3f9518d6	1.1648204
230	0x3fa69f4e	1.3017366
231	0x3f91d8cb	1.1394285
232	0x3f8d9fba	1.106437
233	0x3f8b4353	1.0879921
234	0x3fabc5ed	1.3419777
235	0x3faa8899	1.3322936
236	0x3fa3fd18	1.2811613
237	0x3fb5f885	1.4216467
238	0x3f8e07d4	1.1096139
239	0x3f8d6fb7	1.1049718
240	0x3f93de8e	1.1552293
241	0x3f7e725b	0.9939324
242	0x3f8f2ba7	1.1185197
243	0x3f8f4041	1.1191484
244	0x3fa32012	1.2744162
245	0x3f9b160a	1.2116101
246	0x3f99fb1b	1.2029756
247	0x3f9f2121	1.2431985
248	0x3f9fa34f	1.2471713
249	0x3f7ef536	0.9959291
250	0x3f949e70	1.1610851
251	0x3f97a154	1.1846108
252	0x3fa03985	1.2517554
253	0x3f7e0b6f	0.99236196
254	0x3f8214c7	1.0162591
255	0x3f9e4008	1.2363291

bias f4 [256]
0	0x3e660895	0.22464211
1	0x3e2ed486	0.17073259
2	0x3e28f160	0.16498327
3	0xbde9c8a4	-0.11415222
4	0xbc2508f5	-0.010072936
5	0x3c351e1f	0.011054545
6	0xbe15bb4e	-0.14622232
7	0xbd6a67aa	-0.057227768
8	0xbdefb2f6	-0.11704056
9	0x3e2c6b85	0.1683789
10	0xbd9af41b	-0.07566091
11	0x3dd3ddbe	0.10345028
12	0x3e9c9e34	0.3058945
13	0x3e5f0339	0.21778573
14	0x3dd6aad6	0.10481803
15	0x3e8c84e8	0.2744515
16	0x3d946d3b	0.072473966
17	0x3e6b40cf	0.22973941
18	0xbda9025f	-0.082524054
19	0x3e3ca859	0.18423595
20	0x3e40926f	0.1880586
21	0x3e6f1203	0.23346715
22	0xbe012be6	-0.12614402
23	0x3e818f6a	0.2530473
24	0xbdef531d	-0.116857745
25	0xbd2176c5	-0.039419908
26	0xbddda45f	-0.10822367
27	0x3e6f33de	0.2335963
28	0x3e694914	0.22781783
29	0xbdca4447	-0.09876304
30	0xbd12561d	-0.035726655
31	0x3e42fb43	0.19041161
32	0xbe08a777	-0.13345133
33	0xbd70365e	-0.0586456
34	0x3e677662	0.22603753
35	0xbe61826b	-0.22022407
36	0xbddac69e	-0.106824145
37	0x3e896ed7	0.26842377
38	0xbe313fe1	-0.17309524
39	0xbdf591a5	-0.1199067
40	0xbe157818	-0.14596593
41	0x3d9dd33c	0.077063054
42	0xbde92be1	-0.11385322
43	0xbbfc7b03	-0.007705094
44	0xbe2e4b2b	-0.17020862
45	0xbdd6ee40	-0.10494661
46	0x3dc7aa44	0.097492725
47	0x3e2f5b58	0.17124689
48	0xbe033f0a	-0.12817016
49	0xbd71d3b9	-0.059039805
50	0x3e74eba1	0.2391801
51	0xbd811d31	-0.06304396
52	0x3e48df3e	0.1961641
53	0xbdad5171	-0.08462799
54	0x3e64a3a3	0.22328047
55	0x3e5a9db0	0.21349216
56	0x3d210d72	0.039319463
57	0x3e3a0f32	0.18169859
58	0x3e0ec69c	0.13942951
59	0x3e33785d	0.17526384
60	0x3e240108	0.16016018
61	0x3e7226a8	0.23647559
62	0x3d8e6da2	0.069545045
63	0x3e50da02	0.20395663
64	0x3dce653d	0.100779034
65	0xbe0f29ad	-0.13980742
66	0x3d2eb90d	0.042656947
67	0x3e3f0f0c	0.18658084
68	0x3e24f73b	0.16109936
69	0x3e8ed655	0.27897897
70	0x3db74047	0.08947807
71	0x3e158ef7	0.14605318
72	0x3e4419fa	0.19150534
73	0xbd89ecb3	-0.067346
74	0x3e68f720	0.2275052
75	0x3e865062	0.26233202
76	0x3da68a2e	0.081318244
77	0x3e6577eb	0.22409026
78	0xbda356e7	-0.0797556
79	0x3e17ee9d	0.14837117
80	0x3e43720e	0.19086477
81	0x3e46e8a9	0.1942469
82	0x3e8bb097	0.27283165
83	0x3e4ad8eb	0.1980931
84	0xbe1696ee	-0.14706013
85	0x3b2e9c15	0.0026643325
86	0xbda83d5c	-0.08214828
87	0x3e81ac68	0.25326848
88	0x3d181895	0.03713282
89	0x3e7bdb67	0.24595414
90	0xbe86abbe	-0.26302904
91	0x3c8962fd	0.016770834
92	0xbdc1c039	-0.09460492
93	0x3e8047fc	0.2505492
94	0x3e801966	0.25019377
95	0x3e542e5e	0.20720813
96	0x3e7a2e3b	0.24431698
97	0x3d979dcb	0.074031435
98	0xbe4a6a5a	-0.19767132
99	0x3e61855e	0.22023532
100	0xbe62cd1b	-0.22148554
101	0x3e10aa8a	0.14127555
102	0x3e71462b	0.23561923
103	0x3e879903	0.26483926
104	0x3e460437	0.19337545
105	0x3e8649af	0.2622809
106	0x3e23c51a	0.15993157
107	0x3e87f2f2	0.2655254
108	0x3c8126f7	0.01576565
109	0x3e76c7e5	0.24099691
110	0x3c37087a	0.011171455
111	0x3e5b48ec	0.21414536
112	0x3d91c3ce	0.07117425
113	0xbda347b0	-0.07972658
114	0x3e882b54	0.26595557
115	0x3e2a7610	0.166466
116	0x3e3c6979	0.1839961
117	0x3e045963	0.12924723
118	0xbd8e34cc	-0.06943664
119	0xbde317d8	-0.11088532
120	0xbd197910	-0.03746897
121	0xbd5a1866	-0.053245924
122	0x3e1cb7c0	0.1530447
123	0xbdbe0df6	-0.092800066
124	0x3e50eddc	0.20403236
125	0xbc96ebb2	-0.018422935
126	0xbdf2ffb0	-0.11865175
127	0x3c801b18	0.01563792
128	0xbd864c6b	-0.06557544
129	0xbdb89fe6	-0.09014873
130	0x3e52000b	0.20507829
131	0x3dcd6d03	0.10030558
132	0x3e0badfc	0.13640589
133	0x3e5cf624	0.2157827
134	0x3e5cba12	0.21555355
135	0x3c6463ac	0.013939779
136	0x3dcb29c1	0.09920073
137	0x3e5d61a0	0.21619272
138	0x3e5ba85e	0.21450946
139	0x3e6ed493	0.23323278
140	0x3e82b9b8	0.25532317
141	0xbdb830cb	-0.089936815
142	0x3e925a3b	0.28584465
143	0x3e4c5448	0.19954026
144	0x3d37d088	0.044876605
145	0xbd159d01	-0.036526684
146	0x3e8257af	0.25457522
147	0xbdf24e3a	-0.11831327
148	0x3e56b96f	0.20969175
149	0x3e3221b6	0.17395672
150	0x3c42648e	0.011864794
151	0x3da0007c	0.078125924
152	0xba8a32cc	-0.0010543703
153	0x3e4cc542	0.19997123
154	0xbdb869e7	-0.09004574
155	0x3d2ce18c	0.042207286
156	0xbe278e72	-0.16362932
157	0x3dd9d555	0.10636393
158	0xbcf3195c	-0.029675178
159	0x3e760231	0.24024273
160	0xbe4396fa	-0.19100562
161	0xbd930d91	-0.07180322
162	0x3d813ddb	0.06310626
163	0x3e48ada3	0.19597487
164	0x3e06c454	0.1316083
165	0x3e897658	0.26848102
166	0xbdc6c851	-0.09706176
167	0x3dc237bc	0.09483287
168	0x3e1b0fe2	0.15142778
169	0x3e9c596f	0.30536982
170	0x3e802594	0.2502867
171	0x3dcdb1ce	0.10043679
172	0xbdef13ed	-0.116737224
173	0x3e9c4177	0.30518696
174	0x3e756563	0.23964457
175	0x3e4894f0	0.19588065
176	0x3e271bf4	0.16319257
177	0x3e16c26c	0.14722604
178	0x3e3848ff	0.17996596
179	0xbd4cd2e4	-0.05000581
180	0x3e55fedb	0.20898001
181	0x3ddda2ca	0.10822065
182	0xbdcb9800	-0.09941101
183	0xbdf91fc4	-0.12164262
184	0xbdd386ef	-0.10328471
185	0xbd94b8db	-0.07261821
186	0xbd9fcb8e	-0.07802497
187	0x3e58bd00	0.21165848
188	0xbcdb669c	-0.026782326
189	0x3d265527	0.04060855
190	0x3e4ff1f1	0.20307137
191	0x3e3cb2a0	0.18427515
192	0x3e0f1386	0.13972291
193	0x3e7e7387	0.24848758
194	0xbe181dd9	-0.14855136
195	0x3e62a449	0.22132982
196	0x3e214bf6	0.15751633
197	0xbe37232c	-0.17884511
198	0x3db1b69f	0.0867741
199	0x3e0dd86e	0.13852093
200	0x3e64f995	0.22360833
201	0x3dadbf3f	0.08483743
202	0xbd476de2	-0.048688777
203	0x3e2b2dcc	0.16716689
204	0xbdcb0094	-0.0991222
205	0x3e0732d9	0.1320299
206	0xbe20bcf6	-0.15697083
207	0x3df02dc4	0.11727479
208	0x3e5e0c8f	0.21684478
209	0xbd3f1d1c	-0.04665862
210	0x3dc6ad61	0.09701038
211	0x3e25f68e	0.16207334
212	0x3df8502f	0.12124669
213	0x3dae02cc	0.08496627
214	0x3e3c5e7a	0.18395415
215	0x3e83c260	0.25734234
216	0xbcd9a3b9	-0.026567327
217	0x3e6dc9d0	0.23221517
218	0x3e2e07a0	0.16995096
219	0x3e5f20fb	0.21789925
220	0x3df9b684	0.12193015
221	0x3e5a47b6	0.21316418
222	0x3df5210e	0.11969195
223	0x3d3e5bbc	0.046474203
224	0x3dcd71cb	0.1003147
225	0xbe90aafd	-0.28255454
226	0xbe8e3992	-0.27778298
227	0x3e388213	0.1801837
228	0xbe38b28c	-0.1803686
229	0xbd98a914	-0.07454124
230	0x3e9a38df	0.30121514
231	0x3dfcaff1	0.12338246
232	0x3e4e435d	0.20142885
233	0xbd712949	-0.058877263
234	0x3e26685d	0.16250749
235	0x3e63a6b3	0.2223156
236	0x3e93a3ca	0.288359
237	0xbd6613eb	-0.05617134
238	0xbd6cc140	-0.057801485
239	0x3e721e30	0.23644328
240	0x3e82511c	0.25452507
241	0xbe2616c8	-0.16219628
242	0x3e6881c1	0.22705747
243	0x3e4666f7	0.19375215
244	0xbdb4b43f	-0.08823442
245	0x3e9330d0	0.28748178
246	0x3ea4cd9b	0.32188115
247	0x3d7f6bff	0.062358852
248	0xbdb3fe94	-0.08788791
249	0xbd7a498c	-0.061105296
250	0xbda2b9dd	-0.07945607
251	0x3e87f153	0.26551303
252	0xbdbda1bb	-0.09259363
253	0xbe09e1ff	-0.13465117
254	0x3e0fec9f	0.14055108
255	0x3d3b9cd3	0.045803856

running_mean f4 [256]
0	0x3de1e945	0.11030821
1	0x3d8e138c	0.06937322
2	0x3e8ca6b6	0.2747094
3	0x3c9e15dd	0.019297535
4	0x3e2fddff	0.17174529
5	0x3ba5cdd9	0.0050599393
6	0x3bb2be3e	0.0054548075
7	0x3e7d1a6e	0.24717113
8	0x3c3f73f5	0.011685361
9	0x3e7bb3cb	0.24580304
10	0x3d8e1c12	0.06938948
11	0x3d1b4ee4	0.037917033
12	0x3edf70ac	0.4364065
13	0x3e9e9df0	0.30979872
14	0x37b59ace	2.1648968e-05
15	0x3e361319	0.17780723
16	0x3ccf1f4e	0.025283482
17	0x3e2bfbcc	0.16795272
18	0x37320274	1.0610198e-05
19	0x3dc65e56	0.09685962
20	0x3e79d9ae	0.24399444
21	0x3e365fda	0.17810002
22	0x3bf273dc	0.0073990654
23	0x3f072b6b	0.52800626
24	0x3504c8fc	4.94663e-07
25	0x3bbd2b81	0.0057730083
26	0x3d34f196	0.044175707
27	0x3ed1e9f5	0.40998808
28	0x3e3c245a	0.18373242
29	0x3b905d44	0.0044056494
30	0x3c71d538	0.014760308
31	0x3e3bc738	0.18337715
32	0x3e755b62	0.23960641
33	0x3e0a161d	0.13484998
34	0x3efd12b8	0.49428344
35	0x3da32985	0.079669036
36	0x3d81691e	0.06318878
37	0x3f066b20	0.5250721
38	0x3cc97ccb	0.024595639
39	0x3d7b6dd3	0.061384033
40	0x3b53c3e4	0.0032312805
41	0x3e6329b8	0.22183883
42	0x3e4e2f0b	0.20135133
43	0x3cf1cae9	0.0295157
44	0x3c2b23e6	0.010445571
45	0x3cf24fc3	0.029579049
46	0x3d65bccd	0.056088258
47	0x3d5f35c5	0.054494638
48	0x3e926139	0.285898
49	0x32b4bc8b	2.1040497e-08
50	0x3e8e34e1	0.27774718
51	0x3ea0cbb4	0.31405413
52	0x3dad2ae7	0.084554486
53	0x3c3188c5	0.010835831
54	0x3dbd0938	0.09230274
55	0x3e15b17c	0.14618486
56	0x3e50618e	0.20349714
57	0x3ea328c9	0.31867054
58	0x3db7ae76	0.08968823
59	0x3e8bdfcf	0.2731919
60	0x3ceb8b61	0.028752984
61	0x3f061bcf	0.5238618
62	0x3eb8e926	0.36115378
63	0x3ea601ce	0.32423252
64	0x3e18067b	0.14846222
65	0x3185b410	3.89128e-09
66	0x3cf8b05b	0.03035753
67	0x3e861916	0.26191014
68	0x3ebc23d7	0.36746094
69	0x3e1639d4	0.14670497
70	0x3e3ec61a	0.18630257
71	0x3d56891f	0.052376863
72	0x3ee4ace5	0.44663158
73	0x3d24eb18	0.040263265
74	0x3e5b0ca2	0.21391538
75	0x3c36066a	0.011109928
76	0x3d365226	0.044511937
77	0x3d524864	0.05133857
78	0x3ad35234	0.0016122521
79	0x3d01749b	0.031605344
80	0x3eaf9fab	0.34301504
81	0x3e4f6014	0.20251495
82	0x3e0ced8b	0.1376249
83	0x3cbe0cd8	0.023199484
84	0x3c7a41d6	0.015274486
85	0x3da47e24	0.08031872
86	0x3e4910ef	0.19635366
87	0x3e8967b9	0.26836947
88	0x3d8ab0d2	0.06772007
89	0x3ecc9310	0.3995595
90	0x3d288e6a	0.04115144
91	0x3e0075a7	0.12544881
92	0x3cff791d	0.031185681
93	0x3e00148d	0.1250784
94	0x3e0cf464	0.13765103
95	0x3ee98217	0.45607063
96	0x3dedac89	0.11605174
97	0x3eb67572	0.3563648
98	0x3d334b6d	0.043773104
99	0x3ec98e53	0.39366397
100	0x3db6fd3d	0.0893502
101	0x3e14b7b8	0.14523208
102	0x3ebc0a16	0.36726445
103	0x3cec60f8	0.028854832
104	0x3e93e673	0.28886756
105	0x3f0dedf5	0.5544122
106	0x3ea91b60	0.33028698
107	0x3e1fe215	0.15613587
108	0x3c7a6317	0.015282414
109	0x3d83ded0	0.064389825
110	0x3dd9b29d	0.10629771
111	0x3e7a81f9	0.24463643
112	0x3e87d72c	0.2653135
113	0x3e8a5491	0.27017644
114	0x3da8197e	0.08207987
115	0x3e849508	0.25894952
116	0x3e3753b7	0.17903028
117	0x3d79d57a	0.060994603
118	0x3bd3f0c4	0.0064679105
119	0x3ab17479	0.001353874
120	0x3ac7e8fc	0.001525193
121	0x3d1560d2	0.03646929
122	0x3d8ece13	0.06972899
123	0x3d8e72ef	0.069555156
124	0x3e75f9b1	0.24021031
125	0x3da4c832	0.08045997
126	0x3c3a196e	0.011358602
127	0x3e8acbc7	0.27108595
128	0x3d6fe3d6	0.05856689
129	0x3e246885	0.16055496
130	0x3d505568	0.0508627
131	0x3c07bb88	0.008284457
132	0x3d7b982d	0.061424423
133	0x3e8e9219	0.2784584
134	0x3da1e509	0.07905013
135	0x3d0cc4ff	0.034367558
136	0x3f0afc7d	0.54291517
137	0x3eb3f6b2	0.3514915
138	0x3d328683	0.04358531
139	0x3eb753e6	0.35806197
140	0x3d868f30	0.065702796
141	0x3adac3ee	0.0016690472
142	0x3e699600	0.22811127
143	0x3d7798ea	0.060448565
144	0x3db04f9d	0.08608935
145	0x3e9a0ddb	0.30088696
146	0x3eeb627f	0.45973584
147	0x3cc3891e	0.023869094
148	0x3eaa3d8e	0.33250087
149	0x3e677f84	0.22607237
150	0x3daf2838	0.08552593
151	0x3dcec44e	0.10096036
152	0x3d1dbc5c	0.03850971
153	0x3c8ba7e8	0.017047837
154	0x3aab0928	0.0013048993
155	0x3e838fd7	0.2569568
156	0x3cb36e67	0.02190323
157	0x3c4e9c85	0.012610559
158	0x3d92e054	0.071716934
159	0x3dd59059	0.10427923
160	0x3d706fe8	0.058700472
161	0x3b165da1	0.002294399
162	0x3d91e7b7	0.07124274
163	0x3d8854cc	0.06656799
164	0x3ec0a6c6	0.37627238
165	0x3dde38b8	0.10850662
166	0x3dc931b1	0.09823931
167	0x3e81496c	0.2525133
168	0x3e8c870a	0.27446777
169	0x3ea202c0	0.31642723
170	0x3d6b9026	0.057510518
171	0x3e2dbe54	0.16967136
172	0x3da8845a	0.08228369
173	0x3f13d091	0.5774012
174	0x3e8135db	0.252364
175	0x3c5370bc	0.012905296
176	0x3eb76b74	0.35824168
177	0x3d3f53fe	0.04671096
178	0x3c8ba0e0	0.017044485
179	0x3ccc6cea	0.024954278
180	0x3d8d507e	0.06900118
181	0x3e0eb19f	0.13934945
182	0x3cd75241	0.026284339
183	0x3bd23350	0.0064148083
184	0x3ebcd9ed	0.36885014
185	0x3c9f6655	0.019457975
186	0x3d05e60b	0.03269009
187	0x3f0a97a6	0.5413765
188	0x3b6c0b62	0.0036017527
189	0x3cb2eb25	0.021840641
190	0x3bc9d7a5	0.00615974
191	0x3cd8be42	0.02645791
192	0x3c3f7121	0.011684687
193	0x3e83e1f2	0.2575832
194	0x3a85cec6	0.0010208718
195	0x3e3be2fd	0.18348308
196	0x3c7f80ac	0.015594643
197	0x3de5a332	0.11212768
198	0x3f0a482c	0.54016376
199	0x3d62fbe6	0.05541601
200	0x3eda5b30	0.42647696
201	0x3d7a36b0	0.06108731
202	0x3d3e0d78	0.046399564
203	0x3c8d0948	0.01721634
204	0x3d557b00	0.052119255
205	0x3e052205	0.13001259
206	0x3c97350a	0.018457908
207	0x3e965da6	0.29368323
208	0x3e5f7ed5	0.21825726
209	0x3ec79f6a	0.3898881
210	0x3c901a25	0.017590592
211	0x3dcb8d89	0.09939105
212	0x3eab9e67	0.3351929
213	0x3dc23de5	0.09484462
214	0x3e82f760	0.25579357
215	0x3ec520b4	0.38501513
216	0x3dc1e4d4	0.094674736
217	0x3ed99800	0.4249878
218	0x3e9045d7	0.28178284
219	0x3e8ac547	0.27103636
220	0x3d8a96f1	0.06767071
221	0x3e992d96	0.29917592
222	0x3dc28ba3	0.0949929
223	0x3d4eac2f	0.050457176
224	0x3eaf4059	0.3422878
225	0x3d36b7ec	0.044608995
226	0x3d2eee70	0.04270786
227	0x3db0089d	0.08595393
228	0x3d8ddf4b	0.069273554
229	0x3ea9099a	0.33015138
230	0x3e4410d6	0.19147047
231	0x3e73964b	0.23787801
232	0x3ba70791	0.0050973375
233	0x3da1959f	0.07889866
234	0x3eff90e2	0.49915224
235	0x3ee9ef50	0.45690393
236	0x3e01fd41	0.12694265
237	0x3eb7bf3a	0.35888082
238	0x3d0ac7b2	0.03388185
239	0x3df603ce	0.120124444
240	0x3e9202ed	0.28517857
241	0x3c84da36	0.016217332
242	0x3ea0ee48	0.31431794
243	0x3ea2417a	0.3169058
244	0x3f0c3606	0.54769933
245	0x3d7fc28f	0.062441405
246	0x3ef14219	0.4712074
247	0x3d3a138a	0.04542879
248	0x3b1c9d8c	0.0023897616
249	0x3aae492f	0.0013296957
250	0x3ac4409e	0.0014972871
251	0x3e36bdb6	0.17845806
252	0x3d39b7ba	0.04534123
253	0x3c390871	0.0112935165
254	0x3d6e8d83	0.058240425
255	0x3e8be0fd	0.2732009
