Best_models/wisdm_CNN_20210122_212207/CNN_wisdm_Rep_2_Seed_773.pt (torch_old, 224391 bytes, 12 tensors)

weight f4 [64, 6, 3]
00000000: 6761 bb3c 2e11 d4be 20b8 85be 9355 1a3f
00000010: 962f e93e 7962 56be 2411 5f3d 641e 29ba
00000020: 069b e5bd 3250 2ebe cab0 48be 7843 0dbf
00000030: dd2a f83c 58ba e73d 2b7b bc3e 1fde d53d
00000040: 6fcd 13be a0ac a6bd fde2 f2bd 96c3 733e
00000050: 28f8 6f3e c566 ae3e 064c 1b3e 079e 7abe
00000060: 656a fdbe b181 bbbd e023 db3e b335 4a3e
00000070: 2422 adbe 6480 b2bd d747 683d 1a4b 29be
00000080: 2b9a 08be fc99 003c e72e e3be e381 e6bd
00000090: e0d4 58be de38 88be 1588 a5bd 2a77 683e
000000a0: ae00 1f3e 1bf4 48bd 35ab 203e fe45 203e
000000b0: 3f1c 7f3d cd45 7ebe 5854 443e bbcc d6bb
000000c0: 1a26 1c3e 8c2d b2be 852f abbe 5c3f 27be
000000d0: 5c40 113e 7b39 e63c 2a74 aa3c c8c1 823d
000000e0: 242e 413d 2cb6 00be 3983 6a3d 746f 31bd
000000f0: 2805 0a3e 4acf fcbd 3096 983d 0310 7e3e
00000100: 1d7d 98bd 96ba dfbc 5732 8e3e 65c8 f43b
00000110: 1576 aabe 1e33 84be 10da ba3e 203e 0b3f
00000120: e5ed e03d 362e cb3e e9d6 ab3e 2f69 bfbe
00000130: 251d d53d 448d e93e 03e2 75bf 62f9 cfbe
00000140: 2789 2d3f b0f7 cd3b c729 643d bda3 163e
00000150: ef49 383e 3a81 92bd 952d 76be 3708 f7bd
00000160: d6d9 173e c46f 4cbe d9b3 5a3e 7e4a 2d3b
00000170: bc8e 833e 7d25 443e 885d bcbd 9237 e43d
00000180: 3dd1 2d3d a697 a4bc 50b2 553d 45aa 9e3e
00000190: e514 13bf 19e4 123e c610 7c3e a7ab 56bf
000001a0: 2128 e23e 6840 2bbd 4600 14be a4ee e8bd
000001b0: a95b 93be 095b 7ebc 18b7 95be e577 3a3d
000001c0: 7c16 8b3d 666c 4d3e 6910 68be 4d48 97bb
000001d0: 7b69 28be 9a7b 11bf de75 cb3e df82 283e
000001e0: 2e80 5c3e c85f 1ebe 3730 b63d ec09 33bf
000001f0: c6e3 b33d 4305 843d 3a30 303e d06f 5abc
00000200: f670 0d3e 53dd 4e3e 4b9c 0d3e e140 02be
00000210: e46e 913b 97f2 71bd 212d c4bd 548c 7e3e
00000220: 0b44 e5bd 8393 43be d5d6 183f 6a76 f3bd
00000230: 889d 1dbf 8756 73be 465c c93e 72e1 9cbd
00000240: f183 c7be e8f0 d83d 5dbb 283f be53 abbe
00000250: 66d6 babd 73e0 c43e 37f3 a13e 00fd dd3e
00000260: 9bf0 df3b 648b df3c 6427 7fbe b4de 8d3e
00000270: 9b1f 0d3d 2645 29be de0c 1dbe 41f1 723e
00000280: 03ed 3c3e 0099 56be a50a f93e 736b b3be
00000290: 3c28 6bbf eb4f 09bd fd48 7bbe 8d17 9dbd
000002a0: 696b db3e ed5f b93d e408 00bf f2fd 523d
000002b0: 7c4e 28be 3037 473e 5976 4f3e 91ef 00be
000002c0: cdea 7a3d 9cc9 e73d 030c 1bbe 3ac4 083e
000002d0: 2d9d 0abf ecec 55be c4ba f53e f124 153f
000002e0: 321c 1f3f f673 ecbd 8ce0 463f ac32 5e3e
000002f0: 2352 0abf 4e76 533d e0a4 643e 839a 83be
00000300: 6066 6a3e 14f9 6bbe a719 aabc b907 9dbd
00000310: db76 83bd 8321 903d 38d7 353e 8c19 803d
00000320: 4972 003e 653b 103e c7e1 94be ed10 1bbd
00000330: f579 763e f719 593e 8f5a 4a3e 751b e2be
00000340: 0121 97be 0d2c 91be f29b 433e dd23 603e
00000350: 9ed9 9b3e 5604 1ebe c0c4 b0be 77ac b0be
00000360: 0a38 203d 3d4b 8a3d 0c6c 76bd 203c 3f3e
00000370: 4f54 2f3d 7d92 3dbd f06e 573e 1012 18bd
00000380: 4355 3abe 8951 da3d 70ae 5bbb 0657 ba3e
00000390: bb08 733e a142 a8be f16c b13e 17bc 49be
000003a0: 3d67 d0be ad08 3e3f b032 633d 397a b53d
000003b0: a4e2 cbbd b9f4 713e 7a3d cabd 91b0 a8be
000003c0: 83d3 c4bd 512b 163d a709 563e 6875 d03e
000003d0: 8b8a 5fbe f286 f33d 3a18 e0be 62c8 ba3e
000003e0: e538 a63e b0ad 953e 128b 2bbe 26e6 62be
000003f0: d476 ec3c bd40 33bd 231a efbc 2afe 763d
0.022873593 -0.41419357 -0.2611704 0.60286826 0.45544118 -0.20936002 0.054459706 -0.0006451367
-0.11211209 -0.1702278 -0.1959869 -0.55181074 0.030293876 0.11314839 0.3681272 0.10442757
-0.14433835 -0.08138394 -0.11859701 0.23805079 0.23434508 0.34062782 0.1516572 -0.24474345
-0.49495235 -0.09155596 0.42800808 0.19747047 -0.3381511 -0.08715895 0.056709137 -0.16532555
-0.1334006 0.007849213 -0.4437172 -0.11255243 -0.21174955 -0.26605886 -0.08082596 0.22701707
0.15527603 -0.049060922 0.1569031 0.156517 0.062282797 -0.24831314 0.191728 -0.0065551675
0.1524891 -0.34800375 -0.33434692 -0.16332763 0.14184707 0.02810358 0.020807344 0.06384617
0.047163144 -0.12569493 0.05725405 -0.04331918 0.1347853 -0.12344225 0.07450521 0.24810795
-0.074457385 -0.02731065 0.2777278 0.007470178 -0.33293214 -0.2582025 0.36494493 0.5439167
0.10982875 0.39683694 0.335624 -0.37384936 0.104059495 0.4561559 -0.9604799 -0.4061995
0.677874 0.00628563 0.055703904 0.14710899 0.17996953 -0.07153554 -0.24040826 -0.12062114
0.14829192 -0.1996451 0.21357669 0.0026442106 0.25694835 0.19154926 -0.09197527 0.11143412
0.042435873 -0.020091843 0.052172005 0.3098928 -0.5745376 0.14344825 0.24615774 -0.8385567
0.4417124 -0.04180947 -0.1445323 -0.11373642 -0.2878087 -0.015524634 -0.29241252 0.045524497
0.06791398 0.20060882 -0.2266251 -0.004616773 -0.16446488 -0.56829226 0.39738363 0.16456173
0.21533272 -0.15466225 0.08895915 -0.69937015 0.08783679 0.06446316 0.17205897 -0.013332322
0.13812622 0.20201616 0.13829152 -0.12720062 0.004438268 -0.059069242 -0.0957892 0.24858218
-0.11194619 -0.1909924 0.5970281 -0.1188782 -0.615685 -0.23763476 0.39328212 -0.07660188
-0.3896785 0.10592824 0.65910894 -0.33462328 -0.091229245 0.3845249 0.3163087 0.43357086
0.0068341023 0.027288146 -0.2491737 0.27708972 0.03445397 -0.16530284 -0.1533694 0.23724844
0.18449788 -0.20956802 0.48640934 -0.35042915 -0.9185827 -0.03352348 -0.24539562 -0.076705076
0.42855385 0.090514995 -0.50013566 0.051511712 -0.1643619 0.19454646 0.2025999 -0.12591387
0.06125908 0.11317751 -0.15141301 0.13356104 -0.5414608 -0.2089116 0.47994053 0.58259493
0.621524 -0.11545555 0.7768638 0.21699017 -0.5403158 0.051626496 0.2232852 -0.2570382
0.22890615 -0.23044235 -0.020764185 -0.076674886 -0.06419154 0.07037642 0.1775788 0.06254873
0.12543596 0.14085157 -0.29078504 -0.03785794 0.2406996 0.21201311 0.19761108 -0.44161573
-0.29517367 -0.2835392 0.19102457 0.21888681 0.30439466 -0.15431342 -0.34525108 -0.3450658
0.039115943 0.06752632 -0.060161635 0.1867528 0.042805012 -0.04628228 0.21038413 -0.0371266
-0.18196587 0.10660083 -0.003352072 0.3639452 0.23733799 -0.32863334 0.34653428 -0.19700657
-0.40703765 0.7423199 0.05546826 0.08861203 -0.09955338 0.2362851 -0.09875007 -0.3294721
-0.09610655 0.036662403 0.2090212 0.40714574 -0.21830194 0.11890973 -0.43768483 0.36481005
0.32465282 0.29234076 -0.1675227 -0.22158107 0.028865255 -0.04376291 -0.029187268 0.060300983

bias f4 [64]
00000000: 1e0d 2dbf 00b8 95be 1177 4f3e 7055 4ebe
00000010: 11cd 0cbf e854 07bf 68bd 1ebf 5da6 c2be
00000020: d76b 78be 95a7 aebe d288 d9be 3521 3ebf
00000030: d452 f4be 7ae8 61be 9121 163e de5c 89bf
00000040: a958 f3be 99f0 33bf 7491 b8be 2433 ddbc
00000050: 29ef 92be 41e5 07bf 4226 e2be 0197 44be
00000060: 857d a2bf fb29 2abf 9c82 42bf 8328 44bf
00000070: 43b7 a5be e751 12bf cbcf d8be 0aa1 cfbe
00000080: 6d44 32bf 4386 66bf 41bb eebe f8eb 8cbf
00000090: b0b8 3bbe 537d 87bd 3701 c5be 79d3 80bf
000000a0: 6a4f e1bd 407f bcbe 7b6e 8cbe 6ade c5be
000000b0: 5da9 42bf 53a4 e6be c233 1abf d9bf 3fbf
000000c0: 8bdc 96be 25a8 10be 7df7 73be 8e23 0bbf
000000d0: 55d9 08bf 7db9 48bf 5809 30bf c530 bfbe
000000e0: 344a 7dbf d2e9 95bd bb16 a4bd 08c0 05bf
000000f0: 3d06 84be 49a7 84bd 5993 0ebd 8feb b9be
-0.6759814 -0.29241943 0.20260264 -0.2014978 -0.55000407 -0.5286393 -0.6200776 -0.3801755
-0.24259888 -0.3411223 -0.42487198 -0.7426942 -0.47719443 -0.22061339 0.14661242 -1.0731466
-0.4752858 -0.70289 -0.36048472 -0.027001925 -0.2869809 -0.5308419 -0.44169813 -0.19198228
-1.2694556 -0.6647031 -0.75980544 -0.76624316 -0.3236638 -0.57156223 -0.42346033 -0.4055255
-0.6963566 -0.9004862 -0.46627238 -1.1009512 -0.18332171 -0.066157006 -0.3847749 -1.0064536
-0.11001475 -0.36815834 -0.2742804 -0.3864625 -0.7603968 -0.45047244 -0.60235226 -0.7490211
-0.29465136 -0.14126642 -0.23824878 -0.5435113 -0.5345662 -0.7840803 -0.6876426 -0.37341896
-0.9894135 -0.07319988 -0.08012148 -0.5224614 -0.2578601 -0.064772196 -0.03480849 -0.3631253

weight f4 [64, 64, 3]
00000000: 8858 353e 4c25 29be bc56 e3be 89ff ffbd
00000010: ba8a 833d 3653 08bf fa81 a5be de97 b23c
00000020: 793b b53b ca28 84be f5f6 f63c 7088 7f3e
00000030: bcdf 87be 06ec bbbc e9cc 653e e032 623d
00000040: b66f 9f3e 19b4 b53d 97de 403e d9c0 8cbd
00000050: 97fb 06be 51c8 b53d fa9d ff3d 918c 713e
00000060: 4509 bbbe 4fd4 5ebe 5d19 09be f184 4a3d
00000070: ebf5 19be 7a3c e13d 8a1d fe3d 9b5a 003d
00000080: f1eb 5ebd ac86 3c3e 4ed3 c73e 05f3 afbe
00000090: 6fd1 83bd e221 5abe 0422 fe3d e345 7e3e
000000a0: 15f0 04bd 84b9 50be db79 56be 667d cbbd
000000b0: f43f 27bf 858f a03e 42f8 88be 8337 98bd
000000c0: 0f99 da3d 22e5 cd3e d646 abbc 2d54 6dbd
000000d0: 4bf5 3fbc a213 6bbe 8f73 8d3d 4813 293d
000000e0: e35f 31bd 4d34 8a3e 966c 34be 1305 b13d
000000f0: d212 ca3e 8fe6 bd3d 721a 843d 9441 863e
00000100: 3547 983e a0fb 2b3f 7b83 473d 7c65 dc3d
00000110: 853a 5cbd 6e57 e5be d4ed 2fbf 8283 f3bd
00000120: 6c59 01bf 4604 04bc ea24 173e daf7 8f3e
00000130: 2dca 713e 444a 073f 44df 8e3e 2cbc 383e
00000140: fe22 473e 8b32 243e c26b a1be 6cda 563e
00000150: 18a6 bdbd 58be 6d3e 7eb7 0dbe 43fd aabd
00000160: a32b 6bbe 5716 f4be e55a 273d a4eb 7cbe
00000170: 2d54 593e e5ba 853e 7069 77be c6dc 0a3e
00000180: 00e6 05be 6a8d 4ebc a948 0c3e 438c fbbe
00000190: ed91 233e 8d53 733c f44b 743e 8aab c83d
000001a0: dc28 4e3e b6cf 2abe d96f e03e 06a6 013e
000001b0: f6e3 0f3e a1a7 debd b452 bebe 290c b1bc
000001c0: 2892 e0be 71e7 7ebe 2aa7 3ebd 056c d1be
000001d0: 46de b73c 0fd7 a7be 2f61 afbe 3ebc 413d
000001e0: ee97 00be 8015 b9be a993 f33d f77d 693e
000001f0: 670f aebc bdc0 cb3d 36c5 e93d f5f4 203a
00000200: 7956 1bbe 8dd5 2fbe 378d b7be 89a1 bdbd
00000210: ced3 edbe 31cf edbe 165a 28be 49d4 e33d
00000220: f793 81be 3640 033e f738 8d3d a9b8 8cbe
00000230: 3eee 6cbe 768c a03d 0743 0e3e 7577 053f
00000240: dbea ab3d 56b7 0b3e d6cc e23c ab66 5fbd
00000250: e766 05be eb74 efba 8a43 76bf 6937 75be
00000260: 1064 9bbe ae29 f6bd 9f19 d23c bfb6 02be
00000270: 042c 703e 4b32 f83c de36 e7be 5262 933d
00000280: b87a 443e a84c 2b3f f6e3 12bf 6bbf cabe
00000290: 7a96 9fbe 7953 833e 6f4c 673e bf55 683e
000002a0: b842 053f f950 883e 1621 243f 3937 1a3e
000002b0: 1e69 abbe 4abf c7be 0624 9fbe 2a2d dcbe
000002c0: 7608 593c c920 483d 9ae4 6c3e 7ed9 f63c
000002d0: 716e a0be ca3b d73c 0ae0 443c a4b0 293d
000002e0: 0b8f d33d 47ec b53d 7440 0abf 9df1 ad3d
000002f0: a604 31be eeff ab3d 0ef8 393d 5125 ff3d
00000300: 46c8 ebbe b437 b9be e51d 4d3f c22a acbe
00000310: 9568 0ebe 8e6a 0dbf ad32 26be ecfe 3d3c
00000320: 6493 793a 46e9 8ebe 9040 e9bd 742e a3be
00000330: 0e79 03bf f95d bf3d 484e 823c 926a 8f3d
00000340: 7375 31bd ce7e a63e e610 ee3c d49d b43c
00000350: 62f3 8bbd e238 41bf b7a2 893e 8570 6ebe
00000360: 8581 7bbc f80e 1d3e 9499 083e 3321 233e
00000370: 2cc3 c33e 51a0 793e 1a4a ee3d a4a5 063e
00000380: 16b6 623e 6630 f5be dd25 edbe b02c eb3e
00000390: 0823 433e c31b 75be a578 42be 5516 bfbd
000003a0: 7e75 ecba 35e8 e83d 5150 1fbf 0ddc 77bf
000003b0: 48e3 203d c3c4 b6be 28fe aabe b076 cabd
000003c0: 2034 293e b73a b6be 4b97 c3bb 023b 1cbe
000003d0: 0a5c 213f b120 e03e 0ecb 16bf 156f 473d
000003e0: c5fc e73d 1e26 a3bc 0c67 4abe 75fb a13d
000003f0: 74d3 2abf d327 513e 1fc0 7fbe 5a98 f5bd
0.17709553 -0.16518134 -0.4440211 -0.12499911 0.06422944 -0.5325197 -0.32325727 0.021800932
0.0055307713 -0.2581237 0.030147055 0.2495439 -0.26537883 -0.022939693 0.22441448 0.0552243
0.31139916 0.088722415 0.18834911 -0.0687272 -0.13181911 0.08876098 0.124813035 0.23588778
-0.3653051 -0.21760677 -0.13388582 0.04944319 -0.15035217 0.10997863 0.12407978 0.031336408
-0.05442423 0.18410748 0.390284 -0.34365097 -0.06436431 -0.21301988 0.12408832 0.24831347
-0.032455523 -0.20383269 -0.20944922 -0.09936027 -0.6533196 0.31359497 -0.26751906 -0.07432463
0.10673725 0.40213877 -0.0209078 -0.057941604 -0.011716197 -0.22956708 0.06906807 0.041278154
-0.043304335 0.26993027 -0.17619547 0.08643546 0.39467484 0.09272491 0.064503565 0.26221907
0.29741827 0.67180824 0.048709374 0.10761544 -0.053766746 -0.44793266 -0.6872227 -0.118903175
-0.5052707 -0.0080576595 0.14760175 0.28118783 0.2361228 0.52847695 0.27904713 0.18040532
0.19446942 0.16034906 -0.31527525 0.20981759 -0.092601955 0.23217142 -0.13839528 -0.08349087
-0.22965865 -0.47673294 0.04085817 -0.24699265 0.21223517 0.26119152 -0.24161315 0.13560781
-0.1307602 -0.012606958 0.13699593 -0.4913045 0.15973635 0.014851463 0.23857099 0.097983435
0.20132774 -0.16680798 0.43835333 0.12660989 0.14051804 -0.108718164 -0.37172472 -0.021612244
-0.43861508 -0.24892975 -0.04654614 -0.40902725 0.022444855 -0.32781264 -0.34253833 0.047298662
-0.12557957 -0.36149216 0.11893398 0.22801958 -0.021247579 0.09948871 0.11414568 0.0006140017
-0.15169705 -0.17171307 -0.35849926 -0.09259326 -0.46450657 -0.46447137 -0.16440615 0.111244746
-0.253082 0.12817463 0.06895631 -0.27484635 -0.23137757 0.07839291 0.13892756 0.521354
0.083944045 0.13644156 0.027685564 -0.05454127 -0.13027535 -0.0018269097 -0.96196806 -0.23946919
-0.3034978 -0.120196685 0.025646983 -0.12765025 0.2345429 0.030297419 -0.45159048 0.071964875
0.19187438 0.66913843 -0.5737909 -0.39599165 -0.31169492 0.25649622 0.22587751 0.2268896
0.5205493 0.26624277 0.64112985 0.15060128 -0.33478636 -0.3901313 -0.3108217 -0.43003207
0.013246646 0.04885939 0.2313408 0.030133005 -0.3133426 0.026273627 0.012016306 0.041428223
0.10330018 0.08882957 -0.540046 0.0849335 -0.1728693 0.08398424 0.04540258 0.124582894
-0.46051234 -0.3617531 0.8012374 -0.33626372 -0.13907082 -0.55240715 -0.16230269 0.011596423
0.0009520559 -0.27912349 -0.113892674 -0.31871378 -0.5135659 0.09344096 0.015906468 0.070027485
-0.0433249 0.3251862 0.029060792 0.022047915 -0.06833531 -0.7547742 0.26881954 -0.2328511
-0.015350704 0.15337741 0.13339835 0.15930633 0.38234842 0.24377562 0.116352275 0.13149124
0.22139773 -0.47888488 -0.4631795 0.4593253 0.19056332 -0.23936372 -0.18991335 -0.09330431
-0.0018040386 0.11372415 -0.6223193 -0.96820146 0.039279252 -0.35696992 -0.3339703 -0.09885919
0.1652379 -0.3559167 -0.0059689633 -0.15256885 0.63031065 0.43774942 -0.58903587 0.04868992
0.11327509 -0.019915637 -0.19765872 0.0790929 -0.667289 0.20425348 -0.24975632 -0.119919494

bias f4 [64]
00000000: 49a2 c1be b088 553e edee f8be 7c4b 11be
00000010: c565 17be 3b97 62bd e719 b5be 7d19 2dbf
00000020: c08a 96be 68c7 1ebf 3eec adbe c861 0bbe
00000030: f596 04be 8744 87be 24e9 49bd 69db f1bd
00000040: 2d73 3bbd acf8 afbd 40d3 ebbd a47c 49bf
00000050: cefc ca3d 2e6b 153d 234c a4be 10c7 71bd
00000060: 9f59 eabd 54ff cfbe 41af f9be 6426 42bf
00000070: f572 b73d 9f67 1ebd d3f1 f2be d4f5 6fbe
00000080: 5ec8 db3c 4860 9fbe 28ea 7ebc d9a7 75bc
00000090: 5405 5cbe ecde 95be d3a1 9dbe 8177 e93d
000000a0: 4faa a9be 5089 fcbe 3c95 fbbe f479 4abd
000000b0: 33c7 c3be e9d1 08be 58d2 b3be 0c62 65be
000000c0: c2f2 82be 183c 72bf 4cbe a2be a7b8 77bf
000000d0: 44df 3dbc 3376 79be f195 6fbe a7d8 31bd
000000e0: 64c6 4abe 5dd7 2fbf 291f 3639 a178 fabc
000000f0: f242 a7be 46ec dcbe 06d9 d2bd 10b5 0abf
-0.37819126 0.20852923 -0.48619786 -0.14188951 -0.14784916 -0.055320006 -0.35371324 -0.6761702
-0.29402733 -0.6202302 -0.339693 -0.1361152 -0.1294821 -0.2641947 -0.049294606 -0.11809427
-0.045764137 -0.08592352 -0.11514902 -0.7870581 0.099115 0.036479168 -0.32089338 -0.05902773
-0.11442875 -0.40624487 -0.4876652 -0.7583983 0.08957473 -0.03867304 -0.47450122 -0.2343362
0.026828941 -0.31128144 -0.015558757 -0.014993631 -0.21486408 -0.29271638 -0.30787525 0.11399747
-0.33137748 -0.4932351 -0.49137294 -0.04943271 -0.38237914 -0.13361324 -0.35121417 -0.22400683
-0.25575835 -0.94622946 -0.3178581 -0.9676613 -0.011588875 -0.24361496 -0.23397042 -0.043419506
-0.19802243 -0.68687993 0.0001736848 -0.030575098 -0.32668263 -0.43149012 -0.102953 -0.5418253

weight f4 [256, 128]
00000000: f720 f63d c37f 593e 1aa4 a5bd d931 efbd
00000010: e4db e5bc b9d4 4ebd 93d2 0cbe d267 8fbd
00000020: f02e 6bbb 9b0c a03e cb0a 1fbe a70f afbe
00000030: 59bb cb3d da9d c43e 04c3 443d b075 a03d
00000040: d44f 09be 147f 35be 589f e0bd d439 883d
00000050: 48db 9fbd e59d e6bd 9983 c73d edc8 9cbc
00000060: f64e ccbc 8826 193d cb36 ed3e 22c7 b83e
00000070: 0d69 413d 1b01 20bd a623 57be 7278 47be
00000080: e087 363e 97e6 273e 818b 69be 8a7d 5dbd
00000090: 7144 1f3e b861 a73d 74ee a8bd ad18 613d
000000a0: 62b3 a5be fb0c e9be aee3 89be 14f6 c9bd
000000b0: 14d3 ef3e b7b8 393e b654 893d af0d 2bbc
000000c0: 386f 5ebe 6f23 8dbe f309 c0bd f698 edbc
000000d0: cc46 753e 3fcf 623e 25ce 6d3e f656 433e
000000e0: 3507 8abe efed bfbe 10fc 023d 31b3 e33d
000000f0: 31dc eb3e 5f54 3e3e c184 373c dfa0 923d
00000100: da98 87be d9c9 8bbe 6ed7 eb3d 650a dc3d
00000110: 2347 be3c 1dad 23be 80a5 393c 6bb3 33bd
00000120: 1f11 10bd e3ed 12be ac93 ad3d d9e0 4fbd
00000130: d487 f8bd 3d41 153e 8e65 6c3d 0499 a9bd
00000140: 29bb 853d ec06 d13c de43 09be 7d01 043d
00000150: 10d2 2fbd 91be 013d f866 333d 562d 1dbe
00000160: 1597 01be 97d3 f3bd 2c62 d53c 1890 9a3e
00000170: 7bb4 203e 2746 ba3d 0fd4 903d 663a 14bc
00000180: 1945 823c 563c 6e3e db0a 35be 6b46 8a3e
00000190: 44c3 2e3e 0c92 233e 607f 8b3d fb66 673d
000001a0: 1798 283d 5282 c4bd c1a8 c4bc a806 a7bc
000001b0: f913 823e 53bf 783d a600 a73d a9b7 ac3d
000001c0: e208 6ebd 0775 86bd 64fe 48be e6df 59bd
000001d0: 08dc 253d 1000 22bc a1c4 aa3e aa08 483e
000001e0: c1fd 303d 7adc 723e c00d 02be b1fc 93bd
000001f0: f6e8 1a3c f2c9 853d 386e c7bd f034 933d
00000200: 3e3b 04bd 3888 003d aba7 7d3d 4dd9 15be
00000210: 42e7 75bd 7d9a 0dbe d1c8 ebbe b253 debe
00000220: e0bb ffbc 12f0 4ebd eebb 39bf e87d 62bf
00000230: 2668 6ebd 2666 c03e b116 81be 2046 96be
00000240: 9b92 07bf 6fc8 0fbf 1eff 3d3e 4c13 00bf
00000250: 6fbe 8abe 3508 05be 2cf9 58bd 2aea 103d
00000260: 6a04 3d3d 9a3e b7bd 14c5 233e cdc1 183e
00000270: 2a36 003d 0a25 cc3d cf8a 33bf 8db3 4dbf
00000280: e347 d0bb 8ccf 99be 9b35 09bf 2cc5 24bf
00000290: 28b7 77be 67bf 79be 4848 943c ba01 26bd
000002a0: 1a74 65be 84b1 e5be 4cb8 69be 240e 51be
000002b0: 1b9f 14be b073 933e cf42 afbd 7c63 ed3c
000002c0: 11c4 14bf 409c b5be 3f09 743c 3c67 82bd
000002d0: 5a7e d9bb 5a7d 983d 2733 283d 4eaa f93d
000002e0: 8275 5fbd 38f4 b9be 04b3 db3c 8201 16bd
000002f0: 42c4 073f d7ad cc3e e29e fbbd b9d9 92be
00000300: 26f9 2fbf 3d95 efbe d549 0f3e 47df 243d
00000310: 2356 263f 5723 2e3f 8e43 303d fb06 4abd
00000320: b57b 833d dc48 183e 6742 78be b05b 1cbe
00000330: 69a1 8bbf 54f4 0fbf 60ed 43be 8f1d 97be
00000340: badc 63bd 1633 a0be a13d f13d cf28 fdbb
00000350: bb7f c23d b57f 6e3e 608c f3bc c522 babe
00000360: fa85 f8be 0c9c b9be 6671 1c3e 57e6 93bc
00000370: 79a5 c6be f01c 8b3e b760 883e a90d 083f
00000380: 87e5 3e3e 52fb 37be ffc8 b7be 63a7 413d
00000390: 05b1 ad3d 2870 ac3d 80eb f73c 5972 7fbd
000003a0: 1b88 ba3b 9a4c 54bd f4d5 5cbd 3b1b 92be
000003b0: c08e a2be 9776 84be 90e4 bdbd c47d 84bd
000003c0: a8d1 46bc 5779 97bc 42ca cdbe 5be9 a93e
000003d0: 38ce a73b 192d e53b 0eb5 b93e 7775 213e
000003e0: 6e7a 9a3e 2441 133e e107 88bc 764c eebc
000003f0: 21b0 363d fb7b 8bbd deab 01be 3928 dfbd
0.12018006 0.21240143 -0.080879405 -0.116794296 -0.028058954 -0.050495837 -0.13752203 -0.07002224
-0.0035886131 0.31259617 -0.15531461 -0.3419163 0.09947843 0.3840168 0.048037544 0.07834947
-0.13409358 -0.17724258 -0.109678924 0.06651655 -0.078054965 -0.11260585 0.09741897 -0.019138778
-0.024939995 0.037390262 0.46330866 0.36089426 0.047219325 -0.039063554 -0.21009693 -0.1947954
0.1782527 0.16396557 -0.22807123 -0.0540748 0.15553452 0.08172935 -0.08248606 0.054955173
-0.3236342 -0.45517716 -0.26931518 -0.09861389 0.46840727 0.1813687 0.067056105 -0.010440274
-0.21722114 -0.27566096 -0.09376898 -0.029003602 0.23952788 0.2214937 0.23223169 0.19076142
-0.26958624 -0.37486216 0.031978667 0.111181624 0.4606643 0.18586873 0.011201085 0.0715959
-0.26483804 -0.27302435 0.11515699 0.1074417 0.02322728 -0.15984006 0.011330962 -0.04387228
-0.035172578 -0.14348559 0.08475432 -0.05075154 -0.12135282 0.14575668 0.057714038 -0.082811385
0.065298386 0.025515996 -0.13404796 0.03222798 -0.04292494 0.03167588 0.04379937 -0.15349326
-0.1265529 -0.11905592 0.026047789 0.3018806 0.15693848 0.09095412 0.07071697 -0.009047126
0.015902089 0.23265204 -0.17679922 0.2700685 0.17066675 0.15973681 0.06811404 0.056494694
0.04116067 -0.09595169 -0.02400625 -0.020388916 0.25405863 0.060729336 0.081544206 0.08433468
-0.05811394 -0.0656529 -0.19628292 -0.05319204 0.04049304 -0.00988771 0.3335314 0.19534555
0.04321075 0.23716918 -0.12700558 -0.072259314 0.009454956 0.06532659 -0.097378194 0.071878314
-0.03228306 0.03137991 0.06192748 -0.14633675 -0.060034998 -0.13828464 -0.46051648 -0.4342323
-0.031217515 -0.050521918 -0.7255238 -0.8847337 -0.058204792 0.37577933 -0.25212625 -0.29350376
-0.5295808 -0.5616521 0.1855435 -0.50029445 -0.27098414 -0.12991412 -0.052972004 0.035379566
0.046146788 -0.08947487 0.15993148 0.14917679 0.031301655 0.09968002 -0.7013368 -0.803521
-0.006356226 -0.30041158 -0.5359742 -0.6436336 -0.24190962 -0.2438942 0.018100873 -0.04052899
-0.2240757 -0.44861996 -0.2282421 -0.2041555 -0.14513819 0.287992 -0.085576646 0.028978102
-0.58111674 -0.35470772 0.014894783 -0.06367347 -0.0066373767 0.07445784 0.041064408 0.12190686
-0.054555424 -0.36319137 0.02681876 -0.03662253 0.5303384 0.3997638 -0.12286164 -0.28681734
-0.68739545 -0.46793547 0.13993008 0.040251996 0.64975184 0.68022674 0.043033175 -0.049323063
0.064200796 0.14871544 -0.2424408 -0.15269351 -1.0908633 -0.5623219 -0.1913352 -0.2951474
-0.055630423 -0.31288975 0.11779333 -0.007725812 0.09497019 0.23290904 -0.029730022 -0.36354652
-0.48539716 -0.36251867 0.15277633 -0.01805417 -0.3879812 0.27170515 0.26636288 0.53145844
0.18642245 -0.17966965 -0.35895535 0.047278773 0.084810294 0.084198296 0.030263662 -0.06236491
0.0056924946 -0.051830865 -0.05391498 -0.285364 -0.31749535 -0.25871727 -0.092721105 -0.064693004
-0.012134947 -0.018490477 -0.40193373 0.3318585 0.0051210187 0.0069939015 0.36270946 0.15767466
0.3017153 0.14380318 -0.01660532 -0.029089194 0.044601563 -0.06810757 -0.12663218 -0.10896344

bias f4 [256]
00000000: 40f6 af3e 66e8 023e 5ee4 9c3e 92c8 f63d
00000010: d9a0 863e aed7 08bf 061d 9b3e e3d6 de3e
00000020: 52d8 643e 5ddc 423d 5102 273e 6540 acbd
00000030: 567c edbe f5f2 1b3f 8f0d ec3a 621b 743e
00000040: 72d6 f9be cb34 833d f42d 2c3e f949 ccbe
00000050: 748e a1be d0c4 dcbe bae1 5abd ee84 d53e
00000060: 90ab 11be 109d 89be ad39 fdbe 332d e13d
00000070: c1f9 c5bb 2adf f1bd 5d8b 0dbc e424 ca3d
00000080: 04a0 aa3e 16ca 713d a69f 2d3c 5643 1b3d
00000090: 52e6 a73e 37ee 14be 5902 603c 8abf 5cbe
000000a0: b572 1c3e 8868 ed3d 174f 4dbe e6eb a6be
000000b0: 4fce 1a3f 831d 8b3e 5ac8 9dbe 9ad3 043e
000000c0: eab9 1d3f 761f 133c 5636 693e 15d8 fc3d
000000d0: 9757 ae3d d0b9 57bd 0776 ac3d eab0 cabe
000000e0: 0a7e eebc a738 493f ba99 063e a620 023e
000000f0: e6ef 623e 8e8b d2bd 8f7f 833c 3552 613e
00000100: 0053 59bd 4dcc b5be ec03 263f 9fd3 263f
00000110: 2565 e33d 7270 283e 4457 033f 62ba 533e
00000120: 8f4a 9ebe e783 3cbe beab 083b 5975 753c
00000130: 1979 4c3e da03 f3be 0e40 5dbe 7552 903d
00000140: 7897 72bd 66a7 a33d fcd8 5dbc 7e49 53be
00000150: 254f 323f 6267 823e d1cc c0be fc06 1e3e
00000160: e036 df3d bb62 1b3e 5928 673e 305c d3bd
00000170: 7c6c 8cbe ba37 2a3f 0402 fdbe e319 88be
00000180: 71c1 f2be 7995 d8bd 600a c9bd 92aa 7a3c
00000190: f199 5b3e 5d05 3a3e 75b8 073e d3f8 1abe
000001a0: e15e e43e c1d9 013e f524 cfbd 5563 8fbd
000001b0: c402 933d 6691 b43d 613b bebc ef44 d3be
000001c0: c7a3 0d3d 1b13 ed3d 0311 c6bd bc7d bdbe
000001d0: 05f3 173d a0cc 013e 2190 7c3e c0c0 9ebb
000001e0: 80a7 483e 09e5 39bc 6ec9 c5be fbe4 043e
000001f0: 6df0 bcbe d5c3 cc3c 2264 c1be 39c2 283e
00000200: 3e23 3e3f c4e0 12bc 0b30 5d3e f212 12bf
00000210: a54c 9a3e bc08 173e df7f 143c 2b6c 83be
00000220: 3838 e5be 43b0 44bd d052 0abd 4449 9dbd
00000230: a20d 5ebc 880f 003e 0f80 663e aa52 a3be
00000240: cc1c 103e 9037 8b3e bb02 1b3f 0838 c9be
00000250: 8757 193f bd38 1a3e 1e34 833d 7db3 343e
00000260: 2a5c 45be 23b7 23be d34e a6bb f0cd c83e
00000270: ace1 bcbe 3c96 ddbd 3d0b 22bc 4c39 893e
00000280: b241 25bd db9b 10be da16 433e 3247 55be
00000290: 553b 303e a496 8a3e 8842 b9be a99a 8e3c
000002a0: 2284 9cbe e1ca 4d3e 0f85 2c3e 4d30 8fbe
000002b0: 420e aa3d f19a c4be c56c fcbd 2892 5bbd
000002c0: cc2d f33e e3e9 fcbb f240 8dbe cf79 b9bd
000002d0: 719b d83d db90 ed3d 1ecb 44be e5ce f3bc
000002e0: b553 b6be c92e a3bc 9e1a 7abe b22d 25be
000002f0: 3808 fbbe 71c4 07bf 9899 f7bd f050 433d
00000300: 11b4 05bc cc20 b5be 4561 c4be 073e 1a3c
00000310: c7d5 06be 85de 433e df60 153e 6a4a 3a3e
00000320: 6cc2 0a3e 20c9 3b3e 4586 403e a1fc 8fbe
00000330: 67ec 99bc b2c6 c2be 8129 9fbd cbd7 0abd
00000340: 4611 063e 60e7 13bd 9c48 a0bd 930d 063e
00000350: 4a61 273e 023b cebd 1b1e dcbe 46e1 fdbe
00000360: 65c8 ecbe ca53 7c3e 46dc f03c fd7a c5bd
00000370: ac55 d13d 6cef 9cbc cf47 b73d 8179 8fbe
00000380: 8f09 0bbe d071 d53d aa98 083f 6f61 073e
00000390: d5dd 23bb 0ee8 dbbe bf03 6e3e 6ef3 843d
000003a0: 22f3 4b3d 614b 583e f1aa 04be 03f5 353e
000003b0: b0fc 653e 577b 93bd e923 b0be bf88 8e3e
000003c0: 964f 163f c9c8 563c e9d5 00bd e42d bfbe
000003d0: c038 613e bf7d a23e a529 8cbc 42fd ddbe
000003e0: 3c0e b6bc cb15 ab3b 5c98 afbe fdab 6abe
000003f0: 0e6c e13d 81ed 033e ae74 103e 85b7 5e3d
0.3436756 0.12783965 0.3064298 0.120499745 0.26294592 -0.534541 0.3029558 0.4352332
0.22348145 0.047573436 0.16309477 -0.0841072 -0.46383923 0.609176 0.0018009412 0.2383857
-0.4879642 0.06406554 0.16814405 -0.39900187 -0.31553996 -0.43118906 -0.053437926 0.4170298
-0.14225602 -0.26877642 -0.49458066 0.10994949 -0.006041736 -0.11810143 -0.008639184 0.098703176
0.33325207 0.059030615 0.010597145 0.037906013 0.32792908 -0.14543997 0.013672435 -0.21557441
0.15278132 0.115922034 -0.20049702 -0.3260185 0.6047105 0.27170953 -0.3081692 0.12971345
0.6161181 0.008979669 0.22774634 0.12345902 0.085128 -0.05266744 0.084209494 -0.395881
-0.029112834 0.7860207 0.1314458 0.12707767 0.22161826 -0.10280524 0.016052036 0.22004016
-0.05305767 -0.35507432 0.64849734 0.6516666 0.11103276 0.16449144 0.5130503 0.20676568
-0.3091626 -0.18409692 0.002085432 0.014981591 0.1996807 -0.47463876 -0.21606466 0.070469774
-0.059226483 0.07990913 -0.013540503 -0.20633504 0.69652015 0.254695 -0.37656263 0.15432352
0.108991385 0.15174381 0.22573985 -0.10320318 -0.27426517 0.6649128 -0.494156 -0.2658225
-0.4741321 -0.10575385 -0.09816432 0.015299456 0.21445443 0.18166108 0.13253959 -0.15133981
0.44603637 0.12680723 -0.10114471 -0.07001368 0.07178262 0.08816795 -0.023221673 -0.4126353
0.03458002 0.1157591 -0.096712135 -0.3700999 0.037096996 0.12675714 0.24664356 -0.004844755
0.19595146 -0.01134611 -0.3863024 0.12977974 -0.3690218 0.024995724 -0.37771708 0.1648034
0.74272525 -0.008964721 0.21600358 -0.5706016 0.301366 0.14749426 0.00906369 -0.25668463
-0.44769454 -0.04801966 -0.033770382 -0.0767999 -0.013553055 0.12505925 0.22509788 -0.31899005
0.14073485 0.27190828 0.6055104 -0.3930056 0.5989918 0.15060706 0.06406425 0.17646594
-0.19273439 -0.1598783 -0.0050753145 0.39219618 -0.36890924 -0.108196706 -0.009890375 0.26801527
-0.040345855 -0.14121954 0.19051686 -0.2082794 0.17210133 0.27068055 -0.36183572 0.017407732
-0.3056956 0.20096923 0.16847633 -0.27966538 0.08303501 -0.3839946 -0.12325434 -0.053606182
0.47495878 -0.007718311 -0.27588612 -0.09056436 0.10576523 0.115998946 -0.19218108 -0.029761741
-0.35610738 -0.01991977 -0.24424216 -0.16130713 -0.49029708 -0.5303412 -0.120898426 0.04768461
-0.008160607 -0.35376585 -0.3835546 0.0094142025 -0.13167487 0.19127853 0.14587735 0.18192449
0.13550729 0.18338442 0.1880122 -0.28122428 -0.018789483 -0.38042217 -0.07771588 -0.033897202
0.13092527 -0.03610933 -0.07826349 0.13091116 0.16345707 -0.100698486 -0.4299172 -0.49585932
-0.4624664 0.24641338 0.02940191 -0.09642599 0.10221419 -0.019157134 0.08949243 -0.28022388
-0.13577865 0.10422099 0.53357947 0.13220762 -0.0025004048 -0.4295048 0.23243617 0.06491743
0.049792416 0.21122505 -0.12955834 0.17769246 0.22459674 -0.072012596 -0.34402397 0.27838704
0.5871519 0.013109394 -0.031454 -0.373397 0.21994305 0.31736562 -0.017109701 -0.43357283
-0.022223584 0.005221104 -0.34295928 -0.22917171 0.11006938 0.1288357 0.1410701 0.054374237

weight f4 [256]
00000000: 5a0a 893f f905 a83f b774 9c3f 5cb5 7e3f
00000010: 00e8 a53f 3e5e 8a3f 0c9a 8e3f 1f61 703f
00000020: 7367 873f 9a99 a33f dee9 8f3f 857f 8d3f
00000030: ca2e 8f3f 23db a23f 187e 963f 92e5 543f
00000040: 6026 8a3f e868 b53f a22a c43f 323d a63f
00000050: fef6 8a3f 8d68 a23f 8e04 813f d13a 703f
00000060: 46fa 723f 7714 993f 48e7 903f 52f5 803f
00000070: 26d7 9c3f 772e 7e3f 08ff 9a3f 294b 943f
00000080: 002d 7b3f c83a d83f 0624 a73f 3017 833f
00000090: f727 863f b558 8b3f 4ef2 933f 2d71 a13f
000000a0: 7c22 a53f f41f bb3f 0398 9c3f f10c b13f
000000b0: a2ef 883f 2232 a13f 8508 ad3f 9cd8 ac3f
000000c0: 731d a73f 8d3b 9f3f 2410 a03f 62d0 ae3f
000000d0: 1870 853f 4d62 993f 879f 963f cb32 a13f
000000e0: 112d f73f d790 853f b9a3 863f e136 803f
000000f0: 7408 703f 981d a33f 76dc b13f 882a a83f
00000100: b662 a33f e7f8 8e3f e61e a13f e777 a63f
00000110: 0ffe 853f 3340 9f3f da9c 973f 985d 613f
00000120: cd14 a73f 8275 c23f 49b6 8c3f 1a5b b13f
00000130: 2793 a93f 047b 913f 98c4 803f 0a47 6c3f
00000140: 95cc 953f 4234 923f 5d50 a73f d0b3 903f
00000150: 57d1 773f b935 b03f 1569 9f3f ae1a 933f
00000160: 2d0c 9f3f 0941 5c3f 4fc2 933f e931 993f
00000170: 8c32 973f d888 8d3f 6e79 873f 5515 8d3f
00000180: 3087 ab3f fcaf a53f d67d 833f a9d3 993f
00000190: 9ca2 913f 1ebe bb3f 2ca3 963f f63d 843f
000001a0: dd8e 753f 72e9 a93f 3993 a23f 4806 983f
000001b0: 0ade 9e3f c75a 873f 9ece 833f ef15 963f
000001c0: 6ccd a43f a155 a13f b62b 793f 074c 973f
000001d0: 69e3 813f d901 3c3f 763f 5f3f 8d58 a93f
000001e0: 439c ab3f c545 a23f f636 853f 35cb a53f
000001f0: 7528 a53f c9f5 923f 2c45 7b3f 9ae5 c03f
00000200: b135 b33f 3146 993f 8459 793f f90f 993f
00000210: 3a84 8d3f 3cd4 8c3f cee4 903f e837 8b3f
00000220: e4f5 8f3f 2014 aa3f 4826 a83f 39b0 c73f
00000230: 12df 8d3f f1e3 8e3f 5018 913f 5abc 763f
00000240: f895 873f 6b13 6b3f 3b16 af3f 41ce 943f
00000250: 6129 a83f 2981 b93f 7be6 903f 9a7c 993f
00000260: ed69 723f ce0d 913f a6d5 c33f 83f1 7f3f
00000270: f196 913f 974e 9d3f b76a af3f 4640 913f
00000280: 04f2 8f3f cde0 833f be8b 753f fbfb 8d3f
00000290: a0f1 ab3f 77f7 863f 0165 a43f 526f 8f3f
000002a0: 9350 943f 5a4f b33f 8e2d a23f d997 953f
000002b0: 3b18 993f a2c7 9d3f 6c26 933f fa0e f83f
000002c0: bede 843f 2bb8 a23f 4470 8f3f 4446 8f3f
000002d0: 79a9 873f 2fcf 9b3f 8c22 933f 01fd 8b3f
000002e0: 8a04 6f3f 2edf 8e3f 6062 8f3f af8e 853f
000002f0: 92ba 943f 1446 933f 35a9 b33f 4cca 8c3f
00000300: 3dec 9c3f be4d 983f daf1 803f a1f8 933f
00000310: 54d0 c73f f344 6d3f 7d79 9f3f 9b7a 533f
00000320: 3ca2 913f 0113 a23f c631 843f accd 973f
00000330: 1e57 b13f 2dfc a03f b780 953f b539 a13f
00000340: 918c cb3f 532f 913f 4a36 913f 813d 9c3f
00000350: 5ae5 9d3f 9a8a bc3f 28d1 913f fcb4 8c3f
00000360: b816 8c3f 9662 ac3f 8604 9c3f 09e3 e83f
00000370: c2d2 603f 48b1 a73f 40d7 a93f 5822 903f
00000380: 13cf 923f 64dd a93f b4b0 933f 1363 963f
00000390: 8dbd a43f 96c9 8f3f de61 803f efb2 7b3f
000003a0: c377 a23f 05ac 6d3f 94c6 893f b0c8 863f
000003b0: 11db 8f3f 1001 b73f 563a 953f bbc6 b03f
000003c0: 1c52 6e3f f4b9 913f a6bd b53f 6a69 a63f
000003d0: f426 b63f cfbe ae3f b9be a53f df8f 683f
000003e0: 95b5 7e3f 7b2a 933f 52de a13f 1ade 883f
000003f0: 0c3b b13f bd6b 763f b5bd 273f 4748 8f3f
1.0706284 1.3126823 1.2223119 0.9949548 1.2961426 1.081001 1.1140761 0.93898195
1.0578445 1.278125 1.1243246 1.1054541 1.1186154 1.2723125 1.1757231 0.83162796
1.0792961 1.417264 1.532551 1.2987425 1.0856626 1.2688156 1.0079515 0.93839747
0.94913137 1.195937 1.1320581 1.0074866 1.2253158 0.9928965 1.2109079 1.1585437
0.9811554 1.6892939 1.3057868 1.0241451 1.0480946 1.0886446 1.155832 1.2612664
1.2901149 1.4619126 1.223389 1.3832074 1.069813 1.2593424 1.3518225 1.3503604
1.3055862 1.2440048 1.2504926 1.3657343 1.0424833 1.1983124 1.1767434 1.2593626
1.9310628 1.0434827 1.0518714 1.0016748 0.937629 1.2743406 1.3895404 1.313798
1.2764499 1.1169709 1.2587554 1.3005341 1.0468158 1.2441467 1.1844742 0.8803344
1.3053223 1.519211 1.0993129 1.3855927 1.3248032 1.1365666 1.0059996 0.92295897
1.1703058 1.1422198 1.30714 1.1304874 0.968038 1.3766395 1.2453943 1.1492517
1.2425591 0.86036736 1.1543673 1.1968356 1.1812301 1.1057386 1.0583932 1.1022135
1.3400631 1.2944331 1.0272777 1.2017719 1.137775 1.4667394 1.1768546 1.0331409
0.9592112 1.3274367 1.2701179 1.1876917 1.2411511 1.0574578 1.029743 1.1725444
1.287519 1.2604257 0.9733232 1.1820077 1.0147525 0.7344032 0.8720621 1.3230149
1.3407062 1.2677542 1.0407398 1.2952639 1.2902972 1.1481258 0.9815242 1.5070069
1.400076 1.1974546 0.97402215 1.1958 1.1055977 1.1002269 1.1319826 1.0876436
1.1246915 1.3287392 1.3136683 1.5600654 1.1083701 1.1163312 1.1335545 0.9638115
1.0592642 0.91826504 1.3678659 1.1625444 1.3137628 1.4492542 1.1320337 1.199115
0.9469288 1.1332338 1.5299575 0.9997789 1.1374189 1.2289609 1.3704442 1.134774
1.1245732 1.0302979 0.95916355 1.1092523 1.3433113 1.054427 1.2843324 1.1205847
1.1587089 1.4008591 1.2670152 1.1686965 1.196052 1.2326548 1.14961 1.937957
1.0380476 1.2712454 1.1206136 1.1193318 1.0598594 1.2172602 1.1494918 1.0936586
0.933663 1.1161859 1.1201897 1.0434169 1.1619437 1.1505761 1.4036013 1.0999236
1.2259594 1.1898725 1.0073807 1.156025 1.5610452 0.92683333 1.245895 0.82608956
1.1377635 1.266205 1.032769 1.1859641 1.3854711 1.2576958 1.1679906 1.2595736
1.5902272 1.1342567 1.1344693 1.220627 1.2335618 1.4729798 1.1391954 1.0992732
1.0944433 1.3467586 1.218888 1.8194286 0.8782159 1.3100977 1.3268814 1.1260481
1.1469444 1.3270688 1.15383 1.1748985 1.2870346 1.1233394 1.0029867 0.98319906
1.2692798 0.92840606 1.0763726 1.0529995 1.1238729 1.4297199 1.1658428 1.3810648
0.9309404 1.1384873 1.4198501 1.300092 1.4230638 1.365198 1.2948829 0.9084453
0.9949582 1.1497339 1.2645972 1.069278 1.3846145 0.96258146 0.65523845 1.1193932

bias f4 [256]
00000000: 5523 6b3e 2834 553d 49d4 553e 3bfe 8bbd
00000010: 3645 433e e658 aa3e 3d1a 16bc 0147 20bd
00000020: 870e e3bd d940 593e 3786 a0bd 1e77 da3e
00000030: 68d6 a93e e0be 213d 25e6 823e 49d2 fbbd
00000040: b6f7 cb3e 419b bf3e 9091 1e3d 969d 7b3e
00000050: 9efd a23e 41c6 af3e aa5e cbbd 87c8 3dbe
00000060: dbf9 743e 8996 703e 015e 973e f76a c9bd
00000070: 8e92 b4bd 7ff8 7b3e f2c8 f03d 2f5c 513c
00000080: 9c6a ff3d 0b8c f43e e955 a23d da6d fe3c
00000090: b2f4 6c3e 0097 42bd 0c30 2b3e 5f17 8f3e
000000a0: 0015 453e bc31 273e 8a7c 8f3e 31b1 843e
000000b0: a573 913d 7447 e4ba f215 b53e 17c7 713d
000000c0: e0a6 d5bc 4928 a03e a4d2 3c3d 7d83 4a3d
000000d0: 3e42 223e 9dbe 8cbd 0125 34bd cb5c a33e
000000e0: f669 3a3e e30f 8fbe d893 263e 72d5 943d
000000f0: 3bed d2bd b39b 84bd 245f 8e3d 8927 733d
00000100: 2ef3 6d3e 6b9a d43e 162a 3fbd a334 c0bd
00000110: c3a1 523e a20b a03c 28e6 4cbd 0284 49be
00000120: 5ee9 993e 7946 cf3e ed27 683e 2ba3 ee3e
00000130: c06f ec3e 249b 903e 3f00 b83e a019 823d
00000140: 9ec8 173e eb8b 0e3c 0f06 f13e d355 913e
00000150: 72b8 79be 3938 02be 818c 533e 3b33 053e
00000160: 6eff a23e 001c 0abe 2152 15bd cf57 b03e
00000170: 5216 8d3e d937 67be 557d 8a3e ebf8 a93e
00000180: 5b5a ca3e 667d e43e e0ab 2bbd 6625 9e3e
00000190: 7cf6 643e e2d0 823e 0771 2d3e ee95 5b3e
000001a0: d5ef 8bbe 685d b93e 17fb bc3d 7060 8abd
000001b0: 45ab c53e 8a42 df3d 73a5 c13c feaf 9e3e
000001c0: a9db 8dbd 9cd1 eb3e 1f2f a03d 3da4 873e
000001d0: c649 8abd 3ba1 3cbe 0ad7 50bd 14f4 ecbc
000001e0: b83e a93d 62fe 8a3e 626b 8b3e 1768 173e
000001f0: 83f1 b33e 9fb9 2a3e d228 a73e 9113 303e
00000200: 34b5 16bc 8169 0cbd 0b9d 2cbe b84f be3e
00000210: f095 e4bd 36a3 313e 216c 8d3e ac7b e43d
00000220: ad0b a63e e61b 72bd 2f23 d83d 212b 8b3e
00000230: d5b7 d4bd 1deb 1a3e 2b43 973d 5562 9d3e
00000240: 7961 243e 53f9 9cbd 164c cb3d 9d9a a73e
00000250: a7b2 5abd c4ea 503e 03bd 873e 4833 e6bc
00000260: 605c 163e 97f8 ad3e 990f 053d 3ec4 0f3e
00000270: 9a19 9a3e d651 8f3e aa3d be3e 915a 733e
00000280: a648 55bd 400a 8f39 c282 18be 0dbc aa3e
00000290: 4118 4c3e 82c0 76bd 6e88 983e e4a7 aa3e
000002a0: 94b6 b03e 3a61 643d c928 a9bd 0ac4 9d3e
000002b0: 428d e73d 88aa bf3e a92a a03e fb96 55bc
000002c0: e6d4 4cbe 7836 993e c391 5f3e 4ebc 94bd
000002d0: cbfe 223e 1d99 b83e 49a1 8b3e e0bf 10bd
000002e0: ff22 8c3e 516f 073c 00e1 8d3e 7e48 9e3e
000002f0: ec2a 893e d28b ab3e cb90 0b3f 2803 1b3e
00000300: e906 e33d 8579 bf3e e536 b33e d51a 763e
00000310: 9664 053f d185 d8bd d4c2 8b3e 445a 2b3d
00000320: 5718 483c 1866 6ebd 574b 05be 2884 973e
00000330: 4e6b 6c3e 1e15 153e e8d3 e73e 78a3 023f
00000340: 761b 67bc c380 3cbd f7a3 883e 744a 41bd
00000350: 5740 963e 5af6 eb3e f71f 9b3e 544e d13e
00000360: 9c77 a63e 69f5 d73c 805e bb3e 0bb9 eb3d
00000370: fe41 003d 8a11 bebc e7c4 e43e fe4e a83e
00000380: f184 a43e 9144 b53e 7de1 8e3c 4a1e 873d
00000390: 6bf6 ff3e fdf5 8d3e 7dd1 2cbe 0f53 ef3d
000003a0: d361 033f 45a5 b4bd 3714 593e cfe3 e5bd
000003b0: 888c 233d b5fc b93e c3d6 9c3e 4906 a83e
000003c0: 9334 90be 9503 953e 7106 c43d 2ad4 a33e
000003d0: 7890 9a3e efb9 a23e e855 5d3c 9322 ad3e
000003e0: c8b3 283d 0cfe 863e ac70 a63e 67bb 833e
000003f0: 8058 da3e a03f cb3d 3005 e1bd 1989 d13d
0.22962697 0.052051693 0.20881762 -0.068356 0.1906937 0.3327095 -0.009161529 -0.039130215
-0.11086755 0.21216144 -0.078380994 0.42669004 0.3317139 0.039488673 0.2556621 -0.12295968
0.39837426 0.37423137 0.038713038 0.24571833 0.3183412 0.34330943 -0.09930165 -0.18533526
0.23923437 0.23494925 0.29563907 -0.09834855 -0.088170156 0.24606512 0.11757077 0.012778326
0.12471506 0.47763094 0.07926542 0.03105824 0.23140219 -0.047507286 0.16717547 0.27947518
0.19246292 0.16327566 0.28024703 0.25916436 0.071021356 -0.0017416314 0.35368305 0.059027757
-0.026080549 0.31280735 0.04609932 0.049441803 0.15845582 -0.06872294 -0.043980602 0.31906733
0.18204483 -0.27941808 0.16267335 0.07267274 -0.10299154 -0.0647501 0.069517404 0.059363876
0.23237297 0.41524062 -0.046670996 -0.0938504 0.2056952 0.019536797 -0.05002418 -0.19679263
0.30060858 0.40483454 0.2267148 0.46608862 0.46179008 0.28243363 0.35937688 0.06352544
0.14822623 0.008700351 0.47074935 0.2838579 -0.24386767 -0.1271676 0.20659067 0.13007824
0.31835502 -0.13487244 -0.036455277 0.34441993 0.27556092 -0.22579898 0.27048746 0.33197722
0.3952206 0.4462692 -0.04191196 0.30887908 0.22359651 0.2554999 0.16937648 0.21443912
-0.27331415 0.36204076 0.09227579 -0.06756675 0.3860723 0.10901363 0.023638463 0.30993646
-0.069266625 0.46058357 0.07821488 0.2649249 -0.067523524 -0.1842088 -0.050986327 -0.02892498
0.08263916 0.27147204 0.27230364 0.14785801 0.35145196 0.16672371 0.3264833 0.17194964
-0.009198476 -0.034280304 -0.16856782 0.37170196 -0.11161411 0.17347416 0.27621558 0.11156401
0.32430783 -0.059108637 0.10553586 0.27181342 -0.10386626 0.15128751 0.07385858 0.30739084
0.16052808 -0.07664742 0.099266216 0.32735148 -0.053393032 0.20402056 0.26511392 -0.028100625
0.14683676 0.33978721 0.03248558 0.14039704 0.30097657 0.27992123 0.3715642 0.23765017
-0.052071236 0.00027282722 -0.1489363 0.33346596 0.19931127 -0.060242184 0.29791588 0.33331215
0.34514296 0.055756785 -0.08259732 0.30813628 0.1130624 0.37434793 0.31282547 -0.013036485
-0.2000309 0.2992437 0.21832947 -0.07262479 0.15917508 0.36054316 0.27271488 -0.035339236
0.2737045 0.008266286 0.27710724 0.30914682 0.2679056 0.33505112 0.5451781 0.15137923
0.110853024 0.373974 0.3500282 0.24033673 0.52106607 -0.105723985 0.2729708 0.04183413
0.012212834 -0.058202833 -0.13017021 0.29593015 0.23087808 0.14558837 0.4527886 0.51030684
-0.014105668 -0.046021234 0.26687595 -0.047190145 0.29345962 0.4608639 0.30297825 0.40880072
0.3251313 0.026362138 0.36595535 0.115099035 0.031312935 -0.023201723 0.44681475 0.32872766
0.32132676 0.35403875 0.017441506 0.06597574 0.4999269 0.27726737 -0.16876788 0.11685764
0.5132114 -0.08820585 0.21199118 -0.11225092 0.039928943 0.36325613 0.306326 0.32817295
-0.2816511 0.29104295 0.09571541 0.31997806 0.30188346 0.3178248 0.013509251 0.3381544
0.041187078 0.26365697 0.32507837 0.25728914 0.42645645 0.09924245 -0.109873176 0.102312274

running_mean f4 [256]
00000000: 1a91 563f 760f 643e 9e83 943f 27ce d43b
00000010: d9b8 4a3f 76fa 6a3f ec7b 5c3e 236a 573f
00000020: d6d1 533d 6308 063e acff 253d 4960 de3f
00000030: 2efa 173f bc0d 7d3f 126b fc3e b73a 703d
00000040: 65a7 5c3f e952 573f c23e 9f3c 2121 023f
00000050: d5eb 5d3f 67de 3c3f 1ab2 3c33 ea09 043e
00000060: a2b1 223e 780c 7d3f 3ca2 5a3f f515 a93c
00000070: 0400 0000 1a00 033f 9d42 a53c cb0b 5b3b
00000080: 7610 d73e 052e 9b3f ef07 c23c 4b44 953a
00000090: 6d79 8c3f d0fa b037 01ea 4f3e d1f8 813f
000000a0: 2589 893d 790e 123e bf52 963f dea0 6e3e
000000b0: a8a5 503f ca23 b83e 2b8e 463f 7275 0c3c
000000c0: 47dd 5d3f 73aa 383e fc0c 003f e231 643e
000000d0: 92cc 073e 0400 0000 a52c f63c 9706 603e
000000e0: d0b0 a73c 5b8b 743e 7c9a 4e3d 0bb7 3c3d
000000f0: b091 0f3d 5546 ad39 6769 513c ce06 6c3f
00000100: 37de bf3d a4ea 0140 fcd3 653f 6928 983f
00000110: 1461 623d 6a4d 3c3e d0c0 2b3f b9be 3d3c
00000120: f6ed 833f 6048 993f 1053 353e d7b1 5c3f
00000130: f90b a13f 109e 443f c909 e23f 4eb0 7c3e
00000140: 9609 3b3e 4691 0a3b 820c b03f 1548 aa3e
00000150: bc56 563e c0e3 503d eb00 a73e 11fa bb3c
00000160: cce1 4a3f 560c 0a3c 121d 053e a68f 0d40
00000170: 1d6b 813f 2ed7 483e 9e5c a23e e2e7 953e
00000180: ab96 493e c906 4f3f 2721 813c a6c0 193f
00000190: 23c8 393f 6942 263f e4df 4a3f 48b1 b13e
000001a0: 8b60 8a3d 31af 953f c463 783c 0400 0000
000001b0: d2ec 943f e3e3 543b 8c9d 1436 333b 833f
000001c0: e8a1 a53c ad60 e03f 45c6 113e 043e 403e
000001d0: 50dd 5f3d e7f6 1c3c e28d 0d3e 57e1 283d
000001e0: 037e c83e 3342 d13d d459 af3d 5151 823d
000001f0: b491 653e c42b eb3e 8ff4 903f 0845 fe3c
00000200: 988e 8b3f 7788 2725 97f9 263d c69f 163f
00000210: 0d85 6f3e 7a92 c13d 21ec 563c 80a5 9d3e
00000220: 0c23 903f 0400 0000 e501 2a3d 581a c73f
00000230: 8000 b13c 7d9d bc3e e247 f23e aa30 823f
00000240: c2e0 b33e ad07 fd3d d3fc 8d3f d5fb 1c3f
00000250: 3cf0 883f 88da 703f 0bd0 dc3f 1fd2 e43b
00000260: ca9d a73e ccbd f83f c05e 5b3b 0c12 883f
00000270: 90ad 193f 9dc2 703f e611 903f 32de 813f
00000280: 0400 0000 a48b e63a 0aa8 0a3d aa3f 7a3f
00000290: c9b9 b03e c9f6 c43d 9f8d 003f cb31 d63f
000002a0: b47d 823f 9e48 4b3d 0b23 1d3f cb5e c43e
000002b0: 804b 193d 134e 023f 0b78 903e a75f 623c
000002c0: e932 f73d 15e2 2e3f db02 ab3e 8cbd 7332
000002d0: 4204 0b3e daca 833f dacb 783f 0400 0000
000002e0: 67ea ab3e 83d3 ad3d 1009 ff3e cc4b 5b3f
000002f0: 6d01 363e 254d f53d 687f 9c3f 2206 173d
00000300: 1728 f33c cd02 da3e 7cc2 853f 6ec8 8c3d
00000310: 4978 de3f 1b53 e03c 8b75 d43e 8f4e ca3c
00000320: 495e 9d3d 8e60 0e3d 7319 e03c c73e 7b3e
00000330: f0e5 993d c990 5d3f c1be 9a3f aede c73f
00000340: 004e d23b 0400 0000 8c35 3e3f 4057 b33e
00000350: c08d f13e 1df5 a93f 7e99 7e3f e28d 1b3f
00000360: 607f 823e 11fb 033f 35b3 883f 2ce6 da3c
00000370: 2d64 b33c 8cd2 dd07 fa14 f03f 33e9 973e
00000380: a01a e73e 1811 c53f b843 7a3f 5e8b ad3b
00000390: 20a5 a73f 377e 9c3e 941f 3b3d 04e7 1d3f
000003a0: ff83 b33f 4ac4 753d f70c bd3e 1d72 fb3c
000003b0: fd86 513e e03a 813f 249f a13e c689 153f
000003c0: c8e9 563e 2090 7a3f a0a9 5d3d 6033 043e
000003d0: 8fac ed3e 24af 4f3f f9b0 373c 225a b63e
000003e0: 1ae2 8d3b 713a b93d 9850 df3e 4994 603e
000003f0: 7d38 133f 7257 e93e a7dd f53b c5b7 fb3e
0.8381516 0.22271523 1.1602666 0.006494302 0.79188305 0.91788423 0.21531647 0.84146327
0.051713787 0.13089137 0.04052703 1.7373134 0.5936612 0.9884908 0.49300438 0.058649745
0.86192924 0.84110886 0.019439105 0.508318 0.86687976 0.7377686 4.3934143e-08 0.12894407
0.15888074 0.9884715 0.854038 0.020640353 6e-45 0.5117203 0.020173365 0.0033423777
0.42004746 1.2123419 0.023685424 0.0011388151 1.0974556 2.1097629e-05 0.20304109 1.0154058
0.06715611 0.14263333 1.1744002 0.23303553 0.8150277 0.35964805 0.7756068 0.008572923
0.8666577 0.18033771 0.5001981 0.22284654 0.13261631 6e-45 0.030050585 0.21877514
0.020470053 0.23881285 0.050440297 0.046073 0.035051048 0.00033049533 0.0127814775 0.92197883
0.09368556 2.0299463 0.8977659 1.1887332 0.055268362 0.18388906 0.67091084 0.011581116
1.0306995 1.1975212 0.17707467 0.8620886 1.2581779 0.76803684 1.7659236 0.2467663
0.18265375 0.0021143719 1.3753817 0.3325812 0.20931524 0.05099845 0.32617888 0.02294639
0.7925079 0.008425793 0.1299937 2.2118926 1.0110813 0.19613335 0.31711286 0.29278475
0.19686382 0.8086973 0.015762879 0.60059583 0.7257101 0.64945084 0.7924788 0.34705567
0.06756695 1.1694089 0.015160505 6e-45 1.1634772 0.0032484464 2.2145423e-06 1.0252441
0.020218804 1.7529503 0.1423579 0.18773657 0.05465442 0.0095803505 0.13823655 0.041230526
0.3915864 0.102177046 0.08562055 0.06363166 0.22418863 0.45931828 1.1324633 0.031038776
1.0902891 1.4531177e-16 0.04076537 0.58837545 0.23390599 0.09451766 0.013117821 0.3079033
1.1260695 6e-45 0.041505713 1.5554914 0.021606684 0.36838904 0.47320467 1.0171101
0.35132414 0.1235498 1.1092781 0.61321765 1.0698314 0.9408345 1.725099 0.006983056
0.3273757 1.9432921 0.0033473223 1.0630507 0.6003046 0.94046956 1.1255462 1.0145934
6e-45 0.0017589224 0.03385166 0.97753394 0.34516743 0.09617383 0.50216097 1.6733946
1.0194612 0.0496298 0.61381596 0.3835357 0.037425518 0.5090038 0.28216586 0.013816751
0.12070257 0.68313724 0.33400616 1.418756e-08 0.13575843 1.029628 0.9718605 6e-45
0.33577272 0.08487608 0.49811602 0.8566253 0.17773981 0.11977605 1.2226381 0.036871083
0.029682202 0.42580262 1.0449977 0.068741664 1.7380458 0.027383378 0.41495928 0.024695663
0.07683999 0.03476005 0.027355885 0.24535666 0.0751456 0.8654905 1.2089463 1.5614831
0.0064179897 6e-45 0.74300456 0.35027504 0.4717846 1.3277928 0.9945296 0.6076337
0.25487804 0.5155497 1.067969 0.026721083 0.021898353 3.3376133e-34 1.8756402 0.29670104
0.451375 1.5395842 0.9775958 0.005296155 1.3097267 0.30565044 0.045684412 0.61680627
1.4024657 0.06000165 0.36923954 0.030694062 0.2046165 1.0096092 0.31566727 0.5841335
0.20987618 0.9787617 0.054116845 0.12910223 0.46420714 0.8112662 0.011211627 0.3561564
0.004329932 0.0904435 0.43616176 0.21931566 0.5750807 0.45574528 0.0075032297 0.49163643
