Best_models/wisdm_CNN_20210122_212207/CNN_wisdm_Rep_7_Seed_576.pt (torch_old, 224391 bytes, 12 tensors)

weight f4 [64, 6, 3]
-0.20179029 0.11830438 0.017996859 0.4594751 0.16739598 -0.41039008 -0.14653029 -0.037714615
0.04535146 -0.06355589 -0.41879565 -0.34374037 -0.32747728 -0.4563515 0.39008546 -0.008792993
0.1965316 0.11081095 0.05616915 -0.06901992 0.001018078 0.06236677 0.12216853 0.016180461
-0.045051526 0.06918598 0.0649558 -0.3375074 -0.021156251 -0.13541688 0.26843864 0.19425465
0.4230853 0.04210523 -0.16013567 -0.13585985 -0.011301266 -0.12188409 -0.1727281 0.081879586
0.07811932 -0.030191122 -0.33683005 -0.31951615 -0.23129623 0.25968534 0.29079378 -0.5386895
0.05472034 -0.26815897 0.28675294 -0.25651267 0.7269599 -0.4006731 0.014894678 -0.11703578
-0.12999548 -0.10250011 -0.14502761 0.033420175 -0.07232069 0.08377533 -0.1812364 0.055770986
-0.05524463 0.13724442 0.13481241 0.07014017 -0.32241908 -0.22297323 -0.32820344 0.06424028
-0.20465137 -0.07507963 -0.22842307 0.33995095 0.08514472 -0.086918905 0.32767406 0.07367596
0.008341679 0.025130274 0.033659536 0.25511244 0.23032871 -0.24440923 0.23903528 -0.103524365
-0.54144406 0.79200095 0.2739039 -0.4617269 -0.55382884 0.7468781 0.39266133 -0.15044172
-0.18480548 0.21831235 0.49073428 -0.0010224434 -0.010612701 0.06360832 -0.027351588 0.191862
-0.30609706 -0.009925887 0.0752712 0.022396242 -0.28265044 -0.08651009 0.15634242 0.03421746
-0.24076724 -0.2179487 -0.08590692 -0.00900325 0.353064 -0.2374069 0.089840926 0.32706416
0.102351464 -0.19318035 -0.1292774 0.057847865 -0.022566566 -0.54516304 0.0074071637 -0.08471534
-0.021040244 -0.025244327 0.37128252 -0.37710953 -0.005312862 0.10372643 0.122557975 -0.03587512
0.30826157 -0.26196185 0.19477971 -0.01968198 -0.39290527 -0.21557897 0.3055938 -0.18379083
-0.3882355 -0.24057385 0.08070311 0.32382825 0.45473203 0.13464385 0.35253993 0.36939657
-0.001990787 0.23565835 -0.11079862 -0.18662006 -0.11273884 -0.3421299 0.16749099 -0.28361103
-0.15232535 0.22127165 0.0035551102 -0.17654958 -0.28751972 0.4992164 0.6434355 0.09962719
-0.41658378 0.5436354 1.086856 0.1419111 -0.10905856 0.014883568 0.18677275 -0.12158916
-0.0061059324 0.040398475 0.06917827 -0.20281765 0.32759324 -0.64476675 -0.88514024 -0.54065454
-0.30569738 0.27553377 -0.06489299 0.6976843 0.8626477 0.025389172 0.1955159 0.07492043
0.018398162 -0.09723514 -0.05296055 0.005556368 0.08081853 0.023265805 -0.9133169 -0.36633688
0.43731344 0.1373406 0.19977744 -0.08543742 -0.021769231 0.52412325 0.5602715 -0.06828106
0.083278604 -0.17836112 -0.0671771 0.122617215 -0.049396615 -0.05917542 0.038956404 0.051889516
-0.049634952 0.08758311 0.16826399 0.025275934 -0.32148606 -0.29912305 -0.14465919 -0.037693273
0.1464712 0.11517397 -0.008275995 -0.23560329 -0.3197705 0.004691093 -0.20400214 -0.40498298
-0.3248107 -0.412244 -0.022008969 0.021040464 -0.09611846 0.05884545 0.17280668 -0.06010842
0.02905648 -0.19413927 -0.15437084 -0.29505488 0.0039775046 0.24991475 0.09091905 -0.19740811
-0.3711271 -0.3062097 0.2851655 0.11650256 -0.34497914 0.15841503 -0.34327555 -0.11669891
00000000: 1da2 4ebe 9149 f23d 266e 933c 5240 eb3e
00000010: da69 2b3e a61e d2be 090c 16be a47a 1abd
00000020: 74c2 393d 9729 82bd 626c d6be bdfe afbe
00000030: 1aab a7be e7a6 e9be 48b9 c73e 7c10 10bc
00000040: 943f 493e daf0 e23d 9f11 663d 515a 8dbd
00000050: 0771 853a 4c74 7f3d 7f33 fa3d e38c 843c
00000060: f387 38bd 61b1 8d3d 8c07 853d c5cd acbe
00000070: e04f adbc b9aa 0abe ca70 893e b1ea 463e
00000080: a39e d83e 8976 2c3d 9bfa 23be d81e 0bbe
00000090: f228 39bc 5e9e f9bd a3df 30be 7cb0 a73d
000000a0: 06fd 9f3d 5f53 f7bc fd74 acbe 9f97 a3be
000000b0: ebd8 6cbe 7af5 843e ece2 943e 8ee7 09bf
000000c0: 6f22 603d 224c 89be 48d1 923e a155 83be
000000d0: 0b1a 3a3f 0625 cdbe cf08 743c 74b0 efbd
000000e0: 891d 05be 94eb d1bd 1e82 14be 98e3 083d
000000f0: df1c 94bd 6692 ab3d 0996 39be 1e70 643d
00000100: 3148 62bd cd89 0c3e 440c 0a3e a6a5 8f3d
00000110: 1d14 a5be 1853 64be 480a a8be 6890 833d
00000120: 2190 51be 59c3 99bd bde7 69be 0d0e ae3e
00000130: 5b60 ae3d 8a02 b2bd e5c4 a73e 6ce3 963d
00000140: 8aab 083c 01de cd3c 95de 093d 199e 823e
00000150: 4adb 6b3e 6a46 7abe aac5 743e 9504 d4bd
00000160: 149c 0abf 93c0 4a3f 223d 8c3e 7867 ecbe
00000170: bac7 0dbf 6733 3f3f e80a c93e 650d 1abe
00000180: a63d 3dbe 468d 5f3e 8641 fb3e 8203 86ba
00000190: e5e0 2dbc 1445 823d 7010 e0bc 7977 443e
000001a0: c1b8 9cbe 30a0 22bc c927 9a3d 5378 b73c
000001b0: 8fb7 90be 342c b1bd 3a18 203e 9b27 0c3d
000001c0: b08b 76be f22d 5fbe f8ef afbd 5e82 13bc
000001d0: cec4 b43e cb1a 73be 85fe b73d f474 a73e
000001e0: a59d d13d 12d1 45be 4b61 04be e2f1 6c3d
000001f0: 85dd b8bc ce8f 0bbf cbb7 f23b 3c7f adbd
00000200: 975c acbc 31cd cebc be18 be3e 8014 c1be
00000210: 8417 aebb 866e d43d adff fa3d caf1 12bd
00000220: 76d4 9d3e dd1f 86be 5574 473e 1b3c a1bc
00000230: e12a c9be bcc0 5cbe ca76 9c3e aa33 3cbe
00000240: cec6 c6be fe58 76be ac47 a53d d1cc a53e
00000250: a3d2 e83e 14e0 093e 1d80 b43e 8c21 bd3e
00000260: dd77 02bb 6c50 713e 63ea e2bd 5419 3fbe
00000270: 9fe3 e6bd a62b afbe c282 2b3e 7735 91be
00000280: 2dfb 1bbe 0995 623e dafc 683b 6ac9 34be
00000290: c935 93be 4b99 ff3e 30b8 243f 5709 cc3d
000002a0: 784a d5be b12b 0b3f 191e 8b3f 2551 113e
000002b0: 185a dfbd 35da 733c 5b41 3f3e bd03 f9bd
000002c0: 4614 c8bb df78 253d 56ad 8d3d 6eaf 4fbe
000002d0: 4dba a73e 6f0f 25bf 8d98 62bf 5668 0abf
000002e0: 5e84 9cbe c312 8d3e 9ee6 84bd 709b 323f
000002f0: 7bd6 5c3f f4fc cf3c 5235 483e e26f 993d
00000300: beb7 963c 3823 c7bd 29ed 58bd 3112 b63b
00000310: 2f84 a53d ee97 be3c 23cf 69bf 8290 bbbe
00000320: 8ce7 df3e 04a3 0c3e 7592 4c3e d0f9 aebd
00000330: 6355 b2bc f12c 063f f46d 0f3f f1d6 8bbd
00000340: f98d aa3d 4ca4 36be 2694 89bd bc1e fb3d
00000350: 1b54 4abd ed61 72bd c090 1f3d 1a8a 543d
00000360: 054e 4bbd c65e b33d 654d 2c3e 7a0f cf3c
00000370: d299 a4be a826 99be 8a21 14be 4364 1abd
00000380: 8cfc 153e 55e0 eb3d 0a98 07bc fd41 71be
00000390: f5b8 a3be beb7 993b f0e5 50be ee59 cfbe
000003a0: 974d a6be a511 d3be 274c b4bc 0d5d ac3c
000003b0: c1d9 c4bd ed07 713d 3cf4 303e 3f34 76bd
000003c0: db07 ee3c 72cc 46be 6413 1ebe 6f11 97be
000003d0: ba55 823b a7e9 7f3e c433 ba3d 5a25 4abe
000003e0: 5f04 bebe 85c7 9cbe 3601 923e e598 ee3d
000003f0: 1ba1 b0be 8d37 223e d0c1 afbe d7ff eebd

bias f4 [64]
-1.0699223 -0.05337316 -0.4106958 0.04264403 -0.5021338 -0.34105584 -0.28691554 -0.37516057
-0.013589016 -0.3272258 -0.6008279 -0.28752348 -0.24070054 0.09980418 -0.7109761 -0.38303977
-0.62738764 -0.3730935 -0.16817759 -0.041057028 -0.5906713 -0.51402944 -0.1362657 -0.42464796
-0.44240317 -0.07909463 -0.6904056 -1.0210152 0.24681608 -0.32203352 -0.73610336 -0.5458307
-0.6302383 -0.26934117 -0.4834737 -0.707036 -0.378184 -0.8428828 -0.8179159 -0.47432554
-0.43066427 -0.15291226 -0.7776634 0.028558595 -0.28257927 0.15518251 -0.9269178 -0.65264094
-0.023735704 -0.13458842 -0.8516447 -0.5402628 -0.8197327 -0.5581079 -0.36089185 -0.35705683
-0.11476761 -0.6873391 -0.7147359 -0.38398007 -0.47987863 -0.7089943 -0.5181432 -0.3830499
00000000: 37f3 88bf d19d 5abd b846 d2be 82ab 2e3d
00000010: d78b 00bf df9e aebe 98e6 92be 0c15 c0be
00000020: 77a4 5ebc 248a a7be dbcf 19bf 4736 93be
00000030: 347a 76be 2266 cc3d 8802 36bf ca1d c4be
00000040: 7a9c 20bf 1c06 bfbe bf36 2cbe 6a2b 28bd
00000050: 3c36 17bf 6f97 03bf 3c89 0bbe 756b d9be
00000060: ab82 e2be 5efc a1bd 6cbe 30bf a0b0 82bf
00000070: 5bbd 7c3e 94e1 a4be 4571 3cbf 90bb 0bbf
00000080: 4c57 21bf 16e7 89be dd89 f7be 5000 35bf
00000090: 55a1 c1be 2bc7 57bf f062 51bf ccda f2be
000000a0: 0780 dcbe 0895 1cbe f314 47bf b7f3 e93c
000000b0: 3bae 90be 2ae8 1e3e 7c4a 6dbf 7a13 27bf
000000c0: 6171 c2bc 8cd1 09be 6305 5abf aa4e 0abf
000000d0: 01da 51bf 29e0 0ebf d1c6 b8be 27d0 b6be
000000e0: 480b ebbd 75f5 2fbf eff8 36bf 0999 c4be
000000f0: a7b2 f5be a780 35bf 08a5 04bf 1e1f c4be

weight f4 [64, 64, 3]
-0.030555263 -0.01713134 -0.021899184 -0.05571177 -0.017280525 -0.019952849 0.0018237712 -0.09251467
-0.06271423 0.058813915 0.018255316 0.05543892 -0.08435083 -0.014666303 -0.07157686 -0.024369415
-0.02315757 -0.053681932 -0.14133342 -0.07766374 -0.14386019 -0.06087478 -0.13821544 -0.12971574
0.045621537 0.015213311 0.060530115 -0.037599828 -0.063255765 -0.06384539 0.0128821945 -0.026147824
-0.0135344295 -0.020366954 0.04180719 0.015417332 -0.12340318 -0.07511137 -0.03909789 -0.0715053
-0.15477508 -0.045984928 -0.038247146 -0.105382785 -0.098808505 -0.17159952 -0.14136131 -0.12878384
-0.08387514 -0.006080046 -0.0034190468 -0.061371308 -0.07311781 -0.021976454 -0.04356239 0.0075707836
-0.0397564 -0.14910503 -0.0763945 -0.16171965 -0.113483965 -0.10618328 -0.12851447 -0.16584514
-0.22722818 -0.16162947 -0.019984739 -0.034966007 0.0040228036 -0.0103271715 0.01783467 -0.05564714
-0.08967619 0.0022963365 -0.09995797 -0.046351254 -0.019636864 0.058758 -0.1306293 -0.097205095
-0.03093543 -0.016879687 -0.051236317 -0.097241886 -0.11005028 -0.06534086 -0.059635907 0.0534782
-0.053124793 0.037046008 -0.06765888 -0.072278656 -0.08479465 -0.09408979 -0.07456647 -0.1191461
-0.11326347 -0.12849557 -0.08183034 -0.06441652 -0.21194755 -0.15253825 0.0021220623 -0.080206946
-0.0035005854 -0.10047916 -0.013148382 0.015993314 0.026546653 -0.06530223 -0.11652227 -0.10110491
-0.09815471 -0.085475385 -0.090054706 0.033439036 0.011213034 0.06935395 -0.029193908 -0.03871438
-0.11594229 -0.16254057 -0.1441402 -0.06200151 -0.0025041867 0.009625897 -0.11432419 -0.048166722
-0.115798704 -0.0439719 0.055502404 -0.01749179 -0.08070533 -0.15312429 -0.072978884 -0.037336294
-0.04341084 -0.005230064 -0.06341361 -0.026447546 0.0035505306 -0.14355047 -0.29931396 -0.17029557
-0.111792356 -0.15535232 -0.13279937 -0.1787276 -0.040885206 -0.013401133 0.0062056556 0.063392624
-0.018354164 -0.053062316 -0.0510772 -0.052760538 -0.06194261 -0.06780207 -0.13686088 -0.0961737
-0.18585408 -0.09475519 -0.0031867542 -0.072468445 -0.039884575 -0.017603125 0.018877639 -0.11720508
0.033574358 -0.034097955 -0.011447924 0.073432185 0.0034773953 0.057019353 -0.026255323 0.007941928
-0.10340267 -0.10820572 -0.0478294 -0.10858712 -0.08083197 -0.13463129 -0.06752395 -0.064825386
-0.06521335 -0.117608 -0.032346137 0.09626944 0.036069393 -0.094256334 -0.18094586 -0.121755995
0.06296488 0.10071698 0.020379782 -0.17260787 -0.017586177 -0.10070186 0.17504212 -0.14580725
-1.0614206 -0.05533841 -0.11798609 -0.33067858 -0.058022648 0.06437288 -0.8954934 -0.46270695
0.08115999 -0.013940232 0.14233947 -0.28571242 -0.26077572 -0.022107312 0.064148605 -0.39018217
0.16147473 -0.0065600844 -0.38549474 -0.71043646 -0.86171985 -1.0983465 -0.33643728 -0.15344022
-0.50007224 -0.13934526 0.35851732 0.02089256 0.2707769 0.20212217 -0.39944494 0.06711336
0.057508033 -0.24020733 -0.07455548 -0.24485844 -0.5766391 0.015349373 0.10000042 -0.076751046
-0.16198193 -0.62987983 -1.2077917 0.19086596 0.043427907 -0.39838392 -0.18132065 -0.05725523
-0.17172827 0.13300006 -0.20702356 -0.52793366 -0.24770835 0.2986217 0.40493843 -0.031380277
00000000: 084f fabc 0657 8cbc eb65 b3bc 0632 64bd
00000010: e38f 8dbc 2874 a3bc 9b0b ef3a 5578 bdbd
00000020: 5170 80bd dce6 703d 2c8c 953c ec13 633d
00000030: 21c0 acbd ef4a 70bc e496 92bd 5ea2 c7bc
00000040: f2b4 bdbc 96e1 5bbd b5b9 10be 2b0e 9fbd
00000050: 1650 13be d557 79bd 5988 0dbe 34d4 04be
00000060: a6dd 3a3d 4041 793c 6dee 773d 4702 1abd
00000070: 3d8c 81bd 5fc1 82bd d70f 533c f633 d6bc
00000080: 83bf 5dbc 99d8 a6bc 043e 2b3d fa98 7c3c
00000090: ceba fcbd fdd3 99bd 1c25 20bd 5f71 92bd
000000a0: 5c7d 1ebe b15a 3cbd 0aa9 1cbd eed2 d7bd
000000b0: 1d5c cabd c9b7 2fbe 05c1 10be e9df 03be
000000c0: bbc6 abbd 1f3b c7bb 1612 60bb 7b60 7bbd
000000d0: cabe 95bd f707 b4bc 7a6e 32bd 5614 f83b
000000e0: 9bd7 22bd fdae 18be b874 9cbd d699 25be
000000f0: 486a e8bd 9f76 d9bd 4c99 03be 4fd3 29be
00000100: 81ae 68be 3282 25be 09b7 a3bc 8438 0fbd
00000110: b9d1 833b 4c33 29bc 041a 923c 41ee 63bd
00000120: 26a8 b7bd 227e 163b c4b6 ccbd d0da 3dbd
00000130: 7ddd a0bc 3bac 703d b0c3 05be 7713 c7bd
00000140: 4d6c fdbc 4547 8abc 2cdd 51bd c126 c7bd
00000150: 0b62 e1bd 6ed1 85bd c844 74bd f50b 5b3d
00000160: 6299 59bd 8ebd 173d bd90 8abd d506 94bd
00000170: d1a8 adbd 26b2 c0bd 4eb6 98bd df02 f4bd
00000180: aef6 e7bd 5894 03be aa96 a7bd cfec 83bd
00000190: c708 59be fd32 1cbe 4c12 0b3b 8a43 a4bd
000001a0: 146a 65bb 05c8 cdbd 506c 57bc 6904 833c
000001b0: 5e78 d93c 2dbd 85bd 3aa3 eebd 1710 cfbd
000001c0: 5605 c9bd b80d afbd 9a6e b8bd 5ff7 083d
000001d0: e0b6 373c 7209 8e3d 1028 efbc f892 1ebd
000001e0: 2773 edbd 0971 26be 7d99 13be 4cf5 7dbd
000001f0: 481d 24bb f0b5 1d3c cd22 eabd 784a 45bd
00000200: df27 edbd e11b 34bd 7d56 633d f14a 8fbc
00000210: d648 a5bd 9dcc 1cbe f475 95bd f1ed 18bd
00000220: 91cf 31bd f560 abbb ffde 81bd 86a8 d8bc
00000230: 05b0 683b e5fe 12be ae3f 99be f661 2ebe
00000240: 64f3 e4bd ae14 1fbe 8ffc 07be 5e04 37be
00000250: 3f77 27bd 6d90 5bbc d058 cb3b fed3 813d
00000260: 795b 96bc df57 59bd 5336 51bd 6f1b 58bd
00000270: 89b7 7dbd d0db 8abd 4225 0cbe b8f6 c4bd
00000280: 8850 3ebe 020f c2bd ddd8 50bb 566a 94bd
00000290: 025e 23bd 6e34 90bc 47a5 9a3c 3809 f0bd
000002a0: 4485 093d 4caa 0bbd 1390 3bbc 9d63 963d
000002b0: 03e5 633b 208d 693d 6715 d7bc dc1e 023c
000002c0: c7c4 d3bd f69a ddbd c3e8 43bd ed62 debd
000002d0: 3b8b a5bd c9dc 09be ff49 8abd 2cc3 84bd
000002e0: 948e 85bd 77dc f0bd 627d 04bd ea28 c53d
000002f0: 80bd 133d 7709 c1bd df49 39be 355b f9bd
00000300: bbf3 803d b444 ce3d 80f3 a63c 1ec0 30be
00000310: e310 90bc c73c cebd 3e3e 333e 7f4e 15be
00000320: a1dc 87bf 87aa 62bd b1a2 f1bd b44e a9be
00000330: 28a9 6dbd eed5 833d 0e3f 65bf ede7 ecbe
00000340: 3537 a63d 9265 64bc 70c1 113e e648 92be
00000350: 6584 85be 651a b5bc 5860 833d f5c5 c7be
00000360: a259 253e faf5 d6bb 915f c5be 2adf 35bf
00000370: ac99 5cbf 9e96 8cbf 8241 acbe 6f1f 1dbe
00000380: bc04 00bf 86b0 0ebe 958f b73e e026 ab3c
00000390: 45a3 8a3e 1df9 4e3e 0c84 ccbe bb72 893d
000003a0: 8b8d 6b3d e9f8 75be 8bb0 98bd 2cbc 7abe
000003b0: 9f9e 13bf f07b 7b3c 05cd cc3d a72f 9dbd
000003c0: 97de 25be ce3f 21bf eb98 9abf 5e72 433e
000003d0: 76e1 313d faf8 cbbe 1fac 39be 7684 6abd
000003e0: 89d9 2fbe 2b31 083e fcfd 53be a926 07bf
000003f0: 42a7 7dbe f2e4 983e 1754 cf3e 9b88 00bd

bias f4 [64]
-0.05353495 -0.05105981 -0.1677551 -0.08901628 -0.14502686 -0.63108903 -0.10954519 -0.0065903757
-0.44210953 -0.7806346 -0.08396614 -0.22508551 0.011006971 -0.16445662 -0.21679622 -0.055109717
-0.09037504 -0.22863357 0.10327389 -0.054756448 -0.1772165 -0.8676969 -0.24037857 -0.020675573
-0.071781486 -0.10248001 -0.83103794 -0.07225115 -0.05517316 -0.040744737 -0.6512371 -0.31007233
-0.27210099 0.025533518 -0.3635006 -0.61944896 -0.19565827 -0.2132011 -0.46379736 -0.64891344
-0.5572804 -0.123391755 -0.31374833 0.052674524 -0.934072 -0.21943769 -0.18079151 -0.55390024
-0.56257784 -0.10499117 -0.7524582 3.5512243e-05 -0.26918012 -0.052136697 0.05527364 -0.21724209
-0.1620109 -0.1126211 0.030023484 -0.33840626 -0.28870046 -0.0760022 -0.14403307 -0.24373241
00000000: 7747 5bbd 1724 51bd fec7 2bbe 2b4e b6bd
00000010: ec81 14be 0d8f 21bf 3b59 e0bd 14f4 d7bb
00000020: 2e5c e2be abd7 47bf 71f6 abbd d17c 66be
00000030: 9556 343c 5167 28be d4ff 5dbe baba 61bd
00000040: 8d16 b9bd eb1e 6abe 4381 d33d 4c48 60bd
00000050: 3e78 35be 6221 5ebf cd25 76be d25f a9bc
00000060: 2c02 93bd 0ae1 d1bd e7be 54bf 69f8 93bd
00000070: 40fd 61bd f4e3 26bd 79b7 26bf cdc1 9ebe
00000080: d250 8bbe ab2b d13c c01c babe 3594 1ebf
00000090: a45a 48be 6451 5abe d976 edbe 311f 26bf
000000a0: eea9 0ebf d1b4 fcbd 9fa3 a0be 3ec1 573d
000000b0: 581f 6fbf 46b4 60be 6921 39be 68cc 0dbf
000000c0: 1a05 10bf 9c05 d7bd 1aa1 40bf fbf2 1438
000000d0: fad1 89be 4a8d 55bd 9d66 623d b674 5ebe
000000e0: 2fe6 25be e4a5 e6bd cff3 f53c 9643 adbe
000000f0: 8cd0 93be 0ba7 9bbd 687d 13be fd94 79be

weight f4 [256, 128]
0.11787675 0.0051101847 0.15209244 0.29329386 -0.016410034 0.07748563 -0.03374914 -0.020905158
0.17805359 0.048087418 -0.056869354 -0.35219482 0.30360174 -0.1146849 0.019847745 0.032555893
-0.086822145 0.04564054 0.04961947 -0.08086278 0.041624963 0.15393083 -0.072836965 -0.027487151
0.09622374 0.14417914 -0.2223956 -0.44150946 -0.13082302 -0.0593133 0.20531496 -0.07363737
0.10493297 -0.017052304 -0.011364838 -0.15526514 0.03577149 0.17227319 -0.058472198 -0.065745495
-0.056159493 -0.017012814 0.33314234 0.1630959 -0.20940487 -0.004379546 0.08893438 0.041979417
-0.076957315 -0.1164056 -0.13376223 -0.40471458 -0.00927821 -0.15013473 -0.017773753 -0.055336937
-0.025509128 -0.1780885 0.032310553 -0.054079585 0.16426638 0.17319559 -0.14559394 0.028376667
0.3461122 0.58599913 -0.009502057 0.01604947 0.002590899 0.29090676 -0.043677226 -0.28554717
0.5943827 0.40891713 0.24168162 -0.061689284 -0.17259683 -0.38698453 0.02619719 -0.12369688
0.39532018 0.7120639 -0.08084581 -0.2235626 -0.032347746 -0.09450897 -0.25536704 -0.4700233
0.35328072 0.27091092 0.35566443 -0.21661198 -0.069081 -0.28539044 0.32914153 -0.053332493
0.07965138 -0.5473619 0.40113413 0.51581174 0.29007798 0.117141545 -0.038899004 -0.26015735
0.04238548 -0.030328022 0.119244695 -0.044081207 -0.39040357 -0.35551834 0.26038295 0.3961839
0.14023699 0.20806943 -0.10907103 0.07535286 -0.043033052 -0.14942075 0.1008068 -0.23972876
0.051337942 0.1329965 0.01242396 -0.27464995 0.085339546 -0.005729636 0.28342712 -0.23532653
0.06719391 -0.0963186 -0.03832794 -0.26375905 -0.5495733 -0.46361008 0.015615352 0.013110748
-0.1750878 -0.015001165 0.19378449 0.09289996 -0.15616791 -0.22435148 -0.026833722 -0.06497304
0.2823855 0.15904027 0.024235941 0.0026188572 -0.41068664 -0.3165397 -0.5654582 -0.26968542
-0.46273822 -0.22180583 0.075362116 0.16284102 -0.15576522 -0.099024005 -0.21838686 -0.22483929
-0.12835144 0.039335757 0.19813564 0.036345158 -0.15383475 0.021346014 0.028305538 -0.053431958
-0.024513606 0.14124179 0.18430652 -0.19832726 -0.36613938 -0.07981949 -0.118154086 -0.09751578
-0.064158514 -0.024189278 0.110762954 -0.2751315 0.15079801 0.13541904 -0.083061375 0.028029688
-0.36789626 -0.20865926 -0.068560176 -0.029271614 -0.2622176 0.23055348 -0.15104805 0.24499618
-0.14300758 0.25642088 -0.12064715 0.0474199 -0.6193749 -0.32586455 0.3592667 0.065144345
-0.04128584 0.26289767 -0.16959256 0.3292877 0.1524642 0.37069538 0.33356634 -0.52188504
-0.20700404 0.34053046 0.038122755 0.09671361 0.14183834 0.1361458 -0.008206838 -0.06475935
0.074962735 -0.09940306 -0.2362256 0.15238982 -0.034411512 0.119243845 -0.032528188 0.2660193
0.208006 0.17177737 -0.27481848 -0.21041824 -0.24095361 0.18361293 -0.014857043 0.103710435
-0.028850388 0.28310788 -0.27809784 0.17914243 -0.19295537 0.02208855 0.26866466 -0.16050467
-0.14342642 -0.31485528 -0.115899935 -0.03541668 -0.27431563 -0.3242336 -0.040681206 -0.012887857
0.26057228 0.17506151 -0.11763217 0.08494723 0.024522444 0.011284165 0.18002108 -0.13359486
00000000: 5e69 f13d 5673 a73b 1fbe 1b3e 9d2a 963e
00000010: 566e 86bc c9b0 9e3d 8a3c 0abd 4b41 abbc
00000020: ae53 363e 50f7 443d d7ef 68bd e152 b4be
00000030: b071 9b3e ebdf eabd bd97 a23c 5459 053d
00000040: cfcf b1bd 93f1 3a3d c93d 4b3d 639b a5bd
00000050: f07e 2a3d 0ba0 1d3e 8c2b 95bd bc2c e1bc
00000060: f410 c53d b2a3 133e acbb 63be 870d e2be
00000070: 78f6 05be 81f2 72bd 163e 523e 30cf 96bd
00000080: 19e7 d63d 46b1 8bbc 9633 3abc d3fd 1ebe
00000090: 2085 123d 6268 303e 8b80 6fbd 93a5 86bd
000000a0: 7f07 66bd 755e 8bbc a291 aa3e 9d02 273e
000000b0: 3b6e 56be 4b82 8fbb 3a23 b63d 9cf2 2b3d
000000c0: cc9b 9dbd 0f66 eebd f7f8 08be c036 cfbe
000000d0: a203 18bc ebbc 19be 439a 91bc fca8 62bd
000000e0: 85f8 d0bc d55c 36be 1258 043d 8e82 5dbd
000000f0: 7235 283e 2f5a 313e 9416 15be 2f76 e83c
00000100: 9e35 b13e 0a04 163f 84ae 1bbc 2e7a 833c
00000110: 12cc 293b bbf1 943e e4e6 32bd 3d33 92be
00000120: 7729 183f 965d d13e 637b 773e e7ad 7cbd
00000130: 39bd 30be d622 c6be 7d9b d63c ca54 fdbd
00000140: 6867 ca3e d249 363f 7d92 a5bd 98ed 64be
00000150: 127f 04bd eb8d c1bd 78bf 82be e5a6 f0be
00000160: 36e1 b43e d6b4 8a3e a619 b63e 88cf 5dbe
00000170: 577a 8dbd b21e 92be 3d85 a83e 2c73 5abd
00000180: 4320 a33d e91f 0cbf 7461 cd3e 3d0c 043f
00000190: 1a85 943e e8e7 ef3d 9054 1fbd 5833 85be
000001a0: 669c 2d3d 7972 f8bc 9036 f43d 7f8e 34bd
000001b0: fae2 c7be 8006 b6be ea50 853e 9ed8 ca3e
000001c0: 499a 0f3e 2710 553e a260 dfbd 9a52 9a3d
000001d0: 6d43 30bd c101 19be cc73 ce3d 757b 75be
000001e0: bc47 523d 3c30 083e dd8d 4b3c eb9e 8cbe
000001f0: 80c6 ae3d acbf bbbb 5c1d 913e 70f9 70be
00000200: f69c 893d b042 c5bd c2fd 1cbd 6d0b 87be
00000210: d6b0 0cbf 4d5e edbe 89d7 7f3c 76ce 563c
00000220: 374a 33be 72c7 75bc 716f 463e 5642 be3d
00000230: 7bea 1fbe 65bc 65be 65d2 dbbc 9610 85bd
00000240: d594 903e 74db 223e 748a c63c 22a1 2b3b
00000250: 8545 d2be 7e11 a2be dec1 10bf 3514 8abe
00000260: 06ec ecbe 1121 63be 7457 9a3d ccbf 263e
00000270: eb80 1fbe 19cd cabd cea0 5fbe 453c 66be
00000280: 8f6e 03be 881e 213d 12e4 4a3e a9de 143d
00000290: db86 1dbe d6dd ae3c 04e1 e73c 78db 5abd
000002a0: c2d0 c8bc b0a1 103e d9ba 3c3e 4d16 4bbe
000002b0: 9f76 bbbe 6778 a3bd c5fa f1bd 5ab6 c7bd
000002c0: 8a65 83bd 9828 c6bc b0d7 e23d 09de 8cbe
000002d0: cb6a 1a3e 4aab 0a3e 151c aabd 849e e53c
000002e0: e65c bcbe c6aa 55be 4769 8cbd 06cb efbc
000002f0: 6341 86be 3616 6c3e 57ac 1abe 47e0 7a3e
00000300: 9470 12be 9949 833e da15 f7bd 5e3b 423d
00000310: 5a8f 1ebf b8d7 a6be cef1 b73e 666a 853d
00000320: 571b 29bd 869a 863e aca9 2dbe 6698 a83e
00000330: 931f 1c3e c9cb bd3e 35c9 aa3e 429a 05bf
00000340: def8 53be 025a ae3e 9b26 1c3d c911 c63d
00000350: 123e 113e ce69 0b3e f975 06bc 8da0 84bd
00000360: 1086 993d d593 cbbd 20e5 71be 140c 1c3e
00000370: 16f3 0cbd 1e36 f43d 473c 05bd af33 883e
00000380: 86ff 543e 68e6 2f3e 02b5 8cbe e177 57be
00000390: 8bbc 76be 0705 3c3e f46a 73bc 2366 d43d
000003a0: a657 ecbc 84f3 903e d762 8ebe 1d71 373e
000003b0: 1896 45be 0cf3 b43c 6a8e 893e 565b 24be
000003c0: 60de 12be b634 a1be f25c edbd 1511 11bd
000003d0: 1973 8cbe f201 a6be 56a1 26bd 9727 53bc
000003e0: bb69 853e 5343 333e 23e9 f0bd d0f8 ad3d
000003f0: 4be3 c83c 38e1 383c 7257 383e 17cd 08be

bias f4 [256]
0.09865096 -0.34795105 0.093067415 0.04383612 -0.21690427 -0.21102498 -0.16895713 0.01269748
-0.012796066 0.11130739 -0.11283462 0.24809939 0.03765012 -0.19151114 0.1730057 0.001761485
0.13015921 -0.022857685 -0.057294108 -0.2671217 -0.027978068 0.014268335 0.110885 -0.2119239
-0.22990385 0.49370855 -0.27081555 0.16063286 -0.30923572 -0.35962132 -0.3362852 0.11231459
0.109675825 -0.32747027 0.10808342 0.15699987 0.48341793 -0.2150602 0.116175935 -0.082022816
0.1189557 0.535675 0.40399796 -0.13523073 0.24805029 0.57039106 -0.11697521 -0.055763032
0.16566281 0.23001279 0.10496138 -0.012247269 0.34697726 0.002773246 0.2030415 -0.2540081
0.18169941 -0.1348481 0.019841556 0.5875806 0.19983816 0.0123368 -0.2726812 -0.1367567
-0.14970842 0.047224 0.23820175 0.12569422 0.22112216 -0.029491533 0.063601516 0.03591937
0.12585409 0.12603459 -0.058015015 0.0021229633 -0.027651656 0.004938119 -0.3142601 0.09274954
0.18543117 0.08422786 -0.082618326 0.17135814 0.00044658247 0.12915659 0.039469488 0.21729663
0.265896 -0.21203096 0.0496736 -0.111902244 0.09205834 0.203347 -0.26686963 -0.337143
0.176699 0.11150845 0.052285552 -0.107238844 -0.11414221 0.37351686 0.016918413 0.25376862
0.24379754 0.257777 0.15530635 -0.14308329 0.13441578 -0.20443079 0.29410183 0.10025056
0.041823152 0.16270234 -0.19358014 -0.46963015 0.037015896 -0.38216302 0.25074023 0.55603737
0.62271875 -0.051713917 0.27674332 -0.19349152 -0.26188183 -0.08460596 0.22868241 -0.39169955
0.210149 0.19301838 0.17446549 0.44759065 0.1789646 0.13971056 0.0006911875 0.0061680065
0.067858495 -0.22434546 -0.21272746 0.6114602 0.27341917 -0.042957257 0.14099887 0.1546307
-0.21928552 -0.41828534 -0.052862562 -0.21436337 0.031141462 0.40764943 0.04028235 0.096417814
-0.15722142 -0.075959444 -0.31608155 0.046319213 -0.07498256 -0.002252057 0.10361613 -0.3180015
-0.19428621 0.0029939043 -0.2734442 0.12115834 0.11742901 0.17219156 -0.1376209 -0.046977397
0.24413607 -0.26342216 -0.4522491 -0.14442657 -0.21485762 0.4160054 -0.022728365 0.04824156
-0.11697877 -0.4147161 0.27590218 0.30512244 0.026274374 0.12506439 -0.21384768 -0.091815
-0.399556 0.40524614 0.19238536 -0.15484333 0.10960243 0.30284324 0.14585057 0.0032065753
0.09144505 0.090111166 0.035375476 -0.15541902 0.10823091 -0.010607725 0.0762347 0.12834108
0.26550087 0.16668358 -0.070353545 0.1448988 -0.120150186 0.05085868 -0.19137509 -0.19768502
0.06063544 0.086933255 0.1555558 -0.31292868 -0.3077906 0.12956442 -0.24524158 -0.09192405
0.018520936 -0.088242784 -0.022777643 0.08395441 0.43092254 0.2542138 0.47616068 0.3515028
0.15788788 0.07376605 -0.3182406 0.2027484 0.0067061638 0.12949759 -0.21189183 0.47457302
0.22257319 -0.10243503 -0.013158058 0.11191624 0.16786897 -0.20042112 -0.15761042 -0.26499394
0.16706176 0.36553222 0.09920198 -0.1221585 -0.12818538 -0.030023905 0.18442701 0.16094112
0.11377209 -0.24657358 0.4807775 -0.21272139 0.27445695 0.25994426 -0.41879645 -0.14185718
00000000: 8409 ca3d a426 b2be 219a be3d 818d 333d
00000010: 271c 5ebe ef16 58be 1903 2dbe 1709 503c
00000020: 97a6 51bc 21f5 e33d d615 e7bd c40d 7e3e
00000030: 0337 1a3d 7f1b 44be 6828 313e a1e1 e63a
00000040: 7548 053e 0a40 bbbc 3aad 6abd 2dc4 88be
00000050: 4332 e5bc bcc5 693c ad17 e33d 9402 59be
00000060: ea6b 6bbe 5ec7 fc3e 56a8 8abe f17c 243e
00000070: 2554 9ebe 4920 b8be 932d acbe 3105 e63d
00000080: b89d e03d 2faa a7be d75a dd3d 93c4 203e
00000090: 8e82 f73e be38 5cbe a6ed ed3d 94fb a7bd
000000a0: 0c9f f33d ff21 093f d2d8 ce3e ed79 0abe
000000b0: e500 7e3e 2605 123f b390 efbd c767 64bd
000000c0: 83a3 293e 7988 6b3e fef5 d63d c5a8 48bc
000000d0: 01a7 b13e 59bf 353b 1cea 4f3e 5a0d 82be
000000e0: 690f 3a3e 9f15 0abe c28a a23c af6b 163f
000000f0: 60a2 4c3e 4a20 4a3c df9c 8bbe f309 0cbe
00000100: 2a4d 19be f46d 413d 29eb 733e fcb5 003e
00000110: d96d 623e 3a98 f1bc 8341 823d 3020 133d
00000120: e5df 003e 360f 013e 27a1 6dbd 6a21 0b3b
00000130: ba85 e2bc f2cf a13b b3e6 a0be 79f3 bd3d
00000140: abe1 3d3e a87f ac3d cc33 a9bd 8278 2f3e
00000150: 4923 ea39 a041 043e c2aa 213d 0283 5e3e
00000160: 8523 883e a51e 59be 8b76 4b3d 012d e5bd
00000170: 1589 bc3d 323a 503e 23a3 88be 029e acbe
00000180: 95f0 343e 8b5e e43d 6029 563d 0aa0 dbbd
00000190: 64c3 e9bd 9a3d bf3e 7c98 8a3c f6ed 813e
000001a0: 10a6 793e 59fb 833e a108 1f3e 6d84 12be
000001b0: 4aa4 093e 4e56 51be 8494 963e 2a50 cd3d
000001c0: c14e 2b3d 719b 263e df39 46be 5d73 f0be
000001d0: fb9d 173d dfaa c3be 0661 803e 7758 0e3f
000001e0: 7f6a 1f3f f9d1 53bd 4db1 8d3e a422 46be
000001f0: 6015 86be e445 adbd b92b 6a3e d88c c8be
00000200: 4d31 573e 9ca6 453e 15a7 323e 9a2a e53e
00000210: 7f42 373e 4910 0f3e cf30 353a fd1c ca3b
00000220: 65f9 8a3d d1ba 65be 3ad5 59be a888 1c3f
00000230: 99fd 8b3e f3f3 2fbd 0262 103e 8357 1e3e
00000240: 628c 60be 7f29 d6be 6a86 58bd 1282 5bbe
00000250: 611c ff3c 6db7 d03e 1bff 243d b476 c53d
00000260: a7fe 20be a090 9bbd 71d5 a1be 37b9 3d3d
00000270: 7590 99bd 3f97 13bb b234 d43d 18d1 a2be
00000280: f7f2 46be 6135 443b e100 8cbe dd21 f83d
00000290: 9f7e f03d fc52 303e 7eec 0cbe 5f6b 40bd
000002a0: cefe 793e 45df 86be 328d e7be 8fe4 13be
000002b0: a303 5cbe a9fe d43e d630 babc f198 453d
000002c0: 9192 efbd ab55 d4be 0d43 8d3e 0239 9c3e
000002d0: 5b3d d73c e110 003e e3fa 5abe 8109 bcbd
000002e0: 9b92 ccbe 6c7c cf3e ab00 453e 408f 1ebe
000002f0: 3d77 e03d 450e 9b3e da59 153e 6825 523b
00000300: 8b47 bb3d 348c b83d e0e5 103d 2a26 1fbe
00000310: 2ba8 dd3d 06cc 2dbc f020 9c3d d86b 033e
00000320: bbef 873e 1aaf 2a3e 8515 90bd 5a60 143e
00000330: 4d11 f6bd 3151 503d d5f7 43be f16d 4abe
00000340: de5c 783d 100a b23d 054a 1f3e 3038 a0be
00000350: bb96 9dbe 89ac 043e 9c20 7bbe ad42 bcbd
00000360: 38b9 973c a2b8 b4bd 2e98 babc 4af0 ab3d
00000370: e1a1 dc3e 5028 823e 55cb f33e 2df8 b33e
00000380: 5cad 213e a812 973d 6ff0 a2be 479d 4f3e
00000390: 61bf db3b 049b 043e 2cfa 58be 3cfb f23e
000003a0: 3aea 633e 75c9 d1bd e594 57bc 5734 e53d
000003b0: d8e5 2b3e 323b 4dbe a064 21be 49ad 87be
000003c0: 3d12 2b3e 0a27 bb3e 682a cb3d 3c2e fabd
000003d0: 0743 03be b1f4 f5bc 6fda 3c3e c0cd 243e
000003e0: 5701 e93d c97d 7cbe 7828 f63e a3d3 59be
000003f0: 9f85 8c3e 6a17 853e 7d6c d6be 0243 11be

weight f4 [256]
0.9243007 1.2397056 0.8497715 1.1551564 1.2535355 1.1294576 1.2474355 1.1385344
1.3283272 0.9729103 0.9671443 0.9891264 1.0652598 1.1644925 1.2678634 1.020249
1.058602 1.0679563 1.3405632 0.9544521 1.174541 1.3306832 1.02207 1.1134636
1.1096638 1.2995335 1.30516 1.19423 1.2783178 1.1728811 1.3387489 0.9227038
1.1476961 1.1999097 1.0645012 1.5775679 1.1134903 1.1675253 1.064392 1.3159631
0.88651544 0.8977623 1.0420841 1.185609 1.2911581 1.1348673 1.1971424 1.1751041
1.5158203 1.0870897 1.2316842 1.248527 1.2475321 1.380354 1.2901893 1.0211148
1.4162397 0.95583564 1.0665473 0.81038666 0.92884487 1.1990196 1.2397219 1.0045444
1.191153 1.2371483 1.1390795 1.2262697 1.1983272 1.2106494 0.88071656 1.1360397
1.0291426 1.4323819 1.3650995 1.3641127 1.1093425 1.028745 1.2277561 1.2152909
1.0615703 1.0384792 1.0600328 1.2182059 1.3585894 1.1501468 1.0223109 0.98243296
1.311176 1.0892875 1.1108505 1.2438161 1.1640141 1.0309632 1.115467 1.132769
1.2878929 1.2473204 1.1221201 1.2477138 1.2335494 0.9144931 0.95004433 1.2777675
1.117255 1.2173967 0.922828 1.208047 1.020465 1.0817627 1.054768 0.9791156
0.91096014 0.9437093 1.1258061 1.1581864 1.1746346 1.0319424 1.0661883 0.8027066
1.1369286 1.3655615 1.3609481 1.0349035 1.2175027 1.5096327 0.94974303 1.2030839
0.88862145 1.2318394 1.1661111 1.16015 1.4616868 1.3711101 1.1281203 1.0359702
1.417088 1.2925476 1.1959331 0.9357198 1.3135437 1.0416199 1.1635286 1.5048292
0.9814086 1.103207 1.1620185 1.0090864 1.0353413 1.1679125 1.3308667 0.94998705
0.9114587 1.0995241 1.1864697 1.1775061 1.6129717 1.0921606 0.89505553 1.1228827
1.0280781 1.4618357 1.0217029 1.2357091 0.9222942 1.0750554 1.3504786 1.1410503
1.1190934 1.0043974 1.1246916 1.1204034 1.3308183 0.96391916 1.5866735 1.4365948
1.2903813 1.106809 1.3490053 1.1371244 1.1071693 1.2663203 1.2019113 1.4324468
1.104892 1.0596163 1.0947393 1.1736356 1.3142401 1.096108 0.9477755 1.2833909
1.1771926 1.4670748 1.0776349 1.2739226 1.465871 1.3955197 1.3271307 1.3327594
1.2511417 1.2882829 1.063094 0.93339676 1.2863512 1.1254675 1.0605234 1.3268099
1.2354509 0.8755594 1.1251056 1.2880672 1.0836319 1.2975247 1.1560267 1.1780326
0.9485889 1.1573969 1.1970901 1.1876123 1.2474344 1.174566 0.8878353 1.21136
1.0628866 0.7718405 1.2148063 1.114772 1.0562562 1.3181722 1.1818792 1.1945955
1.2224389 1.2366877 0.9313493 1.0513937 0.9865311 1.2453902 1.3102974 1.1267657
1.0371296 1.1922847 0.8404764 1.1214092 1.1236863 1.1607301 1.2547922 0.85157883
1.278192 1.2137545 1.1947571 1.1022978 0.9888921 1.0114839 1.1767726 1.2556217
00000000: f89e 6c3f acae 9e3f a08a 593f 2adc 933f
00000010: da73 a03f 1192 903f f7ab 9f3f 7fbb 913f
00000020: a006 aa3f a610 793f c596 773f 6337 7d3f
00000030: 6f5a 883f 170e 953f 5949 a23f 8597 823f
00000040: 4580 873f cbb2 883f 9397 ab3f f956 743f
00000050: 5c57 963f d453 aa3f 31d3 823f fa85 8e3f
00000060: 7709 8e3f 1d57 a63f 7c0f a73f 87dc 983f
00000070: eb9f a33f f820 963f 205c ab3f 5136 6c3f
00000080: b5e7 923f a496 993f 9341 883f bfed c93f
00000090: da86 8e3f 7871 953f ff3d 883f 7b71 a83f
000000a0: adf2 623f c0d3 653f 0363 853f 09c2 973f
000000b0: ab44 a53f 5543 913f f63b 993f d069 963f
000000c0: 6606 c23f c125 8b3f d4a7 9d3f bccf 9f3f
000000d0: 22af 9f3f 71af b03f ec24 a53f e4b3 823f
000000e0: 5847 b53f a5b1 743f 9f84 883f 8075 4f3f
000000f0: c7c8 6d3f 7979 993f 35af 9e3f e994 803f
00000100: b477 983f e05a 9e3f 5bcd 913f 68f6 9c3f
00000110: c962 993f 8ff6 9a3f a476 613f c069 913f
00000120: f2ba 833f 4a58 b73f 95bb ae3f 3f9b ae3f
00000130: effe 8d3f ebad 833f 1d27 9d3f a78e 9b3f
00000140: 89e1 873f e3ec 843f 28af 873f 2cee 9b3f
00000150: 42e6 ad3f 0338 933f 15db 823f ba80 7b3f
00000160: 9dd4 a73f c66d 8b3f 5930 8e3f 5e35 9f3f
00000170: 6afe 943f 9af6 833f 9fc7 8e3f 93fe 903f
00000180: add9 a43f 32a8 9f3f a2a1 8f3f 16b5 9f3f
00000190: f2e4 9d3f 381c 6a3f 1b36 733f e38d a33f
000001a0: 3602 8f3f a8d3 9b3f 753e 6c3f 49a1 9a3f
000001b0: 999e 823f 3377 8a3f a302 873f 52a7 7a3f
000001c0: af34 693f ef96 713f 6a1a 903f 743f 943f
000001d0: 6d5a 963f b016 843f dc78 883f 2e7e 4d3f
000001e0: e086 913f b8ca ae3f 8c33 ae3f b877 843f
000001f0: 21d7 9b3f a53b c13f 5c22 733f a7fe 993f
00000200: b27c 633f eaac 9d3f 2143 953f cc7f 943f
00000210: 8e18 bb3f 8980 af3f 3f66 903f ac9a 843f
00000220: 2463 b53f 3372 a53f 5614 993f 558b 6f3f
00000230: 3322 a83f cd53 853f 81ee 943f 3e9e c03f
00000240: 983d 7b3f e335 8d3f 06bd 943f be29 813f
00000250: 1086 843f 287e 953f d759 aa3f 5a32 733f
00000260: 5b55 693f 35bd 8c3f 3dde 973f 85b8 963f
00000270: db75 ce3f ebcb 8b3f 5c22 653f 9fba 8f3f
00000280: 1098 833f 6f1d bb3f 29c7 823f b72b 9e3f
00000290: 791b 6c3f 6a9b 893f 7cdc ac3f f00d 923f
000002a0: 743e 8f3f 1890 803f e5f5 8f3f 6169 8f3f
000002b0: 4158 aa3f 68c3 763f 1e18 cb3f 57e2 b73f
000002c0: 372b a53f ebab 8d3f 35ac ac3f 4b8d 913f
000002d0: b9b7 8d3f c916 a23f 3bd8 993f 6b5a b73f
000002e0: 1a6d 8d3f 82a1 873f 6b20 8c3f b139 963f
000002f0: 0539 a83f 444d 8c3f 6aa1 723f 2746 a43f
00000300: 3fae 963f 1bc9 bb3f f1ef 893f e50f a33f
00000310: a9a1 bb3f 64a0 b23f 6bdf a93f dc97 aa3f
00000320: 6925 a03f 74e6 a43f 7713 883f 17f3 6e3f
00000330: 28a7 a43f 520f 903f 3bbf 873f e8d4 a93f
00000340: 4123 9e3f a924 603f 7603 903f 63df a43f
00000350: 73b4 8a3f 4a15 a63f aff8 933f c6c9 963f
00000360: b9d6 723f 9525 943f 403a 993f ae03 983f
00000370: eeab 9f3f 2e58 963f 2d49 633f d80d 9b3f
00000380: ab0c 883f 5797 453f c67e 9b3f d9b0 8e3f
00000390: 6733 873f deb9 a83f d147 973f 81e8 983f
000003a0: e178 9c3f c84b 9e3f e86c 6e3f 1294 863f
000003b0: 4d8d 7c3f f268 9f3f d3b7 a73f dc39 903f
000003c0: aac0 843f c99c 983f 7629 573f 568a 8f3f
000003d0: f4d4 8f3f ce92 943f 089d a03f 1201 5a3f
000003e0: cc9b a33f 4f5c 9b3f cded 983f 1818 8d3f
000003f0: 0828 7d3f 4e78 813f 7ca0 963f 36b8 a03f

bias f4 [256]
0.060604993 0.26879373 -0.062996276 -0.06292511 0.2587211 0.34465912 0.108463995 0.27183956
-0.07416628 -0.019233365 0.33608192 0.112428255 0.2050492 0.36899072 0.26650745 0.23051734
0.1304396 0.013794849 0.38059402 0.26493385 0.25376976 0.28054404 0.15730564 0.2808752
0.31530282 -0.034062356 0.32128462 -0.013528522 0.30331507 0.34989315 0.34276757 0.013750013
-0.05374298 0.3432251 0.11465971 0.34211677 -0.010257325 0.30121002 -0.010228699 0.34457374
-0.10509303 -0.32985148 0.02070762 0.32948026 0.05753667 -0.027777825 0.19955355 -0.06436903
0.24074808 -0.084091455 0.39841586 0.02398156 0.16934894 0.054973222 0.245773 0.37768435
0.2642487 -0.009846957 -0.16280183 -0.485207 -0.03259094 0.40745592 0.28179094 0.41289467
0.27348906 0.37248713 0.0019221547 -0.025338175 0.061827857 0.26654854 -0.05905563 0.18791428
-0.13534234 -0.012199249 0.4914597 0.077970915 0.2644957 0.2973223 0.2837094 0.1676172
0.20254576 0.045794837 0.23416524 -0.04237612 0.012652726 0.16603115 -0.036336727 -0.07643144
0.15085259 0.24867803 -0.051142544 0.2554718 0.34913948 -0.17637621 0.28688362 0.37589577
0.050082024 0.36646357 0.011153708 -0.06373851 0.44636992 0.08340973 0.22309253 0.052134253
0.016313205 0.14541195 0.15535946 0.35097924 -0.002020856 0.2066916 0.15984847 0.13993138
-0.13294253 -0.071611986 0.3054171 0.2092906 0.078018054 0.3293201 -0.1144505 -0.28886387
-0.1037128 0.3426769 0.18958677 0.23192692 0.29065552 0.3419116 -0.14210732 0.34191
-0.15846084 -0.1492903 -0.02630744 -0.05376723 0.21408945 0.3060138 0.23898834 0.22073476
0.10035043 0.1567332 0.2802337 -0.33558592 0.09169531 -0.052196875 0.2503854 -0.028633788
0.2208731 0.22507377 -0.14093016 0.27277672 -0.08087095 0.03438694 0.1560805 0.23431233
-0.056110308 -0.027653953 0.32548434 0.28272134 0.31720266 -0.0956642 -0.06605587 0.30431715
0.3433354 0.0334058 0.4333992 -0.044505235 -0.10585516 -0.12033451 0.40767753 -0.067884095
0.07299503 0.113325454 0.29600868 0.38468057 0.30637303 0.08541306 0.10885024 0.18042618
0.32830516 0.19633245 0.30000666 0.13476056 -0.065128885 0.030537272 0.30047446 0.39021695
0.39347628 -0.015765999 -0.034767497 0.28831488 0.0688894 0.25902504 0.14934123 0.19370328
0.20296098 0.30762032 -0.049820725 0.39075547 -0.067214616 -0.11268292 0.33948535 0.38150483
0.24161609 0.0045230435 -0.12427121 -0.18563186 0.08825962 0.059485894 0.31506842 0.3409847
0.12630911 -0.06766836 0.14131401 0.30784255 0.33922487 -0.12409722 0.29883054 0.44590497
0.14486945 0.097556666 0.2846428 0.11446459 0.08751025 0.06754952 -0.3811282 0.15168026
0.017783718 -0.13106094 0.36542207 -0.1411913 0.2019843 0.4040072 0.40847486 -0.013040658
-0.09056518 0.33034548 -0.024006398 0.04510761 0.03882403 0.29077873 0.36547235 0.36282548
-0.019891186 0.018982982 -0.0069976035 0.11661761 0.08778496 -0.048987053 0.14936136 -0.08545015
0.3626502 0.28574955 0.0717406 0.30964652 -0.17565925 -0.0048602764 0.34537852 0.25230002
00000000: f13c 783d 559f 893e 3104 81bd e1de 80bd
00000010: 1877 843e 2977 b03e 5f22 de3d 8e2e 8b3e
00000020: 7ee4 97bd 4a8f 9dbc ee12 ac3e c940 e63d
00000030: 6bf8 513e 5aec bc3e aa73 883e bd0c 6c3e
00000040: f591 053e ca03 623c 38dd c23e 69a5 873e
00000050: 1cee 813e 78a3 8f3e bb14 213e e0ce 8f3e
00000060: 5f6f a13e f884 0bbd 6b7f a43e bca6 5dbc
00000070: 1d4c 9b3e 3225 b33e 3b7f af3e bc47 613c
00000080: 9921 5cbd 33bb af3e b6d2 ea3d ee29 af3e
00000090: 570e 28bc 3338 9a3e 4696 27bc f86b b03e
000000a0: 043b d7bd 4be2 a8be 07a3 a93c a3b1 a83e
000000b0: 92ab 6b3d 528e e3bc c457 4c3e e9d3 83bd
000000c0: aa86 763e 2438 acbd 2afd cb3e fa74 c43c
000000d0: cf69 2d3e 9a2b 613d ebab 7b3e d85f c13e
000000e0: 9b4b 873e 2255 21bc 86b5 26be 0d6d f8be
000000f0: 147e 05bd 109e d03e e746 903e ee66 d33e
00000100: c206 8c3e a2b6 be3e cff0 fb3a 0192 cfbc
00000110: 353f 7d3d 0d79 883e 51e4 71bd 9a6c 403e
00000120: 2f97 0abe 5cdf 47bc 9ba0 fb3e 37af 9f3d
00000130: fb6b 873e a13a 983e 5c42 913e d8a3 2b3e
00000140: 2868 4f3e 5e93 3b3d 03c9 6f3e 9592 2dbd
00000150: 614d 4f3c 1204 2a3e d2d5 14bd 1688 9cbd
00000160: 1a79 1a3e 74a5 7e3e d87a 51bd 33cd 823e
00000170: 69c2 b23e f79b 34be 69e2 923e 6975 c03e
00000180: cf22 4d3d 1da1 bb3e 0bbe 363c 5689 82bd
00000190: 998a e43e b8d2 aa3d 5e72 643e ba8a 553d
000001a0: 45a3 853c dfe6 143e 8d16 1f3e 8db3 b33e
000001b0: 5670 04bb f6a6 533e 51af 233e 2c4a 0f3e
000001c0: 1622 08be 4ea9 92bd a15f 9c3e 4650 563e
000001d0: eec7 9f3d a59c a83e 0665 eabd f7e5 93be
000001e0: 6067 d4bd 5973 af3e 0923 423e 407e 6d3e
000001f0: cdd0 943e 0a0f af3e 9584 11be d40e af3e
00000200: 8f43 22be 8edf 18be b382 d7bc 073b 5cbd
00000210: 443a 5b3e d7ad 9c3e 5cb9 743e 4b08 623e
00000220: 8784 cd3d ab7e 203e cb7a 8f3e ebd1 abbe
00000230: c0ca bb3d 64cc 55bd 8432 803e 6891 eabc
00000240: 8f2c 623e bd79 663e ff4f 10be 64a9 8b3e
00000250: ab9f a5bd 52d9 0c3d 91d3 1f3e 92ef 6f3e
00000260: ecd3 65bd 8b8a e2bc e2a5 a63e dac0 903e
00000270: 6368 a23e 98eb c3bd 4d48 87bd 75cf 9b3e
00000280: a8c9 af3e 85d4 083d 80e6 dd3e 1f4b 36bd
00000290: 97ca d8bd f171 f6bd 1cbb d03e d106 8bbd
000002a0: 6b7e 953d 2d17 e83d 738e 973e daf4 c43e
000002b0: eddc 9c3e 0bed ae3d e0ec de3d a4c1 383e
000002c0: 9d17 a83e 600b 493e 799a 993e acfe 093e
000002d0: 4b62 85bd 4d29 fa3c cad7 993e 84ca c73e
000002e0: b975 c93e b227 81bc 5d68 0ebd 029e 933e
000002f0: e315 8d3d ee9e 843e e8ec 183e 275a 463e
00000300: 01d5 4f3e 6980 9d3e d110 4cbd 1a11 c83e
00000310: d1a7 89bd 4ec6 e6bd 06d1 ad3e 9a54 c33e
00000320: 356a 773e 0a36 943b e781 febd 4716 3ebe
00000330: 76c1 b43d 7ba7 733d a650 a13e 8c95 ae3e
00000340: 2d57 013e b695 8abd 9fb4 103e 8a9d 9d3e
00000350: e2ae ad3e af26 febd 5100 993e a84d e43e
00000360: a858 143e cacb c73d b3bc 913e 696c ea3d
00000370: 9338 b33d 6757 8a3d 3c23 c3be 1252 1b3e
00000380: 29af 913c d734 06be 9a18 bb3e 7494 10be
00000390: f9d4 4e3e 08da ce3e 9e23 d13e 7ca8 55bc
000003a0: 3d7a b9bd 0b23 a93e 11a9 c4bc c2c2 383d
000003b0: f205 1f3d f3e0 943e 311f bb3e 43c4 b93e
000003c0: d7f2 a2bc 3382 9b3c 274c e5bb 37d5 ee3d
000003d0: 9ac8 b33d a6a6 48bd 2ff2 183e 7d00 afbd
000003e0: 49ad b93e c44d 923e bcec 923d fd89 9e3e
000003f0: 05e0 33be f442 9fbb 74d5 b03e 782d 813e

running_mean f4 [256]
0.30790406 0.37845367 0.016984846 0.0022920237 0.74812686 0.68312067 0.80596787 0.2689758
0.019227913 0.18875654 0.69976926 0.2331433 0.097264156 1.1385535 0.784466 0.13587424
0.14042166 0.00038127077 0.22996123 0.108618915 0.52581596 0.087238185 0.04279722 0.34209976
0.17336705 0.6194798 0.31559786 0.18002456 0.32884172 0.22009958 0.2614418 0.019213382
0.055231713 0.43157566 0.07487117 0.55508536 0.8742565 0.6418632 0.027782014 0.9660014
0.064648405 0.08940654 0.5551302 0.82862544 0.20959008 0.88866466 0.02195656 2.49477e-06
0.48473042 0.09839397 1.130624 0.030312909 0.4071703 0.04828093 0.68785524 0.63875806
0.662565 7.780445e-27 0.0018131525 0.098642 0.17546834 0.26456097 0.22055672 1.4959121
0.6464397 0.9445371 0.18928677 0.0054019713 0.101836845 0.29729623 0.019191993 0.07374402
0.04235476 0.011069153 0.5954363 0.022896398 0.43637937 0.013155286 0.473091 0.21281748
0.79847723 0.030383956 0.26691046 0.11921351 0.020294098 0.17901926 0.0015653615 0.11161259
0.37083477 0.39990205 0.0021160517 1.1691643 0.9728455 0.039934948 0.5130802 0.32669032
0.42687055 0.8601327 0.068198085 4.3718783e-06 0.97110337 0.5935297 0.94616246 0.46360284
0.27194905 0.15610386 0.15671495 0.31648085 0.13947488 0.61618894 0.52531254 0.037498016
0.002852624 0.02619855 0.57396585 0.12953816 0.033702258 0.23982678 0.07544959 0.112628296
0.45834556 0.5333994 0.25836593 0.12484226 0.3790047 0.71615064 0.042086244 0.20921263
0.04191044 0.056637302 0.062101036 0.5741035 0.45406997 0.4504558 0.60298765 0.3120505
0.033325333 0.91232115 0.70560443 0.122845896 0.30242923 7.0241067e-06 0.21387124 0.01660127
0.07375197 0.46945632 1.3137607e-27 0.09204159 0.028320374 0.75101733 0.035771012 0.47369236
6.715756e-26 0.00011176679 0.27024218 0.9529806 0.26830938 0.014663057 0.0045595686 0.28413138
0.85192955 0.024294078 1.4254949 0.078606874 0.027678777 0.0381158 1.1910646 1.9714288e-09
0.1979084 0.09886538 0.43725285 0.36494634 0.35586104 0.6783352 0.015831973 0.095184155
0.6948732 0.15457918 0.75447357 0.4300847 0.0383687 0.0059633194 0.18916151 1.0809554
0.25299916 0.70470554 0.23248798 1.0299944 0.20931065 0.60953254 0.10093375 0.025225947
0.38670683 0.18150008 0.0014652008 0.9380788 0.010460061 0.019719625 1.4201684 0.667032
0.58571726 0.40256596 0.00026893461 0.025704626 1.0195495 0.33669388 0.750451 0.9418111
0.21598761 0.02634919 0.12702473 0.45731804 0.3846918 0.033584043 0.3783734 0.77544475
0.11093117 0.18849652 0.6809246 0.039101854 0.71965325 0.16638607 0.08371131 0.68490297
0.20840332 0.0036838313 0.36384878 0.070857726 0.038038954 0.8312898 0.91331404 0.5671898
0.046944607 0.8472972 0.032296676 0.05486412 0.15704432 0.82509786 0.8758616 1.0443301
0.12048201 0.70178556 0.009648273 0.02257081 0.008021385 8.8622827e-13 0.513956 0.031925652
0.5942397 0.26553094 0.72998005 0.14660966 0.07736451 0.03182076 0.48909432 0.19188562
00000000: 9aa5 9d3e aec4 c13e ce23 8b3c c735 163b
00000010: 3e85 3f3f ffe0 2e3f e953 4e3f 32b7 893e
00000020: db83 9d3c 6549 413e 1424 333f 1ebd 6e3e
00000030: 6e32 c73d 1fbc 913f c4d2 483f 9e22 0b3e
00000040: b2ca 0f3e 4ce5 c739 f57a 6b3e 9873 de3d
00000050: e09b 063f efa9 b23d 234c 2f3d b327 af3e
00000060: 2287 313e 3a96 1e3f 0b96 a13e 5c58 383e
00000070: f15d a83e c961 613e b3db 853e 6265 9d3c
00000080: a63a 623d 7cf7 dc3e 0e56 993d 131a 0e3f
00000090: 46cf 5f3f 2651 243f 1b97 e33c de4b 773f
000000a0: 6266 843d c71a b73d 031d 0e3f cc20 543f
000000b0: c89e 563e 877f 633f 3ede b33c d26b 2736
000000c0: 962e f83e c782 c93d 4ab8 903f c752 f83c
000000d0: a078 d03e 39c2 453d 4817 303f a685 233f
000000e0: dc9d 293f 8b1b 1a14 4da7 ed3a d104 ca3d
000000f0: f9ad 333e 8974 873e 9fd9 613e 0c7a bf3f
00000100: 127d 253f 2fcd 713f 64d4 413e 0503 b13b
00000110: d68f d03d 3637 983e 8738 9d3c 1b07 973d
00000120: 2f7c 2d3d 655b 353c 836e 183f 3a91 bb3c
00000130: 1e6d df3e 4589 573c fc38 f23e d3ec 593e
00000140: 0169 4c3f c6e7 f83c 7da8 883e 3626 f43d
00000150: cf3f a63c d350 373e d12c cd3a 2495 e43d
00000160: 0ede bd3e f6bf cc3e 75ad 0a3b 2da7 953f
00000170: 670c 793f d492 233d 3959 033f f443 a73e
00000180: c78e da3e a831 5c3f 70ab 8b3d 26b2 9236
00000190: 3b9a 783f 90f1 173f b437 723f 5a5d ed3e
000001a0: e83c 8b3e b1d9 1f3e e279 203e c709 a23e
000001b0: 81d2 0e3e 8fbe 1d3f e27a 063f 8597 193d
000001c0: 17f3 3a3b 579e d63c 6def 123f a7a5 043e
000001d0: 610b 0a3d 2795 753e 5185 9a3d aaa9 e63d
000001e0: 45ac ea3e dd8c 083f 8a48 843e 4cad ff3d
000001f0: e70c c23e a655 373f a062 2c3d d63b 563e
00000200: 48aa 2b3d 84fc 673d a85d 7e3d 72f8 123f
00000210: dc7b e83e 25a2 e63e 665d 1a3f 15c5 9f3e
00000220: 2580 083d e18d 693f 7ea2 343f a196 fb3d
00000230: 01d8 9a3e 9eb0 eb36 1001 5b3e 63ff 873c
00000240: 460b 973d 945c f03e 772c d012 4d80 bc3d
00000250: 2100 e83c ac42 403f a084 123d ce87 f23e
00000260: 2946 a615 5764 ea38 2f5d 8a3e 89f6 733f
00000270: d95f 893e 523d 703c 6f68 953b ab79 913e
00000280: 0e18 5a3f 6004 c73c 9e76 b63f a4fc a03d
00000290: 9abe e23c 501f 1c3d ce74 983f be79 0731
000002a0: 80a8 4a3e ef79 ca3d 9bdf df3e 3fda ba3e
000002b0: 6b33 b63e 60a7 2d3f 0eb2 813c e9ef c23d
000002c0: 36e3 313f 014a 1e3e 2e25 413f 1034 dc3e
000002d0: 7f28 1d3d f367 c33b 8eb3 413e bf5c 8a3f
000002e0: 1b89 813e 9567 343f 5411 6e3e dbd6 833f
000002f0: 8855 563e 530a 1c3f 5bb6 ce3d a5a6 ce3c
00000300: 70fe c53e 28db 393e fb0b c03a ef25 703f
00000310: ad60 2b3c 0d8b a13c 14c8 b53f 9cc2 2a3f
00000320: 91f1 153f 201d ce3e cbff 8c39 8292 d23c
00000330: 9980 823f 2463 ac3e 8f1d 403f 881a 713f
00000340: db2b 5d3e 42da d73c c512 023e 9725 ea3e
00000350: 53f6 c43e 6c8f 093d 29ba c13e 8c83 463f
00000360: e22f e33d 3b05 413e 1351 2e3f 4429 203d
00000370: 323b 383f 1c61 2a3e d670 ab3d cd55 2f3f
00000380: ae67 553e 6f6c 713b 634a ba3e db1d 913d
00000390: bcce 1b3d 69cf 543f f3ce 693f 5a33 113f
000003a0: fd48 403d 78e8 583f 8549 043d 33b9 603d
000003b0: 3ad0 203e 9d39 533f 7738 603f 9cac 853f
000003c0: 46bf f63d 38a8 333f ca13 1e3c 6be6 b83c
000003d0: 216c 033c 7a73 792b 9f92 033f 79c4 023d
000003e0: 1820 183f acf3 873e f9df 3a3f d820 163e
000003f0: 4971 9e3d 7c56 023d 926a fa3e aa7d 443e
