Best_models/wisdm_CNN_20210122_212207/CNN_wisdm_Rep_1_Seed_387.pt (torch_old, 224391 bytes, 12 tensors)

weight f4 [64, 6, 3]
000000 e7 1d dc bd 4a 85 c0 3d 35 ee 81 3d 41 bd 8d 3c
       -0.10747891 0.09400423 0.063442625 0.017302157
000010 4e da 32 bd e5 22 c3 3d f5 40 36 be f8 a4 4b be
       -0.043665223 0.0952814 -0.17798217 -0.1988715
000020 8d d5 c6 bc 96 5d ac be 5f 2d 13 bd 4c 8c b2 3e
       -0.02427175 -0.3366515 -0.03593194 0.34872663
000030 9c 81 d2 bd 9c e1 b6 bc a6 99 9c be 3f 8a 67 3e
       -0.10278627 -0.022324376 -0.30585974 0.2261133
000040 2a 5d 05 3e e5 4b c6 be 42 67 0b 3d 49 17 a9 3c
       0.1302382 -0.38729778 0.03403402 0.020640986
000050 34 67 33 3e 01 79 97 3b c5 4b a4 bd 0c 41 ea bd
       0.17519838 0.004622579 -0.080222644 -0.11438188
000060 6d 87 3a 3d 71 7e 87 3d 3d 0c 37 3e c1 53 42 3e
       0.04553931 0.06615914 0.17875762 0.18977262
000070 ed 33 e8 be 87 34 bc bd 8a 4d 92 be e4 7c e3 bd
       -0.45352116 -0.09189706 -0.28574783 -0.11107805
000080 da f2 4b 3e 69 d1 e8 3e ef c8 ec be 18 5e 89 be
       0.1991686 0.45472267 -0.4624705 -0.268296
000090 73 f6 07 3e 0d 59 b8 bc d1 a3 a2 be f1 8b c1 be
       0.13277607 -0.0225034 -0.31765607 -0.3780208
0000a0 29 e9 c6 3d ec 3e 71 3f 7d 9c a1 be 93 10 89 3e
       0.097124405 0.94236636 -0.31564704 0.26770458
0000b0 e4 88 06 3e 2a b0 8c be 9f 0a 9f 3c 07 0d 5d 3e
       0.13138157 -0.27478153 0.019414244 0.21587001
0000c0 5d 66 cd bc 38 94 be 3e e3 b4 5d be f5 52 c0 be
       -0.025073225 0.37222457 -0.21651034 -0.3756329
0000d0 54 e6 5f 3e 4d 2a 1c be 1a a4 05 3d 43 b4 c9 bd
       0.21865207 -0.15250511 0.032627203 -0.09848835
0000e0 6e be 35 3d 60 20 d8 3c 99 c3 cb bd fe 3e fb 3d
       0.04437106 0.026382625 -0.09949417 0.12267874
0000f0 ec ac ae 3e d0 c0 87 3d 4f fb f9 3d 50 01 4f be
       0.34116304 0.06628573 0.122061364 -0.20215344
000100 62 1d 16 3e b3 fd a4 3e 7d e9 e2 3d 46 37 0b 3f
       0.14659646 0.32224807 0.110796906 0.54381216
000110 0d 4c 12 bf 22 b6 d4 3d 1e 74 42 bf 8d 65 3e 3f
       -0.57147294 0.103863016 -0.7595843 0.74373704
000120 63 f7 6c 3e b0 4a d2 3d cd 53 23 bc 8b ee 8c bc
       0.23141246 0.10268152 -0.00996871 -0.01720359
000130 46 b6 0e 3e cb cd b7 3d 08 0b 36 3d f3 3e 88 3e
       0.1393672 0.08974799 0.044444114 0.26610526
000140 f1 99 71 3d 39 54 e5 bd 4e 87 6c be f6 93 59 3e
       0.0589847 -0.11197705 -0.2309849 0.21247849
000150 9c 1d f1 bd 43 aa e0 bc ac 5a d6 3e a7 55 28 3f
       -0.11773226 -0.027424937 0.41866052 0.65755695
000160 6d 0d 95 3e cf 0c fb 3e c0 4f 0e be 98 b6 98 bd
       0.29111806 0.4903321 -0.1389761 -0.07456702
000170 ff 5e 29 3f fb d3 cb 3d 54 bb 98 3c a6 73 f8 bd
       0.6616058 0.099525414 0.018644013 -0.12131433
000180 1e 5f 18 3c e8 eb db 3d ee 9e 01 be c8 35 18 bd
       0.009300021 0.10738355 -0.12658283 -0.037160665
000190 72 86 f6 be f6 14 06 3f 90 27 73 3e e0 06 e8 bc
       -0.4814945 0.52375734 0.2374556 -0.02832359
0001a0 02 03 1d bf 26 d8 6a 3d 3f 8b 0c 3f 37 d1 90 bd
       -0.61332715 0.05733504 0.5489997 -0.070711546
0001b0 33 10 67 be 42 10 b1 bc 7a 53 13 be 49 81 8a bd
       -0.22564773 -0.021614198 -0.14387313 -0.067629404
0001c0 aa 2b 92 3d 1e 49 90 be e6 be 8a be 4d 9d 65 3d
       0.071372345 -0.28180784 -0.2709877 0.056058217
0001d0 50 d5 04 bd ed 3e 87 bd 1a 58 05 be fa 3b b6 3d
       -0.032429993 -0.06603799 -0.1302189 0.08898158
0001e0 27 a9 27 bf ba ec 30 3f 8c 22 f1 bc 43 01 af 3e
       -0.6549248 0.69111216 -0.029435419 0.3418065
0001f0 91 a1 a2 3e 8a de cd be a6 e4 e8 bd 00 6a 21 be
       0.3176389 -0.40208846 -0.11371736 -0.15763092
000200 0b 96 94 bd 67 b1 32 be 96 7c 73 3c dc 59 be 3c
       -0.07255181 -0.17450486 0.014861247 0.023236208
000210 68 b2 68 3e 7b ea 26 be e1 62 16 3d 1a f7 d3 3e
       0.22724307 -0.16300385 0.036715392 0.4139946
000220 56 f5 ea 3a e4 71 54 be 17 70 9e 3e 81 9d 01 3f
       0.0017925899 -0.20746571 0.30944893 0.50630957
000230 c1 38 09 bf 34 5b ba be 5e 38 ed 3e 4d b7 98 3e
       -0.53602225 -0.36397707 0.46332067 0.29827347
000240 66 14 be ba df 75 80 be 54 53 64 be 98 1f 20 bf
       -0.0014501929 -0.25089929 -0.22297412 -0.6254821
000250 4c 7f 2a be 0a fb 82 3e 55 40 aa 3e 42 0c 5f 3e
       -0.16650122 0.25582153 0.33252206 0.2178202
000260 42 14 8a be 6e b0 84 be 63 a6 11 3e 8f 1f 70 be
       -0.2696858 -0.25915855 0.14223628 -0.23449539
000270 6b 8f 0a 3f 1d c6 02 be 92 ae 9b 3e 99 e5 00 bc
       0.5412509 -0.12770887 0.30406624 -0.00786724
000280 dc e2 2b 3b 4a 9d 3c 3e 74 46 73 be 3e 23 90 be
       0.0026227748 0.18419376 -0.23757344 -0.28151888
000290 0a 8a ac bd 69 a8 5f 3e 2c 1e 35 be df e6 01 bf
       -0.08424766 0.21841587 -0.17687291 -0.50742906
0002a0 e8 14 50 3e 51 b4 aa bd 06 22 33 be 78 a3 b6 3d
       0.20320475 -0.08335174 -0.17493448 0.08917898
0002b0 84 48 a4 be 2e 64 d1 be 4d ad b4 be bd 26 e4 be
       -0.32086575 -0.40896744 -0.35288468 -0.44560805
0002c0 4e 93 cc 3e 0a 15 ae be 80 77 d0 3d b2 79 93 be
       0.39956135 -0.34000427 0.10179043 -0.28803784
0002d0 3a 9b b2 be da af 3b 3d b4 9a 0f 3d a4 5a 03 3e
       -0.34884053 0.045822002 0.035059646 0.12827545
0002e0 b6 a2 63 3e 0a d9 58 3b 73 3b 64 3d f7 72 e0 3c
       0.22230038 0.003308835 0.055720758 0.02739857
0002f0 e7 15 be bd f3 97 a7 be 95 70 eb be 58 e7 e5 be
       -0.09281521 -0.32733116 -0.4598433 -0.44903064
000300 c7 ce 39 3e 59 0f 5a 3d 30 3a bd 3e 0f a1 19 be
       0.18145286 0.053237293 0.36958456 -0.15002845
000310 54 78 75 be 76 2e a5 be 80 d0 cf bc 42 57 ad bd
       -0.23971683 -0.3226201 -0.025367975 -0.08463909
000320 ef 16 18 bd c2 58 a2 be 87 88 b1 3d a5 c8 97 3e
       -0.037131246 -0.31708342 0.08668619 0.29645267
000330 84 53 8a be a9 2f 01 3e 1b 75 a6 3e e6 4d 0d 3f
       -0.27016842 0.12615837 0.3251122 0.5519699
000340 e5 4d 10 3d f4 32 82 3d c4 37 ba 3e 1a e0 10 bf
       0.035230536 0.06357375 0.3637067 -0.5659195
000350 7f 22 b8 3e 62 73 f4 bd f0 50 69 3e 93 16 f0 bd
       0.35963818 -0.1193607 0.22784781 -0.11723056
000360 1b 00 e5 bd 94 0c d3 bc 81 d4 72 3d f8 90 ed 3c
       -0.11181661 -0.025762834 0.05928469 0.02899979
000370 80 dc 1d 3d 22 87 8d 3d de e7 07 3d d9 2c 55 bd
       0.038540363 0.0691054 0.03318011 -0.052044723
000380 e9 8b d6 bc e2 f4 2f 3d a6 c5 b8 3e 3e e0 75 be
       -0.026189761 0.042958148 0.36088294 -0.24011323
000390 da 4f 9d 3e 11 f2 7f 3e f9 6b 02 3f ff 0b 5a be
       0.30724984 0.24994685 0.50946003 -0.21293639
0003a0 09 77 98 3e 79 fe b6 bd 4b 51 a7 be ae b1 0e 3e
       0.29778317 -0.089352556 -0.3267921 0.13934967
0003b0 f7 d4 9a 3c ac 0f 52 be 2e 59 de bb 1d e3 53 be
       0.018900378 -0.20513791 -0.0067855334 -0.20692106
0003c0 e7 7f 37 be 2e 01 c1 ba b6 56 9f 3d e4 ea 45 be
       -0.17919885 -0.0014725083 0.07780211 -0.19327885
0003d0 c4 74 80 be 79 2c a3 bd bd 8e 20 be 90 05 1a bf
       -0.25089085 -0.07967467 -0.1567945 -0.6016474
0003e0 70 67 90 3e b6 25 d6 be 67 9f 95 bd b1 d4 90 3e
       0.28203917 -0.41825646 -0.07305794 0.2828727
0003f0 36 4a 9c 3e 3c 09 38 3e 6f f5 b6 be 88 1c 95 3c
       0.30525368 0.17972273 -0.35734126 0.018202081

bias f4 [64]
000000 f8 06 c5 3d de d0 46 be f8 02 24 bf 65 23 17 bf
       0.0962047 -0.19415614 -0.6406703 -0.5903838
000010 e7 55 94 bf 7d bf 61 bf ff 62 38 bf a5 95 23 bf
       -1.1588715 -0.8818281 -0.72026056 -0.63900214
000020 b0 48 e7 be aa 87 9a bf 3a 12 6f bf 8c 40 01 bf
       -0.45172644 -1.2072651 -0.93387187 -0.50489116
000030 13 0c 91 be 68 94 86 bf 6a f3 1e bf 22 73 89 bc
       -0.28329524 -1.051404 -0.6209017 -0.016778532
000040 f6 77 19 be b6 00 12 bf 15 30 19 bf 7f cd 2e bf
       -0.14987168 -0.57032335 -0.5983899 -0.6828231
000050 80 f8 d7 be 29 70 77 3d fb 8e 9d be 8e 3f b1 be
       -0.42181778 0.0604097 -0.30773148 -0.346188
000060 df 76 0d be 37 d1 92 bf f2 c6 97 bf 6f dc 3b bf
       -0.13814877 -1.1470097 -1.1857588 -0.7338323
000070 74 2e 45 bf a4 a6 b5 be 45 83 80 bf 5d 7c 2e bf
       -0.77024007 -0.354787 -1.004006 -0.68158513
000080 a3 49 30 bf 36 70 25 bf fe 4a 05 bf cd 99 53 be
       -0.6886236 -0.64624345 -0.52067554 -0.20664139
000090 17 86 76 be dc 51 88 be 01 ac d4 be dd 60 fb be
       -0.24074589 -0.26624954 -0.4153748 -0.49097338
0000a0 e0 b4 d0 be 73 8a 03 bf 55 7c 34 bf 00 cc 18 bf
       -0.40762997 -0.5138313 -0.70502216 -0.5968628
0000b0 b3 35 4b bf 6b 56 b1 3d 38 c5 43 be fe 8a f2 be
       -0.79378814 0.08659061 -0.19118202 -0.47371668
0000c0 fc f2 18 bf f0 57 8c bf e6 6d b0 be cf d2 0e be
       -0.59745765 -1.0964336 -0.34458846 -0.13947605
0000d0 f8 3b 1c bf cd 1c 0c bf 31 a5 0b bf db 1e 10 bf
       -0.61029005 -0.54731447 -0.5454894 -0.5629708
0000e0 e2 57 a6 bf 8e 4e 14 bf ea 1d 92 bf fc a5 26 bf
       -1.299557 -0.57932365 -1.1415379 -0.6509702
0000f0 fd cc ea bd 45 19 69 bf 53 6d ea be db 90 5a be
       -0.1146488 -0.91054183 -0.45786533 -0.2134432

weight f4 [64, 64, 3]
000000 b1 da 99 bb eb 2d 16 bd 8c 4a 97 be dc 1e 58 be
       -0.0046952595 -0.036664885 -0.29549062 -0.21105522
000010 c1 d0 27 be 51 f8 cb bd 13 bd 42 bf 7d 5c 08 be
       -0.16388227 -0.09959472 -0.76069754 -0.13316531
000020 cc 99 07 3e 62 f2 87 be d3 98 7f be 71 46 b6 bd
       0.13242263 -0.2655211 -0.24960642 -0.089001544
000030 39 cc c0 be 9e f6 aa be 87 fe 18 3e bf 06 f4 3d
       -0.3765581 -0.3339128 0.14940844 0.11915349
000040 5b 3e 72 3d 68 39 7f bd 49 49 0c be 3c 65 92 be
       0.059141498 -0.062310606 -0.13699831 -0.2859286
000050 1a c5 6f 3e df 9a 61 3d 82 9d 92 be 60 01 eb be
       0.23415032 0.055079337 -0.28635794 -0.45899487
000060 46 3b 34 3e d4 46 1b 3e 8b a7 a0 3e 47 e2 87 be
       0.17600736 0.15163738 0.31377825 -0.26539823
000070 21 a6 a7 3d 1f 47 69 be 38 0c 36 bf 64 29 cc be
       0.081859834 -0.22781037 -0.71112394 -0.3987533
000080 00 70 86 3e 0f fb 00 be 70 b8 a7 3e bc ec 4b 3d
       0.26257324 -0.12595771 0.32757902 0.049786314
000090 e1 13 b3 bd be 3f 9f bd 30 91 ab bd 23 df 89 3e
       -0.08744026 -0.0777583 -0.08377302 0.26928052
0000a0 95 5a 00 3e 71 dd 0a 3f 7f ed 9b be 80 69 16 bd
       0.12534554 0.5424414 -0.30454633 -0.036721706
0000b0 f5 df 3b be 2a 9d 5c 3e 6c ec 66 bc 0f 8e 63 be
       -0.18347152 0.21544328 -0.014094453 -0.2222216
0000c0 47 8d 03 3e 99 ba 53 be e9 9b 10 bf ba 25 71 3e
       0.12846862 -0.2067665 -0.564879 0.23549548
0000d0 7c 90 ec bd 8c 07 33 3e 75 ed ac 3e 81 c2 51 bd
       -0.11550996 0.17483348 0.33774915 -0.051210884
0000e0 48 66 46 3e ed af 80 be e8 24 8f be 1b ea b3 3e
       0.19374955 -0.2513422 -0.27957845 0.35139546
0000f0 d6 3a ed 3d 17 a4 a3 3e 8c 79 7a 3e 58 7c cd 3d
       0.11583488 0.31961128 0.24460429 0.10033482
000100 62 d7 58 be de 13 69 be c5 04 1c be 3e d4 31 be
       -0.21175912 -0.22761485 -0.15236194 -0.1736612
000110 3e 16 d4 bd 00 4f f2 bc d4 ae fe 3d d1 35 b2 be
       -0.10355805 -0.029578686 0.124356896 -0.34806684
000120 11 b6 94 be 64 03 9a 3c 53 dc 01 be a5 88 22 3d
       -0.29045156 0.018800445 -0.12681703 0.039681096
000130 06 ff e8 be b3 29 f8 3e f5 ed bd be d8 51 0a bf
       -0.45507067 0.48469314 -0.3709561 -0.54031134
000140 a5 ad ca be fe 11 e1 bd ab 79 e6 3b ee 46 54 bc
       -0.39585605 -0.1098976 0.007033547 -0.012956364
000150 83 98 8d be 69 59 1e 3e ed 85 e5 bd 9a 16 ec bd
       -0.2765542 0.15463795 -0.11207185 -0.115277484
000160 30 a5 c4 3e 86 06 b6 bd 58 e1 c0 3e 7d 8c 72 3d
       0.38407278 -0.08887963 0.37671924 0.05921601
000170 be c6 d7 be 14 2c 16 bf 71 36 4f be bf 4e 89 3e
       -0.42143816 -0.5866101 -0.20235611 0.2681789
000180 d1 fd 02 3e 07 40 64 3d 33 78 22 3e 92 0c bd be
       0.12792136 0.055725124 0.15866165 -0.36923653
000190 32 79 e5 3c 6b 2c ed bd c6 21 c2 3d b8 66 04 3e
       0.028011892 -0.11580738 0.09479098 0.12929809
0001a0 36 1f c3 3e f4 c6 61 3e 2e 2c ed 3d aa ac 65 be
       0.3810975 0.22048551 0.11580692 -0.22429147
0001b0 be 80 7f 3e a8 ca 79 be d6 13 eb 3d bd 15 b7 3d
       0.24951455 -0.24393713 0.11478393 0.08939693
0001c0 07 19 89 be f7 06 10 3e 8b 56 e7 3c a9 4d b8 bd
       -0.26776907 0.14065157 0.02823951 -0.089991875
0001d0 9f ca ea 3b 33 17 60 bf e8 0a c9 be 32 89 bd 3d
       0.0071652676 -0.875354 -0.39266133 0.092546836
0001e0 99 78 10 bf 08 01 d1 3e da a4 4b 3e 15 f3 f2 3e
       -0.5643402 0.408211 0.19887105 0.47451082
0001f0 6a ed 61 bd 99 77 4f 3e 34 25 87 be 83 51 e3 be
       -0.055158056 0.20260467 -0.2639557 -0.44398126
000200 d4 dd f6 3c 4b 80 16 bf ff a7 c9 3b 1b ab 8c 3e
       0.030135073 -0.5878951 0.00615406 0.27474293
000210 00 b2 5e bf b3 66 dc bc df fd 2c 3e 0f 9a 09 bf
       -0.86990356 -0.02690444 0.16893719 -0.537507
000220 92 f6 ba be 1c 61 bd 3d a8 32 38 3e 22 d9 98 be
       -0.36516243 0.09247038 0.17988074 -0.2985316
000230 5a 3d 41 3e dd b9 6a be 4a fb 0b be 00 7a f0 bd
       0.1887106 -0.22922464 -0.13670078 -0.1174202
000240 96 58 5d be 75 57 27 3e 56 4b b4 bd 2f 3a 8f bc
       -0.21615824 0.16341956 -0.08803432 -0.017483799
000250 ad 1c c0 3d f5 0b f1 3c 4f fe 02 be 7b 65 8e 3e
       0.093804695 0.029424647 -0.12792324 0.27811798
000260 f3 51 f0 3e 12 79 df 3d a4 b0 f0 bc 6b 85 55 be
       0.46937522 0.10911764 -0.029381104 -0.20851676
000270 da fe 30 3e e4 2a 00 be e7 b0 c9 bd c1 a5 93 be
       0.17284718 -0.12516361 -0.098481946 -0.28837398
000280 40 ff df 3c e6 c5 e3 bc 95 9f b0 3e 31 d0 92 3e
       0.027343392 -0.027804326 0.3449675 0.28674462
000290 8d fc 8a be bd 12 e9 3e c7 89 a1 3d 9b fe cc 3b
       -0.27145806 0.4552211 0.07887607 0.0062559373
0002a0 5d 54 f6 bd d5 e8 50 be de 99 bd 3d 3b 17 08 bd
       -0.1202781 -0.20401318 0.092578635 -0.03322528
0002b0 ff 79 64 3e a4 f7 45 3d d6 ef 67 3e b9 fa a7 3d
       0.22312163 0.04833187 0.22650084 0.082021184
0002c0 d1 12 8c 3d d6 b6 a4 be bd 67 57 3e c5 ab e4 3e
       0.068395264 -0.32170743 0.21035667 0.446623
0002d0 b3 ff 69 bf d3 d3 17 be 2f 2c 48 3e 4c 7f 84 3e
       -0.9140579 -0.14826898 0.19548105 0.2587837
0002e0 1d 08 8d bd 22 26 a9 be 46 27 80 bc dd 3b 2d 3e
       -0.06886313 -0.33036906 -0.015643727 0.16917367
0002f0 cc 83 51 3e 2b 8b 41 3e 70 a6 2b 3e dc 49 9c be
       0.20460433 0.18900745 0.1676271 -0.305251
000300 1b 07 98 3e e8 1a 28 bd d6 03 c3 3b 65 fb e5 3e
       0.2969292 -0.041041285 0.005951385 0.4491836
000310 83 ae 7b bc 77 ea da bd d5 d1 d5 3e 5e bf 31 be
       -0.015361431 -0.10689252 0.41761652 -0.17358157
000320 82 c1 01 be e3 ae c4 be 90 15 b6 bd f8 f8 98 3e
       -0.12671474 -0.38414678 -0.088908315 0.29877448
000330 85 2c 7a bd d1 10 c3 be 5a ba 18 bd a6 2a 48 be
       -0.061077613 -0.38098767 -0.037287094 -0.19547519
000340 3a e4 c5 3d 6a ee c8 bd 7e b7 72 bf 25 38 23 3e
       0.096626714 -0.09811099 -0.94811237 0.15939386
000350 45 c4 12 3e 13 b7 8b be 5c fc 2a bf 78 96 81 be
       0.14332683 -0.27288112 -0.6679132 -0.2531011
000360 15 6a b3 bf e4 6f 51 bf 76 e0 df be 22 5d 83 be
       -1.4016749 -0.81811357 -0.43725938 -0.25656992
000370 4c 91 3d 3e ce 45 25 3e 95 a0 86 bf cc 51 01 bf
       0.18512458 0.1613991 -1.0517756 -0.5051544
000380 25 56 8a bd 4d 7b a2 be 67 ac 0a bf 9a 2d ae 3d
       -0.06754712 -0.31734696 -0.54169315 0.085047916
000390 57 7b bc bd fa 86 8f bd 1d 30 b7 bc 40 14 54 be
       -0.09203213 -0.070081666 -0.02236181 -0.2071085
0003a0 5c 67 25 3e 4f d1 df 3c d2 97 f8 bd 76 48 29 3e
       0.1615271 0.027321486 -0.121383324 0.16531548
0003b0 85 8d 37 3c dd 48 c0 be 89 32 ac be 5e e1 04 bf
       0.0112031745 -0.3755559 -0.33632305 -0.51906383
0003c0 c8 ed 9c be 51 da 4b 3e 4f 92 4f 3e 9d b2 c4 3d
       -0.30650163 0.199075 0.20270656 0.0960438
0003d0 74 14 49 3e e5 10 9a 3e 4c 8b 97 be be 87 7a be
       0.19636708 0.30091015 -0.29598463 -0.24465844
0003e0 c2 77 df be a0 16 70 bf 5c 2a c4 bd e4 d4 01 be
       -0.43646055 -0.93784523 -0.09578392 -0.12678868
0003f0 2c 8a 04 bd 1f 07 c2 bc 97 f7 21 bd a6 5a cd 3d
       -0.032358333 -0.023685036 -0.03954276 0.100270554

bias f4 [64]
000000 a0 08 fe be 96 f8 0e 3d e2 fa 48 bf c9 32 7a be
       -0.49615955 0.03490504 -0.78507817 -0.24433435
000010 0b d5 b7 bf 1a a3 c1 bc 1c d5 16 3d 7c a1 9d be
       -1.436189 -0.023637343 0.03682433 -0.30787265
000020 56 57 a2 be 51 05 f0 bc 08 fd 41 bf d6 9d 33 bc
       -0.31707257 -0.02929941 -0.7577672 -0.010962924
000030 97 62 89 be e4 fe 80 bc dc c2 91 be cf 22 80 be
       -0.2683303 -0.015746541 -0.28468978 -0.25026557
000040 6d 5f 4c bf 63 3d c2 be 3e 08 69 be d9 23 43 bf
       -0.7983311 -0.3793746 -0.2275705 -0.76226574
000050 e7 43 7d bd b1 1e a7 3d b3 ed 03 bf 25 32 44 bf
       -0.061832335 0.08160151 -0.51534575 -0.76639014
000060 1d 22 bb be eb 9f 31 bd 81 9e f4 bd 59 b2 c4 be
       -0.36549464 -0.0433654 -0.11944295 -0.38417318
000070 7d cf 60 be a3 91 8d be 84 56 63 bd 2f 31 da bf
       -0.2195415 -0.27650174 -0.05550243 -1.704626
000080 2e 5d 84 bf 25 38 ab be b9 56 7e bf fd 2f 3e bf
       -1.0340936 -0.33441272 -0.9935108 -0.74291974
000090 7b 29 26 bd 49 9f 58 be 66 e3 09 bf 9c fa fd bd
       -0.040566903 -0.21154512 -0.5386261 -0.124013156
0000a0 b3 e6 76 be d8 02 9a be a0 9d 6e bf 55 fc 74 be
       -0.24111442 -0.30080295 -0.93209267 -0.23924382
0000b0 df 37 1d bf 14 10 da bd bb d1 09 be 42 c4 66 be
       -0.6141338 -0.10647598 -0.13458912 -0.22535804
0000c0 24 e5 14 bf 94 2e b7 be 1b 17 ab bd b6 a2 a2 bd
       -0.5816214 -0.35777724 -0.083540164 -0.07941191
0000d0 3e 7e 49 3d 77 e5 9a be b7 2d 28 bf a8 9f 83 be
       0.04919266 -0.30253193 -0.65694755 -0.25707746
0000e0 14 1b 6f bd 8d ed 72 be 14 45 45 be 64 8f 43 bd
       -0.058375433 -0.23723431 -0.19264632 -0.04774417
0000f0 bf ca 9a bd b8 9d 91 bf c8 dc f9 be 76 52 16 3e
       -0.07558202 -1.1376257 -0.48801255 0.14679894

weight f4 [256, 128]
000000 f2 17 e7 3d d5 50 05 bc ea 20 59 bf c8 c2 0b bf
       0.11283864 -0.008136948 -0.8481585 -0.5459409
000010 39 15 fc bd eb a0 8a 3c c7 cd 2e 3e eb 62 02 3e
       -0.123087354 0.016922435 0.17070685 0.12733047
000020 48 33 c6 be a1 0d a2 be ae 09 ea bd cf 2f 56 3d
       -0.38711 -0.31651023 -0.114276275 0.052291688
000030 df 8b ca be fe ce f2 be a0 99 a8 3d 6a 4c bf 3e
       -0.39559838 -0.47423548 0.08232427 0.37362987
000040 83 00 b2 be 85 55 e3 be 5f 4c 15 3d c8 85 14 3d
       -0.34766015 -0.44401184 0.036449786 0.036260396
000050 ae 80 1d bf 98 49 9d be 1f b5 97 3d ed 1c 3c 3e
       -0.61524475 -0.3072021 0.07407593 0.1837041
000060 77 55 fa be 64 30 12 bf 75 07 5e bf ac 18 19 bf
       -0.4889333 -0.5710509 -0.8673013 -0.5980327
000070 8b 22 da be 92 f9 35 bf 5c 8d c2 3e d5 db d9 3d
       -0.4260448 -0.7108394 0.37998474 0.10637633
000080 47 1d e3 be 30 9c 84 be ae ea 0a 3d cd a8 55 bd
       -0.44358274 -0.25900412 0.033915214 -0.052162934
000090 98 94 92 be a4 48 8a be fd 36 60 be c0 74 aa be
       -0.28628993 -0.27008545 -0.21895976 -0.33292198
0000a0 01 2f 7d 3e 8e d7 21 3e 71 9c 4c 3e b7 9e 5f 3c
       0.24724962 0.15804884 0.19981553 0.01364868
0000b0 27 a4 fc 3d fe 62 71 3e 2e 66 f6 be ce a4 3e bf
       0.12335997 0.23572919 -0.48124832 -0.7447022
0000c0 b3 59 11 bf 6d 37 f6 be 05 62 9f bd 1f 22 cf be
       -0.56777495 -0.48089162 -0.077823676 -0.4045572
0000d0 f7 58 3d be 96 2a 2f be 28 64 55 bc 8e 5d 7c bb
       -0.18490969 -0.17106089 -0.013024367 -0.0038507911
0000e0 92 25 15 3d 39 bb c7 3d e5 3d 09 3d 82 3b 7f 3e
       0.036412783 0.09752507 0.033506293 0.24925044
0000f0 c8 91 35 3d dc 9e 05 3d e7 b3 fc be f1 22 b8 be
       0.04432848 0.032622203 -0.49356005 -0.35964158
000100 ec 38 d7 be e3 bd da be 8a 9a 8f bd ab 04 52 be
       -0.42035615 -0.42722997 -0.07011898 -0.20509593
000110 a8 68 fa be d1 37 2b bf 4c 6f e3 be be d2 e9 be
       -0.4890797 -0.66882044 -0.4442085 -0.45668596
000120 3e 38 cc 3c 36 7d cd bd 0d bf 0a be 05 60 15 3d
       0.024929162 -0.10033648 -0.13549443 0.036468524
000130 2c e4 4e bd 00 bc 02 3d 6a 44 9e 3d 7f a9 ae bd
       -0.05051057 0.031917572 0.07727893 -0.085284226
000140 7c 3e 54 3d bd 72 78 bd d5 f3 01 3e 15 92 2b 3c
       0.051817402 -0.060656298 0.12690671 0.01047184
000150 84 78 72 bd 37 21 4d bc 0f 11 03 3e 0e f0 9b be
       -0.059196964 -0.012520126 0.12799476 -0.30456585
000160 1f ec 5f be 82 96 3e 3d 3d b3 27 3c cb f1 49 3d
       -0.21867417 0.046530254 0.010235605 0.049302857
000170 e6 6a 1c 3f a2 61 29 3f a4 a8 bf bd 73 ce 8f 3c
       0.61100614 0.661646 -0.093583375 0.017554497
000180 a0 4b 75 3e 77 c6 ef 3d 4a e6 ce 3c 13 f3 8f bd
       0.2395463 0.11707776 0.025256295 -0.070287846
000190 5a a1 16 bc 1a 74 b3 3d ae a6 19 3e 6a eb eb bb
       -0.009193743 0.08762379 0.1500499 -0.0071996944
0001a0 fd f1 01 3c 7d 78 b3 bd 90 28 91 be b6 87 1a bf
       0.00793123 -0.08763216 -0.2835126 -0.6036333
0001b0 a8 ae 85 3e 31 d0 23 be 86 c8 e9 3e 03 10 af 3e
       0.26109815 -0.15997387 0.456608 0.34191903
0001c0 f2 82 a7 3d d0 3d e7 be 4b 74 1b bf 26 a7 43 bf
       0.08179273 -0.45164347 -0.60724324 -0.76426923
0001d0 43 16 1b be 33 81 7c 3e 97 ed 4f bf 03 72 22 bf
       -0.15145211 0.2465866 -0.8122191 -0.6345522
0001e0 af 66 f0 bd e7 4f f8 bd c1 78 3a be bb 95 0b bf
       -0.11738335 -0.12124615 -0.18210126 -0.54525346
0001f0 42 63 02 bf eb 09 2c bf 27 66 44 be df 18 17 be
       -0.50932705 -0.67202634 -0.19179593 -0.14755581
000200 81 ce 7f be 75 81 5a 3d 8f 8d d0 3d a1 58 f3 bd
       -0.24981119 0.053346116 0.1018325 -0.11882139
000210 21 f0 33 be 0b 66 77 be 0c 6b 06 bf d2 be b2 be
       -0.1757207 -0.2416002 -0.5250709 -0.3491121
000220 07 d0 25 be 2e ca 30 be 9b f4 14 3d b8 ea 9b bd
       -0.16192637 -0.17264625 0.036366086 -0.076131284
000230 4a 05 a3 be 93 bd 00 3e 4c c6 12 bf 20 dd 2e bf
       -0.31839973 0.12572317 -0.57333827 -0.6830616
000240 de f1 39 3e 0b 40 30 bc d7 ea ee bc d2 ed 5b bd
       0.18158671 -0.0107574565 -0.029164715 -0.0536936
000250 a2 b6 a0 3c f1 d3 b8 3e b4 c7 d9 bc d4 98 8b bb
       0.019618336 0.36099198 -0.026584484 -0.004260162
000260 82 37 e9 bd 9f 82 85 bd 57 59 96 3d 08 a9 37 bc
       -0.113875404 -0.065190546 0.07341259 -0.011209734
000270 a5 44 6c bc 89 ed e5 bd 0c d3 ab 3d 7f 3c 46 bd
       -0.014420663 -0.11226947 0.08389863 -0.048397537
000280 ad bd 62 be 31 90 18 3e c5 36 0c 3e 2b 09 43 be
       -0.22142668 0.14898755 0.13692768 -0.19046466
000290 cc eb b5 bd 8e c7 4f bd 34 df 97 be c0 25 f6 bc
       -0.08882865 -0.05072742 -0.29662478 -0.030047297
0002a0 20 ab be 3e 4a a5 7b 3e 9b 47 d1 3d 13 5d 83 3e
       0.37239933 0.24574772 0.10218736 0.25656947
0002b0 d5 99 b1 be ec d3 68 be 23 5d f5 be cc 38 57 be
       -0.34687677 -0.22737092 -0.4792262 -0.2101776
0002c0 be 99 4b be 1e d5 a1 be c4 c2 92 3e 24 f2 69 bd
       -0.19882867 -0.31607908 0.2866422 -0.05711569
0002d0 3f 8f 97 bd b7 07 3f 39 dc 26 ad 3e 4f ef 8f 3d
       -0.07400369 0.00018218053 0.3381871 0.07028066
0002e0 3d 99 94 bc b8 cb c2 bd 64 db 23 bf 51 1e 22 bf
       -0.018139476 -0.095115125 -0.6400664 -0.6332751
0002f0 97 ff 76 bd 01 6e 7e bd 21 de 19 be a4 ad bb be
       -0.060302343 -0.062116627 -0.15026142 -0.36655915
000300 5e 43 e1 bd f9 d8 05 be 4e 59 27 bf 5b 49 bc be
       -0.109991774 -0.1307105 -0.65370643 -0.36774716
000310 a5 38 0c be 57 9e 2d be 97 26 03 bd b6 90 8c 3c
       -0.13693483 -0.16954933 -0.032019224 0.017158847
000320 ed 68 4b bd e6 1a 58 bd 07 ac 56 be bd 4a 79 be
       -0.049660612 -0.052760027 -0.2096406 -0.24344917
000330 51 9b eb bd cb 6f d5 be 88 6b b3 3e df e5 e5 3e
       -0.11504234 -0.41686854 0.35042977 0.4490194
000340 9c c0 34 be 35 af a4 3d 0f 04 0a 3e 15 5d 86 3e
       -0.176516 0.080412306 0.1347811 0.2624289
000350 32 03 12 bf 14 c1 83 be 7a c3 c3 3e dc be e1 3e
       -0.57036126 -0.25733244 0.38235074 0.44090927
000360 69 6e 1e be a0 46 8e be 86 1a aa bd 62 eb 04 bd
       -0.15471806 -0.27788258 -0.0830584 -0.03245104
000370 04 09 0b bf f8 e7 39 bf 33 35 02 bd f2 59 60 bd
       -0.5431063 -0.7261958 -0.031789016 -0.05477328
000380 15 a3 64 bf f9 d4 ed be 06 ea 67 3c 19 f3 0b bb
       -0.89311343 -0.46451548 0.014154917 -0.0021354614
000390 75 03 82 bd 61 6e a8 bc b7 16 00 be 86 e0 99 bd
       -0.063483156 -0.020560445 -0.12508665 -0.075135276
0003a0 99 21 c2 3d 30 a1 af 3d 08 8b a6 3e 6e 1e 79 3e
       0.094790645 0.08575666 0.32527947 0.24328014
0003b0 da 0a bc be d1 8e 23 be aa 4d 38 be 77 b6 0d bf
       -0.3672703 -0.15972449 -0.17998376 -0.55356544
0003c0 d4 00 9a 3e 90 25 3f 3e 9c fa 8b 3e 78 40 8b bd
       0.30078757 0.18666673 0.27339637 -0.06799406
0003d0 a1 f6 6e be 21 18 82 be 03 2c 10 bb 23 b3 5f 3e
       -0.23336269 -0.25409034 -0.002199889 0.21845679
0003e0 a9 92 c0 3c 51 1e 01 3d 53 12 9c be 38 c8 5e be
       0.023507433 0.031523053 -0.3048273 -0.21756065
0003f0 b2 3a f7 bd 78 20 89 3e 00 97 f8 3e 9a 01 7b 3e
       -0.12071742 0.26782584 0.48552704 0.2451233

bias f4 [256]
000000 a1 52 77 3d ac 97 3d 3e 85 7f 04 bf 85 47 1a 3e
       0.060381535 0.1851489 -0.5175708 0.15066345
000010 7b ea 55 3e 84 95 4f bd 4f d8 8f 3e bd 20 af bd
       0.20890228 -0.0506797 0.28094718 -0.08551166
000020 50 c4 b0 be 0a ef 35 3e 70 c3 70 3e 25 23 dc 3d
       -0.34524775 0.17766967 0.23512053 0.10748891
000030 ff 03 f7 be 49 e9 c0 3e 66 fd 47 3e ff a7 b7 be
       -0.48245236 0.37677982 0.19530258 -0.35870358
000040 78 b0 34 3f 37 56 08 3e d2 d3 c7 3d 74 70 16 3e
       0.7058177 0.13314138 0.097571984 0.14691335
000050 5d e7 09 bf b9 9c b6 3d 4e 8a f5 3e ff 7b 8d 3d
       -0.5386866 0.08916611 0.4795708 0.06908416
000060 8b db 9d be 92 b2 71 3e 7e a0 0f be 5a 58 1d bf
       -0.3083156 0.23603275 -0.14026067 -0.6146294
000070 fb 8f f6 bb b1 c5 7d be 19 c6 84 3c cd 84 57 3e
       -0.007524488 -0.24782445 0.016207742 0.21046753
000080 21 7d 06 3e 4e 15 04 bf c0 a9 a1 3d 14 90 de 3e
       0.1313367 -0.5159501 0.07893705 0.43469298
000090 e5 23 6f 3c 95 e7 db 3d 93 14 6b 3e 24 94 16 bd
       0.01459596 0.1073753 0.22957067 -0.03676237
0000a0 5b c1 13 3e f3 47 ac 3d 25 0a da bd 18 a9 36 bd
       0.14429228 0.08412161 -0.10646466 -0.044594854
0000b0 bf b5 bc 3d 5c c0 c5 3e 8c b9 95 3e 94 cb ba 3e
       0.09214353 0.3862332 0.29243124 0.36483443
0000c0 bb c8 83 be 40 22 cd be 44 6a 9e be 6f 6a bc 3d
       -0.25739083 -0.40065193 -0.3094045 0.09199988
0000d0 22 d9 1f 3e 4b 03 98 be 92 93 d7 be 13 9d 99 be
       0.15610173 -0.29690012 -0.42104775 -0.3000265
0000e0 35 cb 1d 3c 0f 30 70 3e e7 ff c9 be 82 4e bf 3e
       0.009630968 0.23455833 -0.3945305 0.37364584
0000f0 bd 18 ab be 79 e4 e7 3e e1 92 86 bd c6 53 ed bd
       -0.3341731 0.45291498 -0.06570984 -0.11588244
000100 cf 15 0f bc 9b 01 e8 3d 26 c7 64 3d 15 f0 dc 3d
       -0.008733227 0.11328431 0.055853985 0.107879795
000110 1c 48 20 3d e0 c1 38 3e 9e 72 af be 7a 51 8b 3d
       0.03913127 0.18042707 -0.34267133 0.0680265
000120 de 16 ed be 86 7a 59 bd 04 86 35 3e f8 69 90 be
       -0.4630651 -0.053095363 0.17726904 -0.28205848
000130 9f 89 e8 be 9d 57 56 3d db a6 11 be fe 50 6b 3d
       -0.45417497 0.05232965 -0.14223807 0.057450287
000140 cd c6 d6 3e a1 4a 48 3e 74 27 38 3e 2b 7e 8b be
       0.41948548 0.19559719 0.179838 -0.27244696
000150 47 d7 08 3e 57 d3 53 be cb a0 f4 bd c7 ac 15 3b
       0.13363372 -0.20686089 -0.11944731 0.002283858
000160 d1 62 61 be b9 3a 8d be 95 43 61 3e ef f4 17 3e
       -0.22010352 -0.27583864 0.21998437 0.14839529
000170 35 ac 2f 3f f5 a5 e5 bd f0 57 b8 3e 57 90 27 be
       0.6862214 -0.112132944 0.3600459 -0.16363655
000180 46 fd f0 3d 3f d8 18 bd e2 7a 84 be 1e aa 00 3e
       0.11767058 -0.037315603 -0.25875002 0.12564895
000190 71 40 00 bf 9c a3 2d be 98 51 23 3f c3 a1 96 3e
       -0.5009833 -0.16956943 0.6379638 0.2942029
0001a0 7c b5 b1 be 77 a6 1e 3e 87 56 04 bd ce a5 06 bf
       -0.34708774 0.15493189 -0.03230908 -0.5259675
0001b0 91 e3 59 3c d8 c4 3e bd 2f 8d bc 3e 69 eb 85 3e
       0.013298885 -0.046574444 0.36826465 0.26156166
0001c0 12 67 ab 3d 18 02 8c bc 98 29 a8 be 9c 80 56 be
       0.083692685 -0.017090842 -0.32844234 -0.20947498
0001d0 05 d2 bf 3c 03 ed 34 3e 65 55 e1 be ce 2b c3 3e
       0.023415575 0.17668538 -0.44010463 0.38119358
0001e0 4a a9 5f 3f c6 64 5c bc 90 4f ab 3e 3e 5b 0b 3d
       0.8736769 -0.013451761 0.3345914 0.034022562
0001f0 ff d3 cd bd f9 4b ad 3d f0 1c 8c 3e 85 6a 00 bc
       -0.10050201 0.08461756 0.27365828 -0.007837896
000200 3f 7e 0f bf 81 c5 e6 3d 5c 59 ed bc 87 91 a1 be
       -0.5605201 0.1126814 -0.028973274 -0.3155634
000210 20 bd 7b 3e 2d fd ac 3d de 6c 9f 3e 71 5e a1 be
       0.24583864 0.08446727 0.31137747 -0.31517366
000220 91 39 e8 be 37 22 af 3e 2a f9 e4 be c6 db ba be
       -0.4535642 0.3420579 -0.44721347 -0.364958
000230 45 f3 a8 3e c1 35 2a 3f 53 20 93 3d 57 f9 cf bd
       0.329981 0.6648827 0.071839 -0.1015498
000240 2a 86 32 bc b8 26 cd be 8a 12 e8 3e 44 71 36 3f
       -0.010896245 -0.40068603 0.45326644 0.7126658
000250 2e 5d e9 be 8f e6 0b 3e 78 1b fa 3e 2e 8c 9e bd
       -0.45578903 0.1366217 0.48849082 -0.07741581
000260 fa f9 ca be 40 4a da bd fe 16 b4 3e 6c 87 ad be
       -0.39643842 -0.10658693 0.35173792 -0.3389238
000270 bb 00 86 3e 3b 1e 8f 3e 0c 7c 3e 3d 13 41 29 3f
       0.26172432 0.27952752 0.04650502 0.6611492
000280 29 7d e7 bb 48 96 23 3f f0 00 61 3e 9c f3 35 3e
       -0.007064481 0.63901186 0.21973014 0.17768711
000290 ba 2d f7 3d 00 53 0e 3e 1c 81 97 be 62 5b 36 3e
       0.120692685 0.1389885 -0.2959069 0.17808297
0002a0 62 b0 2a 3f 05 52 4c be ed 42 6b be d1 64 98 3e
       0.6667539 -0.19953163 -0.22974749 0.29764417
0002b0 18 c6 09 bf 02 6e 15 3f 95 c5 38 3f 7f 92 12 3d
       -0.5381789 0.58370984 0.72176486 0.03578424
0002c0 2c b4 84 be f4 db ca be 26 d8 f3 3e fd 06 88 bb
       -0.2591871 -0.39620936 0.47625846 -0.0041512237
0002d0 5f e4 a3 3d a3 60 49 3e 72 51 28 be e8 8b e3 3d
       0.08002543 0.1966577 -0.16437319 0.111106694
0002e0 fa 0b e4 be 5d 13 3c 3e b2 53 e5 be ce 57 58 3e
       -0.44540387 0.18366762 -0.44790417 0.21127245
0002f0 a5 60 f0 be d8 32 bb be 76 99 ff 3c e1 f3 91 3e
       -0.46948734 -0.36562228 0.031201106 0.28506377
000300 76 0d 7e 3e 45 29 e6 be 15 84 ac 3e a5 e7 4e be
       0.24809822 -0.4495336 0.3369452 -0.20205553
000310 ee 46 f8 be cb ec dc 3d d5 71 ea 3d fc c4 8e 3e
       -0.48491615 0.10787352 0.11447493 0.27884662
000320 56 47 66 ba c9 1b 70 be d4 9a 1b 3e 02 5f e1 be
       -0.00087844336 -0.23448099 0.15195781 -0.44017798
000330 05 fe 89 3e c8 13 cd 3e c7 57 2a 3e 61 87 4a 3d
       0.26951614 0.40054154 0.16635047 0.049445514
000340 03 f5 80 3e 14 52 95 3e cf 5a 97 bd e8 6c d1 3d
       0.2518693 0.29164183 -0.07390367 0.1022585
000350 cc d6 a3 3d d8 10 ee bd 3b 25 22 3d 15 bd ec bd
       0.07999954 -0.116243064 0.039586287 -0.11559502
000360 60 5f e4 ba f0 4d b8 3d 41 c2 72 3e 74 db f7 3e
       -0.0017423443 0.089992404 0.23706914 0.48409617
000370 9a 0f 81 3e 5a 9f b2 3e 1b 42 10 3e f6 b4 b2 3e
       0.25207216 0.348872 0.14087717 0.34903687
000380 38 dc 00 bf fb 15 0a 3e f8 39 fa bb ed 18 d8 be
       -0.5033603 0.13484947 -0.007636305 -0.42206517
000390 d2 fa 02 3f c6 6c e4 be a8 89 c2 3e cf 28 e5 bd
       0.5116397 -0.44614238 0.37995648 -0.11189424
0003a0 43 24 34 3e f9 d1 18 3e 58 02 1e bc be 42 8a 3d
       0.17591958 0.14923848 -0.0096441135 0.06751011
0003b0 87 d3 99 be a2 9b 3f bd 5b 5c 6f be dd 92 e3 bd
       -0.30044195 -0.046779282 -0.23375075 -0.11111996
0003c0 93 ee 4d be 80 e6 ec be 49 23 02 bf f6 d7 8c bb
       -0.2011054 -0.46269608 -0.5083509 -0.0042982055
0003d0 69 f5 52 3d 8e 68 a1 be 50 4a 21 bd 77 70 1e 3e
       0.051503573 -0.3152508 -0.03937751 0.1547259
0003e0 a1 67 d6 3d bc e4 82 3d 7d 9b ca 3e e9 b7 7d 3e
       0.104689844 0.06391284 0.39571753 0.24777187
0003f0 9c 03 26 3e d3 84 2b 3d a7 09 8a be fa 2f 60 3e
       0.16212314 0.041874718 -0.2696049 0.21893302

weight f4 [256]
000000 f9 0f 59 3f 08 fa 78 3f d2 f9 8a 3f 8f 44 6e 3f
       0.8479 0.9725652 1.0857489 0.9307336
000010 3c 34 62 3f ad bc 92 3f 23 12 73 3f 76 1c 78 3f
       0.88360953 1.1463829 0.9494955 0.9691843
000020 31 98 8a 3f 00 bd 9c 3f 87 3f 83 3f c8 7c 80 3f
       1.0827695 1.2245178 1.0253762 1.003808
000030 83 64 98 3f ef 90 5a 3f f8 55 ca 3f 97 d4 97 3f
       1.1905674 0.853774 1.5807486 1.1861752
000040 56 be 8c 3f aa 4a bb 3f 83 e6 8e 3f fe 61 96 3f
       1.0995586 1.4632161 1.1164097 1.1748655
000050 79 8e 84 3f 61 2a 43 3f 9f 1e 58 3f b5 f4 88 3f
       1.0355979 0.7623654 0.84421724 1.0699679
000060 aa f2 95 3f ca c4 89 3f dc c2 a2 3f 6d 30 97 3f
       1.171468 1.076318 1.2715716 1.1811653
000070 11 e4 b6 3f 92 65 75 3f ce 04 d7 3f 87 f3 94 3f
       1.428835 0.9585811 1.6798341 1.1636819
000080 5e d2 52 3f 63 bc a0 3f 0e b1 b5 3f e4 8d a3 3f
       0.82352245 1.2557491 1.4194658 1.2777677
000090 6d a9 86 3f de f7 a5 3f f5 8a 9c 3f 5c 91 a8 3f
       1.0520455 1.2966268 1.2229906 1.316936
0000a0 ce d6 b7 3f 71 5a ae 3f 92 6c 8d 3f 82 c4 bf 3f
       1.4362428 1.362135 1.1048758 1.4981844
0000b0 10 c7 92 3f 68 fd bb 3f da ef 8a 3f 04 97 55 3f
       1.1466999 1.4686708 1.0854447 0.83433557
0000c0 6c cd 80 3f b9 07 9f 3f cf 4c 8a 3f 42 5d a4 3f
       1.006269 1.2424232 1.080469 1.284096
0000d0 bc 9d c9 3f 8d 39 83 3f 8a 22 77 3f 8e c6 80 3f
       1.5751262 1.0251938 0.9653708 1.0060594
0000e0 e3 30 9f 3f ee f9 80 3f 18 33 9a 3f c6 44 93 3f
       1.2436794 1.0076272 1.2046843 1.1505363
0000f0 6f 01 a8 3f f9 1f 73 3f 26 8e 77 3f fb 89 97 3f
       1.3125437 0.9497066 0.96701276 1.1838983
000100 51 d5 d3 3f 99 de b8 3f 53 7a 8b 3f 66 23 9b 3f
       1.6549474 1.4442931 1.0896705 1.2120178
000110 f3 52 c3 3f 01 1a c0 3f 00 e9 91 3f 87 6f d2 3f
       1.5259689 1.5007936 1.1399231 1.6440285
000120 8a f8 84 3f 07 6a 5d 3f b9 63 cc 3f 13 eb 8c 3f
       1.0388348 0.8648991 1.5967933 1.1009239
000130 26 d9 68 3f 16 52 88 3f 1c 2e 6e 3f a2 57 97 3f
       0.9095634 1.0650051 0.9303911 1.1823618
000140 65 fa 68 3f 79 33 55 3f 2f 9e 8e 3f e7 24 90 3f
       0.9100707 0.83281666 1.1142024 1.1261262
000150 84 52 94 3f d2 de 8c 3f 99 b5 71 3f ff f8 68 3f
       1.1587682 1.1005499 0.9441772 0.9100494
000160 96 26 9e 3f af c1 8e 3f 8c 78 bb 3f ce ff 91 3f
       1.2355525 1.1152858 1.4646163 1.140619
000170 de 2c 8b 3f d6 bb 90 3f 1f 0b 22 3f a6 72 9f 3f
       1.0873067 1.1307323 0.6329822 1.2456863
000180 ca af a8 3f c2 c6 90 3f 21 aa 71 3f 75 e9 b6 3f
       1.3178647 1.1310656 0.9440022 1.4289995
000190 ab ef 97 3f 2b 46 82 3f 23 6a 95 3f 79 0d 49 3f
       1.1870016 1.0177664 1.1673015 0.7853618
0001a0 d2 41 8a 3f 13 44 5f 3f 25 fd 94 3f 17 43 8c 3f
       1.0801337 0.8721325 1.1639754 1.0957974
0001b0 b8 0c a8 3f 34 e4 80 3f 55 6a 61 3f d1 1f a2 3f
       1.3128881 1.0069642 0.88052875 1.266596
0001c0 43 56 78 3f f2 d2 a6 3f 8a c5 9d 3f c7 a1 98 3f
       0.97006625 1.3033125 1.2325909 1.192437
0001d0 de d9 a0 3f 44 1f 96 3f b1 e2 9d 3f b1 b1 46 3f
       1.2566488 1.1728292 1.2334806 0.77614886
0001e0 70 35 2b 3f 6b 3d 6d 3f f7 0a 6c 3f 79 92 7d 3f
       0.66878414 0.9267184 0.9220423 0.99051625
0001f0 f6 2e 9d 3f 41 48 50 3f 13 65 a4 3f 33 f0 88 3f
       1.2279956 0.8136025 1.2843345 1.0698303
000200 c7 28 9b 3f 51 cc 90 3f d0 7b a4 3f 4b 3f 8b 3f
       1.2121819 1.1312352 1.2850285 1.087869
000210 c7 97 b1 3f 18 6c 91 3f a2 ff b3 3f 64 1f 81 3f
       1.3874444 1.1361113 1.4062388 1.0087705
000220 c7 5b 97 3f 3e 4f 99 3f dc 2a 96 3f 09 a8 86 3f
       1.1824883 1.1977308 1.173183 1.052003
000230 5e 6f 85 3f 81 32 1d 3f ec 6e 81 3f 30 e6 70 3f
       1.0424612 0.6140519 1.0111976 0.9410124
000240 f4 1c a7 3f d4 6f a5 3f b9 91 4c 3f cf d3 91 3f
       1.3055711 1.2924752 0.79909855 1.1392764
000250 af a8 77 3f 3a 28 5c 3f 46 c7 83 3f 9a 51 77 3f
       0.96741766 0.8599888 1.0295188 0.9660889
000260 48 60 89 3f 09 d7 95 3f 6c 91 88 3f f8 5b 9e 3f
       1.0732508 1.1706249 1.0669379 1.2371817
000270 38 ef 8a 3f 80 f3 87 3f be ff 7c 3f 9e 64 8c 3f
       1.0854254 1.0621185 0.9882773 1.0968206
000280 08 86 85 3f c6 4d 77 3f d7 fc c3 3f fe 1a a6 3f
       1.0431528 0.9660305 1.5311536 1.2976987
000290 e9 c9 6e 3f 8c 56 c6 3f d1 01 81 3f e1 36 8f 3f
       0.9327684 1.5495162 1.0078679 1.1188623
0002a0 6d b1 42 3f 70 83 9d 3f 73 9f 93 3f af 19 9f 3f
       0.7605198 1.2305737 1.1533035 1.2429713
0002b0 fe da 69 3f 22 fc 83 3f 59 29 87 3f 86 75 6c 3f
       0.9134978 1.031132 1.0559493 0.92366827
0002c0 ff ca 7a 3f 05 2a 92 3f bc 94 9f 3f c5 93 88 3f
       0.97966 1.1419073 1.2467265 1.0670096
0002d0 b3 27 5c 3f 28 b7 9e 3f 68 0f 74 3f 70 f0 90 3f
       0.85998076 1.2399645 0.9533601 1.1323376
0002e0 32 ab 88 3f d0 75 8a 3f d2 f3 95 3f a2 9a 57 3f
       1.0677245 1.0817204 1.1715033 0.84220326
0002f0 87 23 99 3f e7 50 ad 3f 31 32 8a 3f d5 1b 8d 3f
       1.1963967 1.3540314 1.0796567 1.1024119
000300 9d fa 8e 3f 97 00 a1 3f 13 c5 97 3f 27 83 a1 3f
       1.1170231 1.2578305 1.1857017 1.261815
000310 49 09 8b 3f 9a 9b 61 3f 9b 4c 8d 3f ab 53 89 3f
       1.0862209 0.88128054 1.1039003 1.0728658
000320 eb 30 d6 3f a2 38 7f 3f 65 dd 85 3f 17 f6 8e 3f
       1.6733679 0.9969579 1.0458189 1.1168851
000330 a9 b0 4a 3f 61 bb 78 3f 5d 5f 80 3f 7b 50 ae 3f
       0.7917581 0.9716092 1.0029103 1.3618311
000340 ad b3 77 3f 05 a8 8e 3f 79 4b 88 3f a9 15 cb 3f
       0.9675854 1.1145025 1.0648032 1.5865985
000350 72 f5 a7 3f 66 9d 9d 3f 71 c9 85 3f ac 01 8e 3f
       1.3121779 1.2313659 1.04521 1.109426
000360 e6 03 b5 3f 4c 51 52 3f b8 0f a2 3f 83 47 7a 3f
       1.4141815 0.821553 1.2661047 0.9776537
000370 cc c0 8a 3f 0f 5b 4c 3f eb 03 4a 3f 80 eb b5 3f
       1.0840087 0.79826444 0.7891223 1.4212494
000380 5d bc 87 3f 70 f5 a2 3f 9e ce 85 3f d3 02 9d 3f
       1.0604359 1.2731152 1.045368 1.2266487
000390 a7 cd 74 3f 4d a4 a1 3f 18 8f c9 3f 5d ad 83 3f
       0.956263 1.2628266 1.5746794 1.0287281
0003a0 4c 7d 95 3f 1d 45 48 3f aa 55 ae 3f c9 65 87 3f
       1.1678863 0.7823046 1.3619893 1.0577937
0003b0 00 94 8a 3f 36 56 a1 3f 19 46 91 3f 4f 27 93 3f
       1.0826416 1.2604434 1.1349517 1.1496371
0003c0 bf f0 89 3f 95 00 89 3f 5a 70 86 3f 6a 3f c1 3f
       1.0776595 1.0703303 1.0503037 1.5097477
0003d0 a0 cc 64 3f 99 a7 a6 3f 88 9e a7 3f 7c 99 8c 3f
       0.8937473 1.3019897 1.3095255 1.098434
0003e0 0e 95 7d 3f e4 31 89 3f 0b a2 62 3f 34 fe 6e 3f
       0.99055564 1.071835 0.8852851 0.93356633
0003f0 be b3 42 3f b6 20 90 3f b2 2a a0 3f b7 5e 9e 3f
       0.76055515 1.1259983 1.251303 1.2372655

bias f4 [256]
000000 c6 b4 ed bd 38 f2 a5 bd 85 1f c9 3e 7d 9c a7 bb
       -0.116067454 -0.0810284 0.3928186 -0.0051150904
000010 14 4f 67 3c 61 92 d7 bc 91 a8 b7 bd ca a6 0d 3c
       0.014117975 -0.026314916 -0.08967698 0.008645723
000020 0b 26 8f 3e 8f c0 bc 3e e1 bf 95 3e bb a0 8c 3d
       0.27958712 0.3686566 0.29247954 0.068665944
000030 8e d9 b1 3e 70 f4 1d be d7 b0 0b 3f 38 ee 98 3e
       0.34736294 -0.15425277 0.5456671 0.29869246
000040 0e de b3 3d f2 a8 bb 3e ce e0 78 3e 66 7f 10 3e
       0.08782588 0.36652333 0.24304506 0.14111099
000050 8d 8f 93 3e fc a6 66 bd d8 a0 70 be ac 5f 79 3c
       0.28820458 -0.056311592 -0.23498857 0.015220564
000060 8a 4f 9e 3e 8f f0 e9 3d d2 22 e7 3e b8 2f 9d 3e
       0.30920058 0.11422836 0.45143753 0.3070047
000070 ba fe c3 3d 93 89 7d 3e f2 e8 0f 3e 72 72 ea 3c
       0.095700696 0.24759512 0.14053705 0.028619025
000080 6a fb 78 3e de 01 ca 3e 30 3b c6 3e 17 cc 5a 3e
       0.24314657 0.3945455 0.3871703 0.21366917
000090 dc 47 cf 3e 51 ed 7b 3d ba 44 a3 3e 6b f5 4a 3e
       0.40484512 0.06150562 0.31888372 0.19820182
0000a0 e5 c6 ea 3c 27 79 f3 3e f7 b4 f0 3e 8b f7 b1 3d
       0.028659293 0.4755337 0.47013065 0.08689793
0000b0 8e f0 7b 3d 1b fa 7d 3e 46 dc 35 3e 3b 59 0f be
       0.061508708 0.24802439 0.17759809 -0.13998882
0000c0 95 aa e3 3e e6 07 9e 3e 76 7f 8f 3e e6 ef a1 3e
       0.4446608 0.308654 0.28026932 0.3162834
0000d0 3c bc dd 3e 5a 6b d4 3e 9f 38 9f 3e 09 7b 96 3e
       0.43307674 0.41488153 0.31097886 0.29390743
0000e0 52 5a b5 3d 1f aa 55 3e 06 3b c0 3e 6b a5 66 bd
       0.08855118 0.20865677 0.3754503 -0.0563101
0000f0 d0 b2 d0 3e 68 30 3f 3e 03 8d 87 3e 66 2a 89 3e
       0.40761423 0.1867081 0.2647477 0.2679016
000100 3e 1d 15 3e 79 1b 9a 3e 64 8b 95 3d e1 4f a4 3e
       0.14561936 0.30099085 0.07301977 0.32092193
000110 97 e5 5c 3e 01 91 e1 3e ec 30 b1 3e 28 90 40 3e
       0.21571957 0.44055942 0.34607637 0.18804991
000120 b8 29 cb 3e 64 b3 d5 3d 90 a7 7c 3e 7b e8 f5 3e
       0.39680266 0.10434607 0.24673295 0.4802893
000130 32 55 ab 3e 99 d9 04 bd 8e b6 db bb f5 a2 9f 3e
       0.33463436 -0.03243408 -0.006705112 0.31179014
000140 2f 56 a3 bd 33 c4 fa bd d2 2a 99 3e 5a 41 af 3e
       -0.079754226 -0.12244453 0.29915482 0.34229547
000150 61 b9 7f bd 3e a4 e9 3e 6b 2f f9 ba 4d 9c 66 3e
       -0.06243265 0.4563312 -0.0019011324 0.22520562
000160 5f a8 a2 3e 4c 0c 5d 3e 96 fe d8 3d 58 ca cb 3d
       0.31769082 0.21586722 0.105954334 0.099507034
000170 96 8b 05 bc 83 5d 75 3e 9c 46 24 be e4 50 d9 3e
       -0.008150956 0.23961453 -0.1604256 0.42444527
000180 74 c7 ac 3d ab 26 5e 3e 60 78 a9 3e a9 12 e5 3e
       0.0843648 0.21694438 0.3309965 0.447408
000190 5a 18 9c 3e 12 65 72 3e 2b 41 b4 3d 89 45 80 3e
       0.3048733 0.23671368 0.08801492 0.2505305
0001a0 3a 6d be 3e 77 ab 14 bd 94 27 03 3e 1c 1a ca 3e
       0.37192708 -0.036296334 0.12808067 0.39473045
0001b0 17 0d 17 3e c6 f9 68 3e 05 67 7e 3e 42 79 d3 3e
       0.14751087 0.22751531 0.24843986 0.4130345
0001c0 06 28 1d 3c 5c d8 e4 3e 6e 84 90 3e ea 84 8c 3e
       0.009592062 0.4469632 0.28226036 0.27445155
0001d0 81 39 a0 3e df 1c 46 3e 34 cb 9d 3e 9a 33 37 be
       0.31293872 0.19346951 0.30819094 -0.17890778
0001e0 95 d8 e8 be c8 12 aa 3d 38 b7 4c 3e 02 f6 90 3e
       -0.4547774 0.083043635 0.19991767 0.2831269
0001f0 59 be 27 3d d4 8e 1a be cb f7 3f 3e 35 60 e2 3e
       0.040953014 -0.15093547 0.1874687 0.44214025
000200 ea 4c 83 3e 2a 11 3e bd 85 0b 75 3d 88 94 a7 3e
       0.25644618 -0.046403088 0.05982544 0.32730508
000210 b1 31 0b 3f f8 9b d5 3d 9e 43 a8 3e c2 d9 71 3e
       0.543727 0.10430139 0.32864088 0.23618224
000220 2e 9c a3 3e 46 80 0a 3e df 71 c0 3e a4 23 9c 3e
       0.31955093 0.13525495 0.37586877 0.30495942
000230 20 78 f9 3d 53 e3 c4 be 1c ab 60 3d 63 cd 6a 3e
       0.12181115 -0.38454685 0.054850683 0.22929911
000240 fb 18 fc bb 10 a3 b7 3e dd 0b b7 bd 6d 7d 58 3d
       -0.0076934076 0.35866594 -0.089378096 0.05285399
000250 72 f5 ac 3e 78 42 81 3d 63 28 5b 3e ca c3 a3 3d
       0.3378101 0.06311506 0.21402125 0.07996328
000260 d3 04 9c 3e 18 52 07 3f 2b c3 95 3d 94 6b a2 3e
       0.3047243 0.5285964 0.07312616 0.317227
000270 86 2d 9c bd 97 11 6a bd be a1 96 3d c6 61 17 bd
       -0.076258704 -0.05714568 0.073550686 -0.03695848
000280 7e 21 f6 3d 61 a1 ab bd 6b 09 b5 3e 97 94 0c 3e
       0.12018107 -0.0838039 0.35358748 0.13728558
000290 5f 9e a2 3c 4a da 6c 3e 95 07 97 3e 39 18 2a 3c
       0.019850908 0.23130146 0.29497972 0.010381752
0002a0 5a cf a9 be 1c d0 af 3e c8 0e 78 3e d1 fe 5b 3e
       -0.3316601 0.34338462 0.24224389 0.21483923
0002b0 86 cf bb 3e d0 6e 3f 3d 9d b9 c0 3d 46 1c 1d 3e
       0.36681765 0.04673654 0.09410403 0.15342817
0002c0 2c 29 54 3e df 36 f2 3e d2 cb 91 3e 3a b3 6e 3e
       0.20718831 0.47307488 0.28475815 0.23310557
0002d0 a0 64 31 be 8d 8c e0 3c 39 bf 95 bb 83 68 25 3e
       -0.17323542 0.02741077 -0.0045699147 0.1615315
0002e0 f1 d7 02 3f ac 6a da 3b 0e a3 a7 3e 80 ea b8 bd
       0.5111075 0.0066655483 0.32741588 -0.09029102
0002f0 0d 74 25 3e dc eb a6 3e 0f 47 61 3e 80 2f fa 3d
       0.16157551 0.3260182 0.21999763 0.12216091
000300 a7 f3 34 3e 63 75 b0 3e 25 f1 94 3d 66 ba 0d 3f
       0.17671071 0.3446456 0.07272557 0.55362546
000310 a9 53 98 3e 32 8e 2f bb a4 28 11 3e 31 60 67 bd
       0.29751328 -0.0026787636 0.1417566 -0.05648822
000320 59 49 c9 3d 8d fc b3 3e 9f 5f c9 3c f2 e4 af 3e
       0.09828443 0.35153618 0.024581729 0.3435436
000330 26 fd 74 bc 69 5a c9 bd 91 8d c6 bd ff 72 fe 3e
       -0.014952933 -0.098316975 -0.096949704 0.4969711
000340 ad 74 e8 bd 36 22 03 3e f0 d6 4e 3d db 8b 75 3d
       -0.11350379 0.12806019 0.05049795 0.05994783
000350 4f ed 27 3d 34 a9 bc 3e cd 73 55 3e b6 40 e9 3e
       0.0409978 0.36847842 0.20844956 0.45557183
000360 a4 46 13 3f ad b5 8d ba 6b 6d ef 3e 56 d9 2b 3e
       0.57529664 -0.001081159 0.46763167 0.16782126
000370 b6 07 ba 3e ec 11 2b be db d4 85 3e ae e9 79 3e
       0.36334008 -0.16706055 0.26138958 0.24405548
000380 5f 38 bb 3e ce cf 75 3d 7a 72 98 3d 76 50 ad 3e
       0.36566445 0.06001263 0.0744371 0.3385045
000390 a6 14 2c 3d b1 f1 9c 3e 8a 73 9e 3e 18 34 fc 3e
       0.04201188 0.30653146 0.30947524 0.49258494
0003a0 91 39 a3 bd 44 0c de bb 59 c4 59 3e 9f df f9 3c
       -0.07969964 -0.0067763645 0.21266307 0.030502139
0003b0 93 1c 93 3e 88 93 96 3d 7b 37 f3 3e 1e 37 81 3e
       0.28732738 0.07352358 0.47503266 0.25237364
0003c0 d9 fb 6c 3e 75 f8 9e 3e 87 dc b5 3e 78 18 94 3d
       0.23142947 0.31048933 0.35519812 0.072312295
0003d0 a6 fb e3 bd 23 e9 85 3e 44 13 21 3c c3 88 17 3e
       -0.111319825 0.26154432 0.009831253 0.14798264
0003e0 41 6f 56 3c 48 46 53 3e 08 90 2c be c4 ee cf 3d
       0.013088048 0.20632279 -0.16851819 0.10152963
0003f0 e8 a1 ad 3d 0f a2 d4 3e 19 01 a6 3e 30 83 56 3e
       0.08478147 0.4152989 0.32422712 0.20948482
