Best_models/wisdm_CNN_20210122_212207/CNN_wisdm_Rep_4_Seed_538.pt (torch_old, 224391 bytes, 12 tensors)

weight f4 [64, 6, 3]
-0.062299035 -0.16153106 0.10563349 -0.07156981 -0.026121186 0.061517857 0.15200196 0.0012742705
-0.14049579 0.17701587 0.19276273 -0.06576935 0.09752217 0.27682972 -0.21931975 -0.29469422
0.08866048 0.61109287 -0.20959926 -0.21505898 -0.16328344 -0.21400371 0.22442502 0.5743846
0.28621492 0.47809416 0.16470177 0.070844516 -0.13388462 0.04567769 -0.48940724 0.3402314
-0.031556852 0.19241366 -0.113175966 0.06617544 -0.041543227 -0.12503512 0.00762856 -0.36505195
-0.094824985 0.06534505 0.10478749 -0.2289227 -0.40132987 -0.38168997 0.043276954 -0.004836776
0.39931938 -0.06143035 0.4855741 -0.046991825 0.08146264 0.049896695 0.021251455 -0.109745055
0.07689195 -0.08491457 0.003240096 0.001649906 0.18985854 -0.035831947 0.5170595 0.16652738
0.34475046 -0.42761672 0.20641662 0.16572137 -0.100067385 0.1714304 -0.21034397 0.23239747
-0.052961383 -0.13256434 -0.08548397 -0.06766099 0.08886144 0.1211404 0.03375975 0.05522153
-0.31203166 -0.07689191 -0.040197823 -0.07485975 0.11605859 -0.057557523 -0.0036513738 0.29158977
-0.11170188 -0.63147664 -0.00582018 -0.09791034 -0.26831287 0.08774703 0.08084587 -0.21555136
0.0863172 -0.008781816 0.1616141 -0.061028916 -0.17375284 0.21845405 0.43944857 0.18685013
-0.5770422 -0.2491115 0.34846348 -0.5185572 0.11438432 0.04122087 0.0005683886 -0.22649448
0.09190789 0.5089511 -0.39876762 -0.03386139 0.56703496 -0.026072737 0.08181491 0.22068734
0.07986583 0.18686016 -0.23987098 -0.10674731 0.45352754 -0.24609347 0.011911206 -0.0046252385
0.036542032 -0.1801977 0.004820119 0.02356184 0.094480604 -0.0705363 0.07350783 0.37492484
-0.2520185 -0.15235552 0.6098554 0.059578743 -0.29537112 -0.37000415 0.4278503 0.18032217
0.30340087 -0.0863149 0.2878407 0.049708247 -0.007077148 -0.3245486 -0.17617236 0.123451695
-0.39142683 -0.1376709 -0.13925582 0.35715762 0.2219781 -0.30917764 -0.073693484 0.11870171
0.09461274 -0.17695339 0.15243968 0.26640788 0.20689063 0.14058357 -0.14864041 -0.30303633
-0.13826853 0.10011864 0.27926007 -0.31487915 -0.10766446 -0.030371174 0.16583501 0.041415952
0.49802098 0.31719667 -0.02452396 0.06503867 -0.095899746 0.0026921048 0.16541007 0.108788654
0.027092148 0.43229634 0.06253603 0.09592362 -0.006991376 0.1220879 0.10792408 -0.17636703
-0.4103058 0.10052499 0.46362346 0.31650692 -0.33698854 -0.112965785 -0.081681624 -0.06471009
-0.16535483 -0.05685896 0.07316802 -0.18085214 -0.06267884 -0.012706727 0.050881382 0.34907633
-0.171438 -0.12840982 -0.11397773 -0.13875201 0.12901536 -0.38259697 -0.26646966 0.62113243
0.11804276 0.3296849 0.14630747 0.14193752 -0.13273221 -0.24026012 0.02503194 0.20693488
0.108861275 0.15781574 0.008607961 -0.023402788 -0.24916148 -0.20312367 -0.19153869 -0.37908748
-0.33372933 -0.34287107 0.03735856 -0.042328157 0.116424106 -0.11171766 0.009655795 0.57303697
0.1547575 0.08652273 0.17019536 -0.2401763 -0.046607293 0.122549534 -0.3293465 0.48448995
-0.29855302 -0.07487176 0.22199331 -0.33084542 0.006722154 -0.11297137 -0.038024675 0.035012286
00000000: 462d 7fbd 6668 25be 5f56 d83d 3193 92bd
00000010: 19fc d5bc 26fa 7b3d 67a6 1b3e 6c05 a73a
00000020: 21de 0fbe a643 353e 9863 453e 15b2 86bd
00000030: b4b9 c73d a0bc 8d3e 5b95 60be 29e2 96be
00000040: a093 b53d 9570 1c3f 30a1 56be 6c38 5cbe
00000050: c633 27be ca23 5bbe accf 653e df0a 133f
00000060: c38a 923e c2c8 f43e 95a7 283e ee16 913d
00000070: 0d19 09be 8818 3b3d 9693 fabe cf32 ae3e
00000080: c241 01bd 1608 453e cdc8 e7bd fd86 873d
00000090: 3b29 2abd 3509 00be 00f9 f93b 17e8 babe
000000a0: 9a33 c2bd a0d3 853d d39a d63d b66a 6abe
000000b0: 1c7b cdbe de6c c3be 2d43 313d d17d 9ebb
000000c0: 9773 cc3e 649e 7bbd 2b9d f83e 807a 40bd
000000d0: e2d5 a63d 7a60 4c3d 8817 ae3c 04c2 e0bd
000000e0: 8779 9d3d b1e7 adbd ca57 543b a941 d83a
000000f0: 476a 423e 85c4 12bd 035e 043f 2786 2a3e
00000100: 2283 b03e 94f0 dabe e15e 533e ddb2 293e
00000110: 21f0 ccbd 738b 2f3e 6964 57be 9af9 6d3e
00000120: 09ee 58bd f2be 07be 3812 afbd d891 8abd
00000130: fdfc b53d 7518 f83d aa47 0a3d f92f 623d
00000140: 9dc2 9fbe 8179 9dbd 79a6 24bd 1250 99bd
00000150: 20b0 ed3d 70c1 6bbd e34b 6fbb 414b 953e
00000160: f5c3 e4bd 74a8 21bf 35b7 bebb 3785 c8bd
00000170: 4e60 89be b7b4 b33d 8592 a53d 7fb9 5cbe
00000180: 12c7 b03d 9be1 0fbc 2b7e 253e 75f9 79bd
00000190: 44ec 31be 6bb2 5f3e 67ff e03e a455 3f3e
000001a0: 0ab9 13bf 1617 7fbe ce69 b23e 2ac0 04bf
000001b0: 5442 ea3d 37d7 283d eaff 143a 2bee 67be
000001c0: 343a bc3d 9f4a 023f 452b ccbe 3eb2 0abd
000001d0: 3429 113f 7e96 d5bc 938e a73d ddfb 613e
000001e0: b290 a33d 4558 3f3e bda0 75be 559e dabd
000001f0: c334 e83e edff 7bbe 3827 433c 508f 97bb
00000200: 19ad 153d bf85 38be 17f2 9d3b c304 c13c
00000210: 0c7f c13d 5675 90bd 468b 963d 26f6 bf3e
00000220: 9208 81be 1603 1cbe 7c1f 1c3f d708 743d
00000230: e23a 97be 2f71 bdbe 320f db3e 60a6 383e
00000240: 5c57 9b3e dec5 b0bd db5f 933e e09a 4b3d
00000250: 6ce7 e7bb 3c2b a6be 8766 34be 3ed4 fc3d
00000260: 1969 c8be 9af9 0cbe 1499 0ebe 5ddd b63e
00000270: 3a4e 633e 884c 9ebe 9cec 96bd e219 f33d
00000280: 53c4 c13d 4533 35be 2619 1c3e 9d66 883e
00000290: 23db 533e 24f5 0f3e 3135 18be 9427 9bbe
000002a0: 4496 0dbe 000b cd3d 2dfb 8e3e d737 a1be
000002b0: 2f7f dcbd f8cc f8bc a7d0 293e c6a3 293d
000002c0: 9bfc fe3e 9a67 a23e 79e6 c8bc ff32 853d
000002d0: 1667 c4bd 066e 303b 4261 293e 96cc de3d
000002e0: 5af0 dd3c f255 dd3e e412 803d 9a73 c43d
000002f0: ea17 e5bb 3909 fa3d 4d07 dd3d 8f99 34be
00000300: 9a13 d2be 0ce0 cd3d 0e60 ed3e 320d a23e
00000310: c389 acbe 9b5a e7bd b248 a7bd b986 84bd
00000320: c752 29be f1e4 68bd 1dd9 953d 4e31 39be
00000330: c35d 80bd e02f 50bc ff68 503d 22ba b23e
00000340: 718d 2fbe dd7d 03be 286d e9bd 0215 0ebe
00000350: 9a1c 043e c0e3 c3be b66e 88be 8902 1f3f
00000360: 67c0 f13d 76cc a83e a0d1 153e 1258 113e
00000370: f4ea 07be c006 76be c80f cd3c bde6 533e
00000380: a9f2 de3d 739a 213e 6808 0d3c 34b7 bfbc
00000390: 3024 7fbe a7ff 4fbe b822 44be c117 c2be
000003a0: 92de aabe cc8c afbe 4a05 193d 4a60 2dbd
000003b0: c36f ee3d 3bcc e4bd 5733 1e3c 8db2 123f
000003c0: c078 1e3e d432 b13d b147 2e3e c7f0 75be
000003d0: 4ae7 3ebd 40fb fa3d 1ba0 a8be 110f f83e
000003e0: f1db 98be 5e56 99bd 3752 633e 9264 a9be
000003f0: 8445 dc3b 895d e7bd c3bf 1bbd 0b69 0f3d

bias f4 [64]
-0.3178144 -0.06796915 -0.1343001 -0.23507364 -0.34210342 -0.42394847 -0.3183359 -0.5166224
-0.7014321 -0.58261675 -0.6429769 -0.61191267 -0.24258792 -0.25102347 -0.3576233 -0.90643954
-0.30075866 -0.7333459 -0.43911374 -0.78203905 -0.1963388 -0.8319579 -0.5398941 -0.19973591
-0.59145045 -0.37215564 0.039631657 -0.9963562 -0.15503578 -0.4037069 -1.1245381 -0.8403717
-0.15611786 -0.902118 -0.6883489 -0.26012495 -0.17970541 -0.34200022 -0.63227767 0.13210967
-0.20353092 -0.20059447 -0.6896713 -0.80713457 -0.41715094 -0.12092739 -0.40538627 -0.38714832
-0.8390465 -0.3461779 -0.33192933 -0.3765834 -0.43586192 -0.7135918 -0.29765868 -1.0027578
-0.32143307 -0.50296205 -0.0011692524 0.0059827473 -0.77011454 0.1497199 -0.58429015 -0.20116985
00000000: 92b8 a2be 6933 8bbd f785 09be 25b7 70be
00000010: 2e28 afbe c60f d9be ecfc a2be 5e41 04bf
00000020: 0e91 33bf 5f26 15bf 229a 24bf 4fa6 1cbf
00000030: f868 78be 2686 80be 671a b7be 6c0c 68bf
00000040: 0afd 99be 8fbc 3bbf 84d3 e0be b633 48bf
00000050: 0a0d 49be 31fb 54bf 8036 0abf 9287 4cbe
00000060: 4c69 17bf 2f8b bebe ce54 223d 3311 7fbf
00000070: b3c1 1ebe acb2 cebe ddf0 8fbf 9a22 57bf
00000080: 5cdd 1fbe 35f1 66bf a237 30bf 192f 85be
00000090: b204 38be a71a afbe f3dc 21bf c247 073e
000000a0: 696a 50be a368 4dbe 4c8e 30bf 5fa0 4ebf
000000b0: cf94 d5be c8a8 f7bd ca8e cfbe 4e38 c6be
000000c0: c0cb 56bf 3b3e b1be a4f2 a9be 8acf c0be
000000d0: 4b29 dfbe f4ad 36bf b866 98be 5e5a 80bf
000000e0: e092 a4be 1fc2 00bf 9a41 99ba ec0a c43b
000000f0: 3a26 45bf 2c50 193e 0a94 15bf 78ff 4dbe

weight f4 [64, 64, 3]
-0.2166193 -0.19020022 0.22596838 -0.048824545 0.0099167 -0.17097923 -0.4307241 -0.08061676
-0.0338979 0.2358149 0.020696279 0.005340613 0.23699021 -0.019362725 0.08713099 0.15250629
-0.22703469 -0.071827084 -0.14106102 -0.052965872 0.15187187 -0.10087893 0.03414679 0.0093774805
0.030685034 0.18382703 0.27192593 -1.0659095 0.15595512 -0.2177065 0.073083125 -0.15918696
-0.17902167 0.20706293 0.12750898 0.024351873 -0.6666033 0.15118553 -0.061846424 0.36876205
0.23761883 0.0738089 -0.40250006 0.032598305 0.02373194 -0.7427351 -0.11213549 0.48588336
0.14347948 0.0406356 -0.25189462 0.07830881 0.13923731 -0.0047406857 0.20101883 0.15243429
0.08827517 0.36332616 0.015294075 -0.055216968 0.1922894 -0.27104133 0.049838226 0.29585192
-0.47024703 -0.22548312 0.17286013 0.057240326 0.032507412 0.0742084 -0.017510397 0.4114773
0.15943392 0.15141693 0.042111166 0.047035906 -0.25947592 0.05440923 -0.15586512 0.04986179
-0.553876 -0.09112061 0.14707622 -0.42623392 0.2144954 -0.09762998 0.0062278775 0.21623974
-0.6775242 -0.20844963 0.3895425 0.037722237 -0.27738357 -0.62196636 -0.33177486 0.12795448
-0.05609521 0.08516274 -0.06562354 0.4014148 0.03357134 0.6325129 0.2881638 -0.0051848157
0.31330612 -0.037429594 -0.28780678 -0.10338749 -0.12011505 -0.35283577 -0.19076204 -0.17699343
-0.04205578 0.49539328 0.30711877 -0.084803276 0.022594715 -0.46744332 0.07711164 -0.025389321
0.08879429 -0.029764866 0.06792806 0.10768489 -0.14408138 0.41548988 0.23851366 -0.15890715
0.10861754 -0.5264449 0.037119187 0.19054292 -0.111040734 -0.03450808 -0.08059681 -0.48385745
-0.024326362 -0.00861636 -0.2801252 -0.37849474 0.16596778 0.07367348 -0.03685373 -0.19028053
-0.50690687 0.12439451 -0.030922137 0.4251716 0.14827865 0.23011528 0.32713488 -0.4877232
-0.13064224 0.23794658 -0.1761482 0.10587962 0.40312275 0.07604739 0.28118432 0.2514108
-0.030367272 0.07317675 0.23925497 0.03521172 -0.10281118 0.030604923 0.17293957 0.047209922
-0.055493187 0.098697156 -0.10806958 -0.24339466 -0.00035622335 0.015728967 -0.1522414 -0.02121693
0.040970143 -0.32784113 -0.10587907 0.17370898 0.16138446 -0.30125526 0.05889936 0.09930952
-0.51035774 -0.21668823 -0.08682154 -0.059582014 -0.08857631 0.20497794 0.0058600935 -0.40738568
0.046162423 0.11659482 -0.28934038 -0.15468724 -0.09738972 0.32853976 -0.21208608 -0.16317056
-0.23030637 -0.17491692 -0.052406408 -0.009255972 -0.10349177 -0.08755762 -0.21968162 -0.34767556
-0.6360081 0.2002466 0.21686582 -0.14856452 -0.33069488 -0.1623758 -0.30844915 -0.7794631
0.07352899 -0.15207064 -0.32670635 -0.75854 -0.24602324 0.025549632 -0.6310797 0.06607393
0.06286649 -0.28914315 -0.050410558 0.2783752 -0.26452816 -0.055999614 -0.52146363 0.13347821
-0.018281559 0.07827533 -0.20710807 -0.39965764 -0.60914946 -0.0043655518 -0.023421781 0.0439316
-0.08417793 0.2903218 0.1032226 0.25852054 0.4082555 -0.14163579 -0.51393837 0.17553161
-0.19245526 -0.1564999 -0.19320898 -0.30261797 -0.14723682 0.07217085 0.3413975 -0.2966144
00000000: 73d1 5dbe d9c3 42be 4164 673e 3ffc 47bd
00000010: a879 223c 2e15 2fbe df87 dcbe 661a a5bd
00000020: 86d8 0abd 7679 713e 3e8b a93c 4f00 af3b
00000030: 90ad 723e 949e 9ebc bc71 b23d 9c2a 1c3e
00000040: c87b 68be 141a 93bd 4d72 10be bef2 58bd
00000050: 4d84 1b3e 9d99 cebd 81dd 0b3d 01a4 193c
00000060: 2e5f fb3c 273d 3c3e e039 8b3e b96f 88bf
00000070: b3b2 1f3e 74ee 5ebe 9bac 953d e801 23be
00000080: 7551 37be 4e08 543e b791 023e 947d c73c
00000090: 84a6 2abf 61d0 1a3e ad52 7dbd 61ce bc3e
000000a0: 5a52 733e 1f29 973d 7d14 cebe cd85 053d
000000b0: 7c69 c23c e323 3ebf 4ba7 e5bd b4c5 f83e
000000c0: 49ec 123e 8471 263d 55f8 80be 5f60 a03d
000000d0: 3a94 0e3e c157 9bbb e1d7 4d3e bc17 1c3e
000000e0: 9dc9 b43d e305 ba3e 0094 7a3c 302b 62bd
000000f0: 83e7 443e eec5 8abe 2b23 4c3d e779 973e
00000100: 38c4 f0be 0ce5 66be 3f02 313e d574 6a3d
00000110: 7e26 053d 93fa 973d f771 8fbc 27ad d23e
00000120: a542 233e 0a0d 1b3e c27c 2c3d b9a8 403d
00000130: 07da 84be 36dc 5e3d 1b9b 1fbe e03b 4c3d
00000140: d1ca 0dbf 719d babd 269b 163e 553b dabe
00000150: afa4 5b3e 3af2 c7bd 3913 cc3b f36d 5d3e
00000160: 3a72 2dbf d273 55be 1d72 c73e a282 1a3d
00000170: 3805 8ebe 3039 1fbf 65de a9be 8006 033e
00000180: 17c4 65bd cd69 ae3d a265 86bd 3e86 cd3e
00000190: 1a82 093d 5eec 213f 358a 933e 63e5 a9bb
000001a0: a969 a03e c64f 19bd 695b 93be d2bc d3bd
000001b0: e1fe f5bd e4a6 b4be 2057 43be c43d 35be
000001c0: ae42 2cbd 30a4 fd3e ac3e 9d3e 57ad adbd
000001d0: 8d18 b93c bb54 efbe b5ec 9d3d 44fd cfbc
000001e0: c8d9 b53d 73d5 f3bc de1d 8b3d e589 dc3d
000001f0: 128a 13be 17bb d43e ed3c 743e 8eb8 22be
00000200: df72 de3d 18c5 06bf 4a0a 183d af1d 433e
00000210: 5369 e3bd 5858 0dbd f10f a5bd 2abc f7be
00000220: 1448 c7bc a22b 0dbc 926c 8fbe 10ca c1be
00000230: 75f3 293e 1fe2 963d f0f3 16bd e6d8 42be
00000240: a6c4 01bf 8dc2 fe3d 6c50 fdbc 18b0 d93e
00000250: 5cd6 173e 57a3 6b3e 397e a73e dbb6 f9be
00000260: 14c7 05be 45a8 733e 3260 34be 6ad7 d83d
00000270: 1b66 ce3e bcbe 9b3d 64f7 8f3e ebb8 803e
00000280: c9c4 f8bc b1dd 953d 41ff 743e 2a3a 103d
00000290: ab8e d2bd 2db7 fa3c 1217 313e 315f 413d
000002a0: d34c 63bd bc21 ca3d 9553 ddbd 733c 79be
000002b0: 7dc3 bab9 09da 803c 2be5 1bbe 21cf adbc
000002c0: 4fd0 273d cbda a7be 20d7 d8bd c4e0 313e
000002d0: f841 253e 213e 9abe 7540 713d ca62 cb3d
000002e0: cea6 02bf 85e3 5dbe 7ecf b1bd 450c 74bd
000002f0: 7f67 b5bd bde5 513e 0706 c03b db94 d0be
00000300: cf14 3d3d 44c9 ee3d 6c24 94be 5566 1ebe
00000310: 4374 c7bd 5d36 a83e 182d 59be 2f16 27be
00000320: 6fd5 6bbe 6c1d 33be 1aa8 56bd 5ca6 17bc
00000330: 7ef3 d3bd 6951 b3bd 38f4 60be 8802 b2be
00000340: 6dd1 22bf 720d 4d3e 1312 5e3e 4c21 18be
00000350: d750 a9be d745 26be 0ced 9dbe e58a 47bf
00000360: 5e96 963d 68b8 1bbe 0e46 a7be ad2f 42bf
00000370: 84ed 7bbe 764d d13c 708e 21bf c551 873d
00000380: 25c0 803d 920a 94be 4d7b 4ebd 3287 8e3e
00000390: 3c70 87be da5f 65bd a47e 05bf 83ae 083e
000003a0: 35c3 95bc d14e a03d 2314 54be ed9f ccbe
000003b0: 38f1 1bbf e70c 8fbb 09df bfbc 9ff1 333d
000003c0: 7b65 acbd 0fa5 943e 5f66 d33d ce5c 843e
000003d0: dd06 d13e f908 11be 7791 03bf 8fbe 333e
000003e0: fe12 45be 8341 20be 93d8 45be bef0 9abe
000003f0: 40c5 16be 50ce 933d a7cb ae3e d8dd 97be

bias f4 [64]
-0.6602778 -0.13174959 -1.1098267 -0.7115472 -0.20648168 -0.03813594 -0.029643483 -0.17173731
0.052230697 0.0023227232 -0.04138887 -0.67612416 -0.13018627 -0.77595097 -0.20542827 -0.11824126
-0.21690036 -0.030860344 -0.61479306 -0.02855488 -0.30747506 -0.06931464 -0.31842816 -0.2666468
0.026543498 -0.24923578 -0.28765026 -0.21278922 -0.16113171 -0.3376252 -0.32680145 -0.08974484
-0.093555026 -0.28974518 -0.07686863 -0.18016987 -0.007230996 -0.2659132 -0.023521764 -1.0832258
-0.35238698 -0.39373052 -0.581381 -0.09259331 -0.60772187 -0.025528565 -0.21741116 0.16385695
-0.035902478 -0.2093643 -0.2860501 -0.23174514 -0.10365415 -0.32794696 0.08645542 -0.3370567
-0.06422895 -0.041469526 -0.2711895 0.2317444 -0.07617243 -0.1007004 -0.2619597 -0.18193017
00000000: f707 29bf 5de9 06be cd0e 8ebf f527 36bf
00000010: ef6f 53be 6e34 1cbd e4d6 f2bc e8db 2fbe
00000020: dbef 553d d438 183b 6087 29bd 7916 2dbf
00000030: 8d4f 05be b9a4 46bf ca5b 52be 7928 f2bd
00000040: 211b 5ebe d5ce fcbc 1463 1dbf eceb e9bc
00000050: 5f6d 9dbe d5f4 8dbd 0409 a3be ee85 88be
00000060: c071 d93c aa37 7fbe e546 93be 6be5 59be
00000070: b6ff 24be 36dd acbe 8552 a7be 25cc b7bd
00000080: c799 bfbd 7b59 94be 4d6d 9dbd 737e 38be
00000090: fef1 ecbb c625 88be b7b0 c0bc 25a7 8abf
000000a0: 116c b4be 0c97 c9be 63d5 14bf 90a1 bdbd
000000b0: a993 1bbf 4821 d1bc 08a1 5ebe 1eca 273e
000000c0: 7a0e 13bd 9863 56be 2975 92be 994e 6dbe
000000d0: a148 d4bd aae8 a7be 8a0f b13d b292 acbe
000000e0: 788a 83bd f3db 29bd 5ad9 8abe 674e 6d3e
000000f0: 4a00 9cbd 033c cebd 951f 86be e74b 3abe

weight f4 [256, 128]
-0.04442647 -0.09087189 -0.2860062 -0.34234026 0.013116363 -0.16144982 -0.02552176 -0.12366097
-0.06904312 -0.043439027 -0.011931976 -0.11523109 0.19713011 0.08632201 0.0512993 0.07883124
-0.20011644 -0.262822 -0.059552256 -0.012564728 -0.80066174 -0.5505227 -0.10754253 -0.09325249
-0.07999951 -0.057937417 -0.003257907 -0.1775313 -0.147533 -0.09415331 0.008364528 -0.05866683
-0.10550982 -0.37532675 0.061561827 0.06380408 -0.05888623 -0.18406363 0.16936338 0.15694948
-0.039458152 -0.03354007 -0.32731944 -0.24662028 -0.08904433 -0.17424797 -0.36612907 -0.16910788
-0.09988448 0.056489754 -0.19428134 -0.17304714 -0.34078354 -0.17321531 -0.38818327 -0.20957397
-0.12054321 -0.0788528 0.025414523 -0.18643269 -0.090180606 -0.07284423 -0.03467463 -0.076493554
0.0037249313 -0.019869411 -0.15192269 -0.23606233 0.043798894 0.030778833 -0.13212618 -0.33172986
-0.6928269 -0.44738793 -0.16452071 -0.35149688 -0.015278977 -0.06847819 -0.16084059 -0.32358235
-0.008029549 -0.4094349 -0.18013684 -0.11201722 -0.011269296 -0.09229869 -0.15274921 -0.41288808
0.028825665 -0.05727858 -0.23236987 -0.22816962 -0.071021095 -0.031999197 0.15854365 0.08305909
0.07181081 -0.10173933 -0.50706375 -0.33887637 -0.26163882 -0.30530426 -0.3453487 -0.7091915
0.040001173 -0.11362345 -0.09752061 -0.10781742 -0.15252031 -0.09148909 -0.15172932 -0.33006078
-0.14187782 -0.03226572 -0.010857052 -0.073170565 -0.67207104 -0.116747 0.0867137 0.1607203
-0.5193234 -0.17783852 -0.05019594 -0.0758507 -0.044870336 0.0011047784 -0.19625743 -0.37949464
-0.058764897 0.011478671 -0.4061591 -0.07876556 0.07310938 -0.031193309 -0.13582343 0.0042187762
0.10907235 0.08550128 -0.04479317 0.018636903 -0.06408422 0.12576494 -0.007911059 -0.122155085
-0.37603444 -0.2964462 -0.0032860038 -0.0568015 -0.81708366 -0.5489701 -0.29442552 -0.05973264
-0.053314906 -0.062144667 -0.15648241 -0.11924587 -0.050558917 -0.3581144 -0.041655578 0.039231915
-0.33570126 -0.57230926 0.36189273 0.18155314 0.033944447 -0.049100757 -0.05875261 -0.011376975
-0.20648068 -0.16979326 -0.15824182 0.0023841907 -0.15634736 -0.022702876 -0.20948422 -0.17151849
0.06688904 -0.030874105 -0.23207547 -0.077520505 -0.4015242 0.00316766 -0.4119867 -0.31510702
-0.3237205 -0.089228794 -0.068800226 -0.27884263 -0.17191987 -0.2001996 -0.2170926 -0.21401198
0.03553246 -0.08764353 -0.06582093 -0.03295811 0.041984167 0.071439974 -0.09539507 -0.28221262
-0.89876634 -0.3622513 -0.39337793 -0.349833 -0.03894801 0.019142715 -0.25100458 -0.31621817
-0.29509318 -0.54804283 -0.15405074 -0.02898823 0.010457044 -0.070758015 -0.53172064 -0.11798483
-0.035083316 -0.062841594 -0.31160244 -0.35549492 0.0103760045 0.0033203936 0.013201412 0.0517474
-0.10503736 -0.13552776 -0.7251915 -0.4296241 -0.16818883 -0.4646282 -0.3154949 -0.44037443
0.043248534 -0.046027664 -0.27819702 -0.06357316 -0.36568862 -0.277004 -0.36812785 -0.28745744
-0.29479975 0.022657435 -0.19563513 -0.06262416 -0.6400475 -0.15240093 -0.028807389 -0.12036912
-0.54308087 -0.3379374 -0.21017747 -0.22019191 -0.10255247 -0.13234586 -0.6424129 -0.15157992
00000000: 88f8 35bd 0b1b babd 686f 92be 3947 afbe
00000010: 04e6 563c 1a53 25be 0313 d1bc f641 fdbd
00000020: 7b66 8dbd 1fed 31bd 567e 43bc 47fe ebbd
00000030: 7adc 493e 98c9 b03d 371f 523d 4672 a13d
00000040: 53eb 4cbe 9b90 86be 11ed 73bd 4adc 4dbc
00000050: 2bf8 4cbf 0eef 0cbf 423f dcbd 29fb bebd
00000060: c8d6 a3bd c94f 6dbd 9c82 55bb c4ca 35be
00000070: e412 17be 73d3 c0bd 600b 093c a14c 70bd
00000080: 8815 d8bd d42a c0be 4128 7c3d b7ab 823d
00000090: b032 71bd 2d7b 3cbe 986d 2d3e 5db7 203e
000000a0: df9e 21bd 5061 09bd 6a96 a7be 078a 7cbe
000000b0: e05c b6bd 0f6e 32be 4575 bbbe 9e2a 2dbe
000000c0: 3c90 ccbd cd61 673d b0f1 46be 4533 31be
000000d0: 2e7b aebe 5b5f 31be f5bf c6be 8f9a 56be
000000e0: 5cdf f6bd 947d a1bd 1e32 d03c 36e8 3ebe
000000f0: 9cb0 b8bd 5b2f 95bd fc06 0ebd a7a8 9cbd
00000100: fa1d 743b 2dc5 a2bc 9f91 1bbe 53ba 71be
00000110: 7866 333d e423 fc3c 164c 07be 7fd8 a9be
00000120: 1b5d 31bf 0810 e5be 1e78 28be 66f7 b3be
00000130: ad54 7abc 4b3e 8cbd 65b3 24be 96ac a5be
00000140: 5f8e 03bc 74a1 d1be cb75 38be 4969 e5bd
00000150: daa2 38bc 1807 bdbd 4a6a 1cbe 1166 d3be
00000160: cd23 ec3c f29c 6abd 5ef2 6dbe 4ca5 69be
00000170: 8273 91bd 9711 03bd 4459 223e e21a aa3d
00000180: 8c11 933d b65c d0bd eece 01bf 3481 adbe
00000190: 86f5 85be d750 9cbe 8bd1 b0be 938d 35bf
000001a0: 45d8 233d 69b3 e8bd e3b8 c7bd 61cf dcbd
000001b0: 492e 1cbe a25e bbbd ee5e 1bbe bafd a8be
000001c0: 6b48 11be 0f29 04bd c7e1 31bc 73da 95bd
000001d0: d90c 2cbf 0d19 efbd f496 b13d dd93 243e
000001e0: 61f2 04bf 4d1b 36be 429a 4dbd 9d57 9bbd
000001f0: f5c9 37bd 36ce 903a b5f7 48be 1f4d c2be
00000200: 76b3 70bd 0911 3c3c 16f4 cfbe d74f a1bd
00000210: 5fba 953d 1c89 ffbc 4c15 0bbe a93d 8a3b
00000220: 5361 df3d 4c1b af3d 0b79 37bd 6bac 983c
00000230: 963e 83bd 86c8 003e 639d 01bc 722c fabd
00000240: 9687 c0be ccc7 97be ff59 57bb b1a8 68bd
00000250: 652c 51bf 4e89 0cbf f1be 96be 36aa 74bd
00000260: bb60 5abd 688b 7ebd ed3c 20be 2e37 f4bd
00000270: de16 4fbd c55a b7be 0a9f 2abd a5b1 203d
00000280: 09e1 abbe dc82 12bf 014a b93e 11e9 393e
00000290: 5509 0b3d e01d 49bd 94a6 70bd 7e66 3abc
000002a0: ac6f 53be 49de 2dbe 250a 22be 1540 1c3b
000002b0: 8619 20be 62fb b9bc 0883 56be 8ba2 2fbe
000002c0: 1ffd 883d b1eb fcbc 31a5 6dbe 12c3 9ebd
000002d0: 9494 cdbe 8498 4f3b ecef d2be b555 a1be
000002e0: b2be a5be 96bd b6bd 22e7 8cbd 76c4 8ebe
000002f0: c30b 30be 2001 4dbe 864d 5ebe f525 5bbe
00000300: 7c8a 113d 737e b3bd 20cd 86bd 15ff 06bd
00000310: 97f7 2b3d 1f4f 923d 7e5e c3bd 2c7e 90be
00000320: 8d15 66bf 0179 b9be d568 c9be 501d b3be
00000330: f387 1fbd 2fd1 9c3c ac83 80be 59e7 a1be
00000340: 7416 97be 894c 0cbf 7abf 1dbe b978 edbc
00000350: 0554 2b3c 94e9 90bd d81e 08bf 08a2 f1bd
00000360: 86b3 0fbd 18b3 80bd 5b8a 9fbe 6e03 b6be
00000370: 1e00 2a3c f69a 593b bc4a 583c 15f5 533d
00000380: d41d d7bd cac7 0abe 26a6 39bf b1f7 dbbe
00000390: b139 2cbe bfe3 edbe 8c88 a1be c278 e1be
000003a0: 6025 313d 8187 3cbd d76f 8ebe a532 82bd
000003b0: 8a3b bbbe 78d3 8dbe 417b bcbe 9f2d 93be
000003c0: feef 96be 169c b93c 9354 48be 1841 80bd
000003d0: 27da 23bf fd0e 1cbe 79fd ebbc 1684 f6bd
000003e0: 5907 0bbf 2206 adbe c338 57be fd79 61be
000003f0: 0807 d2bd ac85 07be 2c75 24bf c437 1bbe

bias f4 [256]
0.045523886 0.06910829 -0.25799602 0.017299607 -0.2326271 0.36527097 0.38713643 -0.14576451
0.08036015 -0.08134139 0.019472186 -0.008266039 0.3940719 0.057483107 -0.08410259 -0.14697653
0.116722 0.091882795 0.13150513 0.08875757 0.2754806 -0.23518102 0.124848895 -0.17371446
0.09812649 0.045909874 0.027160129 0.2428908 0.1101289 -0.24126893 0.4773824 -0.32133093
0.15441361 0.5143376 0.47199824 0.078178525 0.13581334 0.21551026 -0.008143335 -0.15940915
0.14766839 0.059268307 0.2714873 0.08749311 0.08813797 -0.24502291 0.20493977 0.23566969
0.10830834 0.07859219 0.16712567 0.0026239818 0.18798919 0.03291276 -0.053340197 0.0074895974
-0.20251341 -0.28265902 0.083900586 -0.11537338 -0.1453085 -0.2342854 0.07768666 -0.26790926
-0.28617227 -0.04988646 -0.25477117 -0.014073402 0.11230154 0.1783472 0.020688498 -0.004998435
-0.3492487 0.11901692 0.19837026 -0.068781525 -0.11458727 0.0493351 -0.13337758 -0.019923829
-0.13287023 0.18009374 -0.15519994 0.03796839 0.030775374 0.19840018 0.007343516 -0.15352929
0.107742175 -0.052312188 0.017273583 -0.19030543 0.1239022 0.13005754 0.061495397 -0.07633635
0.23957193 0.06982902 -0.05563666 0.15201612 0.054785606 0.21494631 -0.22200145 -0.25870696
-0.057522975 0.16872595 0.02674882 -0.119899966 -0.19994336 -0.13365786 0.05599405 0.41809753
0.049186695 -0.25994062 0.20871937 0.101297356 -0.06493791 -0.084711164 0.021159282 0.35349476
-0.32139018 -0.16048563 0.18019432 0.18090303 0.24242432 -0.17249468 -0.44761485 -0.3348506
0.22829516 -0.14837423 0.1406229 0.009561374 0.14742339 -0.002208011 0.24251576 -0.06826197
-0.15027189 0.22263113 0.07982646 0.15634647 0.17192656 0.108570635 0.05256087 -0.113095105
0.08234815 0.0549954 0.13596046 -0.36806107 -0.22206971 -0.15729265 0.46490374 0.09351649
-0.2237743 0.13459669 -0.10728376 -0.19101568 -0.15683721 -0.21715263 0.108743705 0.5185675
0.0358194 -0.0018523067 -0.015077332 0.18429506 -0.013796673 -0.18667437 -0.32090196 0.14859581
-0.10559319 0.24732764 0.046288867 -0.022742579 0.13950197 -0.21610713 0.07203982 0.2170659
0.1016403 0.19127989 -0.19542062 -0.17323142 0.21109284 0.4643065 0.18585588 -0.11979816
0.3280798 0.0036667075 0.16140105 -0.29504946 0.1381885 -0.13436103 -0.22090696 -0.0635334
0.13154265 -0.14246295 0.5312554 0.33099604 -0.28819293 0.14179291 -0.39411288 -0.3124912
0.10889441 -0.07726339 0.38860333 0.049329408 -0.12682702 -0.07452199 -0.1825063 0.32339406
-0.2524453 -0.11257792 -0.2091409 0.31100157 0.09293768 0.46294057 -0.21681361 0.23506239
0.03367742 0.027160447 -0.21661775 -0.14974314 -0.25954035 -0.037753116 0.13642815 -0.22555372
0.06612115 0.05938948 0.029229524 -0.20078982 0.17582527 -0.014997558 -0.15336286 0.10423313
0.22320914 0.053396363 -0.40789536 -0.23192786 0.102065414 -0.04481392 -0.1788604 0.21232753
0.23712003 0.111026116 0.22762218 -0.018651672 -0.12031605 -0.26224512 -0.13352002 0.27454087
-0.25757116 0.10609862 -0.33013353 0.04116484 -0.0612269 -0.14386491 0.15529937 0.22006886
00000000: 4177 3a3d a688 8d3d 0e18 84be e8b7 8d3c
00000010: cc35 6ebe cc04 bb3e bf36 c63e 4b43 15be
00000020: dd93 a43d 5196 a6bd 2284 9f3c 486e 07bc
00000030: cbc3 c93e 6873 6b3d fb3d acbd 0481 16be
00000040: f20b ef3d 0c2d bc3d 48a9 063e 87c6 b53d
00000050: cb0b 8d3e 4bd3 70be c7b0 ff3d 34e2 31be
00000060: 8bf6 c83d fe0b 3c3d eb7e de3c 5eb8 783e
00000070: 438b e13d 340f 77be 776b f43e 7d85 a4be
00000080: 9a1e 1e3e a1ab 033f c1a9 f13e 101c a03d
00000090: a712 0b3e b9ae 5c3e 9f6b 05bc 273c 23be
000000a0: 6236 173e 53c3 723d 6200 8b3e 962f b33d
000000b0: ae81 b43d 49e7 7abe bbdb 513e 6553 713e
000000c0: c3d0 dd3d f1f4 a03d fe22 2b3e 1cf7 2b3b
000000d0: 3d80 403e 88cf 063d 407b 5abd 4c6b f53b
000000e0: ad5f 4fbe afb8 90be 12d4 ab3d e148 ecbd
000000f0: c0cb 14be 83e8 6fbe 2f1a 9f3d 672b 89be
00000100: 2c85 92be bf55 4cbd 5e71 82be 2094 66bc
00000110: 5afe e53d a6a0 363e ed7a a93c e9c9 a3bb
00000120: bad0 b2be 25bf f33d 9321 4b3e 54dd 8cbd
00000130: bbac eabd 9a13 4a3d 2294 08be 4c37 a3bc
00000140: 220f 08be 7e6a 383e bcec 1ebe be84 1b3d
00000150: a31c fc3c 6b29 4b3e e1a1 f03b c836 1dbe
00000160: eea7 dc3d 4e45 56bd 5481 8d3c 6ddf 42be
00000170: 70c0 fd3d ce2d 053e 99e2 7b3d 3b56 9cbd
00000180: 5852 753e 8402 8f3d 44e3 63bd 1daa 1b3e
00000190: df66 603d e31a 5c3e 5954 63be 3d75 84be
000001a0: 369d 6bbd 7fc6 2c3e 5720 db3c 1d8e f5bd
000001b0: f4bd 4cbe 9bdd 08be 045a 653d e110 d63e
000001c0: fd77 493d f016 85be 88ba 553e fd74 cf3d
000001d0: 2bfe 84bd 0c7d adbd 3b56 ad3c 44fd b43e
000001e0: 418d a4be 5856 24be dc84 383e a53e 393e
000001f0: 153e 783e 72a2 30be c62d e5be 8a71 abbe
00000200: 35c6 693e 6aef 17be 73ff 0f3e 4fa7 1c3c
00000210: 28f6 163e 47b4 10bb 0d56 783e efcc 8bbd
00000220: e0e0 19be 6af9 633e 0e7c a33d 4a19 203e
00000230: 840d 303e 485a de3d 114a 573d 689e e7bd
00000240: 26a6 a83d db42 613d 3839 0b3e 8072 bcbe
00000250: 3e66 63be 5311 21be dd07 ee3e 9385 bf3d
00000260: 1725 65be b7d3 093e 97b7 dbbd 9d99 43be
00000270: ef99 20be 425d 5ebe 05b5 de3d d7c0 043f
00000280: 5db7 123d 19c9 f2ba ea06 77bc d8b7 3c3e
00000290: 710b 62bc 9127 3fbe 434d a4be 8029 183e
000002a0: 3e41 d8bd 7543 7d3e 6599 3d3d a54e babc
000002b0: 9bd9 0e3e 304b 5dbe 9d89 933d 8646 5e3e
000002c0: ca28 d03d e0de 433e 581c 48be 9463 31be
000002d0: b928 583e 95b9 ed3e 0151 3e3e bd58 f5bd
000002e0: 13fa a73e 254d 703b 5146 253e b910 97be
000002f0: 4981 0d3e f095 09be 6f35 62be cd1d 82bd
00000300: 1eb3 063e cfe1 11be 5b00 083f 5078 a93e
00000310: 068e 93be 2932 113e 2ac9 c9be d9fe 9fbe
00000320: 0804 df3d 453c 9ebd 04f7 c63e a20d 4a3d
00000330: f1de 01be fc9e 98bd eee2 3abe e893 a53e
00000340: 8340 81be 418f e6bd 0829 56be 993b 9f3e
00000350: 1c56 be3d 8c06 ed3e 6304 5ebe 32b4 703e
00000360: 56f1 093d 967f de3c 0bd1 5dbe 4456 19be
00000370: 79e2 84be 03a3 1abd d2b3 0b3e 8ef7 66be
00000380: 876a 873d 6242 733d c172 ef3c d99b 4dbe
00000390: 8a0b 343e 51b8 75bc 270b 1dbe 2e78 d53d
000003a0: f090 643e 25b6 5a3d a9d7 d0be 7f7e 6dbe
000003b0: ac07 d13d cd8e 37bd 2e27 37be 636c 593e
000003c0: 98cf 723e a961 e33d ca15 693e 64cb 98bc
000003d0: 4368 f6bd fe44 86be 79b9 08be 9f90 8c3e
000003e0: 5ee0 83be 3c4a d93d 4307 a9be 779c 283d
000003f0: 0fc9 7abd 5351 13be cc06 1f3e bb59 613e

weight f4 [256]
1.0670849 1.0090303 1.1129104 1.5163244 1.1636983 1.2340887 1.0689166 1.0842499
1.008719 1.1588812 1.2251085 1.1415423 1.2077725 1.0753257 1.1430206 1.2649804
1.3483486 1.1693288 1.150427 1.1612612 0.8987011 1.1435316 1.2302895 1.180606
1.0009679 1.3254181 0.92594546 1.088797 1.2895073 1.0847865 1.24153 1.247612
0.9286105 1.0719991 1.181223 1.1171601 1.4963148 1.0029103 1.0786918 0.869801
1.0979872 1.0480956 1.0150032 1.4400789 1.2515216 1.1353965 1.0079238 1.2212183
1.019316 1.4131347 0.9760512 1.1771673 1.288546 1.2574879 1.2755731 1.0423005
1.322219 1.173667 1.1870903 1.3114018 1.1187433 1.1291806 1.5008798 1.1052434
1.1876808 1.13038 1.0602379 1.1628659 1.1831871 1.1896805 1.1660588 0.99329394
1.1923854 1.2771939 1.1433123 1.4167901 1.0606015 1.2172568 1.1678902 1.0934064
1.1301103 1.3884872 1.2642788 1.4938792 1.0991803 1.2059526 1.0056697 1.2092577
1.1176449 1.3787105 1.0975437 0.97722185 1.2110609 1.4161551 1.2949053 1.3266551
1.2996122 1.1499711 1.4304999 0.90198356 1.4390273 1.2489483 1.2887664 1.1947845
1.0094467 1.2270361 0.97129625 1.435286 1.2609175 1.0494488 1.1656437 1.0121908
1.2583004 1.2450618 1.2256062 1.3068231 1.2285265 1.0994382 1.103139 1.188255
1.1468645 1.0307657 1.1816596 1.2173686 0.89381546 1.0774504 1.0869125 1.0397031
0.9698409 1.4334948 1.3289354 1.062621 0.8860261 1.2731035 1.0914867 1.3759412
0.9911495 0.99116707 1.2206161 1.1864822 1.4298935 1.2770052 0.97117454 1.2019519
1.1704166 1.0962875 1.2342709 1.1082674 1.2558078 1.1089401 1.2608123 1.1002064
1.2556213 1.1277083 0.908672 1.2568799 1.2085434 1.3009884 1.197778 1.1259967
1.2510378 1.0231423 1.053409 1.162193 1.1509037 1.2395011 1.0005388 1.3428072
1.2479755 1.2065237 1.0393926 1.1031888 1.0437484 1.1663871 0.905314 1.1918681
1.0405947 1.3791828 1.407561 0.87129706 1.1086304 1.0254298 1.0331752 1.2965617
1.1921738 1.3412206 1.0829883 1.1519123 1.2741389 1.2169086 1.2553636 1.2262623
1.1582386 0.95608974 0.87313515 0.7903707 1.1107934 1.1947112 0.9144951 1.0986763
1.2275907 1.1164148 1.1958745 1.1027694 1.0551343 1.3918577 1.0740339 0.86311185
1.2340605 1.2990665 1.0747142 1.1677121 1.2706767 1.2608739 1.0504619 1.0575829
1.0183059 1.073739 1.1427696 1.061464 1.1672636 1.2269696 1.5354966 1.45277
1.250051 0.9777788 0.95677996 1.0850936 1.1279817 1.1549588 1.1482687 0.95886266
1.1584139 1.0992104 1.1357563 1.1989535 1.0224878 1.1806105 1.2170078 0.80020547
0.7944247 1.0868657 1.2141576 0.98818195 1.1443194 1.1249472 1.1723515 1.0287164
1.2096331 1.2080864 1.2556086 1.2579293 0.8733481 1.1514249 0.84864897 1.3822775
00000000: 3d96 883f e827 813f d973 8e3f eb16 c23f
00000010: 11f4 943f 9ef6 9d3f 42d2 883f b3c8 8a3f
00000020: b41d 813f 3856 943f 5bd0 9c3f 0f1e 923f
00000030: 4a98 9a3f 46a4 893f 804e 923f e1ea a13f
00000040: b096 ac3f 91ac 953f 3141 933f 35a4 943f
00000050: 4611 663f 3e5f 923f 207a 9d3f 191e 973f
00000060: b71f 803f 4da7 a93f c30a 6d3f b35d 8b3f
00000070: 930e a53f 49da 8a3f 74ea 9e3f c0b1 9f3f
00000080: 6bb9 6d3f 4437 893f 5132 973f 1aff 8e3f
00000090: 3e87 bf3f 5d5f 803f 9312 8a3f 47ab 5e3f
000000a0: d88a 8c3f ff27 863f a0eb 813f 8154 b83f
000000b0: dc31 a03f ac54 913f a603 813f e250 9c3f
000000c0: f278 823f 99e1 b43f 7ede 793f 6bad 963f
000000d0: 13ef a43f 5df5 a03f fb45 a33f 1a6a 853f
000000e0: 793e a93f b83a 963f 93f2 973f 04dc a73f
000000f0: fb32 8f3f fd88 903f d41c c03f 9e78 8d3f
00000100: ed05 983f 4bb0 903f e0b5 873f cad8 943f
00000110: ad72 973f 7347 983f 6a41 953f 8348 7e3f
00000120: 16a0 983f 177b a33f 0f58 923f 6159 b53f
00000130: cac1 873f 12cf 9b3f 6d7d 953f bef4 8b3f
00000140: 74a7 903f f3b9 b13f e3d3 a13f 6f37 bf3f
00000150: f1b1 8c3f a85c 9a3f c9b9 803f f5c8 9a3f
00000160: fd0e 8f3f 9679 b03f 507c 8c3f 362b 7a3f
00000170: 0b04 9b3f 9244 b53f 75bf a53f d6cf a93f
00000180: b159 a63f 4132 933f 9f1a b73f 65e8 663f
00000190: 0c32 b83f 8add 9f3f 4cf6 a43f b3ee 983f
000001a0: 8d35 813f 850f 9d3f dfa6 783f 74b7 b73f
000001b0: bf65 a13f 5754 863f d033 953f 788f 813f
000001c0: fd0f a13f 2f5e 9f3f aae0 9c3f fb45 a73f
000001d0: 5b40 9d3f 64ba 8c3f a933 8d3f bd18 983f
000001e0: 75cc 923f 21f0 833f 9f40 973f bcd2 9b3f
000001f0: 17d1 643f e5e9 893f f31f 8b3f fe14 853f
00000200: 7e47 783f c27c b73f 8e1a aa3f f703 883f
00000210: 9bd2 623f 0ef5 a23f d6b5 8b3f d71e b03f
00000220: f9bb 7d3f 20bd 7d3f 263d 9c3f a6de 973f
00000230: c006 b73f e874 a33f e59e 783f 8fd9 993f
00000240: 36d0 953f 2653 8c3f 97fc 9d3f b5db 8d3f
00000250: 4fbe a03f c0f1 8d3f 4c62 a13f 90d3 8c3f
00000260: 33b8 a03f bf58 903f ba9e 683f 71e1 a03f
00000270: 8db1 9a3f ca86 a63f ca50 993f a920 903f
00000280: 0222 a03f 54f6 823f 1bd6 863f bdc2 943f
00000290: d050 933f f9a7 9e3f a811 803f 1be1 ab3f
000002a0: a9bd 9f3f 5e6f 9a3f d10a 853f 4a35 8d3f
000002b0: 8c99 853f 2c4c 953f a9c2 673f 228f 983f
000002c0: 3532 853f 1089 b03f f52a b43f 530d 5f3f
000002d0: 9ae7 8d3f 4941 833f 163f 843f bcf5 a53f
000002e0: 2799 983f 1ead ab3f 5c9f 8a3f dd71 933f
000002f0: fc16 a33f a9c3 9b3f c1af a03f 2af6 9c3f
00000300: 2a41 943f 4cc2 743f c985 5f3f bc55 4a3f
00000310: 7a2e 8e3f 4cec 983f 5a1c 6a3f 6da1 8c3f
00000320: b121 9d3f aee6 8e3f 6a12 993f 8c27 8d3f
00000330: a40e 873f 6528 b23f f179 893f e6f4 5c3f
00000340: b2f5 9d3f d047 a63f 3c90 893f 9777 953f
00000350: 89a5 a23f 5164 a13f 8975 863f e05e 873f
00000360: d957 823f 4870 893f 4646 923f 0dde 873f
00000370: e568 953f 570d 9d3f 278b c43f 5ef4 b93f
00000380: ac01 a03f b64f 7a3f 88ef 743f 59e4 8a3f
00000390: b461 903f b1d5 933f 78fa 923f 0678 753f
000003a0: e846 943f edb2 8c3f 7660 913f 4f77 993f
000003b0: e1e0 823f 3f1e 973f e9c6 9b3f 44da 4c3f
000003c0: 6b5f 4b3f 6a1e 8b3f 8469 9b3f 7ef9 7c3f
000003d0: 0f79 923f 45fe 8f3f 9d0f 963f fbac 833f
000003e0: 42d5 9a3f 93a2 9a3f c8b7 a03f d403 a13f
000003f0: be93 5f3f e461 933f 0f41 593f 78ee b03f

bias f4 [256]
-0.050365575 0.088662446 0.31363744 0.15578356 0.2808913 0.026189463 -0.015881991 0.36025193
0.066301405 0.22700661 0.033020772 -0.0017639542 0.015895596 -0.060222067 0.42942843 0.16919607
0.008351895 -0.0606872 -0.039556377 0.24310763 0.093307525 0.29524985 0.02016799 0.30957645
0.075982615 0.3224976 0.19419673 -0.04323686 -0.038737345 0.3166661 -0.095472075 0.3356986
-0.1943893 -0.291572 -0.21818298 -0.02173008 0.5219867 -0.031116838 0.009804893 -0.008501672
-0.014614621 0.0072603077 0.0242087 0.030736485 0.32669553 0.3816997 0.18045132 0.35547945
0.12618765 0.40963 -0.1056238 0.3804892 0.27812293 0.25805905 0.18697761 0.005923036
0.3267133 0.14565474 -0.07818381 0.40169865 0.34523162 0.31375283 -0.12696625 0.31160405
0.35777056 0.17795528 0.2616079 0.53818476 0.116871215 -0.05526938 0.028905487 -0.05406811
0.5162956 0.3073462 -0.04202224 0.29867002 0.0984151 -0.0847553 0.3023662 0.1723657
0.28633025 0.238322 0.22695734 -0.03572713 0.060044877 0.17430703 0.23369552 0.27517605
0.022080999 0.5619709 0.0025672205 0.20159711 0.014298183 -0.071416736 0.008975495 0.37948787
0.22709352 -0.07321114 0.3149249 0.2004437 -0.1055656 -0.046589643 0.36858323 0.24528751
0.26953256 0.15909627 -0.06870665 0.54952157 0.32100016 0.28140923 0.14464994 -0.21115091
0.1284861 0.40927413 0.21324953 -0.021534465 0.4469052 0.10631994 0.05415162 0.10020939
0.18417121 0.1750055 0.12565076 -0.047500525 -0.10131753 0.47537997 0.26866153 0.33173597
-0.13399538 0.48116207 0.28094935 -0.052225806 -0.30324748 0.44195947 0.113103524 0.27502304
0.25005025 -0.0010047301 0.36899757 0.35153657 0.27084854 0.44201592 0.13264036 0.40628153
-0.063606344 -0.03694853 -0.13329132 0.30498037 0.19575118 0.2940656 -0.25881383 -0.0788564
0.37198836 0.080654025 0.12456349 0.18788409 0.18479715 0.28270826 0.21695346 -0.16159207
0.32061055 0.2037506 0.17419872 -0.015666667 0.29867363 0.29040122 0.33762485 0.3915327
0.24754584 0.44138497 -0.0025000102 0.22475937 0.022055607 0.25997612 -0.068498574 0.044679444
0.0027290094 0.18490767 0.22471929 0.30309087 0.09716346 -0.060060583 -0.00097267993 0.30888775
-0.044520143 0.42460802 0.12760085 0.3347996 0.24091695 0.3252937 0.22452356 0.09296922
0.13953516 0.20467535 -0.36469015 -0.32527173 0.30936867 0.45636463 0.2964865 0.39498332
0.039453574 0.2623186 -0.008781894 -0.03614636 0.26449525 0.33583647 0.1514956 -0.3257777
0.35917962 0.18813056 0.12330666 0.013079713 0.123765334 -0.16876471 0.03387562 0.11065299
-0.024604477 0.030994715 0.37619218 0.25558338 0.35174516 0.51932204 -0.025257172 0.016596384
0.3576746 0.04316886 0.14430793 0.5037767 0.051461715 -0.04279476 0.22851357 0.0022485608
0.10827267 0.049012806 0.29394606 0.27849138 -0.17542332 0.48348495 0.17697063 -0.1792141
0.015687088 0.16238256 0.28506035 0.1353362 0.30977413 0.26272085 0.34328148 -0.07055709
0.3265049 0.002208855 0.18968175 0.13252074 -0.15218773 0.32769886 0.039543875 0.37918925
00000000: 224c 4ebd a894 b53d 1695 a03e ba85 1f3e
00000010: fcd0 8f3e 498b d63c f31a 82bc f172 b83e
00000020: 08c9 873d 6c74 683e ca40 073d 7b34 e7ba
00000030: 7b37 823c 6aab 76bd 0bde db3e bc41 2d3e
00000040: 63d6 083c 2493 78bd de05 22bd 35f1 783e
00000050: 0418 bf3d fd2a 973e 5737 a53c ce80 9e3e
00000060: c69c 9b3d 681e a53e 82db 463e 2219 31bd
00000070: 0dab 1ebd 0f22 a23e dd86 c3bd b0e0 ab3e
00000080: fd0d 47be ed48 95be 5c6b 5fbe 4803 b2bc
00000090: eca0 053f bde8 febc b4a4 203c 994a 0bbc
000000a0: 2a72 6fbc e0e7 ed3b 5351 c63c 15cb fb3c
000000b0: a344 a73e 256e c33e 3bc8 383e 6701 b63e
000000c0: 5637 013e 06bb d13e 4a51 d8bd 7bcf c23e
000000d0: 2166 8e3e 5120 843e 0f77 3f3e 0716 c23b
000000e0: f746 a73e 8426 153e d51e a0bd 72ab cd3e
000000f0: 33c2 b03e 36a4 a03e 7103 02be 918a 9f3e
00000100: b42d b73e e939 363e 78f1 853e 7ac6 093f
00000110: 2d5a ef3d 2562 62bd 33cb ec3c 8676 5dbd
00000120: f32b 043f 7b5c 9d3e 831f 2cbd 47eb 983e
00000130: db8d c93d 3094 adbd becf 9a3e a280 303e
00000140: e199 923e af0a 743e 8167 683e 9c56 12bd
00000150: 9ef1 753d 8b7d 323e e14d 6f3e e0e3 8c3e
00000160: 36e3 b43c 53dd 0f3f d03e 283b 796f 4e3e
00000170: ed42 6a3c f042 92bd f40d 133c 3c4c c23e
00000180: 348b 683e b9ef 95bd d63d a13e 1d41 4d3e
00000190: c732 d8bd c8d4 3ebd f1b6 bc3e a62c 7b3e
000001a0: 2c00 8a3e 22ea 223e 12b6 8cbd 72ad 0c3f
000001b0: 225a a43e df14 903e 1d1f 143e f237 58be
000001c0: dc91 033e 618c d13e 165e 5a3e 0c69 b0bc
000001d0: c2d0 e43e 45be d93d 17ce 5d3d 953a cd3d
000001e0: 6197 3c3e a434 333e 98aa 003e e98f 42bd
000001f0: 917f cfbd 0165 f33e 018e 893e 4cd9 a93e
00000200: 1636 09be e05a f63e 98d8 8f3e baea 55bd
00000210: 4143 9bbe 8348 e23e d2a2 e73d d2cf 8c3e
00000220: 9606 803e 26b1 83ba 40ed bc3e 9afc b33e
00000230: a9ac 8a3e e94f e23e e0d2 073e 2204 d03e
00000240: 0b44 82bd 5757 17bd 857d 08be 6326 9c3e
00000250: ff72 483e c48f 963e 3f83 84be 777f a1bd
00000260: 4275 be3e f02d a53d 251b ff3d b064 403e
00000270: 773b 3d3e 23bf 903e 0c29 5e3e 6478 25be
00000280: 1127 a43e ffa3 503e 2661 323e 6257 80bc
00000290: c0eb 983e 78af 943e 2add ac3e f976 c83e
000002a0: a87c 7d3e 36fd e13e 36d7 23bb 5227 663e
000002b0: f6ad b43c 971b 853e fb48 8cbd cb01 373d
000002c0: 2ed9 323b 7058 3d3e d01c 663e ba2e 9b3e
000002d0: a3fd c63d 1602 76bd 72fb 7eba 8926 9e3e
000002e0: c15a 36bd 3966 d93e cca9 023e da6a ab3e
000002f0: efb2 763e e58c a63e 81e9 653e a566 be3d
00000300: 4ee2 0e3e 6a96 513e abb8 babe 048a a6be
00000310: 9265 9e3e a0a8 e93e 14cd 973e 413b ca3e
00000320: 129a 213d a04e 863e efe1 0fbc 350e 14bd
00000330: ec6b 873e c2f2 ab3e aa21 1b3e 56cc a6be
00000340: 64e6 b73e 4ca5 403e 3488 fc3d 4b4c 563c
00000350: ae78 fd3d a8d0 2cbe 2ac1 0a3d 099e e23d
00000360: 548f c9bc a1e8 fd3c 439c c03e d3db 823e
00000370: f117 b43e 4af2 043f 21e8 cebc 24f5 873c
00000380: 2021 b73e d5d1 303d 75c5 133e 83f7 003f
00000390: 85c9 523d 8f49 2fbd 76ff 693e 975c 133b
000003a0: 10be dd3d a7c1 483d 1980 963e 6c96 8e3e
000003b0: 2ca2 33be 578b f73e ca37 353e e783 37be
000003c0: 3582 803c 9d47 263e 6ef3 913e 9395 0a3e
000003d0: b79a 9e3e 5983 863e 97c2 af3e 3c80 90bd
000003e0: a62b a73e 70c2 103b ef3b 423e 84b3 073e
000003f0: 1ad7 1bbe 25c8 a73e c2f8 213d 1825 c23e

running_mean f4 [256]
0.0054382137 0.0028435166 0.25091162 0.028012196 0.1710671 0.5465355 0.66741455 0.20704342
0.069353566 0.09798361 0.031531963 0.016948408 0.59047186 0.0023052373 1.2164745 0.23701651
0.0090731485 0.0108092595 0.03334103 0.66519165 0.8216754 0.038449056 0.02652338 0.32067135
0.13744181 0.73960054 0.082651496 0.27978018 0.01573987 0.28285852 0.46787742 0.41813287
0.03360573 0.11786219 0.36020485 0.017812544 0.7969564 0.32187587 0.06258194 1.4090614e-18
0.043138973 0.002677642 0.097676404 0.06298987 0.7001652 0.606249 0.7397403 0.54849815
0.076970465 0.7470651 0.039808128 0.80358803 0.66602665 0.53394765 0.14978206 0.030416809
0.6904573 0.12204738 0.030178849 1.1663886 0.7475137 0.5850557 0.066668175 0.122740604
0.42597148 0.62992704 0.23982453 1.0290488 0.08536461 0.061476875 0.0037489461 0.0025468962
1.0576353 0.79650986 0.17862922 0.8033746 0.09772804 0.009454876 0.3682336 0.030632786
0.32989556 0.40658304 0.49994957 0.050122082 0.0024824361 0.41065577 0.56967795 0.7205045
0.017661367 0.9353658 0.003133435 0.16433969 0.039878897 0.014254172 0.018551545 0.89818877
0.41328028 0.0035874643 0.76657134 0.7727716 0.05269917 0.34001115 0.37697956 0.078843504
0.10739746 0.110585436 0.012231317 1.4270132 0.26949176 0.21607187 0.06650618 0.10131577
0.50325555 1.4487033 0.39766642 0.013864071 0.6130626 0.058022395 0.05311519 0.90821123
0.14164495 0.032253142 0.23437025 0.026197327 0.041656945 1.314294 0.041080616 0.36777455
0.06282473 0.72506523 0.4510572 0.07980634 0.03543922 0.6595553 0.17631344 0.83569485
0.29274556 0.39934704 0.99833965 0.70745534 0.68121046 0.61354876 0.038233627 0.7866589
0.009808118 0.003453924 0.064825736 0.27661994 0.2482592 0.62005275 0.29010153 0.03747489
0.33342424 0.09114867 0.10216893 0.45751467 0.68387 0.18200329 0.2907206 0.6041332
0.46549007 0.057249397 0.3590207 0.20474899 0.9285794 0.8021941 0.425263 1.0987107
0.87277687 0.78173083 0.054914903 0.6389946 0.079817474 0.6741988 0.020760337 0.26957238
0.024846707 0.37460446 0.5618752 0.7079382 0.5473728 0.72136533 0.22194286 0.81185836
0.4614755 0.9674181 0.13558072 0.5272449 0.8117208 0.28446257 0.1091424 0.14019102
0.12101654 0.10993604 0.07422106 0.048041865 0.21479717 0.75933975 0.04797299 0.36056662
0.2254516 0.21549863 0.57262313 0.003733317 0.23884581 0.769288 0.12519653 0.043848332
0.3488063 0.44858223 0.046211075 0.9226967 0.12559775 0.46125272 0.002908567 0.24916115
0.004624893 0.02031058 0.23853858 0.61049974 0.13123304 0.93632483 0.038528983 3.243727e-05
1.0637169 0.42234474 0.013042069 1.1973873 0.4768311 0.029573092 0.25322175 0.017045673
0.7059481 0.03186915 0.06270149 0.39910024 0.0136636775 0.9217013 0.58561337 0.02697536
0.053902064 0.026268654 0.81357485 0.034345537 0.17683277 0.065368354 1.1307722 0.21241511
0.7241775 0.014610498 0.0031279714 0.06350089 0.0023875013 0.3378627 0.012334624 0.76695967
00000000: 0b33 b23b 4b5a 3a3b 7d77 803e d579 e53c
00000010: 372c 2f3e c0e9 0b3f aedb 2a3f 3103 543e
00000020: 3e09 8e3d a2ab c83d a927 013d 63d7 8a3c
00000030: 2a29 173f 7713 173b 70b5 9b3f 75b4 723e
00000040: 8ba7 143c 5219 313c 9b90 083d 004a 2a3f
00000050: 5259 523f c27c 1d3d 8f47 d93c 092f a43e
00000060: 8cbd 0c3e 7656 3d3f 3045 a93d 593f 8f3e
00000070: e6f0 803c d5d2 903e a18d ef3e 8315 d63e
00000080: 29a6 093d bb61 f13d c56c b83e 9deb 913c
00000090: 5605 4c3f eacc a43e f62a 803d d6f0 cf21
000000a0: 7eb2 303d 617b 2f3b 910a c83d d500 813d
000000b0: 073e 333f 2233 1b3f 9f5f 3d3f 606a 0c3f
000000c0: b1a2 9d3d a93f 3f3f d90d 233d f2b7 4d3f
000000d0: b980 2a3f cbb0 083f 7860 193e ac2c f93c
000000e0: cfc1 303f faf3 f93d a239 f73c 394c 953f
000000f0: 0f5d 3f3f 36c6 153f 5389 883d 6d5f fb3d
00000100: ef18 da3e e642 213f 9094 753e dfb7 833f
00000110: a4d3 ae3d 2dcf 7b3d e1b0 753b d4e9 263b
00000120: 9860 873f 12e8 4b3f 94ea 363e f5a9 4d3f
00000130: a325 c83d a0e8 1a3c 1d89 bc3e 9cf1 fa3c
00000140: 12e8 a83e a72b d03e 64f9 ff3e d04c 4d3d
00000150: 5eb0 223b 7941 d23e 6ad6 113f fc72 383f
00000160: 92ae 903c 2274 6f3f 515a 4d3b aa48 283e
00000170: 0e58 233d 558a 693c 69f9 973c b3ef 653f
00000180: 7999 d33e aa1b 6b3b 053e 443f 5cd4 453f
00000190: 16db 573d f115 ae3e 7703 c13e b478 a13d
000001a0: 33f3 db3d 9e7a e23d dd65 483c 5ea8 b63f
000001b0: d3fa 893e f241 5d3e 6434 883d a47e cf3d
000001c0: 5bd5 003f 1c6f b93f ef9a cb3e 2126 633c
000001d0: acf1 1c3f e4a8 6d3d 508f 593d 8880 683f
000001e0: 600b 113e df1b 043d c1fe 6f3e c79b d63c
000001f0: 79a0 2a3d c93a a83f 2644 283d f24c bc3e
00000200: 41aa 803d e09d 393f f8f0 e63e 8271 a33d
00000210: b728 113d 9ed8 283f 838b 343e 19f0 553f
00000220: bfe2 953e 3777 cc3e 3093 7f3f cb1b 353f
00000230: cf63 2e3f 8811 1d3f dd9a 1c3d 7a62 493f
00000240: 3bb2 203c 3b5b 623b 5bc3 843d 21a1 8d3e
00000250: a937 7e3e c7bb 1e3f 3088 943e 457f 193d
00000260: 95b6 aa3e 27ac ba3d f23d d13d 5d3f ea3e
00000270: 1b12 2f3f 125f 3a3e 55d9 943e 79a8 1a3f
00000280: b754 ee3e 587e 6a3d 90d1 b73e b8a9 513e
00000290: 61b7 6d3f 985c 4d3f 12bc d93e 8da2 8c3f
000002a0: 4e6e 5f3f 831f 483f 73ee 603d 2695 233f
000002b0: 5877 a33d 4b98 2c3f 9511 aa3c 6405 8a3e
000002c0: 528b cb3c 28cc bf3e 0ed7 0f3f 703b 353f
000002d0: a020 0c3f 66ab 383f fd44 633e f3d5 4f3f
000002e0: 8446 ec3e b6a8 773f acd5 0a3e 86f9 063f
000002f0: efcc 4f3f 14a5 913e 0d86 df3d 3c8e 0f3e
00000300: 85d7 f73d 2626 e13d 3601 983d 8cc7 443d
00000310: caf3 5b3e 1764 423f 537f 443d 309c b83e
00000320: c9dc 663e acab 5c3e 6e97 123f aaaa 743b
00000330: ff93 743e 0ff0 443f 8533 003e 4f9a 333d
00000340: bd96 b23e 92ac e53e d347 3d3d da35 6c3f
00000350: b29c 003e 5129 ec3e a89d 3e3b 1a24 7f3e
00000360: 6a8c 973b 6062 a63c 7543 743e b649 1c3f
00000370: f461 063e fcb2 6f3f 91d0 1d3d 410d 0838
00000380: e027 883f 923d d83e 67ae 553c fd43 993f
00000390: 3523 f43e 4543 f23c 48a6 813e 5ea3 8b3c
000003a0: 04b9 343f 3a89 023d a469 803d de56 cc3e
000003b0: 9edd 5f3c 9ef4 6b3f c2ea 153f 6efb dc3c
000003c0: 69c8 5c3d 5c31 d73c 7146 503f e8ad 0c3d
000003d0: a613 353e d8df 853d 25bd 903f 5983 593e
000003e0: b263 393f df60 6f3c a7fe 4c3b c10c 823d
000003f0: a077 1c3b 57fc ac3e 2a17 4a3c 7857 443f
