Best_models/wisdm_CNN_20210122_212207/CNN_wisdm_Rep_5_Seed_248.pt (torch_old, 224391 bytes, 12 tensors)

weight f4 [64, 6, 3]
0	0xbebbb7a6	-0.3666355
1	0xbe120ca2	-0.14262632
2	0x3da42ace	0.08015977
3	0x3d424f2a	0.047438778
4	0xbdbe4078	-0.0928964
5	0xbdc6d288	-0.097081244
6	0x3bdeed9f	0.006803229
7	0xbc988468	-0.018617824
8	0x3d34ddcd	0.04415684
9	0xbedc4410	-0.43020678
10	0x3e8e3bdb	0.2778004
11	0x3ed9826e	0.42482322
12	0x3ef68944	0.481516
13	0xbedd16d0	-0.43181467
14	0xbeeb4132	-0.45948178
15	0xbed70a8b	-0.4200023
16	0x3deae97f	0.11470317
17	0x3cd2129a	0.025643636
18	0xbe362311	-0.17786814
19	0xbd79775c	-0.060904846
20	0x3c3480b9	0.011017018
21	0x3da7c921	0.08192659
22	0x3db87bf3	0.090080164
23	0x3d51a3bb	0.051181536
24	0x3e1a4ebb	0.15069096
25	0x3dc9e70f	0.09858524
26	0x3e0128b2	0.1261318
27	0x3d2b0fa5	0.041762967
28	0x3d379bb2	0.044826217
29	0x3dc27027	0.094940476
30	0xbd541a72	-0.051783033
31	0xbe78f49b	-0.2431206
32	0xbe249336	-0.16071782
33	0x3eea69e9	0.45783928
34	0x3e68ecde	0.22746608
35	0x3e133c33	0.14378433
36	0x3e18675a	0.14883175
37	0x3e059542	0.13045219
38	0xbd697f40	-0.05700612
39	0xbdf12247	-0.11774116
40	0xbe06de2c	-0.1317069
41	0x3dab808e	0.08374129
42	0xbc661db4	-0.014045168
43	0xbe3bed39	-0.18352212
44	0xbe257841	-0.16159154
45	0x3eb5d0e9	0.35510948
46	0xbebb5619	-0.36589125
47	0xbe843c98	-0.2582748
48	0xbeee8504	-0.46585858
49	0xbb8db118	-0.0043240897
50	0x3e264d7c	0.16240495
51	0x3e7c8d98	0.24663389
52	0xbcef4b13	-0.029210603
53	0xbe88be85	-0.26707855
54	0xbe130b3f	-0.14359759
55	0x3d161b13	0.036646914
56	0x3e1f220b	0.1554033
57	0x3c42952f	0.011876388
58	0x3d342c1a	0.04398737
59	0x3c8c9e18	0.017165229
60	0x3d6f4af6	0.058421098
61	0x3daef94f	0.085436456
62	0x3d98fddc	0.07470295
63	0x3e408930	0.18802333
64	0xbdbfbd0a	-0.09362228
65	0xbe642bbe	-0.22282311
66	0x3f0924c1	0.53571707
67	0xbd9f3419	-0.07773609
68	0x3f0931ef	0.5359182
69	0xbd161de5	-0.036649603
70	0x3e2cae1e	0.16863295
71	0xbd101286	-0.035173915
72	0xbeb32dc2	-0.34995848
73	0x3ead7176	0.33875626
74	0x3f6689a7	0.9005379
75	0x3e600687	0.2187749
76	0xbe58e06a	-0.21179357
77	0xbf11f140	-0.57008743
78	0x3eb24972	0.3482166
79	0xbd8288a8	-0.06373721
80	0xbec05f5d	-0.37572756
81	0x3e2deb1a	0.16984215
82	0x3dae635a	0.085150436
83	0xbe30ac06	-0.17253122
84	0xbdb373c0	-0.08762312
85	0xbe5270e5	-0.20550878
86	0x3e2ea986	0.17056856
87	0xbb82c6f7	-0.0039910036
88	0x3d492dad	0.049115825
89	0x3d3bb501	0.045826916
90	0xbeec750c	-0.4618305
91	0x3e155a2d	0.1458518
92	0xbe56d61c	-0.20980114
93	0xbe2eb39e	-0.17060706
94	0xbcfdb604	-0.03097058
95	0xbeb34b6c	-0.3501848
96	0xbeea0f2c	-0.457147
97	0xbb6af510	-0.0035851635
98	0xbdb942de	-0.09045957
99	0x3d984e1d	0.07436774
100	0x3dc94349	0.09827287
101	0xbe732f75	-0.23748572
102	0xbdec56b3	-0.11539974
103	0xbe621542	-0.22078422
104	0x3e97fd29	0.29685333
105	0xbe1c2609	-0.15248884
106	0xbe5b9518	-0.21443594
107	0x3ecc5784	0.3991052
108	0xbea5a191	-0.32349828
109	0x3d093ea7	0.033507016
110	0xbea23fc0	-0.31689262
111	0x3d93aeb4	0.07211056
112	0xbdc1860a	-0.09449394
113	0x3ec88067	0.39160463
114	0x3ef4683d	0.47735777
115	0xbe43a3a0	-0.19105387
116	0x3e6e8960	0.23294592
117	0x3d83d9e1	0.064380415
118	0x3cdb1583	0.026743656
119	0xbd9d8571	-0.076914676
120	0x3c3d8ff8	0.011569969
121	0xbeb74db9	-0.35801485
122	0xbd21e1db	-0.039522033
123	0x3dde9493	0.10868182
124	0xbe905568	-0.2819016
125	0x3e8fdc74	0.2809788
126	0x3e116575	0.14198859
127	0xbe056e3c	-0.13030332
128	0xbda0e9fd	-0.0785713
129	0x3db3daa0	0.08781934
130	0x3d8b5837	0.06803935
131	0x3e061c45	0.13096721
132	0xbcda9741	-0.026683452
133	0xbc205858	-0.009786688
134	0x3d5372fe	0.051623337
135	0xbe41fa92	-0.18943241
136	0xbf14cdac	-0.5812633
137	0x3e286862	0.16446069
138	0xbe04fe54	-0.12987643
139	0xbf065d17	-0.52485794
140	0xbe2e238e	-0.1700575
141	0xbd89ed5b	-0.06734725
142	0xbe1b7c96	-0.15184245
143	0x3e40d22d	0.18830176
144	0xbe7db1e4	-0.24774891
145	0x3cd4b1fc	0.025963776
146	0x3eb5e2f7	0.35524723
147	0xbe1e0d2c	-0.15434712
148	0xbeb88d12	-0.36045128
149	0xbd8764f1	-0.0661105
150	0x3d90c769	0.070692845
151	0x3c9a7480	0.01885438
152	0xbdf5f17c	-0.1200895
153	0xbdc225e8	-0.09479886
154	0x3d1ef32a	0.038806118
155	0x3b74ac3a	0.00373341
156	0xbed05f05	-0.40697494
157	0xbe6df6c7	-0.2323867
158	0x3ec97391	0.39345983
159	0x3d844b5d	0.06459687
160	0x3e3a9b51	0.18223311
161	0xbca85631	-0.020548912
162	0xbcb19e8f	-0.021682052
163	0x3d7c8d1c	0.06165801
164	0xbdbf69de	-0.093463644
165	0x3ddee2bb	0.10883089
166	0x3d9b764a	0.07590921
167	0x3b48b2cb	0.0030624147
168	0x3e6e1ad4	0.23252422
169	0x3e59f6d8	0.2128557
170	0xbdbe0c28	-0.09279662
171	0x3d9a4601	0.075328834
172	0xbdd62c17	-0.10457628
173	0xbc3d8793	-0.011567968
174	0xbc2bf8a6	-0.010496294
175	0xbc6f2484	-0.014596108
176	0x3deab9a9	0.11461193
177	0xbe86133b	-0.26186547
178	0xbc906908	-0.017628208
179	0x3f13dfe2	0.57763493
180	0xbe4d79ea	-0.20066038
181	0x3c8918fb	0.016735544
182	0x3d05d2d2	0.032671757
183	0xbdadbfd4	-0.08483854
184	0x3d688be3	0.05677403
185	0x3e840b97	0.25790092
186	0x3e351b36	0.17686161
187	0xbd05c61f	-0.032659646
188	0xbde235b8	-0.11045402
189	0x3e407c15	0.18797334
190	0xbeaba8c5	-0.33527198
191	0x3eada7f2	0.33917195
192	0x3d3d0889	0.046150718
193	0xbe8c1f88	-0.27367806
194	0xbd0593db	-0.03261171
195	0x3eb39fe4	0.35082924
196	0x3e97fb07	0.29683706
197	0xbe7456b1	-0.23861195
198	0x3cd1ac6d	0.025594914
199	0x3aaf6fc1	0.0013384746
200	0xbd91ccdc	-0.07119152
201	0x3e4bcc02	0.19902042
202	0x3d6db1fd	0.05803107
203	0xbe270d6b	-0.16313712
204	0x3efe73c6	0.49697703
205	0x3e5007f2	0.20315531
206	0xbe81ac14	-0.25326598
207	0x3e63d646	0.22249708
208	0x3d9404a3	0.07227447
209	0x3eae8ebc	0.34093273
210	0x3e8a9694	0.27068007
211	0xbe8eab83	-0.27865228
212	0xbedc9cf5	-0.430885
213	0xbe89a3ac	-0.26882684
214	0x3dac81e6	0.08423214
215	0x3ebd7829	0.37005737
216	0xbe983ea6	-0.29735297
217	0x3dc5d72a	0.0966018
218	0x3ea0b449	0.31387547
219	0xbe29b3fe	-0.16572568
220	0x3ec38c47	0.3819296
221	0x3ea377cb	0.31927332
222	0xbeeb2f90	-0.45934725
223	0x3ed6fe63	0.41990957
224	0x3f4c57d6	0.79821527
225	0x3e285d9b	0.16441958
226	0xbe599f44	-0.21252161
227	0x3e18a94a	0.14908329
228	0x3d1354ad	0.035969425
229	0xbe73be3c	-0.23803037
230	0x3e44f801	0.19235231
231	0x3d878e42	0.066189304
232	0xbd7fdfee	-0.062469415
233	0x3d14ec8b	0.036358397
234	0xbe96074d	-0.29302445
235	0xbdb5bd80	-0.08874035
236	0x3e848193	0.25880107
237	0xbdb187f2	-0.08668508
238	0x3e2cd751	0.16879012
239	0x3e9f1a04	0.31074536
240	0x3ee185f8	0.44047523
241	0xbe878752	-0.2647043
242	0xbf06fbc7	-0.5272793
243	0x3d57d268	0.052690893
244	0x3e6f133c	0.23347181
245	0xbe86983f	-0.2628803
246	0xbd167a7e	-0.03673791
247	0xbd85440b	-0.06507119
248	0x3d7c1211	0.061540667
249	0x3e8d25fb	0.2756804
250	0x3dba7926	0.091051385
251	0xbed76e83	-0.420765
252	0xbd09b7a8	-0.033622414
253	0xbcce224d	-0.02516284
254	0xbcefc804	-0.02927018
255	0xbad4e693	-0.0016243033

bias f4 [64]
0	0xbf5e3e65	-0.86813956
1	0x3c00e8be	0.00786799
2	0xbc725ae7	-0.014792181
3	0xbe9f7995	-0.31147447
4	0xbec09244	-0.37611592
5	0xbf2feef5	-0.68723994
6	0xbf4fdfd8	-0.81200933
7	0xbf3a6deb	-0.7282397
8	0xbe245ed6	-0.16051802
9	0xbdc1aab6	-0.09456389
10	0xbe685dad	-0.22691984
11	0xbf2dc51a	-0.6787888
12	0xbe8d78ef	-0.27631328
13	0xbe6d958f	-0.23201583
14	0xbec67004	-0.38757336
15	0xbf0fdbeb	-0.56194943
16	0xbf3b2dfa	-0.7311703
17	0xbf47df6f	-0.7807531
18	0xbf0fe67b	-0.5621106
19	0xbf74fa4f	-0.9569444
20	0xbedde609	-0.43339565
21	0xbf40f292	-0.7537013
22	0xbf07c09e	-0.53028286
23	0xbea78df4	-0.3272549
24	0xbe709685	-0.23494919
25	0xbf23d25b	-0.6399285
26	0xbf2cb20d	-0.67459184
27	0xbe726d78	-0.23674572
28	0x3d426677	0.047461
29	0x3d564484	0.052311435
30	0xbed9ed31	-0.42563775
31	0xbea23c81	-0.31686786
32	0xbe1f55f6	-0.15560135
33	0xbf09e560	-0.53865623
34	0xbf1ef1a5	-0.6208747
35	0xbf172a41	-0.5904885
36	0xbec30b38	-0.38094497
37	0xbe465212	-0.19367245
38	0xbef36d05	-0.47544113
39	0xbf49c900	-0.78822327
40	0xbeee2796	-0.46514577
41	0xbec51865	-0.38495174
42	0xbea02e9a	-0.31285554
43	0xbef1f65c	-0.4725827
44	0xbf081b56	-0.5316671
45	0xbf75be76	-0.95993745
46	0xbf5f128e	-0.8713769
47	0xbe56dd8f	-0.20982955
48	0xbf62b594	-0.88558316
49	0xbf5a2480	-0.85211945
50	0xbf2afebc	-0.66794944
51	0xbf1d28f6	-0.61390626
52	0xbe806f4f	-0.25084922
53	0xbd08f458	-0.03343615
54	0xbecc2c4a	-0.3987754
55	0xbf20d1f1	-0.62820345
56	0xbdc72161	-0.097231634
57	0xbe6eab71	-0.23307587
58	0x3d84d7cb	0.06486472
59	0xbee52fec	-0.44763124
60	0xbf38fac5	-0.72257644
61	0xbeaecc0c	-0.3414005
62	0xbf73d7e8	-0.9525132
63	0xbe56ba58	-0.20969522

weight f4 [64, 64, 3]
0	0x3e231500	0.1592598
1	0x3eb24144	0.3481542
2	0x3ed84100	0.4223709
3	0xbf5001e6	-0.81252897
4	0xbab6f00f	-0.0013957041
5	0x3d7221ed	0.059114385
6	0xbcde828c	-0.027161859
7	0x3c366450	0.011132315
8	0xbee0d024	-0.439088
9	0xbe5c9ae5	-0.21543463
10	0x3e6a65a5	0.22890337
11	0xbe5f09c0	-0.21781063
12	0x3cd4ccf4	0.025976636
13	0xbe308c76	-0.17241082
14	0xbcd849d6	-0.026402395
15	0x3e924bc4	0.2857343
16	0xbe1d9154	-0.1538747
17	0xbe9e70da	-0.30945474
18	0x3e610cd8	0.21977556
19	0x3dc52c67	0.0962761
20	0x3dbcca6d	0.09218297
21	0x3ef8a571	0.48563722
22	0x3e2c5fd2	0.16833428
23	0xbe107a1a	-0.14109078
24	0xbd9c2397	-0.07623976
25	0xbca6a9cf	-0.020344643
26	0xbef2e50b	-0.4744037
27	0xbe4830d0	-0.1954987
28	0x3db162e9	0.08661444
29	0xbea36622	-0.3191386
30	0xbf030db6	-0.51192796
31	0xbe75ffc9	-0.24023356
32	0x3c2edf2a	0.010673324
33	0xbee9d06b	-0.45666823
34	0x3d4d9b91	0.050197188
35	0x3d541bab	0.0517842
36	0xbd288bfc	-0.041149125
37	0xbdab6bf3	-0.08370199
38	0xbcf3fef9	-0.029784666
39	0x3d295749	0.041343007
40	0xbece8163	-0.4033309
41	0xbe4b8f49	-0.19878878
42	0x3ef3a1c3	0.47584352
43	0x3e177ad6	0.14792952
44	0x3dd7f2d8	0.10544366
45	0xbebe14cb	-0.3712524
46	0xbdb8086c	-0.08985981
47	0xbe2cc9ec	-0.16873902
48	0x3d7605d6	0.06006416
49	0xbd88652e	-0.066599235
50	0xbe2d7194	-0.16937858
51	0xbeb3ad7b	-0.35093293
52	0x3e2c8a9c	0.1684975
53	0x3c969d7b	0.01838564
54	0xbe38b911	-0.18039347
55	0x3e4f21d0	0.20227742
56	0xbf25cd41	-0.6476632
57	0x3d54c4ce	0.0519455
58	0x3e5fb2b1	0.21845509
59	0x3e8d7585	0.27628723
60	0xbece34b1	-0.40274575
61	0x3e0ee855	0.13955815
62	0xbd3d61d9	-0.046235893
63	0xbdb05174	-0.08609286
64	0xbedbbdac	-0.42918146
65	0x3eb68585	0.35648742
66	0xbe37cf12	-0.17950085
67	0xbe166470	-0.14686751
68	0x3ebb760f	0.3661351
69	0xbe78ddf5	-0.2430342
70	0xbd0a1aab	-0.03371684
71	0x3d43dccb	0.047817986
72	0x3d0bfc02	0.03417588
73	0xbd4ee5b5	-0.050512034
74	0xbed527b0	-0.41631842
75	0xbd34fd84	-0.044187084
76	0xbd8aa3ef	-0.06769549
77	0x3d7db175	0.061936814
78	0xbe249236	-0.160714
79	0x3e20490f	0.1565287
80	0x3d14d33c	0.03633426
81	0xbe49eaf4	-0.19718534
82	0xbd8f25f3	-0.0698966
83	0xbe0a00eb	-0.13476913
84	0x3b02aaea	0.0019938299
85	0xbee3f66a	-0.44523937
86	0xbe6b6ffa	-0.22991934
87	0xbd2a50c3	-0.041580927
88	0xbddc7c49	-0.10765893
89	0xbdf59f5f	-0.11993288
90	0xbc7abcd3	-0.015303808
91	0x3e85531c	0.2603997
92	0x3e87076b	0.26372847
93	0xbd0c1a03	-0.034204494
94	0x3e61ca11	0.22049738
95	0x3e867a88	0.2626536
96	0xbcd76720	-0.026294291
97	0x3dbe5f48	0.09295517
98	0xbc26f4d4	-0.0101902075
99	0x3e1b4323	0.1516233
100	0xbd5c665e	-0.053808562
101	0xbe09e928	-0.13467848
102	0x3ebf2334	0.37331545
103	0xbefdb205	-0.4954988
104	0xbe57f5d8	-0.21089876
105	0xbe21c63c	-0.15798277
106	0xbee524f3	-0.44754753
107	0x3e1dd72a	0.1541411
108	0xbf18df96	-0.59716165
109	0xbd68e892	-0.05686242
110	0xbe8dc288	-0.27687478
111	0x3bfc3257	0.0076964307
112	0xbf18d41a	-0.5969864
113	0xbe412cbe	-0.18864724
114	0x3e71afeb	0.23602264
115	0x3ddac005	0.10681156
116	0xbe97afa1	-0.29626182
117	0x3ec7ab33	0.38997802
118	0xbdac44b5	-0.08411542
119	0xbed75e4e	-0.42064136
120	0xbeb5dcf7	-0.35520145
121	0xbd36c52b	-0.044621628
122	0xb86af7ab	-5.6020606e-05
123	0xbf837e9a	-1.0273011
124	0xbd6683a6	-0.056277893
125	0x3e0f9049	0.14019884
126	0xbcc5dd49	-0.024153369
127	0xbe34f4a3	-0.17671447
128	0xbcca5d5d	-0.024702722
129	0x3d4a6b09	0.049418483
130	0x3cb6b54c	0.022303246
131	0xbebd31df	-0.3695211
132	0xbee84899	-0.45367888
133	0x3ea37262	0.31923205
134	0x3d39e1dc	0.045381412
135	0x3d5d3991	0.054009978
136	0xbdada6d9	-0.08479089
137	0x3db75804	0.089523345
138	0x3db53c8e	0.088494405
139	0x3ebbb348	0.36660218
140	0x3d992756	0.07478206
141	0xbd764bb1	-0.06013078
142	0xbe90c625	-0.28276172
143	0xbe2d7ce7	-0.16942178
144	0x3e5abf98	0.2136215
145	0x3f15536b	0.5833041
146	0xbe4b61c4	-0.19861513
147	0xbee9a7f2	-0.45635945
148	0x3dd8ceea	0.10586341
149	0xbe20e2f9	-0.15711583
150	0xbe052be7	-0.13005029
151	0xbe9ce6db	-0.3064488
152	0xbe0da540	-0.13832569
153	0x3e85848d	0.2607769
154	0x3dd14d47	0.102198176
155	0xbf5bfd48	-0.8593335
156	0xbeab95e5	-0.33512798
157	0x3cfc002c	0.0307618
158	0xbec4fa4d	-0.38472214
159	0xbf218e0b	-0.63107365
160	0xbe113717	-0.14181171
161	0xbe1e9844	-0.15487772
162	0xbc3212c8	-0.010868736
163	0xbe45b769	-0.19308247
164	0xbf261558	-0.6487632
165	0xbdcff263	-0.101536535
166	0x3e902cfe	0.28159326
167	0x3de02fe5	0.10946635
168	0xbd95d6eb	-0.07316383
169	0x3cd3a60b	0.025836011
170	0x3c333904	0.010938887
171	0xbe6a8b43	-0.22904687
172	0x3e076e9c	0.13225788
173	0xbe7f1a6c	-0.24912423
174	0xbda3346f	-0.07968985
175	0xbee02dcc	-0.4378494
176	0xbcdc5c21	-0.0268994
177	0x3e27b123	0.16376166
178	0xbe09df02	-0.13463977
179	0xbebc55f7	-0.36784336
180	0x3d02917f	0.031877037
181	0x3d8c9e5c	0.06866142
182	0xbe7f114c	-0.24908942
183	0xbe61af62	-0.2203956
184	0xbe65c055	-0.2243665
185	0x3e79fcec	0.24412888
186	0xbeb7a7bc	-0.3587016
187	0xbe1a3727	-0.15060101
188	0xbe2794b9	-0.16365327
189	0xbeee2196	-0.4651
190	0xbdcee56d	-0.10102353
191	0x3e11c98b	0.14237039
192	0xbf3b452e	-0.73152435
193	0xbf21672a	-0.6304804
194	0x3d39c41f	0.04535305
195	0x3dba9ba2	0.09111716
196	0x3d99cc8f	0.075097196
197	0x3d8f1963	0.06987264
198	0xbe74bec6	-0.239009
199	0x3b9a66c1	0.0047119563
200	0x3de54778	0.11195272
201	0x3eacda80	0.33760452
202	0xbee5ee5b	-0.44908413
203	0xbf16a173	-0.588401
204	0xbeb7f5f4	-0.35929835
205	0xbee713a3	-0.4513217
206	0xbf28dff3	-0.6596672
207	0xbe5b298c	-0.21402568
208	0xbed07b41	-0.40719035
209	0xbf51e613	-0.8199169
210	0xbef45665	-0.47722164
211	0xbe000c0c	-0.12504596
212	0xbe2009dd	-0.15628763
213	0xbd6acf60	-0.057326674
214	0x3e6b8888	0.23001301
215	0x3dc2dc58	0.095146835
216	0xbda5b53a	-0.08091207
217	0xbcfc42f3	-0.030793643
218	0x3e2e9d89	0.17052282
219	0x3c0776d2	0.008268075
220	0xbe83041e	-0.2558908
221	0xbe758c0d	-0.23979206
222	0x3e59f6ef	0.21285604
223	0x3d3d7d13	0.04626186
224	0x3e244767	0.16042863
225	0xbe99a053	-0.3000513
226	0xbc89073b	-0.01672708
227	0x3e9e6eda	0.30943948
228	0xbe234ebf	-0.15948008
229	0xbd480a0e	-0.048837714
230	0xbf33ab63	-0.7018339
231	0xbeb4adfd	-0.35288993
232	0xbecb1ee7	-0.39672014
233	0x3def187f	0.11674594
234	0x3ea95881	0.33075336
235	0xbebbdcb8	-0.36691833
236	0xbf477b08	-0.77922106
237	0xbe804628	-0.25053525
238	0xbf281e01	-0.6567078
239	0xbf02f25a	-0.5115105
240	0xbf255e9d	-0.64597493
241	0xbea1c483	-0.3159524
242	0xbe680b3b	-0.22660534
243	0xbe885a67	-0.26631472
244	0xbe34ef23	-0.17669348
245	0x3d468a28	0.0484716
246	0x3e3d11a2	0.18463758
247	0xbe5986d1	-0.21242835
248	0xbf8aa62e	-1.0831964
249	0xbeb760e0	-0.35816097
250	0xbea51741	-0.32244304
251	0x3e6bb960	0.23019934
252	0xbeb5d6ca	-0.35515434
253	0xbf9531d1	-1.1655828
254	0xbf20acaa	-0.62763464
255	0xbb4a749e	-0.0030892263

bias f4 [64]
0	0xbeeb38e4	-0.45941842
1	0xbe0a18c0	-0.13486004
2	0xbec5a950	-0.38605738
3	0xbd96fa5a	-0.073719695
4	0xbe7bdbd2	-0.24595574
5	0xbeeebaf4	-0.4662701
6	0xbf03fea0	-0.515604
7	0xbee2237b	-0.44167694
8	0xbdf75fbc	-0.12078807
9	0xbf2e40a9	-0.68067414
10	0xbf36ce64	-0.7140868
11	0xb965e243	-0.00021923431
12	0xbf762066	-0.96143186
13	0xbd822551	-0.06354774
14	0xbe7d8406	-0.24757394
15	0x3e4434e2	0.19160798
16	0xbda34cef	-0.07973658
17	0xbeb81df8	-0.35960364
18	0xbd3d333d	-0.046191443
19	0xbecaed04	-0.39633954
20	0xbd87c103	-0.06628611
21	0xbbfe7c16	-0.007766257
22	0x3db2b2d5	0.08725516
23	0xbda064c3	-0.07831719
24	0xbe5dd5ce	-0.21663591
25	0xbda816e1	-0.08207489
26	0xbef7b566	-0.48380584
27	0xbe9c92da	-0.3058079
28	0xbf30ba5d	-0.6903437
29	0xbcd1440e	-0.025545146
30	0xbf647e28	-0.89255
31	0xbd604972	-0.054757543
32	0xbf8392c1	-1.0279161
33	0xbf12ee19	-0.5739456
34	0xbf0515e1	-0.5198651
35	0xbeedfaaf	-0.4648032
36	0xbe5356b5	-0.20638545
37	0xbec50915	-0.38483492
38	0xbe743393	-0.23847799
39	0xbe28dbaf	-0.16490053
40	0xbdc89a86	-0.09795098
41	0xbea4be78	-0.32176566
42	0xbee632ff	-0.44960782
43	0xbf135ae8	-0.57560587
44	0x3cc864ab	0.024462065
45	0xbe512f77	-0.20428263
46	0x3d743307	0.059618976
47	0xbd4f92f1	-0.050677244
48	0xbc4fab6c	-0.0126751475
49	0xbec8c2e0	-0.39211178
50	0xbe37e109	-0.17956938
51	0xbed84a0d	-0.42243996
52	0xbee84078	-0.45361686
53	0xbecc2459	-0.3987148
54	0x3d421a8f	0.04738861
55	0xbce005d5	-0.02734653
56	0x3bbc0f9c	0.0057391655
57	0xbda98861	-0.08277965
58	0xbe98acb4	-0.29819262
59	0xbde0266a	-0.10944827
60	0xbe8a856f	-0.27054927
61	0xbf2dc4e9	-0.67878586
62	0xbc8efeb2	-0.017455433
63	0xbe91f591	-0.28507665

weight f4 [256, 128]
0	0xbe31fcca	-0.17381588
1	0x3e4d18c3	0.20028977
2	0xbe00ca4e	-0.12577173
3	0x3d73bf85	0.05950882
4	0xbeaa5953	-0.33271274
5	0x3ccc9c90	0.024976999
6	0xbd3e326c	-0.046434805
7	0xbdebd9f5	-0.115161814
8	0x3e93575d	0.2877759
9	0x3eb277bc	0.34856975
10	0xbe282f5d	-0.16424318
11	0xbe36d3e9	-0.17854275
12	0x3cc4d05b	0.024025133
13	0xbd3b7528	-0.045766026
14	0xbe883a74	-0.26607096
15	0xbee5cdb9	-0.44883516
16	0x3da734bd	0.08164356
17	0xbcf158a9	-0.029461222
18	0x3cd42a39	0.02589904
19	0x3ba0ee85	0.0049112462
20	0x3df4263d	0.11921356
21	0xbd6bb531	-0.057545844
22	0xbdcec213	-0.100956105
23	0xbc14e6b9	-0.009088212
24	0xbebdd011	-0.37072805
25	0x3d31f946	0.043450616
26	0x3c021d5b	0.007941569
27	0x3d47b7b1	0.048759166
28	0xbe503bb7	-0.2033528
29	0xbe378766	-0.17922744
30	0xbdf1bc5d	-0.118035056
31	0xbcc27046	-0.023735177
32	0xbd219013	-0.03944404
33	0xbdb24f0d	-0.08706484
34	0x3cdae317	0.026719613
35	0x3e02dcd2	0.12779549
36	0x3dde65ca	0.108592585
37	0x3e18d540	0.14925098
38	0xbdf7cae4	-0.12099245
39	0xbd312202	-0.043245323
40	0x3dfd5976	0.12370579
41	0x3cad006b	0.021118363
42	0x3e8df110	0.2772298
43	0x3eb27610	0.348557
44	0xbe2573e5	-0.16157492
45	0xbdf5ccd4	-0.120019585
46	0xbc643869	-0.013929465
47	0x3dc37aca	0.095449045
48	0xbe8d818b	-0.27637896
49	0xbe5fd243	-0.21857552
50	0xbd2eaee3	-0.042647254
51	0x3d398e47	0.045301702
52	0xbdc336bb	-0.095319234
53	0xbee12b20	-0.43978214
54	0x3e992380	0.29909897
55	0x3ec7b182	0.39002615
56	0x3e0601ee	0.13086674
57	0x3cf48aed	0.029851401
58	0xbdbec074	-0.09314051
59	0xbd77eebb	-0.060530405
60	0xbd8722e8	-0.06598455
61	0xbcbc09d1	-0.0229539
62	0x3c8be553	0.017077124
63	0x3d3a7976	0.04552599
64	0x3b8b30d7	0.0042477655
65	0x3e418f8c	0.18902415
66	0x3c2d6f93	0.010585683
67	0xbd1307b5	-0.035896022
68	0xbbc151d0	-0.0058996454
69	0x3e1a457f	0.15065573
70	0x3e574318	0.21021688
71	0xbde2e64e	-0.110790834
72	0xbd840396	-0.064459965
73	0xbe1bced2	-0.15215614
74	0x3d824e20	0.063625574
75	0x3db2a7cb	0.0872341
76	0x3ccc2173	0.024918294
77	0x3e3599c9	0.17734446
78	0x3e162cb8	0.14665496
79	0x3e133ea6	0.14379367
80	0xbd629e68	-0.05532685
81	0xbd3d93a3	-0.046283375
82	0xbcb12a37	-0.021626575
83	0xbe5e9f16	-0.21740374
84	0x3eb2dcf9	0.34934214
85	0x3e1ecffa	0.15509024
86	0xbdca53d0	-0.09879267
87	0x3d3e9381	0.04652739
88	0xbd3e15a1	-0.046407346
89	0xbd9c9b9a	-0.07646866
90	0xbe1f0f36	-0.15533146
91	0xbe9f2ce4	-0.31088936
92	0xbd85ddc5	-0.0653644
93	0x3da0356c	0.078226894
94	0x3e6e1fd8	0.23254335
95	0x3d6bc7ce	0.057563595
96	0xbe3f5765	-0.18685682
97	0xbe0a143c	-0.13484281
98	0x3ed5d1f1	0.41761735
99	0x3e4542a5	0.19263704
100	0x3e81f0a2	0.253789
101	0x3ec46be1	0.38363555
102	0xbe8bee0c	-0.27330053
103	0xbe666119	-0.22497977
104	0x3e431a70	0.19053054
105	0x3e002f53	0.12518053
106	0xbe733f34	-0.23754579
107	0x3cf4dd84	0.029890783
108	0x3dc81b5e	0.09770845
109	0x3d5572b4	0.052111343
110	0x3db6bfd6	0.089233086
111	0xbbe464e7	-0.0069700363
112	0x3d37d722	0.0448829
113	0xbd90031b	-0.07031842
114	0xbe6849ca	-0.22684398
115	0xbea52b9f	-0.32259843
116	0x3e978c3e	0.29599184
117	0x3cda665f	0.026660142
118	0x3ee4fd70	0.44724607
119	0x3efaf2f2	0.49013478
120	0x3ec9ef98	0.39440608
121	0x3e91d230	0.28480673
122	0xbf3e41ad	-0.74318963
123	0xbf0fa50e	-0.5611123
124	0x3cdfcae6	0.02731843
125	0xbbe21d90	-0.006900497
126	0x3e83d640	0.25749397
127	0x3f3e25e3	0.7427656
128	0xbe2d5b8d	-0.16929455
129	0xbe90bbff	-0.2826843
130	0xbf83a0e0	-1.028347
131	0xbf96963b	-1.1764597
132	0xbd57361e	-0.052541845
133	0xbe09bd21	-0.13451053
134	0xbe02d38d	-0.12776013
135	0xbd9d1b42	-0.07671215
136	0xbea15d1c	-0.3151635
137	0xbe8aa8f0	-0.27082014
138	0xbe99aaca	-0.30013114
139	0xbebc8f5d	-0.36828128
140	0x3e882053	0.2658716
141	0xbe7d9371	-0.24763276
142	0xbddeb94d	-0.10875187
143	0xbcb6c96f	-0.022312848
144	0xbe282d26	-0.16423473
145	0xbe9d60ac	-0.30737817
146	0xbe505dae	-0.20348236
147	0xbe2eae29	-0.17058624
148	0xbcbdb002	-0.023155216
149	0xbdefa5b1	-0.11701525
150	0x3d10f4d1	0.035389725
151	0xbcb381fc	-0.021912567
152	0xbee5bbff	-0.44869992
153	0xbe4bc8f6	-0.1990088
154	0x3cf93506	0.030420791
155	0x3d6a6f3b	0.057234984
156	0xbee48b09	-0.44637325
157	0xbf2c552c	-0.6731746
158	0xbd63ab0d	-0.05558305
159	0x3e5624b9	0.20912446
160	0xbcc1b5d6	-0.023646276
161	0xbdcad7a5	-0.09904412
162	0xbe246e47	-0.16057692
163	0xbe365c7c	-0.17808717
164	0xbe0f0ba8	-0.1396929
165	0xbc7034f8	-0.014661066
166	0xbecfb56e	-0.40568107
167	0xbf01b49b	-0.5066621
168	0xbd1474af	-0.03624409
169	0xbd7fcdf2	-0.062452264
170	0xbcef98b3	-0.029247617
171	0xbe9bfc5f	-0.3046598
172	0x3d5d4731	0.05402297
173	0xbcc722a0	-0.024308503
174	0x3dc62765	0.09675483
175	0x3dbfc49c	0.09363672
176	0x3c99c1c3	0.01876915
177	0xbddc0d08	-0.10744673
178	0xbc67b1ef	-0.014141544
179	0xbde5fbc4	-0.11229661
180	0x3d979db7	0.074031286
181	0xbe4206da	-0.18947926
182	0xbd951f63	-0.07281377
183	0xbeaa061f	-0.33207795
184	0xbc2ec725	-0.010667597
185	0xbd63fe5a	-0.05566249
186	0x3c811a26	0.015759539
187	0xbdf0c119	-0.117555805
188	0xbde18e8f	-0.11013519
189	0xbe24de55	-0.16100438
190	0x3c4caac4	0.012491886
191	0x3d9b8040	0.07592821
192	0xbef81d1a	-0.48459703
193	0xbe27302f	-0.16326974
194	0xbdb4a52e	-0.08820568
195	0xbe81163c	-0.25212276
196	0xbde1338e	-0.109961614
197	0xbdc4b80f	-0.09605419
198	0xbc2f0054	-0.010681231
199	0xbf08d0e2	-0.5344373
200	0xbea373b1	-0.31924203
201	0xbf5fb11f	-0.8737964
202	0xbe93a648	-0.288378
203	0xbf3739a3	-0.7157232
204	0xbd5c05ea	-0.053716578
205	0xbd7821a4	-0.060578957
206	0xbde36145	-0.11102537
207	0xbb801092	-0.0039082253
208	0x3c7e88a9	0.015535512
209	0x3d69e0f9	0.057099316
210	0xbd99eeda	-0.075162604
211	0x3d5f6d7a	0.054547764
212	0x3da40eec	0.080106586
213	0xbf111d6d	-0.56685525
214	0xbec1f3da	-0.37881356
215	0xbf22a1fe	-0.6352843
216	0xbd540ad9	-0.051768158
217	0xbeac5a85	-0.3366281
218	0xbe281c00	-0.16416931
219	0xbed7d0f4	-0.42151606
220	0xbe67d144	-0.22638422
221	0xbdd736a3	-0.10508468
222	0x3da0b349	0.07846696
223	0xbe9cb19a	-0.3060425
224	0xbd78d2c5	-0.06074788
225	0xbdd9731a	-0.10617657
226	0xbdf16d82	-0.11788465
227	0xbef4998f	-0.47773406
228	0x3b919678	0.004442986
229	0x3e2148f6	0.15750489
230	0xbee2d9a7	-0.4430668
231	0xbf0b5914	-0.544328
232	0x3d374acf	0.044749077
233	0xbd6a45a8	-0.057195336
234	0xbe88d4a0	-0.2672472
235	0xbe7f0efb	-0.24908058
236	0x3e9b4a4e	0.30330127
237	0xbda8ed21	-0.08248354
238	0x3d8ea325	0.06964711
239	0xbe330a2d	-0.1748435
240	0xbd270037	-0.04077169
241	0x3d71ad76	0.059003316
242	0xbf12765d	-0.5721186
243	0xbf7763e7	-0.96636814
244	0xbeb02021	-0.34399512
245	0xbec45819	-0.38348463
246	0xbebd57e6	-0.36981124
247	0x3d3b9de8	0.045804888
248	0xbf4d1f64	-0.80126023
249	0xbf438833	-0.763797
250	0xbed34ed2	-0.41271073
251	0xbeeb6934	-0.459787
252	0xbd7cc8d0	-0.061714947
253	0xbe11051a	-0.14162102
254	0xbe39f031	-0.18158032
255	0xbe3e3c4e	-0.18577692

bias f4 [256]
0	0x3dd7762c	0.10520586
1	0x3e247440	0.16059971
2	0x3e2a86d8	0.16653001
3	0xbc05dcf1	-0.008170352
4	0xbe76412c	-0.24048299
5	0xbc63c6e2	-0.013902398
6	0x3e09e263	0.13465266
7	0x3d71ec39	0.05906317
8	0x3ee41359	0.4454601
9	0xbea6e162	-0.32593828
10	0x3c8a3162	0.01686925
11	0x3eff4fad	0.49865475
12	0xbdc0141d	-0.09378836
13	0x3efeaba2	0.4974032
14	0x3dcd84b6	0.10035078
15	0x3e984fc6	0.29748362
16	0x3e4e53b0	0.20149112
17	0x3e805b6f	0.25069758
18	0xbe2b3cb0	-0.16722369
19	0x3e02812f	0.12744592
20	0x3e85d1fe	0.26136774
21	0xbe9858cc	-0.29755247
22	0xbe816fe6	-0.25280684
23	0x3dce207f	0.10064792
24	0xbe476f73	-0.19476108
25	0xbeac393a	-0.3363741
26	0x3e03c869	0.12869419
27	0xbe6b7403	-0.22993474
28	0x3f24658d	0.64217454
29	0x3f18aafb	0.59635895
30	0x3bfb3441	0.0076661413
31	0x3e05e55e	0.13075778
32	0x3ccda86c	0.025104724
33	0x3f078372	0.52934945
34	0xbd6f5139	-0.05842707
35	0x3cbb6c74	0.022878863
36	0x3d781aea	0.060572542
37	0xbdc44c4a	-0.095848635
38	0xbdc4412e	-0.095827445
39	0xbe84b16d	-0.25916615
40	0x3ed77d76	0.42087907
41	0xbd301abc	-0.042994246
42	0x3d9d63b9	0.07685036
43	0x3d7ccd29	0.061719093
44	0x3e42b3b0	0.19013858
45	0x3e1f8e87	0.15581714
46	0xbe2f6ed5	-0.17132123
47	0x3e489a89	0.195902
48	0x3cba67a1	0.022754492
49	0x3e527fcf	0.20556568
50	0x3e96c5b6	0.29447716
51	0xbe6b46f0	-0.2297628
52	0xbda110e8	-0.07864553
53	0xbd416fff	-0.04722595
54	0xbe424470	-0.1897142
55	0xbd966014	-0.07342544
56	0xbe93e96b	-0.2888902
57	0xbe0b9602	-0.13631442
58	0x3eaebc51	0.3412805
59	0x3e182b49	0.14860262
60	0xbe1ef030	-0.15521312
61	0xbe8863d5	-0.26638666
62	0xbe00911f	-0.1255536
63	0x3ebb8dca	0.36631614
64	0xbcdb2459	-0.02675073
65	0x3d8f4acf	0.069966905
66	0x3e1231f7	0.14276873
67	0xbe1bc29d	-0.15210958
68	0x3e905092	0.2818647
69	0x3e4f8fb5	0.20269664
70	0x3ddfaf6f	0.10922133
71	0x3dded6d2	0.108808175
72	0xbe959708	-0.2921679
73	0xbec9fd92	-0.3945127
74	0x3e2148d3	0.15750436
75	0x3df85186	0.12124924
76	0xbe3280c1	-0.17431928
77	0x3d5dbf51	0.05413753
78	0x3d6bef58	0.057601303
79	0x3e359fa1	0.17736675
80	0x3e1e7b32	0.15476683
81	0x3c88805a	0.016662765
82	0x3bd5e473	0.0065274774
83	0x3d381ef1	0.044951383
84	0x3e15d972	0.1463373
85	0xbd421f31	-0.047393028
86	0xbe8c309a	-0.2738083
87	0x3e2fa7ce	0.17153856
88	0x3e71a548	0.23598206
89	0xbe0ee6ef	-0.13955282
90	0xb9b2a77e	-0.00034075597
91	0xbdcb5446	-0.09928183
92	0xbccac4ae	-0.024751987
93	0x3e95c2ab	0.29250082
94	0x3e1e0874	0.15432912
95	0xbed6adb8	-0.41929412
96	0x3efb3c92	0.4906965
97	0xbe845780	-0.25848007
98	0xbe6fba18	-0.23410833
99	0x3cbd05b5	0.02307401
100	0x3e20198b	0.15634744
101	0xbb0560a7	-0.0020351799
102	0xbe2efc5c	-0.17088455
103	0x3d5c3799	0.05376396
104	0xbed0a5c5	-0.40751472
105	0x3e808e52	0.25108582
106	0xbebc3bc4	-0.36764348
107	0x3e2dbed8	0.16967332
108	0xb9c7e39b	-0.00038125817
109	0xbecea2c3	-0.40358552
110	0x3e20fd9b	0.15721743
111	0x3e4249bd	0.18973441
112	0xbe760d47	-0.24028502
113	0xbe1cb1ef	-0.15302251
114	0x3e5dbaac	0.21653241
115	0x3d78dfcb	0.0607603
116	0x3dba5c62	0.09099652
117	0x3ea31de1	0.31858733
118	0xbdfbdea6	-0.12298326
119	0xbeadc8c2	-0.3394223
120	0x3cb440d1	0.022003563
121	0xbeb2880f	-0.3486943
122	0xbdc5fccc	-0.09667358
123	0x3e11adf9	0.14226522
124	0x3e2f895d	0.17142244
125	0x3e11e321	0.14246799
126	0xbe77ed6b	-0.24211662
127	0xbda00146	-0.07812743
128	0x3e66ab34	0.22526246
129	0xbe886f81	-0.2664757
130	0xbeb02efd	-0.3441085
131	0x3f29317f	0.6609115
132	0xbef93c66	-0.48678893
133	0x3ef7bf10	0.48387957
134	0xbe3a085b	-0.1816725
135	0xbe2aa5c5	-0.16664799
136	0xbe693d4f	-0.22777294
137	0xbcf00b38	-0.029302225
138	0x3e208f87	0.15679751
139	0x3e20ed2a	0.15715471
140	0x3e5c50ec	0.21515244
141	0x3cafee33	0.021475887
142	0x3e1bfc4f	0.15232967
143	0x3ee61cde	0.449439
144	0x3de9e710	0.11421025
145	0xbe0c91d8	-0.1372751
146	0x3e276204	0.16345984
147	0xbeda3361	-0.42617324
148	0x3cd55de0	0.02604574
149	0x3de3e7f0	0.11128223
150	0x3d2e7466	0.042591475
151	0x3d8562a5	0.065129556
152	0x3da4cb54	0.08046594
153	0xbe492db1	-0.19646336
154	0x3c4cf40a	0.012509355
155	0x3dcd8b25	0.10036305
156	0x3e24e0cb	0.16101377
157	0x3ded6b48	0.11592728
158	0xbd8afe84	-0.06786826
159	0xbdd47648	-0.10374123
160	0x39c18faf	0.0003691888
161	0xbe804603	-0.25053415
162	0x3f2743b4	0.6533768
163	0x3d994dcf	0.07485544
164	0xbea59dd3	-0.32346973
165	0x3f0d3d9c	0.55172133
166	0xbe59b6ac	-0.2126109
167	0xbea14a73	-0.31502113
168	0x3e75c6f1	0.24001671
169	0x3e19b060	0.15008688
170	0x3df21d98	0.11822051
171	0x3dda0325	0.10645131
172	0xbb4a5200	-0.003087163
173	0x3e1605b6	0.14650616
174	0xbe88209e	-0.26587385
175	0xbeaa86e7	-0.33306047
176	0x3dbc8134	0.09204331
177	0x3db6e1f2	0.089298144
178	0x3e1b66e9	0.15175976
179	0xbecbca27	-0.39802667
180	0x3d208c7e	0.039196484
181	0x3dd46e5a	0.103726104
182	0xbc64499d	-0.013933566
183	0xbe12507a	-0.14288512
184	0x3e3221f3	0.17395763
185	0xbebac00f	-0.36474654
186	0xbea080c2	-0.31348234
187	0xbe0e5e27	-0.13903104
188	0x3d56655d	0.05234276
189	0x3e8240bf	0.25440022
190	0xbdbf57e2	-0.09342934
191	0x3e9b5b3f	0.30343053
192	0xbeb9634a	-0.36208564
193	0x3dad6e11	0.08468259
194	0xbe66abb6	-0.2252644
195	0x3e1ce9fe	0.15323636
196	0x3ea1a4d2	0.3157106
197	0xbde076d8	-0.10960168
198	0xbf081c54	-0.53168225
199	0xbe4f3bad	-0.20237608
200	0x3efb6b0a	0.49105102
201	0xbac65b8e	-0.0015133487
202	0xbe8eca1a	-0.27888566
203	0x3eb3faed	0.3515238
204	0xbd827d32	-0.06371535
205	0xbdba0468	-0.09082872
206	0xbe39e180	-0.18152428
207	0xbeb122f3	-0.34596977
208	0xbe1a9ce2	-0.15098909
209	0x3d852bad	0.06502471
210	0x3eee63c1	0.4656048
211	0x3d0eda4f	0.034876164
212	0x3e5222a2	0.20521024
213	0x3dca2244	0.09869817
214	0x3e105c27	0.14097653
215	0x3de0dcb5	0.109795965
216	0x3d8cfe5d	0.068844534
217	0xbb6e6510	-0.0036376156
218	0xbe589933	-0.21152191
219	0xbd12fa8d	-0.035883475
220	0x3dedcbf8	0.116111696
221	0x3e79bab3	0.24387626
222	0xbda02730	-0.078199744
223	0x3ddbfd4b	0.10741671
224	0xbde31b09	-0.11089141
225	0x3d1e27f8	0.038612336
226	0x3e27d7ca	0.1639091
227	0xbc3e455b	-0.011613215
228	0x3ec10194	0.37696517
229	0xbe44b438	-0.19209373
230	0xbc5f327c	-0.013622876
231	0x3c47a0f9	0.012184375
232	0x3eae0774	0.3399006
233	0x3e1f4683	0.15554242
234	0x3d8634b6	0.065530226
235	0xbea546f3	-0.32280692
236	0x3e4a78eb	0.19772689
237	0xbed1ded8	-0.4099033
238	0xbe68f57d	-0.22749896
239	0xbe8953b3	-0.2682167
240	0xbe79d8b2	-0.24399069
241	0xbe110b77	-0.1416453
242	0xbe000f00	-0.12505722
243	0xbef0f4aa	-0.47061664
244	0xbd956d85	-0.0729628
245	0xbeaf4549	-0.34232548
246	0x3e23842d	0.1596839
247	0x3e4cd869	0.20004429
248	0xbddfbfa0	-0.109252214
249	0x3d8a982d	0.067673065
250	0x3df3d3b3	0.11905613
251	0x3ed153d3	0.40884265
252	0xbe4784ba	-0.19484225
253	0xbeb0fdf9	-0.34568766
254	0xbeb296e1	-0.34880736
255	0x3c0ea4f1	0.008706317

weight f4 [256]
0	0x3f92b704	1.1462102
1	0x3f9e9eea	1.2392247
2	0x3f9f5092	1.2446463
3	0x3fb0330d	1.376558
4	0x3f98b317	1.1929654
5	0x3f9735fb	1.1813349
6	0x3fcfddd4	1.6239572
7	0x3f8cb1a7	1.0991715
8	0x3f9504c4	1.1642079
9	0x3fa2a978	1.2707968
10	0x3f8a0b44	1.0784688
11	0x3f9bada8	1.2162371
12	0x3fa60641	1.2970659
13	0x3f9904cd	1.195459
14	0x3f7aea20	0.98013496
15	0x3fab7b2f	1.3396968
16	0x3f7be4b1	0.9839583
17	0x3f8ff7d0	1.1247501
18	0x3f9613a5	1.1724745
19	0x3f84d0de	1.0376241
20	0x3f8ad056	1.0844829
21	0x3f8ed25f	1.115795
22	0x3f98eba6	1.1946914
23	0x3fa678c4	1.3005605
24	0x3f971a9f	1.1804999
25	0x3f8e7907	1.1130685
26	0x3f8e07b6	1.1096103
27	0x3f881ee1	1.0634423
28	0x3f768bff	0.9630737
29	0x3f700ba2	0.9376775
30	0x3f7868c7	0.9703488
31	0x3f803fd1	1.0019475
32	0x3f8a59f7	1.0808705
33	0x3f758ed7	0.9592108
34	0x3fd8b2e5	1.6929594
35	0x3f9108f4	1.1330857
36	0x3f6ca02b	0.92431897
37	0x3f94e193	1.163134
38	0x3f9738bf	1.1814193
39	0x3f92b64c	1.1461883
40	0x3f9b53a3	1.2134899
41	0x3f8f545e	1.1197622
42	0x3f75a5ae	0.9595593
43	0x3fa20872	1.2658827
44	0x3f975675	1.182326
45	0x3f898cec	1.0746131
46	0x3f8bedaa	1.0931904
47	0x3f9a246b	1.2042364
48	0x3f7c5f32	0.98582757
49	0x3f84263e	1.032417
50	0x3fa4c871	1.287367
51	0x3f83a1d1	1.0283757
52	0x3f888c78	1.0667868
53	0x3f72a854	0.947881
54	0x3f86211f	1.0478858
55	0x3fbedd1a	1.4911225
56	0x3f9508bc	1.164329
57	0x3f953daf	1.1659449
58	0x3fa4d31d	1.2876927
59	0x3fbbb2cb	1.4663938
60	0x3f8bd6a6	1.092488
61	0x3f9259e9	1.1433688
62	0x3f82e4bc	1.0226054
63	0x3fb6f88e	1.4294603
64	0x3fa04065	1.2519652
65	0x3f965738	1.1745367
66	0x3f92052a	1.1407826
67	0x3f9438e9	1.1579868
68	0x3fb65d90	1.4247303
69	0x3fa2d71a	1.2721894
70	0x3f7bfc60	0.9843197
71	0x3f707a8f	0.9393701
72	0x3f877a21	1.0584146
73	0x3fa3b32a	1.2789052
74	0x3f9f01d8	1.2422438
75	0x3fa7ad03	1.3099674
76	0x3f96af63	1.1772274
77	0x3f8389a3	1.0276378
78	0x3f92f005	1.1479498
79	0x3f73f0e2	0.95289433
80	0x3fa4dec2	1.288048
81	0x3fa0de1c	1.2567782
82	0x3fb01062	1.3755
83	0x3faca7b9	1.3488685
84	0x3f84eb4e	1.0384309
85	0x3fa0ee1d	1.2572666
86	0x3f9f60b8	1.2451391
87	0x3fb81445	1.4381186
88	0x3f882a4c	1.0637908
89	0x3f757665	0.9588378
90	0x3f6df7b4	0.9295609
91	0x3f8f4eb0	1.1195889
92	0x3fc837be	1.5642011
93	0x3f44ee3d	0.7692602
94	0x3f8cf401	1.1011964
95	0x3fa33e4a	1.2753384
96	0x3fa36ab4	1.2766938
97	0x3f82b653	1.0211891
98	0x3fa062cb	1.2530149
99	0x3fc90229	1.5703784
100	0x3f9110c4	1.1333241
101	0x3fa7add2	1.3099921
102	0x3f977d77	1.1835164
103	0x3f6470b1	0.89234453
104	0x3f9557df	1.1667441
105	0x3f8c6ff8	1.097167
106	0x3fa8c6c1	1.3185655
107	0x3f625976	0.88417757
108	0x3fbe0fd6	1.4848583
109	0x3f8628e7	1.0481232
110	0x3fa1edeb	1.2650732
111	0x3f9e7702	1.2380068
112	0x3f8b6b2c	1.0892081
113	0x3f9c78d3	1.2224373
114	0x3f7cc087	0.98731273
115	0x3f54bc2f	0.83099645
116	0x3f315d3d	0.69282895
117	0x3f6dbc86	0.9286579
118	0x3fadddac	1.3583274
119	0x3fa998b6	1.3249729
120	0x3f8fabf9	1.1224357
121	0x3f95f1a8	1.1714373
122	0x3f8b0404	1.08606
123	0x3f9bf2f1	1.2183515
124	0x3fbac5b5	1.4591585
125	0x3f8e34b2	1.1109831
126	0x3f85fd3f	1.046791
127	0x3f9694d5	1.176417
128	0x3f84565f	1.0338858
129	0x3f877e1c	1.058536
130	0x3f927823	1.1442913
131	0x3f81a27a	1.0127709
132	0x3f8818a4	1.063252
133	0x3f80e653	1.0070289
134	0x3f79604e	0.97412574
135	0x3f9c6617	1.2218655
136	0x3f9461de	1.1592367
137	0x3f9c2ee3	1.2201809
138	0x3fbaac51	1.4583837
139	0x3f9a12ed	1.2037026
140	0x3fa2bee4	1.2714505
141	0x3f9e87b4	1.2385163
142	0x3f64ed77	0.8942484
143	0x3f810428	1.0079393
144	0x3fb2eb5f	1.397808
145	0x3f8893c7	1.0670098
146	0x3f59ed57	0.85127777
147	0x3f7f7627	0.9978966
148	0x3fa1bae6	1.2635162
149	0x3fa07080	1.2534332
150	0x3f523fc9	0.8212858
151	0x3f85acd2	1.0443366
152	0x3f7cbcfd	0.98725873
153	0x3f8a3534	1.0797486
154	0x3f9a5a37	1.2058781
155	0x3f73c004	0.9521487
156	0x3fa112bb	1.2583841
157	0x3f9d7a1e	1.2302892
158	0x3f5db944	0.8661082
159	0x3f5b4533	0.85652465
160	0x3f89a69d	1.0753971
161	0x3f95593a	1.1667855
162	0x3fb4e3e2	1.4132044
163	0x3f996c1b	1.1986116
164	0x3f96ec71	1.1790906
165	0x3fb05b88	1.3777933
166	0x3f896e7a	1.073684
167	0x3fa3f6eb	1.2809728
168	0x3fa6becd	1.3026978
169	0x3f69cc33	0.9132721
170	0x3f9c47b8	1.2209387
171	0x3f8fe045	1.1240317
172	0x3f9de367	1.2335023
173	0x3f52ce52	0.8234607
174	0x3f9178ae	1.1364954
175	0x3f9ed3a2	1.2408335
176	0x3f989751	1.1921178
177	0x3f9825a8	1.1886492
178	0x3f62dec6	0.88621175
179	0x3f977309	1.1831981
180	0x3f92500b	1.1430677
181	0x3f8c7082	1.0971835
182	0x3f90bdc6	1.1307914
183	0x3f9f783b	1.2458566
184	0x3f93b967	1.1540955
185	0x3f97e0c3	1.1865467
186	0x3f9ccc27	1.2249802
187	0x3fb0c6f8	1.381072
188	0x3f13954e	0.57649696
189	0x3f816cc2	1.0111315
190	0x3f8b973a	1.0905526
191	0x3f9968ce	1.1985109
192	0x3f8646fd	1.0490414
193	0x3f9479f0	1.1599712
194	0x3f7266c0	0.94688034
195	0x3f838abf	1.0276717
196	0x3f9b675e	1.214092
197	0x3f72d9b9	0.9486347
198	0x3f91e86c	1.1399055
199	0x3f85e521	1.046055
200	0x3f9002be	1.1250837
201	0x3fad4e12	1.353945
202	0x3f983eb7	1.1894139
203	0x3f7536eb	0.95786923
204	0x3f975bc8	1.1824884
205	0x3f9822b6	1.1885593
206	0x3f8e1e50	1.1103001
207	0x3f9e58d2	1.2370856
208	0x3f94b98e	1.1619127
209	0x3f84855d	1.0353199
210	0x3f9be039	1.2177802
211	0x3fb11a30	1.3836117
212	0x3fa52700	1.2902527
213	0x3faef2c6	1.3667839
214	0x3f92a5c7	1.1456841
215	0x3f66d7b0	0.90172863
216	0x3f81ee8b	1.0150923
217	0x3fa17c6c	1.2616096
218	0x3f84249a	1.032367
219	0x3f96c25b	1.1778063
220	0x3f818448	1.0118494
221	0x3f905c4d	1.1278168
222	0x3f89abf3	1.07556
223	0x3f96efc2	1.1791918
224	0x3f5ae8e2	0.855116
225	0x3f7faec3	0.9987604
226	0x3f963001	1.17334
227	0x3f858840	1.0432205
228	0x3f7bec4f	0.98407453
229	0x3f88d2fa	1.0689385
230	0x3f09c0c1	0.53809744
231	0x3f90ba6b	1.130689
232	0x3f8c3c70	1.0955944
233	0x3fb1e47b	1.3897852
234	0x3f81f425	1.0152632
235	0x3f7ebd9d	0.99508077
236	0x3f94d350	1.1626987
237	0x3fa11d3d	1.2587048
238	0x3f840a01	1.0315553
239	0x3f90a08b	1.1298994
240	0x3f94a472	1.1612685
241	0x3f8cf7db	1.101314
242	0x3fa1fcb5	1.2655245
243	0x3f95f754	1.1716104
244	0x3f9622c5	1.1729361
245	0x3f8a7e12	1.0819724
246	0x3f83c796	1.0295284
247	0x3f623596	0.88363016
248	0x3fa3726c	1.2769294
249	0x3f97bb38	1.185401
250	0x3fa590ff	1.2934874
251	0x3f812298	1.0088682
252	0x3f983ebc	1.1894145
253	0x3f983978	1.1892538
254	0x3f8ade1a	1.084903
255	0x3f6c5de6	0.9233078

bias f4 [256]
0	0x3e908d40	0.28232765
1	0xbdbd42b5	-0.09241239
2	0x3e9f96c2	0.31169707
3	0x3e8645b5	0.26225057
4	0x3ede39a9	0.43403366
5	0x3e13baca	0.14426723
6	0x3bd08094	0.006362984
7	0xbcdd829e	-0.027039822
8	0x3ca96d10	0.020681888
9	0x3e87a8fa	0.26496106
10	0x3e3a7382	0.18208125
11	0xbd9c7560	-0.07639575
12	0x3eb90306	0.3613512
13	0xbdc88c6f	-0.097924106
14	0x3e1fa265	0.15589292
15	0xbde06cd1	-0.10958255
16	0x3e6f428d	0.23365231
17	0x3c8eacb1	0.01741633
18	0x3ebdfc21	0.37106422
19	0xbe3261ee	-0.1742017
20	0xbca68d6f	-0.020331113
21	0x3e9d6e00	0.30747986
22	0x3e37e14c	0.17957038
23	0xbd61d99d	-0.055139173
24	0x3e45cbd8	0.19316041
25	0x3ea7d480	0.32779312
26	0x3dee229f	0.11627697
27	0x3e8ae315	0.27126375
28	0xbe978f73	-0.2960163
29	0xbe9d729d	-0.30751505
30	0x3e568c54	0.20951968
31	0xbe4bdbe0	-0.19908094
32	0x3e5bbbfd	0.2145843
33	0xbd96c853	-0.073624276
34	0x3e3034bd	0.17207618
35	0x3eb42b0b	0.3518909
36	0xbe176090	-0.1478293
37	0x3ddad4cc	0.10685119
38	0x3eaf5351	0.34243253
39	0x3e51e406	0.2049714
40	0x3cf55601	0.029948236
41	0xbce0aa03	-0.027424818
42	0xbdfab578	-0.12241644
43	0x3ea5960d	0.32341042
44	0xbb740189	-0.003723236
45	0x3e17cbff	0.14823912
46	0x3eaa8fcc	0.33312833
47	0xbd92c974	-0.071673304
48	0x3dec0f79	0.11526389
49	0xbba08d8f	-0.0048996876
50	0x3e8aba52	0.27095276
51	0x3e69220e	0.22766897
52	0x3e7fcf16	0.24981341
53	0x3d9fd49d	0.07804225
54	0x3e814d94	0.252545
55	0x3ec366d4	0.3816439
56	0x3e9de31f	0.30837342
57	0x3dfc8b69	0.12331278
58	0x3e884b8b	0.26620135
59	0x3c168e25	0.009189163
60	0x3eb5c113	0.35498866
61	0x3e0219d5	0.12705167
62	0x3e6d2145	0.23157223
63	0x3e51c8a1	0.2048669
64	0x3ca3154a	0.019907612
65	0x3ea38a8f	0.3194165
66	0x3e409eb7	0.18810545
67	0x3eba880c	0.3643192
68	0x3ec58fd4	0.38586295
69	0x3e12f6ae	0.14351913
70	0xbd3b0367	-0.04565754
71	0x3c801cbc	0.015638702
72	0x3e948c10	0.2901311
73	0x3ec18255	0.37794748
74	0x3ec13109	0.37732723
75	0xbc9e559f	-0.019327937
76	0x3e973dd5	0.29539362
77	0xbd963cc2	-0.073358074
78	0xbd68355b	-0.05669151
79	0xbe140d90	-0.14458299
80	0x3ea2d2a9	0.31801346
81	0x3d2cbee6	0.042174242
82	0x3d636d04	0.055523887
83	0x3ec760bb	0.38940987
84	0xbe28bf37	-0.16479193
85	0x3ea6bb28	0.32564664
86	0x3e611a45	0.21982677
87	0x3ec21696	0.37907857
88	0xbdab98d4	-0.08378759
89	0x3ebdc5ee	0.3706507
90	0x3e0f74af	0.14009355
91	0x3ddc62c6	0.10761027
92	0x3eef2a81	0.46712115
93	0xbe0cf528	-0.13765395
94	0xbdb6f950	-0.08934271
95	0x3ead6507	0.3386614
96	0xbdab24bc	-0.08356616
97	0x3ebadae2	0.3649512
98	0x3d8f7994	0.07005611
99	0x3dd79861	0.10527111
100	0x3d1341d2	0.035951443
101	0x3c9b865a	0.018984962
102	0x3eaad653	0.3336664
103	0x3dd10999	0.10206909
104	0x3eb06c06	0.34457415
105	0xbd8dde8f	-0.06927215
106	0x3e8c91a1	0.27454856
107	0xbdd6ec48	-0.10494286
108	0x3d1379c9	0.036004815
109	0x3e88205e	0.26587194
110	0x3d3c0819	0.04590616
111	0xbcd6702a	-0.02617653
112	0x3e9b42f2	0.30324513
113	0x3e277c44	0.16355997
114	0x3b846990	0.0040409043
115	0x3c13937a	0.009007329
116	0xb9cc2c12	-0.00038942747
117	0xbe87fc30	-0.2655959
118	0x3eb81d1b	0.35959706
119	0x3e935246	0.28773707
120	0x3e15dd40	0.14635181
121	0x3e993563	0.29923543
122	0xbd0cda82	-0.034388073
123	0xbde9a646	-0.11408667
124	0x3eb0989a	0.34491426
125	0xbcef701c	-0.029228263
126	0x3e559387	0.20857058
127	0x3d9c48f2	0.07631101
128	0xbd30f6cd	-0.043204118
129	0x3e945b82	0.28976065
130	0x3e2fc5fe	0.17165372
131	0xbe88f3a8	-0.26748395
132	0x3eae6ab7	0.34065792
133	0xbe953ba7	-0.29147074
134	0x3e62048f	0.22072051
135	0x3e96d0fc	0.29456317
136	0x3e1c7eaa	0.15282694
137	0x3d38f26b	0.045153063
138	0x3e5faf29	0.21844162
139	0xbdb7372b	-0.08946069
140	0x3c8d31a6	0.017235588
141	0x3dbbf809	0.09178168
142	0xbcf23e1a	-0.029570628
143	0xbdb791d8	-0.08963364
144	0xbd9091ce	-0.0705906
145	0x3e8587c1	0.26080135
146	0xbdede9fe	-0.11616896
147	0x3e944e3d	0.2896594
148	0x3d8b9b94	0.068167835
149	0xb8483340	-4.7731446e-05
150	0x3ec3ffc9	0.38281086
151	0xbc2ff751	-0.010740117
152	0xbbc8aafd	-0.006123899
153	0x3e89f304	0.2694322
154	0x3e02bc1c	0.1276707
155	0xbe4132c5	-0.18867023
156	0x3de81a81	0.1133318
157	0x3c893f6c	0.016753875
158	0x3dc39e11	0.09551633
159	0x3e232795	0.15933068
160	0x3eaf305c	0.34216583
161	0x3e8452a6	0.25844306
162	0xbe0da812	-0.13833645
163	0x3e995bde	0.29952902
164	0x3e68ce49	0.22734942
165	0xbcd19f85	-0.02558876
166	0x3e6d7744	0.23190027
167	0x3e95b18d	0.29237023
168	0x3e886751	0.26641324
169	0xbe326ee4	-0.17425114
170	0x3ecce403	0.4001771
171	0x3da15e40	0.07879305
172	0x3ce474f8	0.027887806
173	0x3d8d90ec	0.06912407
174	0x3e9eea86	0.31038302
175	0x3ea1af1b	0.31578907
176	0x3c99273b	0.018695464
177	0xbc40184f	-0.011724546
178	0xbd0c06ed	-0.034186292
179	0x3e99105b	0.2989529
180	0x3ea12688	0.3147471
181	0xbd30d037	-0.04316732
182	0xbe0e0d9c	-0.13872379
183	0x3ed94cff	0.42441556
184	0x3e66ba77	0.22532068
185	0x3e9428fb	0.28937516
186	0x3dfd22ea	0.12360175
187	0x3e205047	0.15655623
188	0x3dbf49d8	0.093402565
189	0xbd3f9d66	-0.046780966
190	0x3e6ebfd5	0.23315366
191	0x3e0e8d4a	0.13921085
192	0x3eb05349	0.34438542
193	0x3dd43d50	0.10363257
194	0x3e537ebd	0.20653816
195	0x3d7bf1cb	0.06150989
196	0x3e062f5b	0.13104002
197	0x3e84ffcb	0.25976405
198	0x3e98cd8f	0.2984433
199	0x3e9c294b	0.30500254
200	0x3da9d30e	0.082922086
201	0x3e50eb1e	0.2040219
202	0x3ea99f55	0.33129373
203	0xbdce3b7d	-0.1006994
204	0x3eeb551e	0.45963377
205	0x3e0cab54	0.13737231
206	0x3e5fff51	0.21874739
207	0x3ebbfcfd	0.36716452
208	0x3e8d9933	0.27655944
209	0x3d22f5f5	0.039785344
210	0xbca219e1	-0.01978773
211	0x3ebc9b3b	0.3683718
212	0x3df90ff8	0.12161249
213	0x3d55ebaf	0.05222672
214	0x3e4691d2	0.19391564
215	0x3d93edf6	0.07223122
216	0x3e295255	0.16535313
217	0x3ed502b4	0.41603625
218	0x3db093a3	0.086219095
219	0x3e21da2d	0.15805884
220	0x3e006a9f	0.12540673
221	0xbd979f86	-0.074034736
222	0x3cb53b14	0.022122897
223	0x3e609e6e	0.21935436
224	0x3e475e7b	0.19469635
225	0x3dddd675	0.1083192
226	0x3e436451	0.19081236
227	0xbe22aac5	-0.15885456
228	0xbe59acf8	-0.21257389
229	0x3e5c0c3a	0.21489039
230	0x3dfec3ed	0.124397136
231	0x3ea47dd2	0.32127243
232	0x3cfe8a45	0.031071791
233	0x3e565771	0.20931794
234	0xbd4a5338	-0.04939577
235	0x3e80aff2	0.25134236
236	0x3d3d95a8	0.0462853
237	0x3eaf58ae	0.34247345
238	0x3e6cc2d3	0.23121195
239	0x3e789e81	0.24279214
240	0x3e94e12d	0.29078045
241	0x3e6a0798	0.2285446
242	0x3e94ad1e	0.29038328
243	0x3eb84a12	0.3599401
244	0x3e82cab9	0.2554529
245	0x3ea3e656	0.3201167
246	0xbd724e5f	-0.05915677
247	0xbd8aef23	-0.06783893
248	0x3edafda6	0.42771643
249	0x3ed086bc	0.40727794
250	0x3e9b961d	0.30387965
251	0xbe8d69bb	-0.27619728
252	0x3ea1ce5b	0.3160275
253	0x3ead24b3	0.33817062
254	0x3e9904c1	0.2988644
255	0x3e90833d	0.28225127

running_mean f4 [256]
0	0x3f5654d7	0.83723205
1	0x3bf842cd	0.0075763226
2	0x3f68fb47	0.9100842
3	0x3ea0ab9e	0.31380934
4	0x3f90380a	1.1267102
5	0x3db67abf	0.08910131
6	0x3d0a8ab5	0.033823688
7	0x3b21938d	0.0024654598
8	0x3f163e48	0.58688784
9	0x3f0eefee	0.55834854
10	0x3eae0018	0.33984447
11	0x3f0de713	0.55430716
12	0x3f50ea5d	0.8160761
13	0x3f0b39d4	0.54385114
14	0x3e081589	0.13289465
15	0x3d59b920	0.053155065
16	0x3f411b06	0.7543186
17	0x3ecd793e	0.40131563
18	0x3fed0389	1.8516704
19	0x3c97ea85	0.018544445
20	0x3e23ded0	0.16002965
21	0x3ee3a8a6	0.44464606
22	0x3dc749ab	0.09730848
23	0x3d522219	0.05130205
24	0x3e51208b	0.2042257
25	0x3e918cb2	0.28427655
26	0x3db4f912	0.08836569
27	0x3e0453dd	0.12922616
28	0x3e2f0433	0.17091446
29	0x3db78d56	0.089625046
30	0x3d06d194	0.032914713
31	0x3c61e718	0.013788007
32	0x3ee19f7d	0.44066992
33	0x3f5df2d6	0.86698663
34	0x3d555dc6	0.052091382
35	0x3f759734	0.9593384
36	0x3c588510	0.013215318
37	0x3f39311c	0.7234056
38	0x3fe50861	1.7893182
39	0x3e4e98ff	0.20175551
40	0x3f77debd	0.96824247
41	0x392bdb20	0.00016389461
42	0x3b36cf99	0.0027894734
43	0x3f580dfa	0.84396327
44	0x3e85a2b9	0.2610071
45	0x3d0c4503	0.034245502
46	0x3edcf373	0.43154487
47	0x3d70728d	0.058702994
48	0x3e7ef3c0	0.24897671
49	0x3d964a11	0.07338346
50	0x3f36b3e0	0.7136822
51	0x3e6685c2	0.22511962
52	0x3ef128aa	0.47101337
53	0x3a159bb4	0.00057071005
54	0x3f2d9973	0.6781227
55	0x3fb53e73	1.4159683
56	0x3e8a476e	0.27007622
57	0x3c864f11	0.016395124
58	0x3f39caf2	0.72575295
59	0x3ce5b80c	0.028041862
60	0x3fa8712b	1.3159536
61	0x3e2456c2	0.1604872
62	0x3eae896f	0.3408923
63	0x3ed77ba9	0.42086533
64	0x3c79764d	0.015225959
65	0x3f69499d	0.9112795
66	0x3ece9b34	0.40352786
67	0x3f3a1bb9	0.7269855
68	0x3f87d8bf	1.0613021
69	0x3eca0800	0.3945923
70	0x3e2d0584	0.16896635
71	0x3e10462a	0.14089265
72	0x3e62d5a9	0.22151817
73	0x3dc88a5b	0.09792014
74	0x3f67a974	0.9049294
75	0x3cef5063	0.029213136
76	0x3e89afb0	0.2689185
77	0x3b6a269d	0.0035728582
78	0x3d5d2545	0.05399062
79	0x3cfbdd44	0.030745156
80	0x3ecc36b7	0.39885494
81	0x3df0e43c	0.11762282
82	0x3e0c423c	0.13697141
83	0x3f87c33d	1.0606457
84	0x3d092c5d	0.033489574
85	0x3f502d2c	0.81318927
86	0x3f1088e2	0.56458867
87	0x3f45d807	0.77282757
88	0x3e18d1e6	0.1492382
89	0x3f8059a4	1.0027356
90	0x3f0f6a59	0.5602165
91	0x3dab46c3	0.08363106
92	0x3facf7c6	1.3513114
93	0x3d4f6d09	0.050641093
94	0x3defcaca	0.11708601
95	0x3e740508	0.23830044
96	0x3f3ad1fb	0.72976655
97	0x3f16b8af	0.58875555
98	0x3f109b61	0.5648709
99	0x3cf8de73	0.03037951
100	0x3dc9e0f8	0.098573625
101	0x3ce143b4	0.027498104
102	0x3fa11154	1.2583413
103	0x3c1320be	0.008979974
104	0x3e4097df	0.18807934
105	0x3df9f6f7	0.12205308
106	0x3e560380	0.20899773
107	0x3d09018c	0.03344874
108	0x3d62bc2a	0.05535523
109	0x3e74ea78	0.23917568
110	0x3ed57aa1	0.4169512
111	0x3e142a63	0.14469294
112	0x3ea4ddd3	0.32200488
113	0x3f482ab0	0.78190136
114	0x3e869ea2	0.26292902
115	0x3cc39a10	0.023877174
116	0x3ba16e3d	0.0049264715
117	0x3d511f7a	0.05105541
118	0x3f29af81	0.6628342
119	0x3f17d97f	0.5931625
120	0x3f3fae69	0.74875504
121	0x3e1fb4ef	0.15596364
122	0x391d0b3a	0.00014976869
123	0x3d827808	0.063705504
124	0x3ef4c240	0.4780445
125	0x3d8952c0	0.067052364
126	0x3c18e9f1	0.00933312
127	0x3c3d4f2d	0.0115545215
128	0x3da330b7	0.07968276
129	0x3e638051	0.22216918
130	0x3d98693c	0.07441947
131	0x3e777304	0.24164969
132	0x3ea9ed21	0.33188727
133	0x3e25cd28	0.16191542
134	0x3dc35e84	0.09539512
135	0x3f4cb803	0.7996828
136	0x3ddaed5e	0.106898054
137	0x3e0a6e28	0.13518584
138	0x3e9b1015	0.30285707
139	0x3e87aa20	0.26496983
140	0x3c458a0d	0.01205684
141	0x3f24b99a	0.64345706
142	0x3e3e011a	0.18555108
143	0x3ea12e89	0.31480816
144	0x3bdc7222	0.006727473
145	0x3f219d01	0.63130194
146	0x3db381c0	0.08764982
147	0x3e8e187b	0.27753052
148	0x3d88bbc4	0.066764385
149	0x3c64f662	0.013974758
150	0x3f29ba07	0.6629948
151	0x3b4a45c9	0.003086435
152	0x3b6ee1de	0.0036450545
153	0x3e537013	0.20648222
154	0x3d213095	0.039352972
155	0x3c9c4522	0.019075934
156	0x3ec9f067	0.39441225
157	0x3cb4c556	0.022066753
158	0x3bb35352	0.005472579
159	0x3bb165fe	0.0054137697
160	0x3f875e6f	1.0575694
161	0x3e7e2b57	0.2482122
162	0x3f0fc53d	0.56160337
163	0x3f4d42eb	0.80180234
164	0x3f403608	0.75082445
165	0x3f650e74	0.8947518
166	0x3dbfebb4	0.09371129
167	0x3f1ed437	0.62042564
168	0x3e9976c2	0.29973418
169	0x3e21d67f	0.1580448
170	0x3f243e8b	0.64157933
171	0x3cd68e50	0.026190907
172	0x3d358b55	0.04432233
173	0x3be1d168	0.0068914182
174	0x3e8215cf	0.25407264
175	0x3f275ae2	0.6537305
176	0x3d8a8400	0.06763458
177	0x3bb9d4ed	0.0056711347
178	0x3d99ff98	0.07519454
179	0x3e9c3bf2	0.30514485
180	0x3f8b4be3	1.0882534
181	0x3d1d0831	0.03833789
182	0x3d868fd3	0.06570401
183	0x3f82ec22	1.0228312
184	0x3f1f91e8	0.6233201
185	0x3e897a9f	0.26851365
186	0x3eb535dc	0.35392654
187	0x3e973678	0.29533744
188	0x3e9a7a14	0.30171263
189	0x3ec2fea1	0.3808489
190	0x3e49bb90	0.19700456
191	0x3f7b0ecd	0.9806946
192	0x3ec447dd	0.38336077
193	0x3ddc0f69	0.10745127
194	0x3caaf65f	0.020869432
195	0x3e09fe65	0.1347595
196	0x3f719a34	0.9437592
197	0x3e244aae	0.16044113
198	0x3dfec1ed	0.12439332
199	0x3f39d2d6	0.72587335
200	0x3f65b289	0.8972555
201	0x3f6fc737	0.9366335
202	0x3e4c7f6b	0.19970481
203	0x3db6edbe	0.089320645
204	0x3fa6d64d	1.303415
205	0x3f375cc1	0.71625906
206	0x3d77305f	0.060348865
207	0x3e6734b1	0.22578694
208	0x3e2ea570	0.17055297
209	0x3b55d712	0.0032629413
210	0x3f58d26e	0.8469609
211	0x3f865302	1.0494082
212	0x3f0908b8	0.5352893
213	0x3bca45db	0.006172878
214	0x3ee476fe	0.44622034
215	0x3da75e23	0.08172252
216	0x3c6f8932	0.014620112
217	0x3f9abe84	1.2089391
218	0x3c4d91a3	0.0125469295
219	0x3d0c64c8	0.0342758
220	0x3d393b70	0.0452227
221	0x3e2d1554	0.16902667
222	0x3c0923f4	0.008370388
223	0x3f16e696	0.58945596
224	0x3d511d06	0.05105307
225	0x3d7ae391	0.06125218
226	0x3e47afd7	0.19500671
227	0x3b5e2fa0	0.0033902898
228	0x3d989de6	0.07451992
229	0x3e44518a	0.1917173
230	0x3d1574eb	0.036488455
231	0x3ebba230	0.36647177
232	0x3f047a33	0.5174896
233	0x3f174122	0.5908376
234	0x3c9c983a	0.019115556
235	0x3ec05265	0.37562862
236	0x3ec85ccb	0.39133295
237	0x3ec57f65	0.38573757
238	0x3e4bdf88	0.19909489
239	0x3e1c2c80	0.1525135
240	0x3f43ed2e	0.7653378
241	0x3f24631b	0.6421372
242	0x3f5efb89	0.8710256
243	0x3ed6004a	0.41797096
244	0x3ede4543	0.43412217
245	0x3eee49bb	0.46540627
246	0x3d84b9e1	0.06480766
247	0x3e10a998	0.14127195
248	0x3f94f2a5	1.1636549
249	0x3f730139	0.9492374
250	0x3e6080d1	0.2192414
251	0x3daea3ef	0.085273616
252	0x3e8d3f47	0.2758734
253	0x3e655ddc	0.22399086
254	0x3f0f794f	0.5604448
255	0x3f1bfac7	0.6092953
