Best_models/wisdm_CNN_20210122_212207/CNN_wisdm_Rep_3_Seed_845.pt (torch_old, 224391 bytes, 12 tensors)

weight f4 [64, 6, 3]
000000 84 f1 a7 bd 30 c3 2d 3f d7 17 44 3f 9f cd 86 3e
       -0.08200362 0.6787596 0.76598877 0.2632875
000010 6b 0b 0b 3f e8 f2 41 3e d8 f5 4e 3f b3 94 b7 3e
       0.543143 0.18940318 0.8084388 0.35855636
000020 96 b3 0c bf 92 37 6a 3d d3 d7 f3 ba 65 14 9f 3d
       -0.54961526 0.057181902 -0.0018603749 0.07767562
000030 16 d9 1f bc 9d 42 8a 3c 8c 44 0b 3d 87 60 81 3d
       -0.009756347 0.016877467 0.03400092 0.06317239
000040 ab 18 84 bd ce e6 de 3d cb 0a a4 3e e0 6d a2 bc
       -0.064500175 0.10883866 0.32039484 -0.019827783
000050 71 b8 98 be 51 e2 62 be ec 28 42 3e a2 f2 a8 3d
       -0.29828218 -0.22156645 0.18960923 0.082494035
000060 ee 62 3e be 02 81 49 be 98 38 3c bd c5 d0 c4 3e
       -0.18592426 -0.19678119 -0.04595241 0.3844053
000070 eb 60 78 3c a4 3d cd be a8 75 7d be 82 3d 93 be
       0.015159826 -0.4008609 -0.24751914 -0.28757864
000080 dd 95 e4 3e 92 84 da 3d 8f 53 15 bc 53 2c 8e be
       0.44645587 0.10669817 -0.00911416 -0.27768192
000090 46 7d 9a bc 62 07 fc bb 67 8f 06 3e c7 70 0b be
       -0.018858563 -0.00769131 0.13140641 -0.1361724
0000a0 24 03 60 3e ef ef 80 3e 59 4d ed 3e 75 13 4a 3e
       0.21876198 0.25183055 0.46348074 0.19733985
0000b0 de 62 0a be 21 db 05 3e 45 a4 3a be a8 cb 1e 3e
       -0.13514277 0.13071872 -0.18226726 0.15507376
0000c0 43 ba f7 3c 2f 32 56 be 83 a9 b5 3e 57 bc 60 3e
       0.030240184 -0.20917581 0.3548089 0.21946846
0000d0 98 cc 82 3d 4d 77 35 be 13 3a 2f be c0 de 31 be
       0.063866794 -0.17721291 -0.17111997 -0.17370129
0000e0 ae ef 51 be a0 cc 9a 3b 8e fb 0b 3e 3d 0b d7 bd
       -0.20501587 0.0047241 0.13670179 -0.105001904
0000f0 72 7c f9 bb ed 0c 0c be dd 52 a5 bd f9 e8 03 bf
       -0.007613712 -0.13676806 -0.080724455 -0.51527363
000100 24 48 bd 3d f0 e1 a3 be 81 d1 5f 3c 7b 84 cc 3e
       0.09242275 -0.32008314 0.0136607895 0.39944825
000110 02 c9 94 3d 08 5f 88 bd 58 b3 45 bd 31 42 d9 be
       0.07264902 -0.06658751 -0.04826674 -0.42433313
000120 96 bf 54 be fe 18 dc 3d 35 dd 10 be 27 f1 99 be
       -0.20776209 0.107469544 -0.14146884 -0.30066797
000130 2f bd 03 3d 89 82 c8 be a0 91 1b bc 1a fd ed ba
       0.03216284 -0.3916209 -0.009495169 -0.0018157095
000140 5a 82 50 bd b9 f0 b0 be 28 cc 8b 3e 57 56 c5 3d
       -0.050905563 -0.34558657 0.27304196 0.09635609
000150 13 6e b3 be 7f cf c5 3e 3f c2 ea 3c 9c 69 b6 3d
       -0.35044917 0.3863487 0.028657077 0.08906862
000160 7e 36 e9 bd 7b 4a 18 bd b0 86 95 be 04 5e 11 3b
       -0.11387347 -0.037180405 -0.2920432 0.0022181282
000170 fd 63 42 3c d4 03 cf bc 66 72 d8 bd 00 12 22 bd
       0.011864659 -0.02527038 -0.10568695 -0.039567947
000180 d0 83 ac bd 89 0a 25 bd 07 84 4b 3d ef e8 ae be
       -0.08423579 -0.04029325 0.049686458 -0.3416209
000190 fb fa 2b 3e 79 47 dc 3e fa d5 bd 3e 7e 7a 88 be
       0.1679496 0.4302328 0.37077314 -0.26655954
0001a0 f8 e7 f3 be 6c ca 84 be 2d 7c aa 3d 2f 84 35 bd
       -0.47637916 -0.25935686 0.08324466 -0.044315513
0001b0 70 2c a0 bd ad 93 e1 3d 0d ce 5a bd 01 fe 2d be
       -0.07820976 0.11014495 -0.05341916 -0.16991426
0001c0 8d 8d 82 3d 98 46 7d 3c d9 98 61 bd 82 7a 16 bd
       0.06374655 0.015458725 -0.055077408 -0.036737926
0001d0 85 8e 2a 3d 86 ca 05 bf 5d a1 af 3d 1d 14 7b 3e
       0.041639823 -0.5226215 0.085756995 0.24519391
0001e0 6e 6e 17 be b8 bc 98 3e ac d9 89 3d 20 f5 04 bf
       -0.1478822 0.2983148 0.06730971 -0.5193653
0001f0 d5 54 6a be 58 09 2e 3b 03 62 e6 be 3c 4b 18 3e
       -0.22883923 0.0026555862 -0.44996652 0.1487245
000200 7e 9d a9 be 60 a2 f2 3c 1d 97 14 be 4c 9f 9c 3e
       -0.3312797 0.029618442 -0.1451077 0.30590284
000210 79 f1 61 3d 3b ed 30 bd 2a 5f 1c bd 1b ad 25 3d
       0.055161927 -0.04319499 -0.038176693 0.04044829
000220 a8 ea f7 3d 3c 8c 4c be 52 25 31 be 29 60 aa bc
       0.12105304 -0.1997537 -0.17299393 -0.020797806
000230 69 58 4d 3d 64 80 6e 3e 2a 6f 3d bd ca ed 87 bd
       0.050133143 0.23291165 -0.046248592 -0.066371515
000240 95 2e ec 3d bb 49 3a bc 18 19 3f bd 1f 89 08 bd
       0.11532322 -0.011370118 -0.04665479 -0.033333894
000250 8b 41 4b 3c c7 ad ae 3b 1f 46 c3 3d 13 a5 0b bd
       0.012405763 0.0053307745 0.09534859 -0.034092974
000260 76 f5 82 bd 61 4b e5 be 25 13 76 be ad 17 84 3e
       -0.06394474 -0.44784072 -0.2403074 0.25799313
000270 a1 6c 05 3e 98 a2 61 3e 36 e2 2d 3d bf f1 1b be
       0.1302972 0.22034681 0.04245206 -0.15228938
000280 8c 02 e7 3b 05 e4 75 3e 0c 81 af bd 5d 56 9b be
       0.007049864 0.24012764 -0.085695356 -0.30339327
000290 5e 3c 8d be 9e 08 b3 be 13 c7 96 bc a5 a0 17 3f
       -0.2758512 -0.34967512 -0.018405473 0.592295
0002a0 72 45 1b bf fd ac f8 be 53 a2 06 3e d3 e3 1c 3e
       -0.6065284 -0.4856948 0.1314786 0.15321283
0002b0 33 1a 5d be aa b5 b8 3d c5 53 e6 3c 51 3d 83 be
       -0.21592025 0.09019025 0.028116116 -0.25632718
0002c0 a7 7b ed 3d ef 21 ad 3d 4f 37 21 bd 9f 0a 86 bc
       0.115958504 0.08453738 -0.039359387 -0.016362486
0002d0 15 c2 40 bd a2 9b 3d 3d 16 b9 08 3d 61 72 d3 3d
       -0.04706009 0.046291 0.033379637 0.103245504
0002e0 e1 90 99 3d 95 ce 5e bd fb 33 b0 3d d2 8d 2e 3e
       0.074983366 -0.05439623 0.086036645 0.17046288
0002f0 77 a2 04 3e 55 a9 f0 3c df b8 61 3c 6b 24 de 3d
       0.129526 0.029377619 0.013776987 0.1084679
000300 1f 47 7d be 16 e3 44 be 99 14 82 3d 94 e8 0a 3f
       -0.24734162 -0.19227251 0.06351585 0.54261136
000310 5f 83 b1 3d be f0 e2 3e db ee f4 be db c1 b9 be
       0.08667635 0.44324297 -0.47838482 -0.36280712
000320 b1 52 db bd 40 71 21 3e 64 38 77 bd bc 0f 7d be
       -0.107091315 0.15765858 -0.060356513 -0.24713033
000330 86 cf 90 be ae a4 11 bf 27 00 67 be e0 d3 05 3e
       -0.28283328 -0.56891906 -0.22558652 0.13069105
000340 17 9c 0f be 47 72 59 be d4 35 61 be 44 9c 08 be
       -0.14024387 -0.21235 -0.2199319 -0.1334086
000350 d5 a5 f5 3d 4d 58 67 be 15 f0 f6 bd e7 1f 7e 3e
       0.119945206 -0.22592278 -0.12057511 0.24816857
000360 d4 3c 96 3d df 65 43 3e 3a e6 d5 3c 1e 1c ab bd
       0.07335821 0.1908183 0.026110757 -0.08354972
000370 60 ef 7a bd f2 38 d6 bc e5 cc 23 3d 59 4e 3c bd
       -0.061263442 -0.0261502 0.039990325 -0.045973156
000380 8a e7 f2 3c 03 28 f7 bd 3c fd b9 bd 20 98 84 3c
       0.029651422 -0.120681785 -0.09081504 0.01618582
000390 49 20 9b 3c 37 1a c1 ba 91 f9 a2 be 9f 63 47 be
       0.018936293 -0.0014732544 -0.3183103 -0.19471596
0003a0 71 f4 8a be 48 37 0e 3e 02 c4 e8 bd 1f e6 e7 3d
       -0.2713962 0.13888276 -0.113655105 0.11323189
0003b0 8a 45 60 3e 01 64 8d 3e 76 ba b3 3d 3d 4b 82 be
       0.21901527 0.2761536 0.08775799 -0.25448027
0003c0 a6 25 85 3e b2 60 90 3e fe 9f 05 be 9a 8a ea 3d
       0.26005286 0.28198773 -0.13049313 0.114522174
0003d0 91 fc c4 3d 13 c3 6d 3e 67 be c3 3e 3b 3c 64 3d
       0.09618486 0.23218946 0.38231203 0.055721503
0003e0 2c 16 ff 3c 59 8c 8d 3e 44 00 fe 3d d9 99 84 bd
       0.031138502 0.2764614 0.124023944 -0.064746566
0003f0 e6 a6 9f 3d 59 5d 9b 3d 6d 4f 57 3e 52 1c 25 be
       0.07795505 0.07586164 0.21026392 -0.16124085

bias f4 [64]
000000 6a 9e e0 be fb b2 03 bf 2d 38 d9 bd 86 8b 39 bf
       -0.4387086 -0.5144498 -0.10606418 -0.7247852
000010 1f c9 d7 be 90 fd 4c bf c8 ed 27 bf b3 b3 10 bf
       -0.4214563 -0.80074406 -0.655972 -0.565242
000020 96 b3 60 bc 28 25 4b be f3 1c 7a be f8 bf 8d be
       -0.013714692 -0.19838393 -0.24425106 -0.27685523
000030 b1 41 5f 3e b4 7a 9a be 54 9f dc be 75 87 32 bf
       0.21802403 -0.3017174 -0.43090308 -0.6973794
000040 ca 1f e1 be 79 80 16 bf 4b 9b 0a bf 21 20 10 bf
       -0.43969566 -0.58789784 -0.5414321 -0.56299025
000050 84 04 3f 3d 4e 15 b8 bd ff 93 00 bf d0 05 37 be
       0.046635166 -0.089884385 -0.50225824 -0.17873311
000060 88 ed 88 3d dc 52 8f be 00 1b 56 bf 31 13 16 be
       0.066859305 -0.27992904 -0.8363495 -0.14655758
000070 0d 21 62 be e8 7f ee be 3a 56 f3 bd c9 ac 81 be
       -0.2208292 -0.4658196 -0.11881681 -0.25327137
000080 05 da cc be 9a 15 a1 3d af 5f 87 be d0 84 24 3e
       -0.40010086 0.07865448 -0.26440188 0.16066289
000090 27 a1 53 bf 8e e8 73 bf 5e fa 88 be e6 d6 a8 be
       -0.82667774 -0.95276725 -0.26753515 -0.32976454
0000a0 c0 77 27 be 89 36 db be 31 83 3e bf 69 b9 3a be
       -0.16354275 -0.42815045 -0.7441893 -0.18234791
0000b0 fb c0 c2 be b2 bf d1 be 04 a7 ee be 8c eb 94 be
       -0.38037857 -0.40966564 -0.46611798 -0.29085958
0000c0 59 60 c3 be bd fc 27 be 95 db b8 be a4 6d 58 bf
       -0.38159445 -0.16405006 -0.36105028 -0.845423
0000d0 98 9c c6 be 8b 63 14 bf f7 5d b9 be 42 7c b4 be
       -0.38791347 -0.5796439 -0.36204502 -0.3525105
0000e0 ec d5 19 bf 44 bd 24 be 6f f6 41 bf 17 d2 bb be
       -0.60092044 -0.16087824 -0.7576665 -0.36683723
0000f0 fa 73 fe be 60 76 34 bf b8 d0 91 be de b2 e0 3d
       -0.49697858 -0.70493126 -0.28479552 0.10971616

weight f4 [64, 64, 3]
000000 b6 22 73 be 4f 23 fe bd 1d 7c 09 be 01 bb 54 be
       -0.2374371 -0.12409078 -0.13426252 -0.20774461
000010 74 36 a2 be 4c 62 1a be 58 85 d6 3c b2 55 0f 3c
       -0.3168217 -0.1507656 0.02618663 0.008748459
000020 1d 2d b0 bc 3f 1e 92 be 45 0f 4d be 20 f1 7a bd
       -0.021505887 -0.285387 -0.20025356 -0.06126511
000030 11 43 36 be 88 d9 9d bd 50 a5 b5 bd 98 c8 90 be
       -0.17799021 -0.077075064 -0.088694215 -0.2827804
000040 24 9b 53 be 19 9f 90 bd c1 56 93 3d ee 9d 81 3d
       -0.2066465 -0.070615955 0.07194281 0.06328951
000050 64 b0 27 3e 5a 11 85 bd 32 81 18 be 9a 14 80 bd
       0.16375881 -0.0649745 -0.14893034 -0.062539294
000060 64 15 fe be 3c ab e2 be a6 7b f2 be 40 54 56 bd
       -0.49625695 -0.44271266 -0.4735996 -0.05232644
000070 6a 07 10 3c b6 e6 8b bd 88 84 cf be f5 f5 a9 be
       0.00879083 -0.06831114 -0.405308 -0.33195463
000080 9e 1a 9e be 25 4d 4a bc 53 9f 83 bd 5a 6f db bd
       -0.30879682 -0.012347494 -0.06426873 -0.10714598
000090 3c 74 1e be 2f 79 37 be 64 b9 29 be f3 5f 23 3e
       -0.15474027 -0.17917322 -0.16574627 0.1595457
0000a0 6d d5 f3 3d 27 c8 b0 3d 96 a2 c4 bd 73 50 56 be
       0.11905942 0.08631926 -0.09601323 -0.20929126
0000b0 b5 88 62 be 47 af 4d be c2 58 55 be 07 5a 23 be
       -0.22122462 -0.20086394 -0.2083464 -0.15952311
0000c0 31 c5 2e be 81 e1 46 be 49 76 c0 bd fc 12 a5 bd
       -0.1706741 -0.1942196 -0.09397561 -0.080602616
0000d0 23 7a c5 bc ff 3e fb bb ea 79 0a bd 4b 99 2b bd
       -0.02410609 -0.007667422 -0.033807673 -0.04189424
0000e0 f2 a9 66 3c 54 77 4c be bb 19 86 be 16 2f 89 be
       0.014078604 -0.19967395 -0.26191506 -0.26793736
0000f0 ec fb 74 3d 50 8e 96 3d f4 9f 7e 3c 35 d2 90 be
       0.059810564 0.07351363 0.0155410655 -0.28285375
000100 3b a3 9e be 2a e7 b5 be c1 b5 75 bc b0 2b 95 3d
       -0.3098391 -0.35527927 -0.014996947 0.07283723
000110 21 16 40 3d e1 7e 61 be 30 9a 36 be e0 cb 0e be
       0.046896104 -0.22021057 -0.17832255 -0.1394496
000120 92 55 a2 bd a9 95 c1 bc 93 57 34 bd 08 30 9c bc
       -0.079264775 -0.023630934 -0.04402883 -0.019065872
000130 85 b6 cc bd 0f 42 b2 bd cd b3 40 bc b7 40 83 bc
       -0.0999575 -0.08704006 -0.011761618 -0.01602207
000140 a3 51 e6 bd 2a 8d 52 3d 0a cc 8b 3d 26 ab 24 3d
       -0.1124604 0.051404156 0.06826027 0.040202282
000150 cb 21 b4 be 04 eb e0 be 9d 45 8c be 1f 26 cc be
       -0.35182032 -0.43929303 -0.2739686 -0.39872834
000160 c6 8d c9 be 3e 40 d7 be a3 b1 40 be be 9b 5a be
       -0.39365977 -0.420412 -0.18817763 -0.21348473
000170 c6 7d 5c be a8 12 0b be bc 02 03 be fb b6 c1 bd
       -0.21532354 -0.13581336 -0.12794012 -0.09458729
000180 9c b9 39 3d 4d 05 c6 3d b8 f8 0e 3d 7d 48 aa bd
       0.045343027 0.0966898 0.034905165 -0.08314607
000190 30 c5 e8 bd 3b 9b d6 bd 59 51 40 be 5f ab 16 be
       -0.113657355 -0.104788266 -0.18781032 -0.1471381
0001a0 db 6a 64 be 1b 96 d8 bd c3 36 18 be ec 8b 2f be
       -0.22306387 -0.10575505 -0.1486464 -0.1714322
0001b0 10 12 ab bc ce 2a 44 be ae df 54 bd 25 09 7d bc
       -0.020882636 -0.19156954 -0.05197113 -0.015444075
0001c0 41 7a 93 bd ae 39 98 bd 0c 1e 82 bb 87 ec 84 3d
       -0.072010525 -0.074328765 -0.003970867 0.064904265
0001d0 9b f0 c5 3d 6b 44 05 bc a0 49 f5 bc c6 01 ff b8
       0.096650325 -0.008133988 -0.029942334 -0.00012159678
0001e0 5b 1c cc bd 9f 8e 2b 3c 41 30 e3 3c 25 80 09 be
       -0.09966346 0.010471015 0.02773297 -0.1342779
0001f0 ab a7 26 be 82 4f 46 be 11 39 da bd 2c 3c e8 bd
       -0.16274898 -0.19366267 -0.10655416 -0.11339602
000200 3c 54 01 be 20 0d 6b be d7 99 85 be 10 5e 68 be
       -0.12629789 -0.22954226 -0.26093933 -0.22692132
000210 8c 4c 1e bd 69 bf c2 3d e4 fb ea 3d d3 0f 36 bb
       -0.03864722 0.09509165 0.114738256 -0.0027780428
000220 c6 2a 37 bc b2 56 a3 bb de 07 70 be e9 e0 46 be
       -0.011179632 -0.0049847 -0.23440501 -0.19421734
000230 37 95 43 be 85 5d d3 bb 22 23 ce 3c 53 d7 e5 3c
       -0.1909989 -0.0064503574 0.025163237 0.028056776
000240 98 dc 8c bd 11 46 df bd 11 0a 82 bd 94 8f f7 bd
       -0.068780124 -0.10902036 -0.06349576 -0.12087932
000250 bf b2 23 be 1f de 80 be 20 03 27 be 96 0d 34 bd
       -0.15986155 -0.25169465 -0.16309786 -0.04395827
000260 ae 56 45 3d 63 c4 50 be b9 87 80 be 57 2a cd bd
       0.048178367 -0.20387416 -0.25103548 -0.10017841
000270 20 7c 78 be 27 9b 83 be 7a 7f 8a be e5 4d 1e be
       -0.242661 -0.2570431 -0.27050382 -0.15459402
000280 f8 97 be bd 69 e9 f5 bd fa 71 58 bd de e0 b1 bc
       -0.093063295 -0.1200741 -0.05284307 -0.02171367
000290 e1 87 3b bd 2e 71 db be b4 21 bb be 6b ad ef be
       -0.04578388 -0.42859787 -0.3654915 -0.46811995
0002a0 28 fc dc 3d 6e b3 85 3d 82 b0 6e 3d b6 6f 83 be
       0.107902825 0.06528364 0.0582738 -0.25671166
0002b0 d7 da 8a be d6 0c ad be bd 87 1d be d2 46 00 be
       -0.27120087 -0.33798856 -0.15383811 -0.12527016
0002c0 de d8 87 bd df 70 2f be f1 29 5e be ba f1 0d be
       -0.06633161 -0.171329 -0.21695687 -0.13861743
0002d0 7c 32 2a be 8f 07 ed bd e8 a5 38 be 7b 32 6f bc
       -0.16620821 -0.11573707 -0.18032038 -0.014599438
0002e0 93 78 a1 bd 73 f3 3e be 73 03 8f 3e e2 35 81 3e
       -0.07884326 -0.18647556 0.2793232 0.25236422
0002f0 1d b2 9f 3e 36 6b 71 be 07 62 59 be b4 d3 8f be
       0.31190577 -0.23576054 -0.212288 -0.28091204
000300 01 b0 63 be 55 34 0c bd f1 57 fb 3d fe 7b 27 bf
       -0.22235109 -0.034229595 0.12272633 -0.6542357
000310 ed cb c7 be 13 5e 7e be ce f3 b5 bd 33 fd e6 bd
       -0.3902277 -0.24840574 -0.08884393 -0.11278763
000320 a7 6f 55 be e5 3c 8b 3e bd 8f 05 be 7a 2b 9c be
       -0.20843373 0.27194896 -0.13043113 -0.3050192
000330 a7 c5 d3 bd 08 0b 0f be 1e 3d 29 3e ad e6 99 be
       -0.103404336 -0.13969052 0.1652722 -0.30058804
000340 61 00 56 be 4d 5f 91 be 2f b9 f9 bd af 07 17 be
       -0.20898582 -0.2839302 -0.12193524 -0.14749025
000350 6f 6f 53 be 0f 74 e3 bd 3a 16 98 be 31 41 41 be
       -0.20647977 -0.11106121 -0.29704458 -0.18872525
000360 ee 09 18 be df 02 19 be 0c ac 83 be 4c b4 40 3d
       -0.14847538 -0.14942501 -0.257172 0.047046944
000370 b9 7c 64 be 4a 65 b1 bd a8 aa ee bb 29 9b 4c 3d
       -0.22313203 -0.086618975 -0.0072835274 0.04995266
000380 04 46 e3 3d 63 95 a0 bd 07 44 49 be bf 78 99 3e
       0.11097339 -0.07840993 -0.19654857 0.29974934
000390 51 13 8b 3e 4b 2e 51 3e 03 63 a3 3e 24 4d b2 bc
       0.27163175 0.20427816 0.31911477 -0.0217653
0003a0 50 43 c8 bd 9f db 65 bd 30 cf 25 bf 41 f4 0e bf
       -0.09778464 -0.05611765 -0.6476927 -0.5584145
0003b0 3d b1 0e bf f0 d3 12 bf 86 5a e0 be e0 5e 09 bf
       -0.55739194 -0.5735464 -0.43819064 -0.5366039
0003c0 b6 dc 80 be 6a 75 59 be b1 22 e4 3d 18 97 18 be
       -0.2516839 -0.21236196 0.11139429 -0.14901388
0003d0 67 2f d6 be 85 4b c5 be c0 d6 d1 bd d8 de fa bd
       -0.4183304 -0.3853418 -0.102460384 -0.12249535
0003e0 ad e8 fa bd c6 df 82 be 23 7a 03 bf 28 73 9c be
       -0.12251411 -0.2556135 -0.5135824 -0.30556607
0003f0 97 37 01 bf ac 82 fc be a7 fc 2e bf e3 f9 a4 bc
       -0.5047545 -0.49318445 -0.68354267 -0.020138687

bias f4 [64]
000000 ba 88 1f 3d ee 84 89 bd e1 7c 48 bf bc 44 08 bf
       0.038948752 -0.067148075 -0.7831555 -0.5322988
000010 b4 8b 62 be 91 0d 0f be e6 92 d5 be 01 b9 f9 be
       -0.22123605 -0.13970019 -0.41713637 -0.4877396
000020 55 14 9d be a4 ab b3 be e7 8a fa bd 3b d4 a8 be
       -0.30679575 -0.3509189 -0.12233525 -0.3297442
000030 ac 62 54 bd 55 6e 8e bd 80 68 c0 bc 62 4f a5 3c
       -0.051851913 -0.06954638 -0.02348733 0.020179454
000040 41 71 a1 be 5c fc 1a be ba 21 4e bd da 02 24 be
       -0.31531718 -0.1513533 -0.050325133 -0.16016713
000050 11 66 a2 3c a3 55 49 be fa 95 be bd 5d ad a4 be
       0.01982406 -0.19661574 -0.093059495 -0.32163516
000060 5d fc db be 24 80 c4 be 8f c9 d0 bd 80 bf 1b bd
       -0.42965975 -0.38379014 -0.10194694 -0.038024426
000070 75 24 13 be c8 54 37 be 4d 6c 60 be 32 dc d9 bd
       -0.14369376 -0.17903435 -0.21916313 -0.10637702
000080 3c 57 44 be 03 c3 0e be c6 51 8d bd 0e 0a 0f bd
       -0.19173902 -0.13941579 -0.06900363 -0.0349217
000090 0f 4c 90 be 4b 88 51 be 2c c8 6a 3d 4d dc 79 bf
       -0.28183028 -0.20462148 0.057319805 -0.9760178
0000a0 1f 74 3d bd 40 0b 43 bc 1e db b9 bd b0 21 77 be
       -0.04625332 -0.011904538 -0.090749964 -0.24133945
0000b0 2d da 42 bd 5f ae 29 bd a0 cb 78 be cc 35 2d bf
       -0.04757135 -0.04142606 -0.24296427 -0.6766021
0000c0 72 4d 2d bf aa ee 7f be 50 af f9 be 78 09 39 3c
       -0.676963 -0.24993387 -0.48766565 0.011293761
0000d0 d8 6a a0 be ff 02 67 be dd e7 4a bd e1 61 54 3d
       -0.31331515 -0.22559737 -0.04953753 0.051851157
0000e0 b3 b5 52 be 53 03 6e be 70 e8 e1 bd b9 0d 32 be
       -0.20577125 -0.23243456 -0.11030662 -0.17388047
0000f0 8f 20 40 bd 6d 61 ae be c5 9d d3 be 84 c7 0f be
       -0.04690605 -0.34058705 -0.41331306 -0.14040953

weight f4 [256, 128]
000000 01 09 bc bc 7b 15 ea bc d5 ca 92 ba b8 a5 20 bb
       -0.022953512 -0.028574696 -0.0011199365 -0.0024512839
000010 bf fa 68 3e 25 df 63 3e 3d 46 a0 3d e5 da 08 bd
       0.22751902 0.22253092 0.07825897 -0.03341188
000020 df 8e b1 3d 5f 9e f4 3d ea ad e2 3d a0 a9 b5 3e
       0.086698286 0.119442694 0.11068328 0.35480976
000030 c4 8d 57 3e 86 11 88 3d fa 48 ad bd c5 e6 77 3d
       0.21050173 0.06643967 -0.08461185 0.060522813
000040 44 60 c4 3c 61 59 2f 3e b3 6f 07 bd 4c f6 ad 3d
       0.023971684 0.17123939 -0.03306551 0.08494243
000050 b3 80 63 3d ea 18 04 bb c3 ed 04 be 26 4e 0c bd
       0.05554266 -0.0020156452 -0.12981324 -0.034254216
000060 ee c5 9e 3d 7e 6e 2c 3d 51 cd 54 3d 17 41 b9 3d
       0.07752596 0.04209756 0.051953617 0.09045618
000070 88 49 89 3e 4d 47 4a 3e f6 8c c5 3d 6e d2 98 bd
       0.26813912 0.19753762 0.09646027 -0.07462011
000080 f8 4a 76 bc 60 aa d7 bd 78 0b bb bd 87 18 81 bd
       -0.015032522 -0.10530543 -0.09133047 -0.06303506
000090 17 80 eb 3b af 76 56 3b d0 29 8f 3d 9f 49 43 3d
       0.0071869004 0.003272455 0.06990397 0.047677632
0000a0 65 a3 29 3e f7 42 8f 3e 15 94 ed 3c b5 01 42 3e
       0.16566236 0.27980778 0.029001275 0.18945964
0000b0 a5 d7 e5 3d ae 09 45 3e 37 f4 3e 3e c5 b3 6a 3e
       0.112227716 0.19241974 0.18647848 0.22920139
0000c0 2f e4 59 3e 50 b9 71 3e 76 57 a1 3c 21 b4 f9 3c
       0.21278451 0.23605847 0.019695025 0.0304814
0000d0 a0 59 73 3e c6 54 3a 3e 24 82 57 3d 74 d8 ab 3d
       0.23764658 0.18196401 0.052614346 0.083908945
0000e0 ae 80 3a 3e a3 8b 02 3d fa 0f 0a 3e e4 f4 a5 3e
       0.1821315 0.03187145 0.13482657 0.324134
0000f0 7b 22 49 3d cd 1d 83 bc 7f 34 5e bd 34 fb b1 bc
       0.04910515 -0.016005421 -0.054249283 -0.021726228
000100 05 77 2d bd 33 a3 8f bd 59 34 3d bd 59 73 d8 bd
       -0.042349834 -0.0701355 -0.0461925 -0.10568876
000110 db b5 a2 bc 01 98 45 3d 2c 70 e3 3d 17 f5 8a 3d
       -0.019862106 0.048240665 0.111053795 0.067850284
000120 13 da d9 bd 08 bb 16 3e 22 a3 a2 3b 19 9d a8 3d
       -0.106372975 0.14719784 0.0049632946 0.08233089
000130 dd 81 94 be 34 b6 8d be 94 f4 f9 3e 83 04 82 3e
       -0.29005328 -0.27678072 0.4881941 0.25394067
000140 fa b2 f3 ba 7e 34 ce 3c 4f a7 bf bc e4 9f 59 bd
       -0.0018592768 0.025171515 -0.023395209 -0.053131
000150 96 97 c8 bd ff 41 80 3d a7 6b 93 3e 0a f8 04 3e
       -0.09794538 0.06262588 0.2879307 0.12985244
000160 1b 93 7c bc 34 f1 06 bd f5 58 04 3d ae 16 18 3c
       -0.015415932 -0.032944873 0.0323114 0.009282751
000170 1d 46 a1 3e be 7c 86 3e d0 e0 69 3d ed d1 e9 3d
       0.31498805 0.26267046 0.057099164 0.11416993
000180 13 08 07 3d 4e fd ab 3c 2a 7a 6f 3d 0e 4c 9d 3d
       0.032966685 0.020994809 0.058466114 0.07680522
000190 73 32 77 bc 2c 6f 0a 3e b7 20 e1 bb 0b 56 1c 3e
       -0.015087712 0.13518971 -0.006870355 0.15267198
0001a0 dc 9f 09 3e e4 86 1d 3e 57 37 33 3e bf 13 94 3e
       0.13439888 0.15383488 0.17501579 0.28921315
0001b0 e8 b0 f1 bb 01 9e 24 3d 0a ea 87 be f0 7b 1c be
       -0.007375825 0.040189747 -0.26545745 -0.15281653
0001c0 c1 50 39 3d 5a 0c 1f 3d 35 87 c2 bd ff 65 17 bd
       0.04524303 0.03883014 -0.09498445 -0.036962505
0001d0 cc fb 6c 3e a2 26 98 3d 70 b0 89 be 94 8f d9 be
       0.23142928 0.074292436 -0.26892424 -0.42492354
0001e0 b7 0e b6 bc 78 dc 9e bb 20 cb ec bd 45 04 1e 3d
       -0.022223813 -0.0048480593 -0.115621805 0.03857829
0001f0 4c b9 7e 3e 59 73 d1 3d 3f b9 3a be 9d 99 ad 3d
       0.24875373 0.10227079 -0.18234728 0.08476565
000200 a5 d4 d4 bc eb ce 59 3d 8c bb 1a bd e0 10 2a 3e
       -0.025980303 0.053175848 -0.037776515 0.16608
000210 9c 2b 85 bd f8 c4 17 bd fe bb b9 be ca 75 ce bd
       -0.065024585 -0.03705308 -0.3627624 -0.1008106
000220 cf fd 0e be 56 12 3c be bf e0 4b 3c a6 c0 68 bd
       -0.13964008 -0.1836637 0.01244372 -0.05682435
000230 25 d9 07 bf 2d 28 05 be b7 18 b9 be 6a 8b 7f be
       -0.5306571 -0.13003607 -0.36151668 -0.24955526
000240 36 ad 49 3e c3 c2 16 3e cc 04 ff be 29 14 1a 3e
       0.19694981 0.14722733 -0.49808347 0.15046753
000250 93 e3 54 bd 2c 0e b9 bb 70 8d db 3d ed 66 1b 3c
       -0.051974844 -0.0056474414 0.107203364 0.009484989
000260 ab 9c 51 3e 14 da 2a 3e 60 8d d6 bb fa f5 c5 3b
       0.2046992 0.16684753 -0.006547615 0.0060412856
000270 4f 30 f4 bd 24 b0 e2 3d 12 5e 3f bd b4 ee f1 bc
       -0.11923277 0.110687524 -0.04672057 -0.029532768
000280 c0 3b 29 be 52 1a 7e be 6e fd 70 bd 77 53 b8 3d
       -0.16526699 -0.24814728 -0.05883544 0.09000295
000290 58 c7 e5 bc 47 b1 3d ba 0f 86 8b 3c 3a 72 68 3e
       -0.028049156 -0.0007236194 0.017031698 0.22699824
0002a0 7a fb 0c be ff db e6 bd a0 1a df be 3d 88 d3 be
       -0.13767806 -0.1127243 -0.43575 -0.4131488
0002b0 cf 67 1d be 97 d7 db bd 46 5c 4e 3e 23 34 2d bd
       -0.15371631 -0.1073448 0.20152387 -0.04228605
0002c0 1a ec 60 be 82 0b 80 3c c1 3e 8d be e2 48 c2 be
       -0.21965066 0.015630487 -0.2758694 -0.3794623
0002d0 c8 c6 b2 be 58 04 54 be 09 79 0b be 99 51 3b bc
       -0.34917283 -0.20704782 -0.1362039 -0.011433029
0002e0 e9 55 df bd a7 da 69 bd 00 84 3d be df e0 37 bf
       -0.10905058 -0.05709329 -0.18507385 -0.718275
0002f0 46 8f 23 be 19 21 2b be 8f 4a d1 3d 8d ed 72 3e
       -0.15972623 -0.16711845 0.10219299 0.23723431
000300 6c 9b f5 3d bc bc 1c be a9 94 f7 bd ea 8e 19 bd
       0.11992535 -0.15306371 -0.120889015 -0.03748981
000310 5a 9c bd be 2d 1b a1 be 13 41 c8 bd 9a 33 b0 bc
       -0.3703335 -0.31466046 -0.09778037 -0.02150898
000320 51 b3 b4 3e f2 26 7c bc 60 a2 00 bf b5 54 bf be
       0.35293058 -0.015390145 -0.50247765 -0.37369314
000330 0f 03 7a 3c 7b 7c 43 be f2 52 c4 be a5 0f 9b be
       0.015259518 -0.19090454 -0.38344532 -0.30285373
000340 81 7b 3e bd 68 94 64 3d 6f 9c 63 3d 29 64 0a 3b
       -0.0465045 0.055805594 0.05556911 0.002111683
000350 93 28 ee 3d 5f 04 f2 bc 01 ab 6a be f6 26 56 b9
       0.11628833 -0.0295431 -0.22916795 -0.00020423144
000360 79 cf 94 3d df e8 29 3d 84 f4 e4 bc fd 4f 16 bd
       0.07266135 0.04148185 -0.027948625 -0.036697377
000370 1d 41 ec bd 81 f7 e8 bc fc be 1b be 90 46 69 be
       -0.11535857 -0.028438332 -0.15209574 -0.22780824
000380 8f 01 8c 3d 34 77 ff bb 99 9b b8 3e a6 88 dc 3d
       0.06836235 -0.0077961925 0.36056212 0.10768251
000390 66 eb 19 be 15 ac 91 bd 3e d3 60 be 41 83 5b be
       -0.15031204 -0.071129 -0.21955582 -0.21436788
0003a0 5e 67 12 be 65 be 62 bd 49 5d 47 bd 1f 2c 8a bd
       -0.14297244 -0.055357356 -0.048672948 -0.06746697
0003b0 dd ec 6d 3e e5 64 c3 3e 64 4b ad bd f4 21 1c be
       0.23234887 0.38162914 -0.08461645 -0.15247327
0003c0 7c e5 f7 be 20 30 03 bf 41 04 42 3e 41 e3 a7 bc
       -0.4841727 -0.5124531 0.18946935 -0.020494105
0003d0 f6 34 c1 3d a5 e1 fa 3d 83 8f 35 be 41 6c 8f 3b
       0.094339296 0.122500695 -0.17730527 0.0043769185
0003e0 cf 4a 61 be 0c 48 03 3d 43 80 c1 3d 38 7b a2 3d
       -0.22001193 0.03205113 0.09448292 0.07933658
0003f0 ea ac a3 be a0 26 b6 be ef b0 05 3d 9b cd 25 3e
       -0.3196786 -0.35576344 0.03263944 0.16191714

bias f4 [256]
000000 9b 02 30 bd 82 cb 4a 3e a1 0e c1 bd 53 64 57 bd
       -0.042971235 0.19804195 -0.09426618 -0.05258591
000010 1d d1 c0 bd c7 db 12 be 04 6c 3b be 92 85 56 be
       -0.09414885 -0.14341651 -0.18302923 -0.2094939
000020 34 57 57 be c0 c3 19 3d 9a c2 05 3b b1 03 f4 3d
       -0.21029359 0.037540197 0.002041018 0.119147666
000030 e6 60 ff 3d fe 8d d2 3c 49 8f 1e 3e a3 55 3a be
       0.12469654 0.025702473 0.15484346 -0.1819673
000040 6a 0e 89 be 8c e1 1e be 7a db 9d 3e 9c 1b a4 3d
       -0.2676881 -0.15515727 0.3083151 0.080130786
000050 39 1b de 3d 97 4a 60 3d 96 2d 2a 3e 8a a1 02 3e
       0.10845036 0.054758634 0.16618952 0.12756935
000060 12 a8 37 3d 28 0a b4 be 21 12 3d bd 11 bd a7 3d
       0.04483802 -0.35164 -0.046159867 0.081903584
000070 2e 67 70 bc 45 7b 18 bc 93 6c 6b be 5b 1e da 3d
       -0.014673037 -0.0093067335 -0.22990637 0.10650321
000080 c0 4f b2 bd c1 d2 9a bc fa 4f d0 3e bb 79 1e 3e
       -0.08706617 -0.018899323 0.40686017 0.15476124
000090 03 e8 34 3e ca 03 2d 3e b8 ee 0c 3e a6 a7 8f bd
       0.1766663 0.16895977 0.13762939 -0.07014398
0000a0 0d aa c8 bc a7 6a 1c 3e f8 a5 32 be b5 1e a8 3d
       -0.024495149 0.1527506 -0.17446125 0.08208982
0000b0 7f 29 c7 3e 14 1d fc bd 12 f8 31 be 2f f4 01 3e
       0.38898847 -0.12310234 -0.17379788 0.12690805
0000c0 49 25 93 be 6f 5b f0 3e d2 9f 20 3e 8e 54 97 3d
       -0.28739384 0.46944758 0.15685967 0.073891744
0000d0 af fc 04 3f 19 c7 de bc 45 37 94 3d e9 07 04 3e
       0.51948065 -0.027194547 0.07237104 0.12893642
0000e0 54 b2 13 bd e3 5d 9c 3d c0 ce 6b 3e 50 c9 a8 3e
       -0.03605874 0.07635095 0.23028088 0.3296609
0000f0 30 29 67 be 6c 08 80 be 31 a5 19 bc e4 2c 10 3e
       -0.22574306 -0.25006425 -0.009377764 0.14079624
000100 e5 32 be bd a1 fe 69 3d 41 3c 3a 3e 83 96 a4 3d
       -0.09287051 0.0571276 0.18187048 0.0803652
000110 a0 bd 1e 3e 5f ba fb bd 7a 30 71 3e 31 3a 4f be
       0.15502024 -0.12291407 0.23553649 -0.20237042
000120 ce 7e 81 3d 03 b3 04 be 3a 6d cb 3d 1b 24 18 bd
       0.06323014 -0.12958913 0.09932943 -0.037143808
000130 41 e6 3b be a0 91 ff 3d 76 89 6c be 75 09 61 3e
       -0.18349554 0.12478948 -0.23099312 0.21976264
000140 03 a4 48 bd 7f f0 b9 3d 70 8c ca bd 38 c5 09 3e
       -0.04898454 0.09079074 -0.098900676 0.13454139
000150 7c 04 23 3e 57 94 2e be 94 8a b5 3e 52 d6 c3 bd
       0.1591968 -0.17048775 0.3545729 -0.09562363
000160 2b 5a 9f bc e3 34 98 3e b0 fe 26 be af 72 60 bc
       -0.019452175 0.2972785 -0.16308093 -0.013699218
000170 bb 4e 2e be 44 e2 de 3d 29 fa b5 3d e8 39 d2 bd
       -0.17022221 0.108830005 0.08885605 -0.10264951
000180 40 19 a7 3d 8e b9 09 3d a8 18 4f be 5b ac 48 be
       0.08159113 0.033624224 -0.2022425 -0.19596998
000190 82 19 ea bd b6 32 b2 bd f6 24 53 be 0c f0 01 3e
       -0.114306465 -0.087010786 -0.20619568 0.12689227
0001a0 15 8f 17 3d ac 30 a2 be f5 05 3d be 1e b9 ce 3d
       0.037001688 -0.3167776 -0.18459304 0.10093902
0001b0 99 0d 1f 3e b7 ed 11 3d d3 33 6b bd af 0c 96 be
       0.15532531 0.035627093 -0.05742247 -0.29306552
0001c0 1b d5 8f 3d 2a 2c 5c be 68 31 92 3d a5 ce ad bc
       0.070230685 -0.21501222 0.0713833 -0.0212167
0001d0 c0 ab b8 3e a1 fb 03 3e 64 1d 1b 3f 4a e0 53 be
       0.36068535 0.12888958 0.6059172 -0.20691028
0001e0 24 9b 10 3f b7 39 18 3e cc ed 2d 3e 18 6f b8 be
       0.56486726 0.14865766 0.16985244 -0.36022258
0001f0 8a 63 aa 3e 01 e2 1b be 49 28 e3 3d b1 5b 06 3e
       0.33279067 -0.15222932 0.11091668 0.13120915
000200 e6 c2 6b 3c b8 d4 61 be 42 08 a0 3e 26 7c 17 3e
       0.014389729 -0.22053802 0.312563 0.14793453
000210 f4 11 93 3d 0c 35 ce 3d e5 a5 2b 3d e5 2e 74 3d
       0.07181159 0.10068712 0.041906256 0.059615035
000220 ad bd 5a 3e b3 f5 74 be d5 e0 a6 bc 67 28 91 be
       0.21361418 -0.23921852 -0.02037088 -0.28351137
000230 bd 1b 0f be f7 95 8d 3c b1 5d 1a bd 15 74 ad 3d
       -0.13975425 0.017283423 -0.037687007 0.084694065
000240 49 fc 53 3e 51 2e a7 3e 4a d1 9b 3d 81 35 84 3e
       0.20701708 0.32652524 0.07608278 0.2582207
000250 5e cf cd 3d ff f7 05 3e de f5 39 be 8a b7 02 3e
       0.10049318 0.13082884 -0.18160197 0.12765327
000260 2e 84 8f 39 8d 63 0d 3e 5d cc 31 3d fc d0 14 3d
       0.00027373567 0.13807507 0.043407787 0.036332116
000270 83 11 5d be 91 7b eb 3d 2d 2e 3e be f1 45 25 bd
       -0.21588711 0.11498178 -0.18572302 -0.040349904
000280 32 b6 dd 3d e1 45 a9 3e e5 d7 38 be 22 e3 c9 3d
       0.108257666 0.33061126 -0.18051107 0.09857775
000290 31 f7 62 3e a4 33 88 bd d4 e4 3d 3c 88 73 63 bd
       0.22164609 -0.06650475 0.011590201 -0.0555301
0002a0 41 c3 13 3e 84 6c dd 3b 11 76 7e 3e 83 d2 a2 3d
       0.14429952 0.006757321 0.24849726 0.07950308
0002b0 ec 02 07 3e 78 14 12 3d 65 fb d1 bc eb 5b cf 3d
       0.13184708 0.03566405 -0.02563257 0.10124954
0002c0 16 3d 8a be 76 c0 bb 3c 41 7d 92 3c 8a fd 99 bd
       -0.2699973 0.022918921 0.017881991 -0.07519062
0002d0 8a bf 90 3d bc 36 c7 3c 24 f9 67 3e a8 bc 00 3e
       0.07067783 0.024318092 0.22653633 0.12571967
0002e0 46 e0 fe bc 25 32 24 3e 49 3d 77 bc 90 55 6c be
       -0.031112801 0.16034754 -0.015090295 -0.23079515
0002f0 59 6c 2c bb 11 34 90 be 89 ed 01 3e eb 6d 22 3e
       -0.0026309697 -0.28164724 0.12688269 0.15862243
000300 fb 99 3e be c3 91 e5 3d ba bf 08 3e f2 5b 9f 3c
       -0.18613426 0.112094425 0.13354388 0.019453023
000310 55 52 fb 3d d1 80 22 3e 0f cd a6 3e 8f 95 8c be
       0.12271563 0.15869452 0.32578322 -0.27457854
000320 b8 c6 cb 3e cb ea e1 3d e4 93 da bc 13 a4 93 bd
       0.39800048 0.11031111 -0.026681848 -0.07209029
000330 96 2b c7 bc 65 f4 88 be ad 32 16 3c 56 ee ca bb
       -0.024312776 -0.26748958 0.0091673555 -0.0061929626
000340 0d 30 50 be ff a2 65 be f9 9d 00 3e 59 74 37 be
       -0.2033083 -0.2242546 0.12560262 -0.17915477
000350 d8 c6 f5 bc c0 6c 9b be 57 bb 20 3e ca 5d b8 3d
       -0.030002043 -0.30356407 0.15696464 0.09002264
000360 0b 9c af 3e 83 93 be 3d 76 32 e9 bd 8f e5 ee 3d
       0.3429874 0.093054794 -0.11386578 0.116648786
000370 92 ad 7a be f3 e4 ab 3d dc 70 f1 3d f6 e8 f7 3d
       -0.24480274 0.08393278 0.11789104 0.12104981
000380 86 42 b1 3d c1 53 07 3e 50 dd 13 bd 0d 6f 0c 3e
       0.086552665 0.13215543 -0.036099732 0.13714238
000390 f7 dd c2 bc 8b 6d 35 be d5 d7 ef bd c3 37 19 be
       -0.023787482 -0.17717569 -0.117110886 -0.14962678
0003a0 ee c8 4e be 63 f5 c0 bd 9d f4 1b be 90 38 61 be
       -0.20193836 -0.09421804 -0.15230031 -0.21994233
0003b0 54 b5 d9 3d 91 07 6f be e5 0b 19 3e f5 3b 50 3e
       0.10630289 -0.2334273 0.14945944 0.20335372
0003c0 ba 42 0f 3e 3f 83 81 3c f6 60 0d 3e 71 95 99 bd
       0.13990298 0.015809653 0.13806519 -0.07499207
0003d0 05 69 7c be 05 1a f9 3e 8a 6e 2d bd 42 5a 33 be
       -0.24649437 0.48652664 -0.042341746 -0.175149
0003e0 b7 e9 49 be c6 af 4e be 7e 34 e8 3e c1 50 a1 3e
       -0.19718061 -0.2018424 0.45352548 0.31506923
0003f0 81 be 1f 3e 85 c4 15 3e 62 2d 70 3d f7 dc 8b 3c
       0.15600015 0.14625748 0.05863703 0.017073138

weight f4 [256]
000000 1d 7a 82 3f a1 4c 9b 3f 42 17 90 3f 97 0f 9d 3f
       1.0193516 1.213276 1.1257098 1.2270383
000010 8d b2 95 3f aa df 87 3f 04 f4 88 3f 7a e9 8d 3f
       1.1695114 1.0615132 1.0699468 1.1086876
000020 14 84 94 3f 0b 32 a0 3f a5 ef c0 3f 3d 27 a1 3f
       1.1602807 1.2515272 1.5073134 1.25901
000030 83 ce a6 3f 68 6c aa 3f 20 ac 83 3f 4e 4e 85 3f
       1.3031772 1.3314333 1.0286903 1.0414522
000040 9b 07 a1 3f 7b df 9c 3f b2 45 88 3f 11 c7 8a 3f
       1.2580446 1.2255701 1.0646269 1.0842
000050 9c 06 9e 3f b7 52 a7 3f 2e 98 8e 3f 4f cd 8c 3f
       1.2345767 1.3072118 1.1140192 1.1000155
000060 5d f1 c1 3f dd ac 88 3f 75 33 c3 3f b9 ff 55 3f
       1.5151783 1.0677754 1.5250078 0.83593327
000070 56 36 a8 3f f7 7d b3 3f b8 c6 82 3f b5 31 89 3f
       1.3141582 1.4022816 1.0216894 1.0718294
000080 75 ad 9b 3f 94 7a 9a 3f af 88 9c 3f 21 76 b9 3f
       1.216231 1.2068658 1.2229213 1.4489175
000090 a3 0c 8b 3f de e7 69 3f 5c 9d a9 3f ea f1 a1 3f
       1.0863231 0.91369426 1.3251147 1.2651951
0000a0 c1 c8 93 3f 0f 3a 9f 3f d2 e8 7a 3f 48 a8 81 3f
       1.154564 1.2439593 0.98011506 1.012948
0000b0 67 b2 9c 3f 72 d6 8c 3f 6f ec 90 3f 80 df 75 3f
       1.2241944 1.1002944 1.1322154 0.9604416
0000c0 fc 57 8e 3f cc 44 9f 3f 61 4c 83 3f 76 e4 a8 3f
       1.1120601 1.244287 1.0257684 1.3194721
0000d0 4d 99 65 3f 53 3d 99 3f db 3f ab 3f 48 12 9d 3f
       0.89687043 1.197184 1.3378862 1.2271204
0000e0 e0 80 a5 3f 8b 2e 8c 3f b0 c1 75 3f c5 59 4e 3f
       1.2929955 1.0951704 0.9599867 0.8060573
0000f0 ed a2 93 3f f2 07 9f 3f 55 d1 a3 3f cb 37 8b 3f
       1.1534096 1.24243 1.2798258 1.0876402
000100 73 97 83 3f cd 23 86 3f a6 4f 78 3f 1d 69 94 3f
       1.0280594 1.0479676 0.96996534 1.1594578
000110 26 f4 cf 3f 56 e5 8b 3f 9f 39 83 3f ae 1d 94 3f
       1.6246383 1.0929363 1.025196 1.1571558
000120 37 e0 72 3f 41 55 9a 3f f3 e4 8e 3f 1e 93 8c 3f
       0.94873375 1.2057267 1.116362 1.0982397
000130 2e af 90 3f 31 f5 a7 3f 99 bb 88 3f 7d 79 89 3f
       1.1303461 1.3121701 1.068225 1.07402
000140 39 76 80 3f 71 c6 9d 3f c4 5f a2 3f 24 f9 93 3f
       1.0036079 1.2326185 1.2685475 1.1560407
000150 11 e3 aa 3f 9b 1b 94 3f 89 87 a7 3f b7 e4 85 3f
       1.3350545 1.1570925 1.3088237 1.0460423
000160 ef ca 92 3f a2 f6 96 3f 0c d6 a0 3f a9 54 a1 3f
       1.146818 1.1794016 1.2565322 1.2603961
000170 cf 84 84 3f ad de bc 3f 44 dc c9 3f a4 48 81 3f
       1.035303 1.4755455 1.5770345 1.0100293
000180 fb 8b 8a 3f b0 ea 90 3f 07 db 9d 3f 96 5c 96 3f
       1.0823969 1.1321621 1.2332467 1.1747005
000190 4c d4 85 3f 49 f7 a8 3f d7 12 a6 3f aa a6 8d 3f
       1.0455413 1.3200465 1.29745 1.1066487
0001a0 9b 21 8e 3f 41 fd 98 3f e6 e0 80 3f 69 29 b7 3f
       1.1104006 1.1952287 1.0068634 1.4309512
0001b0 b1 1d c7 3f 5e 6b 9a 3f 34 c0 8e 3f 66 2e 89 3f
       1.5555936 1.2064016 1.1152406 1.0717285
0001c0 bb e5 aa 3f 53 17 83 3f 3d f1 74 3f c8 2e a0 3f
       1.3351358 1.0241493 0.956806 1.2514277
0001d0 21 be 93 3f 84 30 9c 3f ce c9 77 3f 25 96 94 3f
       1.1542398 1.2202306 0.96792305 1.160832
0001e0 17 39 81 3f 7f ea 9d 3f c5 57 85 3f 90 c2 91 3f
       1.0095547 1.2337188 1.041741 1.1387501
0001f0 20 34 98 3f 31 fe 8c 3f 6e f1 96 3f da a7 9f 3f
       1.1890907 1.1015073 1.1792428 1.2473099
000200 d9 e7 a0 3f 4f 3a a2 3f 1c ce 9a 3f 8b 7a 9f 3f
       1.2570754 1.2674044 1.209415 1.2459272
000210 1a ef 85 3f 09 a7 b2 3f 3a 19 b9 3f 81 68 a7 3f
       1.0463593 1.3957225 1.4460824 1.3078767
000220 53 2f 87 3f 62 11 90 3f c2 3e aa 3f 26 97 8d 3f
       1.0561317 1.1255305 1.3300402 1.1061752
000230 4f 78 94 3f d5 d3 a6 3f 82 cf 9c 3f 26 a5 a3 3f
       1.1599215 1.3033396 1.2250826 1.2784774
000240 37 df 98 3f c0 9a 95 3f aa 98 84 3f 54 b9 62 3f
       1.194312 1.1687851 1.0359089 0.8856404
000250 06 22 5e 3f 96 c1 77 3f 19 d5 7a 3f 4f 89 88 3f
       0.86770666 0.96779764 0.9798141 1.0666903
000260 76 d3 7d 3f 0e a4 c2 3f ec e3 81 3f 56 05 a9 3f
       0.9915079 1.5206316 1.0147681 1.3204753
000270 b1 d0 95 3f e2 d7 7e 3f 22 9a 8e 3f 86 1d 9b 3f
       1.1704313 0.9954816 1.1140788 1.2118385
000280 32 6b 8e 3f 7c e1 a6 3f 15 2a a8 3f b8 58 b4 3f
       1.1126463 1.3037562 1.3137842 1.4089575
000290 52 07 94 3f 9c 71 8b 3f 39 8b ad 3f cd 3c 91 3f
       1.1564734 1.0894046 1.3558112 1.134668
0002a0 c1 0f 99 3f 03 dc 93 3f d0 1c 85 3f 2e 71 95 3f
       1.1957933 1.1551517 1.0399418 1.1675165
0002b0 72 dd 7b 3f 39 c5 8f 3f 25 00 97 3f 4f 17 99 3f
       0.98384774 1.1232063 1.1796919 1.1960238
0002c0 66 f1 8d 3f 78 c9 95 3f d1 d5 9e 3f a6 31 8f 3f
       1.1089294 1.1702108 1.2409002 1.1187027
0002d0 0e 2a 93 3f 8f 49 97 3f 6f 50 92 3f d5 ce 91 3f
       1.1497209 1.1819323 1.1430796 1.1391245
0002e0 43 23 91 3f 09 f6 a0 3f 87 7a b2 3f 46 5a a3 3f
       1.1338886 1.2575084 1.3943642 1.2761924
0002f0 4d b3 9b 3f b5 0a 7b 3f c9 48 a2 3f 92 96 84 3f
       1.2164093 0.9806321 1.2678462 1.035845
000300 a1 c2 9e 3f f9 a7 8f 3f e2 dd 98 3f 40 c1 99 3f
       1.2403146 1.1223136 1.1942713 1.20121
000310 11 6f a8 3f f3 8b 86 3f 45 94 89 3f d6 75 80 3f
       1.3158895 1.0511459 1.0748373 1.0035961
000320 f8 36 8f 3f e1 06 9f 3f a3 5d 89 3f 87 7a 81 3f
       1.118865 1.2423974 1.0731701 1.0115517
000330 0c 07 8c 3f 1b de 97 3f c9 b3 82 3f ab 18 a8 3f
       1.093965 1.1864656 1.0211116 1.3132528
000340 4c b1 9f 3f 62 22 89 3f 88 c5 8e 3f ab 3e a0 3f
       1.2475982 1.0713618 1.1154032 1.2519125
000350 cc 47 94 3f 31 e6 71 3f 92 d2 86 3f ae fd 80 3f
       1.1584411 0.9449187 1.0533011 1.0077417
000360 2f dd 96 3f 80 8b 80 3f b8 99 a3 3f 3b 7e 9f 3f
       1.178625 1.0042572 1.2781286 1.2460397
000370 f4 60 8f 3f 9a de 94 3f 93 a2 88 3f ec 24 92 3f
       1.1201463 1.1630433 1.0674614 1.1417518
000380 ba 50 8f 3f a0 97 92 3f bd 0f 9a 3f 20 50 a9 3f
       1.1196511 1.1452522 1.2036053 1.3227577
000390 38 0f 94 3f 4e ab 91 3f c2 a1 8c 3f 53 2d 8d 3f
       1.1567144 1.1380403 1.0986865 1.1029457
0003a0 7b 88 98 3f 24 ba b6 3f 98 ed 94 3f e9 50 a7 3f
       1.191665 1.4275556 1.1635008 1.3071567
0003b0 81 2f 8a 3f 55 c0 89 3f 17 2c ab 3f 18 8a 90 3f
       1.0795747 1.076182 1.337283 1.1292143
0003c0 99 65 68 3f 67 9b 85 3f 06 24 98 3f bd 53 90 3f
       0.90780026 1.043805 1.1885993 1.1275555
0003d0 6a fa a7 3f bb 05 81 3f 81 cd 8a 3f 03 09 9a 3f
       1.3123295 1.0079874 1.0843965 1.2034
0003e0 76 6c a4 3f 2b 3f 8c 3f bc 57 86 3f 79 7f 97 3f
       1.28456 1.0956777 1.0495524 1.1835777
0003f0 13 28 84 3f f7 08 98 3f d3 bf 86 3f c8 6a 8f 3f
       1.032473 1.1877736 1.052729 1.1204462

bias f4 [256]
000000 30 70 88 3e 14 a4 24 3e 5f b0 89 3e 31 29 79 3e
       0.26648092 0.16078216 0.26892373 0.2433212
000010 5c be 89 3e b7 3f b1 3e 23 6e 67 3e e3 97 a5 3e
       0.26903045 0.34618923 0.22600608 0.32342443
000020 d2 7b ef 3d 45 8d 26 be 66 bc a5 bd c2 f9 42 3e
       0.11693539 -0.16264828 -0.08092575 0.19040588
000030 68 fb 49 3e 0d 6b 84 3e 1a b4 63 3e 0d 73 5a 3e
       0.1972481 0.25862923 0.22236672 0.21332951
000040 fa 9f 9a 3e 2b 78 7d 3e 8f 9d b8 3d e7 df 22 3e
       0.30200177 0.24752872 0.09014427 0.15905724
000050 98 72 95 3e 42 fd 5f 3e 0d 09 0a 3e f9 64 36 3e
       0.2918899 0.21873954 0.13480015 0.17811956
000060 0a 82 8c 3e b6 d8 9a 3e f3 6d 0f bb 57 23 09 be
       0.27442962 0.30243462 -0.0021885603 -0.13392387
000070 78 c9 4a 3e 13 f1 b3 bd ff ed 94 3e da 63 ef 3c
       0.19803417 -0.08786216 0.29087827 0.029222418
000080 c2 6f a3 3e 2e 57 85 3e 4e eb aa 3c 15 7e 16 be
       0.31921202 0.26043075 0.020864155 -0.14696534
000090 73 bd d5 bd 05 09 02 be c2 6d 8f 3e 8a f8 a1 3d
       -0.10436525 -0.12698753 0.28013426 0.07908733
0000a0 3b b8 d8 bd 4c be f5 3c 82 8d 87 3e 50 3b 52 3e
       -0.10582014 0.029997967 0.2647515 0.20530438
0000b0 55 cf 15 be 56 d8 07 3e 35 bc 5d 3e af f2 d3 bc
       -0.14629872 0.1326612 0.21653827 -0.025872556
0000c0 f3 b8 82 3e 7d aa 3f be 47 f0 5b be 21 29 49 3e
       0.2553173 -0.1871738 -0.21478377 0.19644596
0000d0 d8 80 57 be b4 fd 3a 3e bd 4d 0d 3e 47 36 44 3e
       -0.21045244 0.18260843 0.13799186 0.1916133
0000e0 4b 08 8f 3c b7 fc bd bd 5b 64 a7 bd 84 bc 9c be
       0.01746001 -0.09276717 -0.08173438 -0.30612576
0000f0 eb c2 08 3e 9f 69 a7 3e c7 d1 e2 bc 85 c6 a0 bc
       0.13355605 0.3269777 -0.02768792 -0.019625911
000100 c3 8c 84 3e 81 e6 b1 bc 32 f4 47 3c 66 a5 b3 bd
       0.25888643 -0.021716358 0.012204217 -0.087717816
000110 4a cb 98 3e 55 44 7c 3e a8 bc 29 be 9e 29 04 3e
       0.29842597 0.24635442 -0.16575873 0.129065
000120 30 a4 c5 3d 1b e5 be 3e 2f 46 bb bd 5a c1 04 3d
       0.09650457 0.3728417 -0.09144246 0.032410957
000130 28 db 8a 3e 2f 20 6d 3e 99 00 99 3e e2 95 cd 3c
       0.27120328 0.23156808 0.29883268 0.025095884
000140 d2 98 5c 3e 37 0d 8f bd 52 99 bf 3e 3e 99 89 bd
       0.21542671 -0.069849424 0.37421662 -0.06718682
000150 33 63 a2 3e 64 a9 f7 3d 9d 40 06 bd 4b 8d 13 3e
       0.31716308 0.120928556 -0.032776464 0.14409368
000160 0d f6 90 3e 3f 77 8c 3b b9 f0 2f 3e 0d c9 95 bc
       0.28312722 0.004286676 0.17181672 -0.018284345
000170 01 60 9e 3e 45 fd 80 3e 51 7c 3e 3e 13 f3 f2 3d
       0.3093262 0.2519323 0.1860211 0.11862769
000180 30 e2 50 bd 23 aa 9a 3c 96 bf a2 3e c4 e0 95 3e
       -0.05099696 0.018879956 0.31786793 0.29273045
000190 a8 65 f0 bd d7 25 a0 3e 76 b5 96 3e e5 f0 30 3e
       -0.117381394 0.3127887 0.2943532 0.17279394
0001a0 12 cd dd bd 63 6a 92 3e 2c 64 97 3e 46 b9 2b 3b
       -0.1083013 0.28596792 0.29568613 0.002620296
0001b0 5a 8f 86 3e 89 54 3c 3e 75 c0 66 3e 58 e5 66 3e
       0.26281244 0.18391623 0.22534354 0.22548425
0001c0 60 2a 81 3e dc 5d 64 3e 57 02 ca bb 59 ac 01 bc
       0.25227642 0.2230143 -0.0061648297 -0.007914626
0001d0 59 e3 65 bc de ad 04 3a 83 7d ae be 12 14 73 3e
       -0.014031255 0.00050613086 -0.34080133 0.23738125
0001e0 f3 1b 96 be 9c d0 8b 3e bf b2 3c be 2e 5c a6 3e
       -0.293182 0.27307594 -0.18427561 0.32492203
0001f0 12 70 d4 3d 73 d2 a1 3e b2 3e 55 3d 8d ad 86 3e
       0.10372938 0.31605873 0.052061744 0.26304284
000200 87 ce 70 3e 4d f0 82 3e 08 53 97 bc c8 c2 ce 3d
       0.23516284 0.2557396 -0.01847221 0.10095745
000210 f2 5d 75 3e 98 87 b0 bc 20 51 02 be 1d 7d 9b 3e
       0.23961619 -0.021549031 -0.12726259 0.3036889
000220 d6 24 50 3d 92 76 9c 3e ba 34 69 3e bc 91 5d 3e
       0.05081638 0.30559212 0.2277402 0.21637625
000230 12 46 84 3e 35 4c 97 3e 6f 61 6e bd 39 35 9b 3e
       0.2583471 0.2955033 -0.05819839 0.30314043
000240 4a c9 98 bd ff fe 5d bd 50 c5 5b 3d 60 e0 3d be
       -0.07460268 -0.05419826 0.05365497 -0.18542624
000250 53 8b 12 be 73 5e 81 3d 33 e8 94 3e a1 13 e5 bd
       -0.1431096 0.06316843 0.29083404 -0.111853845
000260 80 3e 73 3e 34 8c 63 3e 49 80 b1 bd 62 b3 9c 3e
       0.2375431 0.22221452 -0.086670466 0.30605608
000270 ae ab 97 3e 24 11 b5 bd ec 59 a2 3e ef 7c 92 bd
       0.2962317 -0.0884116 0.3170923 -0.071527354
000280 17 0b 0d 3e 6a 1a 24 3b 61 2c 9f 3e 62 1b df 3d
       0.13773762 0.0025040158 0.31088546 0.10893895
000290 68 38 a8 3d b2 46 67 bc 32 1e 72 3d 0e 9d 89 3e
       0.08213884 -0.014115976 0.059110828 0.26877636
0002a0 fc 6f 76 bc f8 07 4d 3e 43 b9 6c be 9f 84 de bc
       -0.015041348 0.20022571 -0.23117547 -0.027162848
0002b0 bc 0a 11 be 70 13 76 3e 9c 77 1e bc e0 e8 be bc
       -0.14164251 0.24030852 -0.009672072 -0.023304403
0002c0 75 39 6e 3e 43 6c 5f 3e c2 ab dc bc 43 d1 91 bd
       0.23264106 0.21818642 -0.02693737 -0.07119992
0002d0 24 e5 39 3e 90 aa 3e 3e df 19 1c 3e 14 7e 36 3e
       0.18153816 0.18619752 0.15244244 0.17821532
0002e0 22 48 ae bd b4 bf 28 3e 8a 8a 36 3d 20 59 aa 3e
       -0.08509852 0.16479379 0.044565715 0.33271122
0002f0 b5 32 82 3e c7 2a 7f 3e 44 58 6c 3e 73 c9 3f 3e
       0.2542931 0.24918662 0.23080546 0.1872919
000300 95 b8 77 3d d1 10 a2 3e 19 63 60 bd d6 54 a7 3e
       0.060478766 0.31653455 -0.054782007 0.32681912
000310 d8 4b 67 3e 21 d3 f4 bd 3f 86 10 3c d9 39 80 3e
       0.22587526 -0.11954332 0.008821069 0.25044134
000320 3f c0 c1 bd 7c d0 3d bd af 36 e9 bc 4e de 48 3d
       -0.09460496 -0.046341404 -0.028468458 0.04904013
000330 93 ff 87 bd 2f 4a a2 3e f8 9f 2d 3e 93 98 1b 3e
       -0.06640544 0.31697223 0.16955554 0.15194921
000340 3c 5d 83 3e 0e dc a1 3e ef 5e 0d bd 1d 5c 81 3e
       0.2565707 0.316132 -0.034514364 0.2526559
000350 be 03 c5 bd 1f 07 89 3e 24 9b 32 3e 18 ae be bd
       -0.096198544 0.26763245 0.17441994 -0.093105495
000360 d4 ec 4c be a5 3e be 3d 59 85 13 3e 5f 61 42 3e
       -0.20012218 0.09289292 0.14406337 0.18982457
000370 77 8c c5 3e d5 e8 f7 bd 9b a4 80 3e d4 fe 17 be
       0.3858373 -0.12104956 0.25125584 -0.14843303
000380 d4 d9 62 3e fd 57 c0 3b d5 ce 48 3e 9e 3a 3f 3e
       0.22153407 0.005869864 0.1961015 0.18674704
000390 2f 45 0d 3e 39 1c 84 3e 6b 25 0f bc 1d d6 72 3e
       0.13795923 0.25802782 -0.0087369485 0.2371449
0003a0 8c aa 6d 3e 83 47 58 3e d9 0f 8c 3e b7 1e 03 3e
       0.2320959 0.2112103 0.2735584 0.12804686
0003b0 c7 cd f7 bd 5a f1 90 3e ec 67 68 3e c9 30 9c 3d
       -0.12099796 0.28309137 0.22695893 0.076264925
0003c0 ca 5d b3 3c 14 b8 41 3e 85 fd 64 3c fa 96 96 3e
       0.021895308 0.18917876 0.013976459 0.2941206
0003d0 7b ba 99 3e 13 10 88 be 38 5b 7c 3e d4 15 83 3e
       0.30025086 -0.26574764 0.24644172 0.2560259
0003e0 de 43 6e 3e 4f 20 56 3e 77 de 88 be 0b fb 38 bc
       0.23268077 0.20910762 -0.26732227 -0.011290322
0003f0 97 10 47 be e5 61 ba 3d 02 ee db 3d 15 1f 7d 3e
       -0.19439922 0.09100703 0.10738756 0.24718888
