Best_models/UCI_HAR_CNN_20210125_130254/CNN_UCI_HAR_Rep_9_Seed_394.pt (torch_old, 226695 bytes, 12 tensors)

weight f4 [64, 9, 3]
-0.12371648 0.053438418 0.26616636 -0.06713026 -0.11034831 -0.32349384 0.19604781 -0.101929635
-0.15934224 -0.08632682 -0.07369428 0.05285824 -0.118236125 0.033760615 0.2109003 -0.060050342
-0.1555725 0.083862245 -0.21450087 -0.0076446 -0.23692685 0.10791645 0.09133043 0.26755
-0.23351368 -0.06919934 -0.18994659 0.122202605 0.1542084 0.13678533 0.3561598 -0.027390523
0.06651506 -0.014724825 -0.03763289 0.14013664 0.02861226 -0.30503908 -0.26142895 -0.11599725
0.03922652 -0.28677475 0.18189713 -0.1918981 -0.11131445 0.06301464 0.09530965 -0.02973659
0.20851213 0.06770501 -0.18161985 0.12714185 0.019020816 -0.11598269 0.22185685 0.1365872
0.22510162 -0.22624034 -0.11965548 0.10851612 -0.038302533 -0.16258699 -0.0142300995 0.12902728
0.032784175 0.068541795 0.06426551 0.062307682 -0.123575106 -0.009488442 0.08516381 0.018665936
-0.10185335 0.011852387 -0.0766992 -0.04817606 0.06677972 0.08096834 0.22904201 0.12574561
0.26480266 0.39305517 0.15521938 0.14804006 -0.29000178 -0.23012672 -0.12760442 -0.15475944
-0.13262428 0.15491785 0.11057988 0.0944101 -0.13871744 -0.044910043 -0.08496081 -0.31840038
0.106226645 -0.0031760877 -0.11477042 0.20862296 0.066487506 -0.1261295 -0.16063587 0.049130194
-0.14132133 0.04775483 0.078546956 -0.13671169 0.11225773 -0.061147038 0.25477028 -0.23575166
-0.09373978 0.06892263 -0.23692456 -0.06572035 0.07430449 -0.05349016 0.0667535 0.024988176
0.28993225 -0.15637636 -0.073819496 -0.08095495 -0.11447849 0.13573188 0.05107273 0.0924771
-0.029850526 0.13977206 0.23459421 0.23795891 0.13515222 0.3025518 0.3150034 0.01166539
-0.099578805 0.003247751 0.1794314 0.027397465 0.19106509 -0.13378981 -0.13829918 -0.02683886
0.028639916 0.02610307 -0.11201836 -0.17098962 0.026101096 -0.06479624 -0.10753924 -0.03226207
-0.21438934 -0.22784537 -0.20580037 -0.19869722 -0.30012405 -0.18477252 -0.25946632 0.23307474
0.04059279 0.08780379 -0.19965062 -0.18266901 -0.07062811 -0.0053868773 -0.103679255 -0.16097906
0.3062478 0.34042415 0.3884445 -0.051638126 -0.06844946 -0.12242665 -0.18289332 -0.10313449
-0.061447173 0.06443871 -0.11778054 -0.15661132 -0.17929609 -0.10814937 -0.1874001 -0.0064800996
0.06387082 -0.23423904 0.14115132 0.030874118 0.061408613 -0.2218883 -0.1163006 -0.204007
0.17369442 0.10090576 0.008128521 0.27631631 0.26335704 0.27737036 0.13480468 0.0109125525
0.08479344 0.01016543 -0.09555329 0.18075997 0.037751097 -0.039031647 -0.035046723 0.0009094953
-0.16501303 -0.18060105 -0.031054806 -0.05881795 -0.08075716 -0.14050117 -0.09164269 -0.02582901
-0.11575582 -0.2863183 -0.12719822 0.09578209 0.2563647 0.004451273 -0.18485522 0.016595805
-0.048483413 -0.13492648 0.17319965 0.15123232 0.017325247 0.065752044 0.2998799 -0.19700679
-0.2566046 -0.31758428 -0.07175618 -0.090689026 -0.04554653 -0.0025281159 0.14699021 -0.010668397
-0.024649628 -0.024828441 0.0022606163 -0.025335103 -0.07763143 -0.16886704 -0.055033553 0.1811857
0.11901317 -0.0076041324 -0.016611936 0.09266889 0.33961228 0.27352983 0.038290255 -0.12727457
00000000: 115f fdbd 3ee2 5a3d f546 883e 977b 89bd
00000010: 4bfe e1bd fca0 a5be c2c0 483e 7cc0 d0bd
00000020: 9d2a 23be 1ecc b0bd 07ed 96bd e281 583d
00000030: c825 f2bd 9248 0a3d 40f6 573e 59f7 75bd
00000040: 664e 1fbe f8bf ab3d 1ea6 5bbe 8d7f fabb
00000050: f49c 72be 4d03 dd3d 730b bb3d 50fc 883e
00000060: 361e 6fbe 62b8 8dbd 5c81 42be 5c45 fa3d
00000070: cfe8 1d3e 7411 0c3e 945a b63e 1762 e0bc
00000080: 0c39 883d 6440 71bc f224 1abd fb7f 0f3e
00000090: 4264 ea3c 152e 9cbe 04da 85be f78f edbd
000000a0: fdab 203d 24d4 92be 3e43 3a3e ef80 44be
000000b0: d5f8 e3bd d20d 813d b531 c33d 269a f3bc
000000c0: 3484 553e eda8 8a3d 8efa 39be 7931 023e
000000d0: 8bd1 9b3c 5588 edbd 712e 633e 84dd 0b3e
000000e0: 0a81 663e 8cab 67be ef0d f5bd b33d de3d
000000f0: 1ee3 1cbd 347d 26be 5d25 69bc ba1f 043e
00000100: b348 063d a45f 8c3d a39d 833d 5736 7f3d
00000110: f214 fdbd 6975 1bbc 5d6a ae3d 4ee9 983c
00000120: 7d98 d0bd 8430 423c 7814 9dbd 4354 45bd
00000130: cec3 883d bbd2 a53d fd89 6a3e 75c3 003e
00000140: 3794 873e 873e c93e d4f1 1e3e d097 173e
00000150: 1d7b 94be 57a6 6bbe bcaa 02be 4279 1ebe
00000160: a9ce 07be c9a2 1e3e b477 e23d 155a c13d
00000170: f20b 0ebe 98f3 37bd efff adbd 6005 a3be
00000180: 5b8d d93d e925 50bb c10c ebbd 42a1 553e
00000190: 9a2a 883d 1728 01be bb7d 24be be3c 493d
000001a0: 8ab6 10be 929a 433d 3add a03d 26fe 0bbe
000001b0: 61e7 e53d 5175 7abd 4071 823e e268 71be
000001c0: a4fa bfbd 4f27 8d3d 5a9c 72be 6498 86bd
000001d0: f42c 983d 7f18 5bbd 0fb6 883d 01b4 cc3c
000001e0: 0072 943e 2021 20be ad2e 97bd b5cb a5bd
000001f0: b373 eabd 4cfd 0a3e a431 513d a264 bd3d
00000200: 1789 f4bc 6820 0f3e 7739 703e 80ab 733e
00000210: 5865 0a3e 12e8 9a3e 2048 a13e 3120 3f3c
00000220: f9ef cbbd 38d8 543b ddbc 373e a670 e03c
00000230: 91a6 433e 3200 09be 4d9e 0dbe 2bdd dbbc
00000240: 429e ea3c 1bd6 d53c e269 e5bd e717 2fbe
00000250: f7d1 d53c e4b3 84bd 883d dcbd 3b25 04bd
00000260: e188 5bbe 4c50 69be 55bd 52be 4977 4bbe
00000270: dca9 99be 0235 3dbe c5d8 84be 25ab 6e3e
00000280: a044 263d 79d2 b33d 3671 4cbe 960d 3bbe
00000290: 78a5 90bd 6784 b0bb ca55 d4bd b2d7 24be
000002a0: 83cc 9c3e 134c ae3e 33e2 c63e 8082 53bd
000002b0: 3b2f 8cbd d3ba fabd 6348 3bbe 2d38 d3bd
000002c0: 08b0 7bbd 71f8 833d ec36 f1bd b85e 20be
000002d0: 6599 37be 6b7d ddbd d0e5 3fbe 0457 d4bb
000002e0: b4ce 823d 5cdc 6fbe f989 103e b8eb fc3c
000002f0: 9987 7b3d b036 63be 022f eebd 36e7 50be
00000300: f3dc 313e aea7 ce3d 7d2d 053c 5579 8d3e
00000310: bcd6 863e 7d03 8e3e 3d0a 0a3e 90ca 323c
00000320: 2fa8 ad3d e78c 263c 71b1 c3bd 2419 393e
00000330: e5a0 1a3d a6df 1fbd 278d 0fbd 326b 6e3a
00000340: 2df9 28be 7bef 38be a666 febc 17eb 70bd
00000350: 0364 a5bd 8adf 0fbe 2aaf bbbd 5c97 d3bc
00000360: 6311 edbd 5098 92be 4040 02be 6729 c43d
00000370: 3c42 833e fcdb 913b b04a 3dbe edf3 873c
00000380: 8b96 46bd 2b2a 0abe 405b 313e a5dc 1a3e
00000390: aded 8d3c 02a9 863d dc89 993e 26bc 49be
000003a0: ae61 83be 689a a2be e7f4 92bd 2bbb b9bd
000003b0: 008f 3abd bfae 25bb 9a84 163e 80ca 2ebc
000003c0: 04ee c9bc 0465 cbbc d926 143b 908b cfbc
000003d0: 3afd 9ebd 7beb 2cbe dd6a 61bd bf88 393e
000003e0: 2dbd f33d 162c f9bb c115 88bc 30c9 bd3d
000003f0: a9e1 ad3e 1a0c 8c3e 3ed6 1c3d 4454 02be

bias f4 [64]
-0.1761584 -0.029529305 0.17231637 -0.19209117 0.12940982 0.0048911334 -0.3052474 -0.08153027
-0.075192794 -0.05008436 0.052409586 -0.053295814 -0.16418742 -0.006582499 -0.1436687 -0.11282766
-0.18557864 -0.3105748 -0.21054122 -0.0023126178 0.21826828 0.057939067 -0.13373697 0.01884744
-0.026304426 -0.0006257679 0.031457786 0.032102812 -0.096907586 -0.28124696 0.1342527 -0.10887305
0.09703772 0.17159365 -0.17493647 -0.19156177 -0.1860864 0.04153657 -0.15970783 -0.12781058
-0.24540219 -0.011433149 -0.026570553 -0.27863696 -0.14737572 -0.2760719 -0.020780306 0.12644526
-0.14989994 0.0695734 -0.054628223 -0.15499829 0.122191556 -0.11266253 0.024965405 -0.07352149
-0.0021781796 -0.11653947 -0.008322427 -0.24573389 -0.05005593 0.08221998 -0.19257015 -0.19528191
00000000: de62 34be 71e7 f1bc b473 303e 8cb3 44be
00000010: 0284 043e cd45 a03b 6349 9cbe 58f9 a6bd
00000020: aefe 99bd 4225 4dbd 6fab 563d b64c 5abd
00000030: bf20 28be 01b2 d7bb e31d 13be 3012 e7bd
00000040: 5408 3ebe a903 9fbe 1e98 57be 4a8f 17bb
00000050: b881 5f3e 8451 6d3d 58f2 08be f265 9a3c
00000060: 617c d7bc 930a 24ba e1d9 003d 3d7e 033d
00000070: 7c77 c6bd 9aff 8fbe 8a79 093e d5f8 debd
00000080: b6bb c63d 3fb6 2f3e 8c22 33be c528 44be
00000090: 6f8d 3ebe 4022 2a3d 738a 23be c7e0 02be
000000a0: b64a 7bbe 1a52 3bbc 7daa d9bc 81a9 8ebe
000000b0: a9e9 16be 4c59 8dbe 763b aabc de7a 013e
000000c0: 5f7f 19be 807c 8e3d d8c1 5fbd dfb7 1ebe
000000d0: 913f fa3d 9dbb e6bd 4084 cc3c 6f92 96bd
000000e0: cabf 0ebb 3fac eebd ca5a 08bc aaa1 7bbe
000000f0: 7207 4dbd f362 a83d 1c31 45be fbf7 47be

weight f4 [64, 64, 3]
-0.0163071 0.028722808 -0.1114546 -0.18750626 -0.11449772 -0.05068047 -0.035544124 -0.12529911
-0.13669066 0.10894058 -0.036935117 -0.05591049 -0.09280545 -0.21120387 -0.19775383 -0.083868824
0.063408755 0.07407556 -0.18924126 -0.075990655 -0.1885088 -0.010389541 -0.079241276 -0.09552992
-0.062714905 0.079592 0.12991539 0.009662311 0.04639998 0.15513067 0.003605631 0.08857524
0.0960688 -0.077148505 -0.0022180344 -0.03470511 -0.006381421 0.0337894 -0.07743859 0.067173794
-0.048114408 -0.007665022 0.056617696 0.19190371 0.20953868 0.034685645 0.0041230493 -0.149999
-0.07134057 -0.055589452 0.066687495 0.07808705 0.05359462 -0.012511988 -0.17313127 -0.11147307
-0.1250258 -0.15096241 -0.12877773 -0.039365932 -0.094474696 -0.014326939 0.02357946 0.093089536
-0.10609559 -0.11375206 -0.018292556 -0.064503826 -0.008191031 0.036291715 0.0042316 -0.16675942
-0.07780823 -0.0355957 -0.0867111 -0.067452885 -0.12532763 -0.05790615 0.05499927 -0.036157984
-0.069429435 0.0113903545 -0.03868975 0.0046936097 0.03992139 0.081043534 0.07136942 -0.009541785
-0.0663335 -0.036105663 0.017640559 0.041272808 0.043321136 -0.011511071 0.046284962 0.10609295
-0.018525627 -0.022819405 0.07512754 -0.17859355 -0.09530991 -0.13061607 -0.08568186 0.0013155098
-0.024820624 0.13732652 0.06308585 0.033289127 -0.010872289 -0.101987 -0.14441143 -0.08689193
-0.059712917 -0.18957828 -0.15484494 0.03571857 0.12458645 0.11677689 0.029952755 0.1297686
-0.15721612 -0.07316577 -0.04395656 0.019413168 -0.11130721 -0.10614189 -0.0077684806 0.049095035
-0.02507757 0.02482523 0.016972063 0.0059819897 -0.08917992 -0.04640858 -0.037380148 0.03126528
0.049827155 0.0426049 0.05823728 0.060311355 0.039226465 -0.031796727 -0.031968452 -0.09171168
-0.05725959 -0.13947397 -0.22274904 0.007079752 -0.074361235 -0.07382925 -0.060468733 0.063003026
-0.0357797 -0.07637773 -0.17052118 -0.0314113 -0.0398256 -0.026554137 -0.0036242749 0.01508243
-0.022078034 -0.113132715 -0.20870678 -0.1636449 0.019419687 -0.04997945 -0.05153469 -0.06565508
-0.03836332 0.028336298 -0.038739137 -0.051150568 -0.07321775 0.069590904 0.007343331 0.0055117137
0.06724165 -0.20166332 -0.23345995 -0.1558354 -0.115612194 -0.1779239 -0.18041341 -0.10559947
-0.122868076 -0.029242551 0.00032574713 0.03074818 -0.010376421 0.13949758 0.031194264 -0.08488518
0.1290985 0.13822939 0.013600423 0.020679308 0.050695404 0.08409861 -0.032606997 -0.084552824
-0.046576478 0.01051922 0.008509254 0.021976506 -0.063211866 -0.02710469 -0.06934985 0.004118274
0.0144468155 -0.006316447 0.019785395 -0.02257136 0.009086229 -0.07394339 -0.12460345 -0.014388859
-0.07872233 -0.073576145 0.0257229 -0.08224269 -0.17898351 -0.07813979 -0.04040924 -0.0687471
-0.030968696 -0.0026941842 0.027237855 0.05861732 0.019212136 0.007134868 -0.01608526 0.07496505
0.0370857 -0.07579132 -0.07114106 -0.01917045 -0.0011463772 0.048053022 0.06701293 -0.022462962
-0.029308861 0.08249681 -0.003210532 0.044669606 -0.013153929 0.06364232 -0.07040783 0.099056095
0.08986426 0.13950683 0.034359746 0.101550214 -0.18601418 -0.09448867 -0.13233387 -0.1512459
00000000: 7896 85bc 184c eb3c 4f42 e4bd a401 40be
00000010: c87d eabd 5396 4fbd b796 11bd 694e 00be
00000020: a3f8 0bbe 3d1c df3d 4749 17bd 6602 65bd
00000030: c910 bebd d445 58be fb7f 4abe 6bc3 abbd
00000040: 73dc 813d edb4 973d 76c8 41be fda0 9bbd
00000050: 7308 41be e538 2abc 4049 a2bd 31a5 c3bd
00000060: ac70 80bd 2101 a33d 8a08 053e ab4e 1e3c
00000070: e80d 3e3d 93da 1e3e 734c 6c3b ef66 b53d
00000080: b8bf c43d 0900 9ebd 715c 11bb f226 0ebd
00000090: 3d1b d1bb c166 0a3d 2098 9ebd 6a92 893d
000000a0: 9d13 45bd dd2a fbbb f5e7 673d 6882 443e
000000b0: 4f91 563e 8912 0e3d a51a 873b 5699 19be
000000c0: 011b 92bd c4b1 63bd 7493 883d 1aec 9f3d
000000d0: 0886 5b3d 15ff 4cbc 5349 31be fe4b e4bd
000000e0: c306 00be e495 1abe 4fde 03be 2c3e 21bd
000000f0: f37b c1bd 8abb 6abc b629 c13c baa5 be3d
00000100: a548 d9bd d7f6 e8bd 45da 95bc 951a 84bd
00000110: ad33 06bc 9fa6 143d 3ca9 8a3b fbc2 2abe
00000120: ec59 9fbd cccc 11bd 9795 b1bd bd24 8abd
00000130: e355 00be 002f 6dbd ea46 613d 651a 14bd
00000140: 0531 8ebd 9c9e 3a3c 2579 1ebd dacc 993b
00000150: 9d84 233d 27fa a53d 212a 923d 2655 1cbc
00000160: dcd9 87bd 88e3 13bd ef82 903c ad0d 293d
00000170: 8171 313d ee98 3cbc 4d95 3d3d 4347 d93d
00000180: 0ec3 97bc c3ef babc 78dc 993d 3ae1 36be
00000190: d831 c3bd 38c0 05be f979 afbd 2f6d ac3a
000001a0: 9f54 cbbc 539f 0c3e 2733 813d 2e5a 083d
000001b0: af21 32bc 8fde d0bd 97e0 13be 65f4 b1bd
000001c0: 8895 74bd cf20 42be ac8f 1ebe a34d 123d
000001d0: 2e27 ff3d b928 ef3d 7b5f f53c 0fe2 043e
000001e0: 43fd 20be efd7 95bd cb0b 34bd 5d08 9f3c
000001f0: 09f5 e3bd eb60 d9bd bd8e febb e017 493d
00000200: 7a6f cdbc 485e cb3c ff08 8b3c 9104 c43b
00000210: f6a3 b6bd ec16 3ebd ed1b 19bd 0610 003d
00000220: 8f17 4c3d 7a82 2e3d 378a 6e3d 0a09 773d
00000230: eeab 203d 493d 02bd 5af1 02bd 55d3 bbbd
00000240: 0889 6abd 44d2 0ebe 5318 64be 44fd e73b
00000250: b44a 98bd ca33 97bd 10ae 77bd bb07 813d
00000260: bc8d 12bd ed6b 9cbd 1b9d 2ebe 23a9 00bd
00000270: 2b20 23bd 1088 d9bc 3e85 6dbb 4c1c 773c
00000280: fedc b4bc 20b2 e7bd 3bb7 55be 8792 27be
00000290: 0916 9f3c 40b7 4cbd 0a16 53bd 2c76 86bd
000002a0: db22 1dbd 8621 e83c eeac 1ebd 4283 51bd
000002b0: 30f3 95bd ad85 8e3d 53a0 f03b 9b9b b43b
000002c0: fdb5 893d d480 4ebe 2010 6fbe 5193 1fbe
000002d0: 16c6 ecbd af31 36be 4bbe 38be 8944 d8bd
000002e0: 42a2 fbbd 138e efbc 0ac9 aa39 9be3 fb3c
000002f0: dd01 2abc 74d8 0e3e 1d8b ff3c 48d8 adbd
00000300: 6632 043e 018c 0d3e 4fd4 5e3c a767 a93c
00000310: fca5 4f3d e43b ac3d ea8e 05bd 082a adbd
00000320: fac6 3ebd ce58 2c3c 666a 0b3c 1308 b43c
00000330: 3975 81bd a80a debc 4b07 8ebd 96f2 863b
00000340: 56b2 6c3c 33fa cebb fb14 a23c 93e7 b8bc
00000350: 68de 143c a26f 97bd 1830 ffbd 40bf 6bbc
00000360: 2c39 a1bd 17af 96bd d5b8 d23c db6e a8bd
00000370: 7447 37be c107 a0bd 2984 25bd 48cb 8cbd
00000380: 10b2 fdbc e990 30bb ec21 df3c b718 703d
00000390: c562 9d3c 9ccb e93b 3cc5 83bc 4787 993d
000003a0: 2de7 173d 7b38 9bbd 67b2 91bd 590b 9dbc
000003b0: 0942 96ba 3fd3 443d 133e 893d 3f04 b8bc
000003c0: 2319 f0bc 16f4 a83d ca67 52bb 7af7 363d
000003d0: 9483 57bc e856 823d fb31 90bd ecdd ca3d
000003e0: c10a b83d e1da 0e3e cebc 0c3d 8ff9 cf3d
000003f0: 807a 3ebe 4783 c1bd 8882 07be 35e0 1abe

bias f4 [64]
-0.21209896 -0.061975297 -0.11342885 -0.08978654 -0.08191369 -0.11512112 -0.02433726 -0.09911537
-0.005983669 0.0021029033 0.07413223 -0.097547874 -0.0123778405 -0.06876627 -0.08957634 -0.04109972
-0.11362221 0.015417859 -0.0038618722 -0.11090295 -0.09183046 -0.030429194 -0.12143508 -0.062117014
-0.058156554 -0.0044233026 -0.086282 -0.1232369 -0.043861095 0.011981422 -0.075496845 -0.02357734
-0.07410811 -0.020336602 -0.050982967 -0.08787703 -0.047205765 -0.2012592 -0.0013586148 -0.0154380165
-0.06407734 -0.13678496 0.022154793 -0.108277254 -0.03614878 -0.15518989 -0.035059366 -0.14549455
-0.11741813 0.039687756 -0.01955417 -0.14567581 -0.048402023 -0.023635363 -0.051776905 -0.0058280467
-0.08110134 0.07756896 -0.13738564 -0.09171175 -0.09950564 0.0049634534 -0.10157123 -0.05670318
00000000: 7830 59be cfd9 7dbd 634d e8bd 01e2 b7bd
00000010: 5dc2 a7bd 9fc4 ebbd ef5e c7bc 00fd cabd
00000020: a712 c4bb ddd0 093b a3d2 973d 2ec7 c7bd
00000030: 6dcc 4abc 55d5 8cbd cd73 b7bd 2e58 28bd
00000040: c3b2 e8bd 309b 7c3c 7717 7dbb 1621 e3bd
00000050: 9c11 bcbd a546 f9bc f5b2 f8bd 696e 7ebd
00000060: 9135 6ebd 5af1 90bb 9eb4 b0bd a163 fcbd
00000070: b1a7 33bd ba4d 443c 179e 9abd 4425 c1bc
00000080: fec5 97bd f298 a6bc 84d3 50bd dff8 b3bd
00000090: d55a 41bd e416 4ebe 8c13 b2ba bcef 7cbc
000000a0: fb3a 83bd 5b11 0cbe f87d b53c 77c0 ddbd
000000b0: be10 14bd 19ea 1ebe 699a 0fbd 86fc 14be
000000c0: eb78 f0bd a18f 223d 1130 a0bc 0a2c 15be
000000d0: 3341 46bd f39e c1bc 0514 54bd 33f9 bebb
000000e0: 7618 a6bd 7adc 9e3d d2ae 0cbe 5fd3 bbbd
000000f0: 9dc9 cbbd 77a4 a23b 9404 d0bd 9841 68bd

weight f4 [256, 128]
0.07379265 0.06208895 0.0593943 0.060564946 0.047202036 0.13745506 -0.0036411858 -0.121701606
0.046826184 -0.034622204 0.007928023 0.08463686 0.035866186 0.21076491 0.0042727324 0.009975496
0.09588527 0.21779917 0.042110007 0.06966386 0.004975335 0.022321617 -0.08480921 -0.12715967
-0.12584615 -0.13371462 0.11750259 0.05438335 0.08447785 0.03210271 -0.029827671 0.053550415
-0.046039827 -0.0663113 -0.09562179 0.122186 0.07250192 0.111423776 0.010363904 -0.10753499
-0.108086094 -0.08941115 0.05130613 0.10240558 -0.03577324 -0.05148256 -0.042265043 -0.015581382
-0.015641142 0.035856597 -0.04164265 -0.012688006 -0.15566282 -0.16521357 0.1339051 0.061172538
0.02666166 0.11126535 0.054834645 0.10198121 0.067894325 0.019007405 0.092631556 0.14339006
-0.017594453 0.024074616 0.017695626 -0.082956 0.058164917 -0.0029706494 -0.04475553 -0.068424284
0.07043217 0.06957937 0.07065029 -0.083430946 0.018568764 -0.029251928 0.070511766 0.025917301
0.111295424 0.050739437 0.1595129 0.1518373 -0.050868813 -0.117150225 0.102461 0.033422556
0.022343455 0.08312687 -0.00048787188 0.032595146 0.12256684 -0.060337648 0.043020733 0.04387728
0.016250934 0.035961322 0.0026902868 -0.059835754 -0.06515545 -0.034254 0.06738164 0.09471525
0.06445887 0.044852693 0.00333673 -0.011850608 -0.1965188 -0.21620487 0.05387765 -0.06878105
-0.086230345 -0.02172404 -0.05093513 -0.041546173 -0.054729298 -0.15966745 0.14583185 0.13163006
-0.0094544655 0.049112327 -0.097763784 -0.039756075 0.048108455 0.12251234 0.11049884 0.01635047
0.15248075 0.10624521 0.07405896 0.14456183 -0.074820966 0.0667271 -0.1319293 0.019699767
0.0235236 0.03210744 0.056659978 0.116535254 -0.097820915 -0.101755746 0.0453691 -0.053344708
0.06833003 -0.0071718325 0.05811782 0.05141438 0.119834825 -0.03986683 0.14760064 0.07915794
0.0009613327 -0.099942155 -0.08583037 -0.07450702 0.14899632 0.1684827 0.01881977 -0.0044667292
0.12592743 0.080820404 0.108547665 0.19029547 0.022014426 0.046317115 0.047686767 0.027563512
-0.03504491 -0.035676852 0.10960739 0.088275366 0.012779671 -0.084392965 -0.019443901 0.080250695
-0.03328594 0.010359006 -0.01205807 0.010098248 -0.13429162 -0.12493221 0.03456421 0.022578176
0.039495505 -0.030264651 -0.006117224 0.024757346 0.030971574 -0.054249823 -0.025942216 0.02605718
0.0060286284 -0.10913597 -0.0774353 -0.09222488 0.024443515 -0.04617856 -0.1143038 0.020037519
-0.013290805 -0.10469658 -0.12775932 -0.08442417 0.013988886 0.014179395 -0.0013175663 -0.00022664241
-0.058084168 0.015262086 -0.05449734 -0.0430422 0.15004869 0.11361018 -0.1331718 -0.087297484
-0.01735026 -0.06501084 0.04427263 0.05597719 -0.014304968 0.022290451 -0.06456105 0.026665805
0.10323242 0.07040093 -0.12247166 -0.050077856 -0.024633171 0.017208777 0.082417324 0.020718805
-0.020810284 0.041062493 0.013676105 0.075964265 0.039524004 0.04678905 0.010421282 -0.024104461
-0.07264904 0.015975147 0.017363522 0.07908196 0.005920424 0.028205082 -0.060784638 -0.02253667
0.04952453 -0.022274958 -0.10923921 0.009440623 -0.026076093 -0.055132594 -0.013985245 0.04248276
00000000: 9a20 973d fc50 7e3d 7047 733d f312 783d
00000010: ec56 413d 05c1 0c3e f6a0 6ebb b13e f9bd
00000020: d0cc 3f3d 03d0 0dbd 8ae4 013c 1756 ad3d
00000030: 6ce8 123d c2d2 573e 4702 8c3b 4370 233c
00000040: 7f5f c43d bf06 5f3e 8b7b 2c3d edab 8e3d
00000050: 2308 a33b d3db b63c 73b0 adbd 2536 02be
00000060: d0dd 00be 7cec 08be 33a5 f03d 13c1 5e3d
00000070: b902 ad3d 227e 033d 2959 f4bc ae57 5b3d
00000080: 4294 3cbd 38ce 87bd 5bd5 c3bd a73c fa3d
00000090: e37b 943d 2632 e43d 5dcd 293c 4e3b dcbd
000000a0: 3e5c ddbd 311d b7bd 6026 523d 04ba d13d
000000b0: f686 12bd 60df 52bd 1c1e 2dbd 0e49 7fbc
000000c0: da21 80bc 5ede 123d 7c91 2abd 5be1 4fbc
000000d0: 1366 1fbe bf2d 29be 6b1e 093e 0e90 7a3d
000000e0: 8e69 da3c 16df e33d 4b9a 603d 86db d03d
000000f0: 2e0c 8b3d 6bb5 9b3c 9db5 bd3d d8d4 123e
00000100: 3e22 90bc 2138 c53c 6bf6 903c d6e4 a9bd
00000110: 563e 6e3d 3aaf 42bb 9351 37bd 0822 8cbd
00000120: be3e 903d a17f 8e3d 19b1 903d d8dd aabd
00000130: 851d 983c bda1 efbc 7968 903d 8550 d43c
00000140: dbee e33d 28d4 4f3d 5a57 233e 3d7b 1b3e
00000150: d15b 50bd 75ec efbd 13d7 d13d 17e6 083d
00000160: 9f09 b73c 6c3e aa3d 0ec9 ffb9 7d82 053d
00000170: 5304 fb3d 9c24 77bd 8236 303d aab8 333d
00000180: ae20 853c 2e4c 133d 864f 303b 5616 75bd
00000190: 3870 85bd ec4d 0cbd 63ff 893d 12fa c13d
000001a0: 0303 843d 75b7 373d 0aad 5a3b 0d29 42bc
000001b0: 393c 49be cf64 5dbe d0ae 5c3d 14dd 8cbd
000001c0: 8999 b0bd 9df6 b1bc 5ba1 50bd 522c 2abd
000001d0: d42b 60bd dd7f 23be f254 153e 08ca 063e
000001e0: e7e6 1abc 022a 493d 6138 c8bd 44d7 22bd
000001f0: 5f0d 453d c0e7 fa3d 374d e23d 6cf1 853c
00000200: ea23 1c3e 1797 d93d 39ac 973d 0408 143e
00000210: bc3b 99bd 38a8 883d 7918 07be 6861 a13c
00000220: 91b4 c03c 1783 033d 4b14 683d 09aa ee3d
00000230: 5556 c8bd 5165 d0bd f3d4 393d fb7f 5abd
00000240: 9df0 8b3d b101 ebbb f40c 6e3d e397 523d
00000250: f66b f53d 674b 23bd 9f24 173e 8f1d a23d
00000260: f201 7c3a 79ae ccbd d5c7 afbd 2397 98bd
00000270: 7e92 183e bb86 2c3e eb2b 9a3c a45d 92bb
00000280: 1ff3 003e 2b85 a53d 3d4e de3d d1dc 423e
00000290: 9957 b43c 04b7 3d3d 3353 433d e0cc e13c
000002a0: 408b 0fbd e421 12bd d779 e03d b7c9 b43d
000002b0: d361 513c 38d6 acbd d148 9fbc 7a5a a43d
000002c0: d656 08bd d2b8 293c 368f 45bc 1f73 253c
000002d0: be83 09be 75dc ffbd 3393 0d3d def5 b83c
000002e0: 0ac6 213d 93ed f7bc ff72 c8bb ebcf ca3c
000002f0: 19b8 fd3c 1035 5ebd c584 d4bc de75 d53c
00000300: cd8b c53b ae82 dfbd 6696 9ebd 66e0 bcbd
00000310: c43d c83c bb25 3dbd 1c18 eabd b925 a43c
00000320: adc1 59bc 296b d6bd 57d3 02be 94e6 acbd
00000330: a431 653c b150 683c 30b2 acba dca6 6db9
00000340: aae9 6dbd d40d 7a3c 9a38 5fbd 054d 30bd
00000350: 5da6 193e 74ac e83d 305e 08be 06c9 b2bd
00000360: 2222 8ebc 6724 85bd 3857 353d 5748 653d
00000370: 625f 6abc 779a b63c 9538 84bd 3f72 da3c
00000380: 856b d33d 5d2e 903d 6cd2 fabd 701e 4dbd
00000390: 81cb c9bc 6cf9 8c3c 6aca a83d 7cba a93c
000003a0: 547a aabc 2531 283d be11 603c 2793 9b3d
000003b0: ece3 213d e0a5 3f3d 06be 2a3c b876 c5bc
000003c0: 05c9 94bd 50de 823c f23d 8e3c b9f5 a13d
000003d0: 1e00 c23b 580e e73c 50f9 78bd d39e b8bc
000003e0: 3cda 4a3d f979 b6bc cfb8 dfbd d8ac 1a3c
000003f0: 889d d5bc b7d2 61bd 5e22 65bc 6702 2e3d

bias f4 [256]
-0.03112506 0.081236444 0.01693237 -0.0017546824 0.015465862 0.020783305 0.039779067 0.003335318
0.060247887 -0.014029673 0.062707245 0.013058063 -0.015046581 0.15641448 0.01571379 -0.03435202
0.009278732 -0.021395564 -0.020788243 0.007915067 0.013042666 -0.011142055 0.027872313 -0.041882157
-0.029686911 0.023138048 0.063483894 0.0016783123 -0.07119329 0.054336652 0.029160783 0.0027840626
0.08975672 -0.09445387 0.039093632 0.039918285 -0.016736707 0.023061683 -0.0057080053 -0.055080146
0.054431904 0.061066803 0.039032113 0.051756643 0.041468382 0.032126367 -0.00046529833 0.06320766
0.036941968 0.013722986 -0.051431537 -0.015067912 0.13314398 0.03886796 0.0071491874 0.11276924
0.01049478 0.027116135 0.022343906 -0.02576333 0.025747288 0.033729766 0.038740434 0.007472324
0.0195153 0.025707157 -0.032135922 0.022084722 -0.00089876185 0.024930079 0.041572012 0.05673633
0.021358743 -0.040548936 0.03508483 -0.084176384 0.036764015 -0.026410867 0.0920478 0.038390033
0.16419128 0.019486185 0.04665631 0.058799982 -0.027854176 -0.02147566 0.017957516 0.061671205
-0.046384025 0.003153384 0.008475844 0.06810824 0.048314743 -0.037612945 0.10691189 0.008061668
-0.03531826 0.029753463 0.21725193 0.011226465 -0.07192275 0.016571911 0.05904037 -0.006533372
0.0227605 0.005036905 0.0378113 0.034019977 -0.016903874 0.044260427 0.033312075 -0.019129025
-0.06708451 -0.02706873 0.065787755 0.029243639 0.03184666 0.041853514 0.07068167 -0.03243864
-0.038657304 -0.021761376 0.004521827 -0.06460677 0.15367663 0.06923375 0.054813206 -0.03481365
0.081222735 0.047027946 0.048326213 0.025784217 -0.008419112 0.019687831 0.05512171 0.03289759
0.027857581 0.042555735 0.036913797 0.0946479 0.055921167 0.0062493947 0.018330067 0.009986398
-0.005012384 -0.0026250463 0.069510706 -0.029136447 0.03442726 0.08527685 -0.031404518 -0.03590762
-0.0011491704 0.0342374 0.19066712 0.024470646 0.039868232 0.028633635 -0.016666202 0.07430008
0.11087182 0.11673184 0.078803696 0.20328563 0.0029719963 -0.024437984 -0.07567633 0.05867179
-0.006260719 0.009442844 -0.0031530643 0.086542845 0.07498254 0.06589256 -0.05849921 0.039726608
-0.012597826 -0.042363014 0.09131289 0.01015088 0.20204917 0.041060306 0.028824672 -0.03215504
-0.02342553 0.011945324 0.03644207 -0.010083732 0.045575112 -0.0051838597 0.05344262 0.041215125
0.07015183 0.02517868 -0.0013379174 -0.06347213 -0.0105494205 -0.06971183 0.031880338 0.10829071
0.20884167 0.047920965 -0.066661775 0.058603693 0.100800194 0.051895414 0.0776883 -0.042785518
0.0688577 0.063367225 0.07675152 -0.05548618 0.010835925 -0.027124798 -0.029169315 0.07690881
0.027999576 0.045460556 0.039632864 0.15852332 0.011731457 0.016791807 0.060305372 0.03196435
-0.011414214 0.045163512 0.06564264 0.0577128 0.05469091 0.015379184 0.01501663 0.08121356
6.6340755e-05 -0.0003512205 0.041473847 0.152461 0.036391184 -0.05092016 0.12855652 -0.06761429
0.008160685 -0.019284915 0.0070173466 0.04995707 0.04522239 0.11520383 -0.008630654 0.016316934
0.03817522 0.08183421 0.063267946 0.11971168 0.023770008 0.06816461 0.019070018 0.016312348
00000000: fbf9 febc 4b5f a63d c1b5 8a3c 5ffd e5ba
00000010: 8764 7d3c c041 aa3c 60ef 223d 5a95 5a3b
00000020: 7dc6 763d b7dc 65bc a86c 803d 7cf1 553c
00000030: ef85 76bc 1e2b 203e 35ba 803c b4b4 0cbd
00000040: d305 183c c045 afbc 1b4c aabc 32ae 013c
00000050: e8b0 553c 2a8d 36bc 7a54 e43c a08c 2bbd
00000060: f731 f3bc 018c bd3c d803 823d d1fa db3a
00000070: cacd 91bd 1c90 5e3d 98e2 ee3c d274 363b
00000080: 5fd2 b73d 0871 c1bd a520 203d 5b81 233d
00000090: 6b1b 89bc dbeb bc3c 380a bbbb b89b 61bd
000000a0: fdf3 5e3d 2f21 7a3d 23e0 1f3d c6fe 533d
000000b0: c0da 293d f096 033d 49f3 f3b9 0573 813d
000000c0: 7650 173d 60d6 603c e0a9 52bd 67df 76bc
000000d0: e556 083e 0334 1f3d bb43 ea3b 8ff3 e63d
000000e0: 4cf2 2b3c a822 de3c 910a b73c 9e0d d3bc
000000f0: faeb d23c 3928 0a3d 4aae 1e3d 66da f43b
00000100: 8dde 9f3c d197 d23c f5a0 03bd 05eb b43c
00000110: e39a 6bba 2a3a cc3c 6a47 2a3d 5b64 683d
00000120: 88f8 ae3c a416 26bd 1cb5 0f3d ab64 acbd
00000130: dd95 163d 9a5b d8bc 8f83 bc3d de3e 1d3d
00000140: c221 283e 7ea1 9f3c b01a 3f3d 40d8 703d
00000150: 712e e4bc b9ed afbc a41b 933c f29a 7c3d
00000160: 2dfd 3dbd 01a9 4e3b 44de 0a3c 557c 8b3d
00000170: aee5 453d 0810 1abd 9ff4 da3d 1615 043c
00000180: e1a9 10bd 89bd f33c 4a77 5e3e 35ef 373c
00000190: 3c4c 93bd d1c1 873c 51d4 713d e615 d6bb
000001a0: 3a74 ba3c 9f0c a53b 06e0 1a3d 8858 0b3d
000001b0: fe79 8abc 6c4a 353d 3e72 083d 79b4 9cbc
000001c0: 9b63 89bd 3ebf ddbc bbbb 863d 5b90 ef3c
000001d0: a571 023d 976e 2b3d 8dc1 903d 61de 04bd
000001e0: 1f57 1ebd ea44 b2bc d62b 943b 8e50 84bd
000001f0: 685d 1d3e 6dca 8d3d d083 603d c298 0ebd
00000200: 1b58 a63d 60a0 403d b5f1 453d 6c39 d33c
00000210: 51f0 09bc 6048 a13c 4dc7 613d a0bf 063d
00000220: 9535 e43c ec4e 2e3d ec32 173d c2d6 c13d
00000230: 980d 653d b9c7 cc3b f028 963c fd9d 233c
00000240: ed3e a4bb f808 2cbb a15b 8e3d 8faf eebc
00000250: 9903 0d3d a1a5 ae3d 06a2 00bd de13 13bd
00000260: c39f 96ba 843c 0c3d 3e3e 433e aa76 c83c
00000270: df4c 233d 1691 ea3c 8f87 88bc a42a 983d
00000280: c410 e33d 1a11 ef3d d563 a13d 1c2a 503e
00000290: d3c5 423b 2b32 c8bc 31fc 9abd d551 703d
000002a0: b826 cdbb 29b6 1a3c a4a3 4ebb 603d b13d
000002b0: 7290 993d aef2 863d de9c 6fbd 5eb8 223d
000002c0: 1d67 4ebc d784 2dbd 4102 bb3d e04f 263c
000002d0: fae5 4e3e da2e 283d b821 ec3c 01b5 03bd
000002e0: e6e6 bfbc 52b6 433c 4844 153d 3d36 25bc
000002f0: f8ac 3a3d 5edd a9bb a6e6 5a3d 31d1 283d
00000300: c3ab 8f3d 8543 ce3c 0f5d afba adfd 81bd
00000310: 7ad7 2cbc 13c5 8ebd f594 023d 85c7 dd3d
00000320: 97da 553e c648 443d f885 88bd 6d0a 703d
00000330: 5570 ce3d 4990 543d 0b1b 9f3d de3f 2fbd
00000340: 4405 8d3d adc6 813d e72f 9d3d 7a45 63bd
00000350: 2a89 313c d334 debc 7df4 eebc 5e82 9d3d
00000360: 5e5f e53c d934 3a3d 1256 223d f053 223e
00000370: 4c35 403c f98e 893c c402 773d 0ded 023d
00000380: af02 3bbc 60fd 383d a66f 863d 4264 6c3d
00000390: 9303 603d f9f8 7b3c 5008 763c 4c53 a63d
000003a0: 6c20 8b38 0424 b8b9 7be0 293d bd1e 1c3e
000003b0: ec0e 153d a891 50bd 52a4 033e 5c79 8abd
000003c0: 65b4 053c 66fb 9dbc c5f1 e53b c99f 4c3d
000003d0: 1d3b 393d fcef eb3d 9667 0dbc 17ab 853c
000003e0: 9f5d 1c3d b298 a73d a092 813d 662b f53d
000003f0: 52b9 c23c e399 8b3d ba38 9c3c 79a1 853c

weight f4 [256]
1.1553873 1.0258707 1.1154546 0.98198295 1.1179454 1.1577117 1.0996147 1.1433138
1.2467235 1.1399229 1.1399796 1.0936892 1.1982812 1.3358048 1.2241138 1.1004407
1.1699002 1.1826458 1.2052016 1.2936473 1.0104066 1.1208009 1.1471051 1.1747218
1.1336598 1.1538423 1.1440057 1.2214769 0.8993315 1.108074 1.3415265 1.2454971
1.1499606 0.9575338 1.0831769 1.066963 1.0748329 1.1560209 1.0263277 0.9682822
1.0941869 1.3152181 1.1224964 1.0773424 1.3089002 1.2263117 1.154524 1.1633569
1.1218668 1.021711 1.2108896 1.0774711 1.1235569 1.1963661 0.98709184 1.303314
1.2862673 1.0874549 1.1696802 1.0529307 1.1653143 1.1867595 1.1645008 1.2335868
1.118176 1.2029755 1.1321343 1.2324495 1.1727799 1.2816609 1.184858 1.2051265
1.2185962 1.1447778 1.0490813 1.2379088 1.1872363 1.0604161 1.1499747 1.0752594
1.1669221 1.2270293 1.275135 1.246475 1.2193426 1.1658202 1.1258084 1.1149329
1.021001 1.1409906 1.1513515 1.02504 1.2264203 1.1518172 1.2743434 1.1500916
1.2063025 1.23435 1.1257974 1.1484404 1.1881567 1.176077 1.2430212 1.1281538
1.205593 1.1682721 1.1297804 1.1223092 1.1278443 1.1236256 1.0471878 1.1911306
1.026868 1.1472851 1.0700989 1.1059277 1.0900749 1.239132 1.1635561 1.3784496
1.1472316 1.1635512 1.141504 1.1201928 1.3373963 1.184661 1.0851958 1.0792881
1.2508167 1.1070961 1.1571599 1.0707808 1.1927503 1.1441183 1.19111 1.2620088
1.119579 1.3553226 1.1311392 1.1933333 1.1197163 1.1106654 1.0503558 1.1542921
1.1327916 0.998549 1.1994013 1.1094975 1.1990174 1.1220304 1.2005227 1.1191909
1.1428202 1.1319162 1.3501712 1.2255152 1.0773726 1.143979 1.1956621 1.092632
1.1676004 1.1616424 1.1283319 1.114478 1.0949274 1.0792 1.1225243 1.1599885
1.2195299 1.2934477 1.1489232 1.0232456 1.413461 1.1099503 0.9857269 1.116059
1.1334076 1.0599265 1.1580662 1.1879473 1.5788832 1.1921791 1.1894863 1.1046095
1.1717508 1.0427066 1.1980356 0.9146075 1.1365258 1.2871917 1.2190561 1.1555551
1.2883914 1.2445558 1.2148712 1.038864 1.0042174 1.167747 1.1790322 1.1787555
1.2094551 1.147121 1.140434 1.22382 1.2473562 1.1714826 1.1702431 1.0003285
1.0482208 1.1492372 1.0240049 1.1590197 1.314136 1.1861173 1.1610452 1.0375506
1.1629007 1.2560974 1.1337895 1.0701582 1.0690879 1.180141 1.1315663 1.1148794
1.124437 1.1959366 1.2062311 1.1143749 1.1807147 1.1382354 1.2501229 1.0740625
1.1286867 1.102793 1.1937431 1.2910569 1.2044106 1.1922753 1.2239746 0.9745802
1.1836346 1.2149997 1.103709 1.2424203 1.0816832 1.2097963 1.1730554 1.2739698
1.0253717 1.0715429 1.2346963 1.2121043 1.2129753 1.1827604 1.2554475 1.279113
00000000: bbe3 933f bb4f 833f 37c7 8e3f 3c63 7b3f
00000010: d618 8f3f e62f 943f 2dc0 8c3f 1b58 923f
00000020: a394 9f3f fee8 913f daea 913f 02fe 8b3f
00000030: 4761 993f a7fb aa3f c3af 9c3f 3edb 8c3f
00000040: 4abf 953f f060 973f 0c44 9a3f 3c96 a53f
00000050: 0155 813f 6776 8f3f 57d4 923f 495d 963f
00000060: c41b 913f 1bb1 933f c76e 923f 5b59 9c3f
00000070: 973a 663f 5ed5 8d3f 24b7 ab3f 736c 9f3f
00000080: e931 933f ef20 753f 8aa5 8a3f 3e92 883f
00000090: 2094 893f 7ef8 933f b55e 833f 58e1 773f
000000a0: 510e 8c3f 1159 a83f f6ad 8f3f 5be6 893f
000000b0: 0b8a a73f c8f7 9c3f 71c7 933f e1e8 943f
000000c0: 5599 8f3f 6dc7 823f 6efe 9a3f 93ea 893f
000000d0: b6d0 8f3f 8622 993f 0db2 7c3f fed2 a63f
000000e0: 68a4 a43f b931 8b3f 15b8 953f 6fc6 863f
000000f0: 0529 953f bce7 973f 5d0e 953f 2ce6 9d3f
00000100: 6420 8f3f 1afb 993f c7e9 903f e8c0 9d3f
00000110: a71d 963f 770d a43f 6da9 973f 9641 9a3f
00000120: f6fa 9b3f 1488 923f 4c48 863f cc73 9e3f
00000130: 5cf7 973f b7bb 873f 5f32 933f 1aa2 893f
00000140: b45d 953f 4c0f 9d3f a037 a33f 7e8c 9f3f
00000150: 6b13 9c3f 9939 953f 7d1a 903f 1fb6 8e3f
00000160: 29b0 823f fb0b 923f 7c5f 933f 8334 833f
00000170: 57fb 9c3f bf6e 933f af1d a33f 3436 933f
00000180: 1f68 9a3f 2eff 9d3f 211a 903f 1800 933f
00000190: 8515 983f b189 963f 521b 9f3f 5867 903f
000001a0: df50 9a3f f189 953f a59c 903f d4a7 8f3f
000001b0: 345d 903f f7d2 8f3f 400a 863f f876 983f
000001c0: 6970 833f 3dda 923f 00f9 883f 0a8f 8d3f
000001d0: 9387 8b3f e19b 9e3f 68ef 943f 0971 b03f
000001e0: 7cd8 923f 3fef 943f ce1c 923f 7a62 8f3f
000001f0: cd2f ab3f f9a2 973f b2e7 8a3f 1d26 8a3f
00000200: c31a a03f 53b5 8d3f d11d 943f 580f 893f
00000210: 0bac 983f 7872 923f 4b76 983f 8189 a13f
00000220: 5d4e 8f3f 367b ad3f 2bc9 903f 25bf 983f
00000230: dd52 8f3f 492a 8e3f 0f72 863f d8bf 933f
00000240: 51ff 903f e8a0 7f3f fb85 993f 0404 8e3f
00000250: 6779 993f b19e 8f3f baaa 993f a641 8f3f
00000260: ef47 923f a1e2 903f 69d2 ac3f afdd 9c3f
00000270: 58e7 893f e76d 923f 750b 993f 5edb 8b3f
00000280: ee73 953f b3b0 943f 2e6d 903f 37a7 8e3f
00000290: 9526 8c3f 3a23 8a3f e0ae 8f3f 817a 943f
000002a0: 8e19 9c3f b28f a53f ea0f 933f b6f9 823f
000002b0: 4aec b43f da12 8e3f 9958 7c3f 05db 8e3f
000002c0: 8013 913f acab 873f 833b 943f a80e 983f
000002d0: d818 ca3f 5399 983f 1641 983f d863 8d3f
000002e0: eefb 953f 6977 853f 3b59 993f b823 6a3f
000002f0: ad79 913f b3c2 a43f 080a 9c3f 3be9 933f
00000300: 02ea a43f 9b4d 9f3f e680 9b3f 7ff9 843f
00000310: 328a 803f bc78 953f 87ea 963f 76e1 963f
00000320: 6dcf 9a3f dcd4 923f bef9 913f 22a6 9c3f
00000330: 5ea9 9f3f 24f3 953f 87ca 953f c40a 803f
00000340: 192c 863f 341a 933f 9812 833f c25a 943f
00000350: 9c35 a83f b1d2 973f 219d 943f 75ce 843f
00000360: eed9 943f cdc7 a03f 0420 913f f2fa 883f
00000370: dfd7 883f dc0e 973f 2ad7 903f 5eb4 8e3f
00000380: 8ded 8f3f 7314 993f c865 9a3f d6a3 8e3f
00000390: a921 973f b3b1 913f 0704 a03f e17a 893f
000003a0: ce78 903f 5228 8d3f 93cc 983f 5a41 a53f
000003b0: 202a 9a3f 7a9c 983f 33ab 9c3f 177e 793f
000003c0: 5781 973f 1c85 9b3f 5646 8d3f a107 9f3f
000003d0: 9874 8a3f 9bda 9a3f ae26 963f 7111 a33f
000003e0: 613f 833f 5128 893f 870a 9e3f 3c26 9b3f
000003f0: c642 9b3f b164 973f 81b2 a03f fab9 a33f

bias f4 [256]
0.17374519 -0.028505947 0.051061038 -0.011913418 0.11923026 0.15127833 0.03434087 -0.044894665
0.077524416 0.17209762 0.12306777 0.14890313 0.09306761 -0.12123113 0.03980816 0.10561079
-0.011844702 0.11817963 0.12736815 -0.018646875 0.06502252 0.16324557 0.047048636 0.09642468
0.09236699 0.03369872 0.07762325 0.051128816 0.18791053 0.06852188 0.043483388 0.08440924
0.067828186 0.102464125 0.05927907 0.11704437 0.17671442 0.078238904 -0.025985558 0.049205348
0.05763936 -0.12794709 0.14984769 -0.0005246413 0.01085746 -0.02355311 0.1610769 0.017508222
0.10634944 0.09936131 0.21509707 0.17512695 -0.10879861 0.1663682 0.057192847 0.04803863
0.16815357 0.19279903 0.074892595 0.13911192 0.05742586 0.052328844 0.09134718 0.09096618
0.0069735367 0.12426836 0.10084634 0.0061883354 0.14204498 0.006477712 0.17634584 0.025875986
0.05169547 0.10742473 -0.025365751 0.19594687 0.07294765 0.13400237 0.06800732 0.03988858
-0.023079284 0.006854685 -0.018775027 0.025223978 0.1808454 0.12243297 0.16471285 -0.025738386
0.1408806 0.010321743 0.1786173 0.13192494 0.093452655 0.07382642 -0.037139587 0.1755837
0.16842619 0.09870995 -0.01775251 0.098291256 0.08880575 0.016237952 0.20075451 0.09274883
0.074162565 0.14326395 0.10110268 0.06479571 0.14732444 0.13795112 0.10209068 0.021057459
0.14500518 0.10511783 0.03745165 0.08865421 0.16917235 0.10691969 0.050815426 0.19295083
0.11427008 0.096817136 0.20242472 0.036973335 0.09155396 0.09984807 0.054150593 0.1813712
0.015372629 0.13512047 0.08996323 0.087759905 0.16461363 0.13063574 0.053144928 0.18157665
0.10491799 -0.0011078427 0.12518743 0.08972747 0.02273461 0.14456235 0.09419 0.17350006
0.085319795 0.05883264 0.09228703 0.1692008 0.048119437 0.06429793 0.08453509 0.11765414
0.07386087 0.042030804 -0.09495781 0.058725487 0.17350066 0.25792333 0.08874938 0.0312298
0.009868231 -0.059859563 0.026944555 0.02327787 0.105432175 0.11321108 0.10608647 0.14940636
0.08211611 -0.017192902 0.15371725 0.11236129 -0.11526521 0.10743097 0.024737978 0.077265054
0.26687777 0.0060206233 0.09601936 -0.011507763 -0.14418581 -0.029357746 0.011977565 0.04435452
0.113318615 0.19094522 0.04370629 0.12318433 0.0807301 0.22378215 0.05519291 0.1832493
0.10480396 0.18773064 0.1325294 0.15419137 0.124511905 0.05860237 0.06572294 0.034007266
-0.05959044 0.077113606 0.15833569 0.18791002 0.08550482 0.26721275 0.12006446 0.05223904
0.17036913 0.11286677 -0.052190814 0.14305182 -0.1188619 0.03180265 0.11906957 0.12122443
0.090324625 0.057142917 0.10593746 -0.045970477 0.13048829 0.1474127 0.0344495 0.12444283
0.1024712 0.080856934 0.12648025 0.024091233 0.0843417 0.20111482 0.0040986063 -0.0048046047
0.25197858 0.07973496 0.044767145 0.04241512 0.01805298 0.14807081 0.07045922 0.1204334
0.228855 0.097139366 0.1401377 0.03432109 0.0057919007 -0.084675126 0.16052458 0.16726822
0.060762566 -0.013516823 -0.077227496 0.0150576215 0.14111662 0.055385962 0.27970716 0.21280535
00000000: 42ea 313e 4e85 e9bc 6125 513d 7f30 43bc
00000010: ff2e f43d b5e8 1a3e 03a9 0c3d 78e3 37bd
00000020: 1fc5 9e3d 5c3a 303e f40a fc3d 107a 183e
00000030: 3b9a be3d 0748 f8bd e20d 233d 784a d83d
00000040: 4810 42bc 2908 f23d cc6c 023e 55c1 98bc
00000050: 872a 853d d929 273e 12b6 403d 4d7a c53d
00000060: e82a bd3d ab07 0a3d f0f8 9e3d 736c 513d
00000070: 9e6b 403e 3355 8c3d a31b 323d c0de ac3d
00000080: 81e9 8a3d b6d8 d13d 9cce 723d f5b4 ef3d
00000090: a0f4 343e b83b a03d aadf d4bc 8c8b 493d
000000a0: 4017 6c3d 9004 03be ac71 193e 1588 09ba
000000b0: 7de3 313c 74f2 c0bc 58f1 243e 676d 8f3c
000000c0: bccd d93d f17d cb3d 6842 5c3e 7b54 333e
000000d0: ced1 debd 6d5c 2a3e 0c43 6a3d 28c4 443d
000000e0: 7330 2c3e 1c6d 453e 4a61 993d 5b73 0e3e
000000f0: 6137 6b3d c556 563d 3b14 bb3d 7a4c ba3d
00000100: 4482 e43b 6980 fe3d 8788 ce3d 85c7 ca3b
00000110: 3d74 113e fd42 d43b 0194 343e e0f9 d33c
00000120: a1be 533d 7f01 dc3d d6cb cfbc 4ca6 483e
00000130: 9465 953d eb37 093e 6c47 8b3d 3562 233d
00000140: c410 bdbc 449d e03b 16ce 99bc 84a2 ce3c
00000150: 892f 393e 23be fa3d 7caa 283e 4fd9 d2bc
00000160: 0143 103e 871c 293c 74e7 363e 5517 073e
00000170: 1b64 bf3d 4e32 973d ae1f 18bd 37cc 333e
00000180: ea77 2c3e 7128 ca3d b66d 91bc ed4c c93d
00000190: cadf b53d 7405 853c 9792 4d3e 19f3 bd3d
000001a0: 8be2 973d c9b3 123e ec0e cf3d 9db3 843d
000001b0: 38dc 163e 0f43 0d3e eb14 d13d b180 ac3c
000001c0: 3d7c 143e 0448 d73d e766 193d 5790 b53d
000001d0: 843b 2d3e b6f8 da3d d623 503d e794 453e
000001e0: 6f06 ea3d 1048 c63d 6d48 4f3e 5a71 173d
000001f0: a580 bb3d 257d cc3d 03cd 5d3d 5fb9 393e
00000200: 7bdd 7b3c 055d 0a3e a43e b83d 77bb b33d
00000210: 7a90 283e 60c5 053e 7fae 593d 3bef 393e
00000220: 3edf d63d 0835 91ba 2231 003e 09c3 b73d
00000230: ef3d ba3c 2708 143e b0e6 c03d 00aa 313e
00000240: 25bc ae3d 7ffa 703d fb00 bd3d f942 2d3e
00000250: e318 453d a2ae 833d bc20 ad3d a7f4 f03d
00000260: 5e44 973d 7e28 2c3d 3e79 c2bd 238a 703d
00000270: 28aa 313e 870e 843e 3cc2 b53d a3d5 ff3c
00000280: 5cae 213c 4d2f 75bd d4ba dc3c 3bb1 be3c
00000290: d3ec d73d 36db e73d dd43 d93d fbfd 183e
000002a0: 7e2c a83d 21d8 8cbc 0e68 1d3e ad1d e63d
000002b0: 2b10 ecbd c504 dc3d 4da7 ca3c 243d 9e3d
000002c0: 34a4 883e a648 c53b cca5 c43d 0e8b 3cbc
000002d0: 72a5 13be a87f f0bc 8c3d 443c 16ad 353d
000002e0: 9713 e83d 2587 433e 5e05 333d 1148 fc3d
000002f0: d355 a53d 2627 653e f611 623d b4a5 3b3e
00000300: 75a3 d63d 763c 403e c9b5 073e 58e4 1d3e
00000310: 1900 ff3d 0a09 703d c099 863d 344b 0b3d
00000320: 1b15 74bd bded 9d3d c022 223e 7c6b 403e
00000330: 271d af3d 1cd0 883e 5be4 f53d 9bf8 553d
00000340: 3f75 2e3e b126 e73d 09c6 55bd 2d7c 123e
00000350: de6d f3bd 7f43 023d bfda f33d 8444 f83d
00000360: 1efc b83d b10e 6a3d bdf5 d83d 8a4b 3cbd
00000370: b99e 053e 5bf3 163e eb1a 0d3d e2db fe3d
00000380: 6cdc d13d 5298 a53d 0a84 013e fa5a c53c
00000390: 57bb ac3d 0bf1 4d3e 9a4d 863b f26f 9dbb
000003a0: 5603 813e 154c a33d c15d 373d 7abb 2d3d
000003b0: d8e3 933c e09f 173e ec4c 903d c9a5 f63d
000003c0: f758 6a3e 01f1 c63d 4280 0f3e 4594 0c3d
000003d0: fcc9 bd3b 276a adbd 8e60 243e 5c48 2b3e
000003e0: 2be2 783d aa75 5dbc 7329 9ebd 3eb4 763c
000003f0: e080 103e 64dc 623d c735 8f3e a5e9 593e

running_mean f4 [256]
0.17914084 0.17957234 0.08305345 0.013528169 0.76106715 0.47896227 0.058946658 0.026150199
0.15780893 0.46839574 0.46147144 0.003770372 0.26414487 0.050214116 0.076118454 0.24987864
0.035070308 0.11462211 0.32378972 0.036120523 0.0840176 0.47006753 0.02918193 0.26973054
0.41620606 0.0077044177 0.17899145 0.030407038 0.1022875 0.49503648 0.03463557 0.12688194
0.15641932 0.021163601 0.103407465 0.23077229 0.34855658 0.26921058 0.2351554 0.06824436
0.38605988 0.026576515 0.347942 0.044064797 0.19513196 0.01479517 0.23258321 0.15634787
0.33555207 0.12998983 0.19373064 0.28822482 0.13592303 0.20759812 0.05735854 0.22686961
0.34615552 0.45089516 0.049163286 0.13044459 0.034788806 0.10687855 0.23932412 0.17883265
0.03673664 0.382801 0.1302757 0.10981258 0.17417105 0.036355097 0.3132436 0.029345784
0.14311568 0.30438206 0.02559935 0.121465385 0.39633983 0.21359044 0.28925917 0.22192462
0.073900916 0.08496385 0.023494352 0.16318892 0.15451895 0.17365877 0.47154507 0.046866897
0.11045066 0.028101726 0.22736813 0.15414608 0.104948916 0.13965704 0.15426952 0.5969069
0.22074984 0.2752373 0.06323523 0.11333767 0.113701224 0.013849793 0.44298506 0.07877574
0.08300166 0.17297015 0.18009757 0.013401478 0.49159572 0.4406601 0.6278165 0.354571
0.16355112 0.15089293 0.18108961 0.16475478 0.26789004 0.1274387 0.21180686 0.28680044
0.2901419 0.31671178 0.65215 0.2836449 0.14174514 0.38742837 0.2165436 0.22247376
0.2379055 0.35913917 0.15045333 0.10927848 0.37684116 0.26204124 0.14345883 0.37692776
0.5365353 0.030687327 0.3979098 0.39223713 0.039071914 0.6514869 0.11432437 0.4540887
0.23163353 0.16441764 0.18950894 0.2507433 0.118610576 0.2991636 0.30905247 0.3871661
0.49014613 0.349938 0.06482021 0.19012979 0.29739952 0.5331468 0.13524789 0.08480982
0.11369238 0.062696666 0.30811954 0.048019372 0.66829646 0.25526458 0.15498541 0.42457235
0.10679336 0.033404782 0.38901323 0.23114552 0.03282747 0.12345965 0.018947797 0.22134419
0.51446813 0.37319708 0.244787 0.04526865 0.05621794 0.13163935 0.09046222 0.1321758
0.12671113 0.20754221 0.03479579 0.019266466 0.09965968 0.15754639 0.08988652 0.1401094
0.31141147 0.19880825 0.34974954 0.17030579 0.11858973 0.13203152 0.18202744 0.29306877
0.22588138 0.22567186 0.37155366 0.41594929 0.3485933 0.3552495 0.30966908 0.14797069
0.2698097 0.19956435 0.02681533 0.13084392 0.021064859 0.11548491 0.18721312 0.15052344
0.21948396 0.28441516 0.23511608 0.0603463 0.10462228 0.0075140423 0.36012098 0.10480124
0.3048339 0.34449455 0.21935232 0.12130741 0.09349381 0.70573586 0.008947332 0.017853528
0.24896848 0.52851665 0.11640826 0.17179076 0.14918453 0.28133506 0.4053244 0.019108538
0.32460606 0.21458079 0.46402586 0.21249974 0.044087533 0.084806636 0.28414828 0.20806225
0.08836093 0.116756275 0.025146907 0.14479296 0.15434363 0.23322819 0.25080794 0.3713527
00000000: b270 373e d0e1 373e ed17 aa3d 41a5 5d3c
00000010: 4cd5 423f 8b3a f53e 0d72 713d f138 d63c
00000020: aa98 213e 91d1 ef3e fc45 ec3e 5818 773b
00000030: ff3d 873e 51ad 4d3d fee3 9b3d 30e0 7f3e
00000040: e2a5 0f3d ffbe ea3d c4c7 a53e 1df3 133d
00000050: 6b11 ac3d b1ac f03e f10e ef3c 1f1a 8a3e
00000060: f618 d53e 5775 fc3b 8949 373e 2e18 f93c
00000070: 1c7c d13d 6c75 fd3e 07de 0d3d 57ed 013e
00000080: 632c 203e 4a5f ad3c 4bc7 d33d 924f 6c3e
00000090: 0276 b23e f8d5 893e 94cc 703e b3c3 8b3d
000000a0: a4a9 c53e feb6 d93c 7425 b23e 4a7d 343d
000000b0: acd0 473e 7167 723c 4b2a 6e3e a819 203e
000000c0: 7bcd ab3e 0e1c 053e 5361 463e 3492 933e
000000d0: 682f 0b3e 9a94 543e caf0 6a3d 8250 683e
000000e0: 4c3b b13e bbdb e63e 715f 493d 4493 053e
000000f0: b57e 0e3d 24e3 da3d 6211 753e e81f 373e
00000100: 2979 163d 7efe c33e fe66 053e 6be5 e03d
00000110: e559 323e 15e9 143d 7761 a03e 9266 f03c
00000120: eb8c 123e f7d7 9b3e bab5 d13c d8c2 f83d
00000130: 0eed ca3e 74b7 5a3e c719 943e 3540 633e
00000140: 5d59 973d 8701 ae3d 3a77 c03c ff1a 273e
00000150: 373a 1e3e 9bd3 313e 5b6e f13e 81f7 3f3d
00000160: f533 e23d 9735 e63c 31d3 683e 78d8 1d3e
00000170: 75ef d63d 4102 0f3e d4f8 1d3e e4ce 183f
00000180: 3f0c 623e e7eb 8c3e 7981 813d 951d e83d
00000190: 30dc e83d 3eea 623c f0ce e23e 2d55 a13d
000001a0: c6fc a93d 161f 313e 7f6b 383e df91 5b3c
000001b0: 6fb2 fb3e 339e e13e 95b8 203f 558a b53e
000001c0: f279 273e ad83 1a3e 8e6f 393e 7ab5 283e
000001d0: e228 893e 4a7f 023e e6e3 583e 82d7 923e
000001e0: 7b8d 943e 0c28 a23e 4df3 263f e839 913e
000001f0: a325 113e 035d c63e 9bbd 5d3e 29d0 633e
00000200: 809d 733e 17e1 b73e 7010 1a3e 65cd df3d
00000210: 53f1 c03e 452a 863e dfe6 123e adfc c03e
00000220: 615a 093f fd63 fb3c d5ba cb3e 4ed3 c83e
00000230: df09 203d d8c7 263f e522 ea3d 507e e83e
00000240: 5731 6d3e 195d 283e a20e 423e 6d61 803e
00000250: 1aea f23d f92b 993e 203c 9e3e a33a c63e
00000260: 6ff4 fa3e 132b b33e 75c0 843d 62b1 423e
00000270: c044 983e 4f7c 083f 6c7e 0a3e c5b0 ad3d
00000280: 8dd7 e83d 1c67 803d d8c1 9d3e f6af 443d
00000290: 7a15 2b3f 0ab2 823e 7fb4 1e3e 8c61 d93e
000002a0: 7ab6 da3d 74d3 083d be2c c73e 69b1 6c3e
000002b0: 1976 063d 6ad8 fc3d 6938 9b3c 0da8 623e
000002c0: 2fb4 033f b013 bf3e 71a9 7a3e 9f6b 393d
000002d0: c844 663d 77cc 063e 4244 b93d 1859 073e
000002e0: 90c0 013e f285 543e 0886 0e3d b5d4 9d3c
000002f0: 601a cc3d d753 213e 6c16 b83d d778 0f3e
00000300: 5371 9f3e 6494 4b3e 5f12 b33e a464 2e3e
00000310: 2cdf f23d 4533 073e 6765 3a3e 1c0d 963e
00000320: 734d 673e 8616 673e 483c be3e 4ef7 d43e
00000330: d27a b23e 43e3 b53e f28c 9e3e a185 173e
00000340: 7f24 8a3e 995a 4c3e d3ab db3c f3fb 053e
00000350: 3690 ac3c 5a83 ec3d ccb4 3f3e d122 1a3e
00000360: 67c0 603e dd9e 913e 45c2 703e af2d 773d
00000370: 3544 d63d 5b38 f63b c761 b83e 08a2 d63d
00000380: 3013 9c3e 9761 b03e e59d 603e 0570 f83d
00000390: af79 bf3d 1bab 343f d597 123c 9041 923c
000003a0: 98f1 7e3e de4c 073f 7467 ee3d ebe9 2f3e
000003b0: d4c3 183e 260b 903e ae86 cf3e 8289 9c3c
000003c0: c432 a63e 11bb 5b3e cc94 ed3e 8899 593e
000003d0: 2195 343d 1aaf ad3d e27b 913e 450e 553e
000003e0: 93f6 b43d ea1d ef3d e300 ce3c 9b44 143e
000003f0: 420c 1e3e 5fd3 6e3e e669 803e f121 be3e
