Best_models/UCI_HAR_CNN_20210125_130254/CNN_UCI_HAR_Rep_10_Seed_156.pt (torch_old, 226695 bytes, 12 tensors)

weight f4 [64, 9, 3]
0.12877585 0.20088615 -0.055572987 0.1140337 -0.006804833 -0.015673572 0.08944272 -0.007779832
0.07763502 0.24742587 -0.01564489 -0.23592505 0.03548752 -0.06021213 0.005534037 0.49333617
0.35284203 0.21830386 -0.35553867 -0.052877013 -0.10188783 -0.24843405 -0.27941966 -0.3820324
0.1289027 0.17807066 0.19774462 -0.6839516 -0.5793503 -0.8770655 -0.27555037 -0.05991515
0.20155191 0.1268 -0.32491207 -0.08831386 0.614644 0.6202991 0.2836541 -0.11189127
-0.22732745 0.22768086 0.64758605 0.5147149 0.6146048 -0.010707261 -0.04224831 -0.09073211
-0.1292231 0.13064487 -0.16023518 0.17428403 0.004487826 0.09583876 -0.11464789 -0.039492317
0.038788345 0.035307102 0.16763937 0.06735161 0.02945937 0.075479224 -0.014111688 0.14078636
-0.12592596 -0.16063166 -0.11855167 0.18741749 0.18951894 0.1745632 0.06427707 -0.11128243
-0.091962084 0.19336651 0.15171121 -0.14839108 -0.14637318 -0.15827613 0.12100955 0.12854025
0.13310511 -0.32349104 -0.41984123 -0.25662175 -0.0753508 -0.07822636 -0.16819218 -0.1032812
0.11590621 0.12395429 -0.25597966 -0.5266661 -0.67700887 0.005829807 0.15244365 0.13889275
-0.6362165 -0.45485428 -0.12425699 -0.050400723 -0.22090138 -0.19440497 0.05908758 0.237042
0.33081704 -0.04344859 -0.030028239 0.06774496 -0.23676738 -0.22842173 -0.06809378 -0.12985805
0.20755683 0.02642751 0.20979062 0.008205872 -0.38442445 -0.33795702 -0.36765543 -0.5674779
0.42413074 0.098970346 0.45686084 -0.03888075 0.08725239 0.00037773707 -0.54956526 -0.44843712
-0.50601226 -0.26252222 -0.14205298 -0.41624677 0.1832654 0.052201178 0.006821168 0.0703197
0.33010662 -0.16351391 -0.034543693 0.124296114 0.5138273 0.060784407 0.2257705 0.1938467
-0.21505792 -0.3334621 -0.3043124 -0.5669473 -0.28578928 -0.13862349 0.14705339 0.29718935
0.230272 -0.31704378 -0.39924675 -0.44160086 0.13419922 0.09896039 0.18497805 -0.29585388
-0.17218006 -0.21900769 0.23282568 0.19538514 0.28394637 0.29548237 -0.024161499 -0.17620608
-0.08983662 0.2940554 0.040825587 0.03614313 0.05575604 0.24748017 0.044241507 -0.040646665
-0.41732427 0.70305085 0.63882816 0.73811924 -0.24114493 0.10626143 -0.21940196 0.34898016
0.42547238 0.26906744 -0.10584075 -0.2758211 -0.26489043 0.07176825 0.19600663 0.3107996
-0.31413093 -0.09210422 0.39518508 -0.34515542 -0.22785966 0.04086418 0.16890073 0.42533407
0.59564054 0.5838875 0.008423164 -0.2839595 0.51133263 0.28109154 0.15876187 -0.1371735
-0.13437204 -0.024378674 0.10069399 0.104537904 0.07146105 -0.00837247 -0.12545048 0.20673136
-0.038526583 -0.22385119 -0.1420291 0.49053746 0.35463274 0.6385277 0.058663275 -0.14390115
0.17486854 0.026673166 0.2659229 0.64048785 -0.17870258 0.16044566 0.23438151 0.17897487
0.17715767 0.046820942 -0.07067913 -0.024544217 0.033992197 0.19243889 -0.14067532 -0.11623012
0.21610492 0.11790854 0.17719744 0.1822641 0.09244635 0.23725262 0.05481488 0.19552453
0.035650637 0.02411132 0.11980922 -0.19866402 0.08451625 0.034704354 0.00074362266 0.38575995
00000000: d1dd 033e 19b5 4d3e 80a0 63bd 808a e93d
00000010: 14fb debb dd65 80bc bf2d b73d f6ed febb
00000020: 1cff 9e3d 355d 7d3e b629 80bc 5696 71be
00000030: 5d5b 113d ffa0 76bd de56 b53b 8f96 fc3e
00000040: b6a7 b43e 0c8b 5f3e 2a09 b6be 9195 58bd
00000050: 91aa d0bd 7f65 7ebe 1810 8fbe c099 c3be
00000060: 12ff 033e 2858 363e 917d 4a3e 7417 2fbf
00000070: 4d50 14bf 5d87 60bf f014 8dbe 9769 75bd
00000080: a063 4e3e dcd7 013e e05a a6be e6dd b4bd
00000090: 4f59 1d3f eccb 1e3f 1c3b 913e 4027 e5bd
000000a0: 87c8 68be 2c25 693e 33c8 253f 5bc4 033f
000000b0: bd56 1d3f 826d 2fbc 900c 2dbd c2d1 b9bd
000000c0: 0f53 04be c5c7 053e b114 24be 8377 323e
000000d0: 9d0e 933b 1d47 c43d 83cc eabd b2c2 21bd
000000e0: 87e0 1e3d 2e9e 103d a8a9 2b3e a4ef 893d
000000f0: c754 f13c da94 9a3d b634 67bc 4d2a 103e
00000100: bcf2 00be a07c 24be 38cb f2bd 5fea 3f3e
00000110: 4111 423e b2c0 323e b2a3 833d 0be8 e3bd
00000120: 9e56 bcbd df01 463e 2f5a 1b3e d5f3 17be
00000130: dae2 15be 2313 22be dbd3 f73d 0ea0 033e
00000140: b54c 083e 9ea0 a5be 6ef5 d6be ed63 83be
00000150: 8551 9abd 2435 a0bd 923a 2cbe 1885 d3bd
00000160: 3c60 ed3d bfdb fd3d c40f 83be 97d3 06bf
00000170: 7450 2dbf f707 bf3b 301a 1c3e e739 0e3e
00000180: 16df 22bf a9e2 e8be 737a febd fd70 4ebd
00000190: f933 62be 1912 47be d105 723d 23bb 723e
000001a0: da60 a93e 26f7 31bd c8fd f5bc dfbd 8a3d
000001b0: 2673 72be 63e7 69be c074 8bbd 82f9 04be
000001c0: c789 543e 817e d83c 5ad3 563e ec71 063c
000001d0: 48d3 c4be b408 adbe 553d bcbe 3b46 11bf
000001e0: aa27 d93e f7b0 ca3d aae9 e93e 6c41 1fbd
000001f0: 62b1 b23d 030b c639 4fb0 0cbf 8d99 e5be
00000200: 058a 01bf 5069 86be 5676 11be 4c1e d5be
00000210: eda9 3b3e e7d0 553d 1b84 df3b c603 903d
00000220: bc03 a93e 3170 27be b07d 0dbd f68e fe3d
00000230: 308a 033f 12f9 783d 6230 673e c07f 463e
00000240: 2538 5cbe 8bbb aabe d6ce 9bbe 7523 11bf
00000250: f952 92be 51f3 0dbe 2a95 163e 3429 983e
00000260: 6ccc 6b3e 9053 a2be 126a ccbe 8219 e2be
00000270: 856b 093e bfab ca3d e36a 3d3e 297a 97be
00000280: f84f 30be 8d43 60be db69 6e3e 0b13 483e
00000290: 6b61 913e 7749 973e 56ee c5bc 5e6f 34be
000002a0: 43fc b7bd 6e8e 963e bb38 273d d20a 143d
000002b0: 7260 643d 716b 7d3e 9536 353d 1e7d 26bd
000002c0: 87ab d5be 24fb 333f 3e8a 233f 62f5 3c3f
000002d0: b2ee 76be 989f d93d e8aa 60be 87ad b23e
000002e0: 84d7 d93e 35c3 893e 09c3 d8bd 6c38 8dbe
000002f0: b89f 87be 3bfb 923d f6b5 483e 2021 9f3e
00000300: c5d5 a0be 23a1 bcbd b355 ca3e 36b8 b0be
00000310: 0b54 69be 3361 273d 50f4 2c3e 63c5 d93e
00000320: e67b 183f a779 153f 4f01 0a3c 2463 91be
00000330: b2e6 023f 3beb 8f3e 7992 223e 3677 0cbe
00000340: d398 09be c9b5 c7bc a738 ce3d f817 d63d
00000350: 2c5a 923d af2c 09bc 1776 00be 63b1 533e
00000360: 0dce 1dbd 3f39 65be 1470 11be ba27 fb3e
00000370: 6c92 b53e 8d76 233f e748 703d d35a 13be
00000380: bd10 333e af81 da3c 0c27 883e 03f7 233f
00000390: cffd 36be de4b 243e b501 703e 3045 373e
000003a0: d268 353e 51c7 3f3d 38c0 90bd f410 c9bc
000003b0: 673b 0b3d b30e 453e 310d 10be 0f0a eebd
000003c0: 9c4a 5d3e 087a f13d 3f73 353e 71a3 3a3e
000003d0: 8354 bd3d 5af2 723e 9185 603d 9537 483e
000003e0: 6706 123d 1a85 c53c 895e f53d 956e 4bbe
000003f0: db16 ad3d 2726 0e3d acef 423a 5482 c53e

bias f4 [64]
-0.26162398 -0.023923337 -0.06361857 0.056293465 -0.17810722 0.025211912 -0.1443552 -0.5078842
-0.113767155 -0.2163296 0.014462125 0.073529914 -0.3335317 -0.14431638 -0.14015234 0.04087154
-0.09199024 -0.10820826 -0.16168171 -0.14726584 -0.54148847 -0.46416575 -0.16476542 -0.5509485
-0.3672274 0.025685098 -0.13276817 -0.1515063 -0.18372732 -0.029097734 -0.20230234 0.1365517
-0.022741074 -0.2125881 -0.12790658 0.023523713 -0.4863003 -0.28614286 0.12841167 -0.31795108
-0.04166154 -0.10919759 -0.10201107 -0.2653861 -0.17807607 -0.03890488 -0.115525 -0.20623939
-0.49355483 -0.120374456 0.07299694 -0.5259856 -0.106430925 0.026189154 -0.021090731 -0.13992482
-0.35447934 0.027859477 -0.07852439 -0.17492528 -0.020372307 -0.7043431 -0.37755907 -0.11388954
00000000: 94f3 85be e0fa c3bc 744a 82bd fa93 663d
00000010: bd61 36be 3689 ce3c d9d1 13be b304 02bf
00000020: c1fe e8bd 8285 5dbe 8cf2 6c3c da96 963d
00000030: abc4 aabe acc7 13be 1884 0fbe ea68 273d
00000040: 6165 bcbd 4b9c ddbd e48f 25be dbcc 16be
00000050: fd9e 0abf 22a7 edbe 44b8 28be f60a 0dbf
00000060: 3b05 bcbe 8e69 d23c 61f4 07be 7824 1bbe
00000070: 0423 3cbe 5f5e eebc 5828 4fbe 35d4 0b3e
00000080: 7d4b babc b2b0 59be f1f9 02be cdb4 c03c
00000090: 5afc f8be 5181 92be 597e 033e 7cca a2be
000000a0: 4aa5 2abd fca2 dfbd 2eeb d0bd b0e0 87be
000000b0: 9359 36be b95a 1fbd 5f98 ecbd 6b30 53be
000000c0: 38b3 fcbe e286 f6bd 6b7f 953d fea6 06bf
000000d0: 75f8 d9bd a38a d63c 78c6 acbc 7448 0fbe
000000e0: 517e b5be 8f39 e43c 65d1 a0bd 9d1f 33be
000000f0: d3e3 a6bc d44f 34bf 6c4f c1be eb3e e9bd

weight f4 [64, 64, 3]
0.22521532 0.19039072 0.19531466 -0.21617697 0.022125147 0.25430655 0.06762132 0.01883352
-0.014613103 -0.23026726 0.046718005 0.013931849 -0.5075235 -0.31782585 -0.3488675 -0.455876
-0.43668184 -0.5227501 -0.30982077 -0.44681913 -0.3256355 0.06435308 -0.040191375 -0.00028628056
-0.32809487 -0.32937494 -0.32183582 -0.02912678 -0.0009321924 -0.03727498 -0.14416902 -0.11763201
-0.008158728 -0.17510681 -0.024344938 0.35532632 -0.30205423 -0.2538412 -0.21720213 0.17843819
0.16552466 0.19038646 0.08625267 0.041216582 0.01608829 -0.27424085 -0.25564998 -0.034205455
-0.042742033 -0.0999511 -0.048607673 -0.19532043 -0.036092933 0.01054509 0.3104086 0.6048003
0.4579556 -0.0863106 -0.1563157 -0.12278153 0.02143681 -0.029927978 -0.007806275 -0.114115685
-0.24122262 -0.42088902 -0.053202152 0.043533865 0.02003627 -0.3792549 -0.12951571 -0.016458588
-0.036363106 0.06343705 0.18971662 -0.17446822 -0.18562376 -0.1412948 0.28659695 0.026708063
0.08210796 -0.08914507 0.03522885 -0.113979414 -0.29953334 -0.18833035 -0.18915273 0.35948992
0.24287766 0.120257504 -0.013529785 -0.03986128 -0.10168085 -0.8038498 -0.65892863 -0.503325
-0.29768926 -0.39753324 -0.2806318 -0.14283088 -0.056938 0.0022005446 -0.11704151 -0.054729547
-0.123815626 -0.2785247 -0.24834831 -0.23109491 -0.26370564 -0.06907334 -0.04052101 -0.118175
-0.16219659 -0.18536483 -0.40569058 -0.3223085 -0.4194768 -0.6349513 -0.5484132 -0.58518493
-0.08596046 -0.029904248 -0.08733605 -0.0603972 -0.09829002 -0.28751937 -0.27106413 -0.2918483
-0.20091996 0.39287895 0.33001837 0.47965455 -0.07586925 -0.024864817 -0.08639894 0.14240731
0.1470129 0.057133347 -0.24424481 -0.07120928 -0.070838414 -0.38503256 -0.20591877 -0.27908674
-0.2878386 -0.104072124 0.06852326 -0.21079835 -0.07406767 -0.03917427 -0.10613605 0.12595701
0.40247157 0.02263776 0.07027466 0.014046858 -0.32551795 -0.18670048 -0.21994177 -0.11927378
-0.104249686 -0.06807388 0.021178152 -0.08299937 -0.035209153 -0.2498178 -0.20562018 -0.13415293
0.06323767 0.0419251 0.009129405 0.039650325 -0.04169102 -0.007474563 0.10244272 0.051195394
0.04311586 -0.17248428 -0.07776567 0.03530204 -0.027954994 0.02830308 -0.055597685 -0.30039835
-0.3796432 -0.35126215 0.3600002 0.15505369 0.23015966 0.03157519 0.11795582 0.21121705
0.08308203 -0.0046598045 -0.11418243 -0.14134736 -0.15444648 -0.09471679 -0.24756472 -0.26156947
-0.32260332 -0.028752264 -0.012150583 -0.095045745 0.078360885 -0.13047169 -0.4351151 -0.017831143
0.06644066 0.034444682 -0.18147792 -0.035761267 -0.106035754 0.19173333 0.14922255 0.14214054
-0.10922507 -0.031168032 0.11003255 0.21800824 0.061695803 0.02520419 -0.41242814 -0.2525042
-0.17655413 0.14360563 -0.018330922 0.14969999 -0.014809439 0.049636282 0.09585211 0.24926552
0.13133115 0.06767521 0.21840657 0.07628324 -0.02871847 -0.04164612 0.09215756 0.052034184
0.062816344 0.0371318 -0.14716892 -0.1128889 -0.18290983 -0.15666048 0.36664906 0.41380486
0.26259008 0.079231106 0.104374446 0.049382515 0.056710638 0.059154756 0.15209235 0.08897695
00000000: d89e 663e c9f5 423e 9100 483e 7f5d 5dbe
00000010: cc3f b53c 7834 823e 0c7d 8a3d c148 9a3c
00000020: cc6b 6fbc 2ecb 6bbe 615b 3f3d 6942 643c
00000030: 0fed 01bf 12ba a2be c39e b2be 9468 e9be
00000040: c394 dfbe f3d2 05bf d4a0 9ebe 7ac5 e4be
00000050: b2b9 a6be 8ccb 833d b69f 24bd ed17 96b9
00000060: 0dfc a7be d5a3 a8be aac7 a4be 499b eebc
00000070: 5f5e 74ba a6ad 18bd 0ba1 13be 0de9 f0bd
00000080: 2fac 05bc 334f 33be 096f c7bc 55ed b53e
00000090: daa6 9abe 79f7 81be 3c6a 5ebe 80b8 363e
000000a0: 4c7f 293e abf4 423e 3da5 b03d b8d2 283d
000000b0: 97cb 833c 4c69 8cbe 8ee4 82be 051b 0cbd
000000c0: 4512 2fbd 2ab3 ccbd d718 47bd 1402 48be
000000d0: 2fd6 13bd 50c5 2c3c e0ed 9e3e 31d4 1a3f
000000e0: 2879 ea3e 9dc3 b0bd 3911 20be e274 fbbd
000000f0: 409c af3c 852b f5bc c8cb ffbb 7cb5 e9bd
00000100: 1003 77be c47e d7be 80ea 59bd 9150 323d
00000110: 1b23 a43c b32d c2be c49f 04be 29d4 86bc
00000120: 7bf1 14bd 49eb 813d 1345 423e cca7 32be
00000130: 2814 3ebe 96af 10be d6bc 923e deca da3c
00000140: 3828 a83d b191 b6bd 204c 103d 0a6e e9bd
00000150: 6f5c 99be acd9 40be 41b1 41be 100f b83e
00000160: ecb4 783e 9149 f63d 08ac 5dbc 9545 23bd
00000170: 0d3e d0bd 1ac9 4dbf 8caf 28bf e8d9 00bf
00000180: ba6a 98be 7a89 cbbe f9ae 8fbe 4242 12be
00000190: d237 69bd 0337 103b 76b3 efbd 172c 60bd
000001a0: 0c93 fdbd ca9a 8ebe 054f 7ebe 25a4 6cbe
000001b0: 6d04 87be 5376 8dbd 5cf9 25bd bc05 f2bd
000001c0: dd16 26be 47d0 3dbe adb6 cfbe 9f05 a5be
000001d0: aac5 d6be 2b8c 22bf cf64 0cbf aece 15bf
000001e0: 0a0c b0bd c1f9 f4bc 3edd b2bd 0e63 77bd
000001f0: 474c c9bd bd35 93be ebc8 8abe 246d 95be
00000200: f6bd 4dbe 6e27 c93e 2bf8 a83e 4895 f53e
00000210: 5661 9bbd 4db1 cbbc edf1 b0bd 39d3 113e
00000220: 8d8a 163e a804 6a3d 501b 7abe 2cd6 91bd
00000230: bb13 91bd fd22 c5be 5fdc 52be 75e4 8ebe
00000240: 955f 93be c423 d5bd ec55 8c3d 86db 57be
00000250: cab0 97bd 3375 20bd db5d d9bd e0fa 003e
00000260: c110 ce3e d372 b93c 29ec 8f3d cb24 663c
00000270: 4aaa a6be 692e 3fbe 6a38 61be d045 f4bd
00000280: dc80 d5bd 526a 8bbd ce7d ad3c 93fb a9bd
00000290: 7937 10bd 3dd0 7fbe 198e 52be 635f 09be
000002a0: c082 813d a7b9 2b3d 8093 153c 6168 223d
000002b0: 34c4 2abd 2eed f4bb 7dcd d13d 43b2 513d
000002c0: 429a 303d b89f 30be 9c43 9fbd df98 103d
000002d0: df01 e5bc dcdb e73c 66ba 63bd d0cd 99be
000002e0: 9860 c2be a2d8 b3be f251 b83e 65c6 1e3e
000002f0: f9ae 6b3e fd54 013d d292 f13d 4849 583e
00000300: e926 aa3d 46b1 98bb 7ad8 e9bd 5dbd 10be
00000310: 3827 1ebe e0fa c1bd 9b81 7dbe 6fec 85be
00000320: 432c a5be de89 ebbc 3d13 47bc 58a7 c2bd
00000330: ac7b a03d 5f9a 05be 68c7 debe 9e12 92bc
00000340: 0a12 883d de15 0d3d 59d5 39be 687a 12bd
00000350: 4629 d9bd be55 443e cccd 183e 4a8d 113e
00000360: 65b1 dfbd 1a54 ffbc bf58 e13d 8d3d 5f3e
00000370: bdb4 7c3d 0479 ce3c c829 d3be 3b48 81be
00000380: 9bca 34be 5b0d 133e bb2a 96bc f44a 193e
00000390: 4aa3 72bc 6a4f 4b3d 1c4e c43d 763f 7f3e
000003a0: ac7b 063e 4d99 8a3d f9a5 5f3e 633a 9c3d
000003b0: ff42 ebbc 1f95 2abd 1abd bc3d cc21 553d
000003c0: dba5 803d 8417 183d 73b3 16be 4c32 e7bd
000003d0: b74c 3bbe 9b6b 20be 6db9 bb3e 3bde d33e
000003e0: 3572 863e eb43 a23d 45c2 d53d 5245 4a3d
000003f0: 6a49 683d 424c 723d 19be 1b3e 8c39 b63d

bias f4 [64]
0.01637315 -0.1481363 -0.18500693 -0.26676455 -0.28180826 0.04668688 -0.34975633 -0.23124154
-0.32165334 -0.03923759 0.012448515 -0.3255184 -0.024883462 0.027968213 -0.3867035 -0.08785969
-0.24338348 -0.027441965 -0.0071319626 -0.034927987 -0.14707215 -0.13903773 0.09297646 -0.2361927
-0.04202651 0.009022895 -0.35376891 0.117918804 -0.23204951 -0.066048376 -0.11270362 -0.049264617
-0.055470005 -0.4622474 -0.36350816 -0.29670072 -0.3336453 -0.2298057 -0.2478995 -0.24752574
-0.060603607 0.0067169624 0.11197443 -0.11878082 -0.10888233 -0.29528862 -0.31333435 -0.17201766
-0.32660213 0.11539935 0.052342694 -0.04538833 -0.0058563845 -0.31602064 -0.35943946 -0.06887495
-0.014101148 0.12115135 0.056657266 -0.33083108 -0.09468699 0.12680458 -0.29517868 -0.311289
00000000: fc20 863c 0bb1 17be 7572 3dbe 5d95 88be
00000010: 2c49 90be be3a 3f3d 4313 b3be 95ca 6cbe
00000020: bfaf a4be 98b7 20bd dbf4 4b3c 59aa a6be
00000030: 67d8 cbbc 981d e53c 00fe c5be c8ef b3bd
00000040: 8539 79be f9cd e0bc 3db3 e9bb a610 0fbd
00000050: 159a 16be e85f 0ebe 716a be3d 80dc 71be
00000060: fd23 2cbd c4d4 133c 3321 b5be 6a7f f13d
00000070: 639e 6dbe 5f44 87bd 28d1 e6bd b2c9 49bd
00000080: 8434 63bd b1ab ecbe be1d babe 28e9 97be
00000090: 8fd3 aabe 2f52 6bbe 5ed9 7dbe 6377 7dbe
000000a0: 7d3b 78bd f719 dc3b da52 e53d 5c43 f3bd
000000b0: b3fd debd 1230 97be 5c6d a0be 6625 30be
000000c0: 6538 a7be 7f56 ec3d 4b65 563d 1de9 39bd
000000d0: eae6 bfbb 75cd a1be 7308 b8be 4f0e 8dbd
000000e0: 8008 67bc 331e f83d 7311 683d b162 a9be
000000f0: 41eb c1bd 0fd9 013e a921 97be 4661 9fbe

weight f4 [256, 128]
0.07086566 0.012297547 -0.01726723 -0.09291041 -0.042633165 0.056702822 -0.21308361 -0.20178723
-0.12920712 -0.052635085 0.07647333 0.020476634 0.3428348 0.11980952 -0.044387724 0.1005818
0.05655345 -0.13081363 -0.2965792 -0.33687964 0.1289765 0.077387236 0.024646036 -0.058994725
0.024976062 -0.0265327 0.1805767 0.23307148 -0.013804452 0.02310545 -0.23645091 -0.36018258
0.014883659 0.1736522 -0.017364165 -0.11062192 0.15274584 0.16557431 0.087761566 -0.010940274
-0.028132133 0.04261984 -0.07565996 -0.09439314 -0.15008526 -0.14505674 0.1105718 -0.013510091
-0.048081346 0.08883931 0.26636606 0.26570925 0.048190683 0.014788078 -0.112109445 -0.17078197
-0.24225752 -0.22082458 0.0697168 -0.02506232 0.13008058 0.026521506 -0.024015637 -0.1542847
0.05410927 -0.031527836 0.14677191 0.032281466 0.034047324 0.04191817 0.09798955 0.041495867
-0.07384804 -0.075812414 -0.16690733 -0.23013532 -0.10713573 -0.03169656 -0.121290974 -0.07173473
-0.014725439 -0.006195236 0.19849628 0.325896 -0.27254996 -0.27929252 -0.07797749 -0.10980326
0.12528066 0.13301136 -0.01830963 0.07626032 -0.31336534 0.02107335 -0.10183213 -0.20925307
0.23823398 0.3155252 -0.01757128 -0.093887694 0.16836235 0.22230695 -0.13537529 -0.23359613
0.07264624 0.116587825 0.13170794 0.05156354 -0.16574714 -0.18775433 -0.061900854 0.03446429
0.12650636 -0.01463254 0.19017799 0.08050258 0.12876241 0.11465803 -0.30387542 -0.29143006
0.029734826 0.123596035 0.14589903 -0.20091619 -0.10807905 -0.18972868 -0.2193978 -0.1636884
0.028536275 0.06517696 -0.017990876 0.10570508 -0.14552358 -0.18259314 -0.27916715 -0.22345068
-0.06607028 -0.13678972 0.13133414 0.06277251 -0.18113206 -0.16992797 -0.2049239 -0.111663364
-0.11724014 -0.14156249 -0.12849128 -0.10915531 0.18845643 0.10824185 -0.21856157 -0.28168622
-0.22232868 -0.13440283 0.17899282 0.08176995 -0.19610323 -0.2018548 -0.041859496 -0.046493772
-0.04423704 -0.06866655 -0.17672816 -0.10037027 0.24984424 0.09181983 -0.18058448 0.1277367
-0.09211921 -0.09697617 0.26398295 0.1448893 -0.21930546 -0.14824235 -0.09385116 -0.061170995
-0.025846584 0.007119421 0.12252342 0.035618 -0.098006584 -0.1558481 -0.24523598 -0.24938579
-0.14672828 -0.17651625 0.026572432 -0.05609819 0.12562294 0.19834532 -0.13918333 0.0027761676
-0.12580132 -0.14545356 -0.13253365 0.008207179 -0.2660966 -0.25881407 -0.033988114 -0.0060642664
-0.18341354 -0.15728398 -0.17614605 -0.11133294 -0.29814622 -0.11662648 -0.16199306 -0.048523676
0.07724678 0.026837932 0.08089764 -0.032991093 -0.20665823 -0.220393 -0.3031136 -0.15348907
-0.27928677 -0.2577999 -0.10854447 -0.1198488 -0.111679286 -0.031906232 -0.11442021 -0.03523382
-0.27645782 -0.08399619 -0.2522627 -0.30353227 0.059152003 -0.007883331 -0.111655556 -0.12475312
0.19626382 0.07106405 -0.05941267 -0.0063069477 -0.119938575 -0.09553432 -0.1552896 -0.25726482
0.00551201 0.07861235 0.052863277 0.07514659 -0.31872636 -0.35595536 -0.12894362 -0.13000716
-0.11985184 0.14178929 -0.18942116 -0.40187386 -0.08385903 -0.06858407 -0.022742817 -0.23045008
00000000: 0422 913d a77b 493c 0274 8dbc d047 bebd
00000010: 1da0 2ebd 3841 683d 9732 5abe 50a1 4ebe
00000020: df4e 04be e397 57bd 0d9e 9c3d 9dbe a73c
00000030: 0b88 af3e b25e f53d e7cf 35bd d5fd cd3d
00000040: 97a4 673d 02f4 05be 3bd9 97be 7d7b acbe
00000050: 6a12 043e 337d 9e3d 7ce6 c93c 74a4 71bd
00000060: 999a cc3c 1b5b d9bc 19e9 383e 4aaa 6e3e
00000070: 112c 62bc a447 bd3c 3020 72be da69 b8be
00000080: 97da 733c e2d1 313e 4b3f 8ebc bf8d e2bd
00000090: 6869 1c3e 508c 293e 56bc b33d d63e 33bc
000000a0: 5c75 e6bc 2492 2e3d 9cf3 9abd 3151 c1bd
000000b0: f3af 19be c189 14be 7873 e23d 6e59 5dbc
000000c0: f2f0 44bd 62f1 b53d 2261 883e 0b0b 883e
000000d0: 9863 453d b249 723c a399 e5bd 78e1 2ebe
000000e0: 5b12 78be d71f 62be aec7 8e3d 7f4f cdbc
000000f0: d833 053e a143 d93c 71bc c4bc cffc 1dbe
00000100: afa1 5d3d 5523 01bd 604b 163e 9239 043d
00000110: 3575 0b3d 63b2 2b3d bfae c83d 92f7 293d
00000120: a43d 97bd 8a43 9bbd c1e9 2abe 98a8 6bbe
00000130: fa69 dbbd 41d4 01bd 6767 f8bd a8e9 92bd
00000140: f842 71bc 6801 cbbb 9c42 4b3e d7db a63e
00000150: ab8b 8bbe 6eff 8ebe aab2 9fbd 88e0 e0bd
00000160: 9349 003e 2134 083e 14fe 95bc 5f2e 9c3d
00000170: 6c71 a0be 05a2 ac3c 5d8d d0bd 7046 56be
00000180: 9cf3 733e 858c a13e a5f1 8fbc 3148 c0bd
00000190: 2e67 2c3e 6fa4 633e d29f 0abe d333 6fbe
000001a0: 8dc7 943d 99c5 ee3d 72de 063e 4a34 533d
000001b0: 9eb9 29be ac42 40be c08b 7dbd 6d2a 0d3d
000001c0: e28a 013e 52bd 6fbc 05be 423e 89de a43d
000001d0: 4bda 033e d4d1 ea3d 8f95 9bbe 5236 95be
000001e0: 7396 f33c eb1f fd3d 8e66 153e f9bc 4dbe
000001f0: 8d58 ddbd 3c48 42be d1a9 60be ef9d 27be
00000200: e8c4 e93c 7f7b 853d 9a61 93bc e87b d83d
00000210: 2204 15be b2f9 3abe ffee 8ebe 41d0 64be
00000220: db4f 87bd 9b12 0cbe 757c 063e e08e 803d
00000230: af7a 39be 9901 2ebe 92d7 51be c3af e4bd
00000240: 991b f0bd c2f5 10be 3893 03be d28c dfbd
00000250: b9fa 403e e7ad dd3d 9bce 5fbe 2d39 90be
00000260: 21aa 63be e5a0 09be e549 373e 0177 a73d
00000270: 49cf 48be 06b3 4ebe dd74 2bbd 4170 3ebd
00000280: e631 35bd 0ca1 8cbd 3af8 34be ee8e cdbd
00000290: 2bd7 7f3e 090c bc3d 23eb 38be 69cd 023e
000002a0: ffa8 bcbd 719b c6bd c628 873e dc5d 143e
000002b0: 9c91 60be d8cc 17be 0935 c0bd 708e 7abd
000002c0: 37bc d3bc 084a e93b 8fed fa3d 2ee4 113d
000002d0: adb7 c8bd a596 1fbe 241f 7bbe fd5e 7fbe
000002e0: f03f 16be adc0 34be 6eae d93c 37c7 65bd
000002f0: 4da3 003e 091b 4b3e 1386 0ebe 5df0 353b
00000300: 10d2 00be c7f1 14be e7b6 07be 6777 063c
00000310: d03d 88be 4783 84be 1f37 0bbd c1b6 c6bb
00000320: c2d0 3bbe 0d0f 21be a15f 34be 8602 e4bd
00000330: 9fa6 98be ddd9 eebd 82e1 25be c3c0 46bd
00000340: 8f33 9e3d 39db db3c a9ad a53d ab21 07bd
00000350: 379e 53be b4ae 61be b531 9bbe 3d2c 1dbe
00000360: adfe 8ebe 59fe 83be 904c debd 4a73 f5bd
00000370: 1cb8 e4bd 1cb0 02bd 2555 eabd 5751 10bd
00000380: e18b 8dbe 3206 acbd 9428 81be 9568 9bbe
00000390: 5f49 723d 1629 01bc abab e4bd 907e ffbd
000003a0: 62f9 483e 078a 913d b35a 73bd 83aa cebb
000003b0: 5ba2 f5bd 7fa7 c3bd 3d04 1fbe 37b8 83be
000003c0: 179e b43b 83ff a03d 2a87 583d 75e6 993d
000003d0: 1a30 a3be c83f b6be cc09 04be 9920 05be
000003e0: e274 f5bd 3631 113e 9ff7 41be 69c2 cdbe
000003f0: 48be abbd ce75 8cbd 254f babc 1bfb 6bbe

bias f4 [256]
0.0684865 0.03303086 0.07460916 -0.01782994 0.17893745 0.21910597 0.08564748 0.09068056
0.03479221 0.041521464 0.071921706 0.060317796 0.046839077 0.06518531 0.24524076 0.044384826
0.09352799 0.048949197 0.033036955 0.11565151 0.25714663 0.017773334 -0.10094439 0.03943155
-0.0014191248 -0.03986677 0.02495303 -0.11509687 0.1858552 0.15771505 0.15734051 0.4060304
-0.024142606 0.05326664 0.09859889 -0.05590293 0.047841504 0.379574 0.07131328 0.06460712
0.0683523 0.14495467 0.15965076 0.31427377 0.10665478 -0.01985773 -0.0016840256 0.033840053
-0.018838154 0.0034702476 -0.0609683 0.065862335 0.03820521 0.104143485 0.15569574 0.08329534
0.055210594 0.08162716 0.036818504 -0.07246031 0.16556022 0.3591767 0.33992884 0.05543017
0.2342637 0.029125378 0.17934969 0.1003021 0.085652426 0.06232944 0.08100678 0.1381455
0.06312955 0.13459963 -0.019708557 0.03003999 0.013379412 0.054207917 -0.0132951755 0.070752546
-0.10488422 0.038793292 0.076839186 0.35273284 0.01558969 0.3089314 0.043660287 0.12955432
0.12658855 0.054169692 0.13531932 0.03178828 0.06374365 0.08631544 -0.007023077 0.07994659
0.28399155 0.07365747 0.28689364 0.06044185 -0.04331484 0.42078084 -0.113837525 0.05732195
0.017233683 0.13085273 0.045806076 0.15832691 0.12073405 0.3552727 -0.04760075 0.029591324
-0.097277895 0.04712648 0.04490028 0.055684287 0.03160752 -0.056510706 0.023963222 0.14802136
0.052347567 -0.08455947 -0.0076289666 -0.03211739 -0.0031865109 -0.057291526 0.105327554 0.35973752
0.04030643 0.2967623 0.13484058 0.049282357 -0.07273793 0.13232799 0.06362 0.166723
0.10695574 -0.16818485 0.04634271 0.060927995 0.05796511 0.08750606 0.054941084 -0.08583679
0.002851018 -0.1495528 0.055169165 0.12977575 0.16716565 0.22640866 0.084132485 0.01943918
0.079790965 -0.06642432 0.10556526 0.025298962 0.12702087 0.028213387 0.2549085 0.09223427
0.031607505 -0.121145815 0.019150281 0.04854702 0.04530912 0.09970139 0.15886475 -0.038262345
0.124135144 0.12332782 0.24706513 0.10068406 0.15969707 0.082097195 0.05024399 -0.11269916
0.37218693 0.23135634 0.090770066 -0.041022792 0.084614456 0.04521104 0.017842036 0.1431531
-0.06465508 -0.12821345 -0.112573795 0.05331204 0.09548513 0.08989853 0.05218367 0.16002859
0.06264564 -0.051153585 0.038856126 0.04647226 0.084810905 0.004576503 0.04475588 0.044157173
0.3573638 -0.08035348 0.14371125 0.051735763 0.06280203 0.055549044 0.10717789 -0.006211765
0.064521044 0.046507474 0.016973536 0.06502204 -0.10233037 0.032984715 0.036581833 0.05875589
0.045519296 0.05001202 -0.0008016574 0.06028374 0.16097687 -0.056979887 -0.058041103 0.07053107
-0.056785405 0.00023076209 0.010851095 0.07376197 0.056021973 -0.069226146 0.37718484 0.07303566
-0.031220613 0.06805487 0.37431452 0.19199295 0.13981679 0.06261369 0.066131316 0.06538232
0.13006197 0.20865063 0.025333147 -0.05881947 0.17964147 0.03722572 0.18689549 0.113322906
0.05772482 0.33048502 0.07920752 0.08369436 0.09523413 0.09104393 0.095872 0.10085907
00000000: a642 8c3d 5e4b 073d b0cc 983d 1810 92bc
00000010: 613b 373e 515d 603e f267 af3d bbb6 b93d
00000020: 4782 0e3d 6912 2a3d b04b 933d cb0f 773d
00000030: 55da 3f3d e07f 853d 6520 7b3e ddcc 353d
00000040: 9a8b bf3d f47e 483d c251 073d b3da ec3d
00000050: b9a8 833e 6299 913c efbb cebd fa82 213d
00000060: ed01 baba 574b 23bd 4c6a cc3c e8b7 ebbd
00000070: d350 3e3e 0e80 213e df1d 213e 37e3 cf3e
00000080: b7c6 c5bc 1f2e 5a3d 37ee c93d 79fa 64bd
00000090: 74f5 433d 8657 c23e b20c 923d bd50 843d
000000a0: 4afc 8b3d ff6e 143e 7d7b 233e 7ee8 a03e
000000b0: d26d da3d aeac a2bc 86ba dcba de9b 0a3d
000000c0: 7952 9abc 186d 633b e5b9 79bd d5e2 863d
000000d0: 117d 1c3d 2e49 d53d b46e 1f3e bf96 aa3d
000000e0: 8124 623d 242c a73d 00cf 163d 1266 94bd
000000f0: 9e88 293e 02e6 b73e 270b ae3e bf0a 633d
00000100: d3e2 6f3e 5898 ee3c 72a7 373e 306b cd3d
00000110: 8a6a af3d 284d 7f3d e2e6 a53d 0476 0d3e
00000120: 114a 813d 7cd4 093e d773 a1bc 6d16 f63c
00000130: 5235 5b3c 1f09 5e3d 02d4 59bc b6e6 903d
00000140: 8acd d6bd b7e5 1e3d dd5d 9d3d 6699 b43e
00000150: e66b 7f3c 422c 9e3e 21d5 323d e3a9 043e
00000160: 6ea0 013e 0ae1 5d3d 2691 0a3e 6d34 023d
00000170: 088c 823d 26c6 b03d d721 e6bb 0abb a33d
00000180: 5767 913e bad9 963d b9e3 923e e091 773d
00000190: e76a 31bd 9670 d73e a623 e9bd 6cca 6a3d
000001a0: a72d 8d3c 42fe 053e 279f 3b3d 7320 223e
000001b0: 6a43 f73d 4ee6 b53e 01f9 42bd 8169 f23c
000001c0: a239 c7bd b207 413d 5be9 373d 3515 643d
000001d0: e376 013d c577 67bd 854e c43c e992 173e
000001e0: 676a 563d 842d adbd 69fc f9bb 868d 03bd
000001f0: c8d4 50bb 85aa 6abd f9b5 d73d 842f b83e
00000200: 5b18 253d 3af1 973e a613 0a3e 4cdc 493d
00000210: a0f7 94bd fd80 073e 344b 823d 6fb9 2a3e
00000220: 9c0b db3d a638 2cbe dad1 3d3d a28f 793d
00000230: d36c 6d3d 6136 b33d e709 613d 33cb afbd
00000240: 25d8 3a3b 5f24 19be 10f9 613d efe3 043e
00000250: 792d 2b3e acd7 673e a74d ac3d ea3e 9f3c
00000260: 7269 a33d 7909 88bd 9932 d83d c53f cf3c
00000270: c211 023e c31f e73c 5e83 823e 52e5 bc3d
00000280: df76 013d 4c1b f8bd 0de1 9c3c 3dd9 463d
00000290: 0e96 393d 3e30 cc3d 71ad 223e fab8 1cbd
000002a0: 913a fe3d 4c93 fc3d a4fe 7c3e 7233 ce3d
000002b0: a187 233e 9322 a83d a4cc 4d3d d1ce e6bd
000002c0: 498f be3e ade8 6c3e a8e5 b93d 8407 28bd
000002d0: 584a ad3d 362f 393d 7629 923c ba96 123e
000002e0: e269 84bd 634a 03be 178d e6bd ba5d 5a3d
000002f0: b58d c33d b81c b83d 8bbe 553d 89de 233e
00000300: 5b4c 803d 6c86 51bd 9a27 1f3d b259 3e3d
00000310: 57b1 ad3d 7df6 953b f151 373d 27de 343d
00000320: 63f8 b63e 5e90 a4bd 0b29 133e e1e8 533d
00000330: 5a9e 803d 6587 633d 1580 db3d 108c cbbb
00000340: 9c23 843d 9f7e 3e3d 160c 8b3c 462a 853d
00000350: 9692 d1bd fb1a 073d d5d6 153d 04aa 703d
00000360: 7172 3a3d 67d9 4c3d 5126 52ba 15ec 763d
00000370: 1fd7 243e be63 69bd 82bc 6dbd 9872 903d
00000380: d097 68bd baf8 7139 cbc8 313c 8410 973d
00000390: 4c77 653d 70c6 8dbd 5f1e c13e b893 953d
000003a0: 5fc2 ffbc 5a60 8b3d 27a6 bf3e cd99 443e
000003b0: 222c 0f3e 9b3b 803d db6f 873d 2ae7 853d
000003c0: f72e 053e 83a8 553e 7687 cf3c afec 70bd
000003d0: eff3 373e ff79 183d 8861 3f3e d715 e83d
000003e0: dc70 6c3d 5535 a93e 8d37 a23d f367 ab3d
000003f0: 1d0a c33d 3d75 ba3d 8a58 c43d 338f ce3d

weight f4 [256]
1.1827852 1.2988386 1.3150105 1.3376756 1.1646341 1.4378275 1.0785524 1.1768168
1.5411924 1.3088274 1.3131329 1.4389185 1.5016406 1.4141672 1.3515131 1.5605178
1.280736 1.6248144 1.3056148 1.3022684 1.5634289 1.1669674 1.1640093 1.0910853
1.3446738 1.0251768 1.4024351 1.2534481 1.5405126 1.1885391 1.6728954 1.4885079
1.2492087 1.2420796 1.2099586 1.5543208 1.3371059 1.503752 1.323813 1.2879332
1.331276 1.6005871 1.3677883 1.117042 1.2017748 1.3167984 1.526103 1.2810593
1.2992371 1.4213724 1.3174226 1.4364089 1.4672922 1.2070247 1.1416818 1.3065822
1.2521294 1.3736079 1.4520578 1.0026224 1.3210067 1.5901498 1.2361062 1.4796396
1.3759229 1.1543767 0.9943014 1.343856 1.0979662 1.4071021 1.2104661 1.1607856
1.3540043 1.0369685 1.2189001 1.3772074 1.0376029 1.1538546 1.0769812 1.3771224
0.9233966 1.2722032 1.4091634 1.1751083 1.4410366 1.3788477 1.1226923 1.3692455
1.4642674 1.299536 1.3272206 1.2019712 1.2049447 1.3522589 1.1134598 1.2953244
1.407223 1.1342031 1.407196 1.3830297 1.0835071 1.6484578 1.3542061 1.2792107
1.3410711 1.3839029 1.2829856 0.9503045 1.3275303 1.3999996 1.105406 1.1812037
1.4140836 1.358935 1.1388062 1.2256274 1.0777903 1.1693974 1.3537887 1.4908304
1.2629514 1.3491168 1.1967888 1.3519825 1.4167013 1.5466169 1.2152538 1.4896586
1.4708507 1.4597002 1.4474347 1.2710236 1.0167859 1.4815066 1.3332031 1.4153371
1.4094647 1.0033801 1.2681051 1.2535057 1.1149064 1.3226249 1.228519 1.7043394
1.0119131 1.0405312 1.0363376 1.4688617 1.498059 1.4228507 1.586597 1.2966383
1.3768032 1.3001451 1.2323085 1.1915272 1.1760412 1.2063832 1.3977479 1.3927072
1.3271313 1.2482101 1.1516212 1.0248182 1.4601114 1.3114696 1.522778 1.1790859
1.273967 1.1523492 1.330282 1.2960175 1.5217276 1.109505 1.2351952 1.3701493
1.4176235 1.8939075 1.4556662 1.0775954 1.2522581 1.407565 1.3214617 1.1761937
1.1398276 1.4462534 1.2128148 1.422433 1.3952341 1.058939 1.2408994 1.6795981
1.4702072 1.2989688 1.3661416 1.3907037 1.32713 1.3874819 1.2307125 1.3150942
1.4084756 1.191116 1.2009859 1.2156905 1.6860602 1.4053215 1.5401251 1.3572985
1.3488503 1.3708595 1.4805295 1.2655841 1.2415148 1.1793482 1.3813559 1.2609208
1.0677348 1.3799998 1.27049 1.4527038 1.35435 1.1270502 1.1826423 1.3208685
1.3254246 1.3126645 1.2803526 1.1672581 1.4140662 1.3056959 1.388973 1.3562409
1.3291279 1.1916493 1.3330328 1.4619316 1.255832 1.2168111 1.5007807 1.0077279
1.1137762 1.2284715 1.5503572 1.3823802 1.2726352 1.3524578 1.2399524 1.35091
1.2366545 1.2532469 1.2514492 1.4941905 1.0590816 1.2616707 1.1910996 1.4278394
00000000: 8165 973f 5840 a63f 4452 a83f f438 ab3f
00000010: bb12 953f bb0a b83f 010e 8a3f efa1 963f
00000020: cb45 c53f a887 a73f bd14 a83f 7b2e b83f
00000030: c235 c03f 6e03 b53f 62fe ac3f 0cbf c73f
00000040: 28ef a33f ebf9 cf3f 631e a73f bbb0 a63f
00000050: 701e c83f 305f 953f 42fe 943f afa8 8b3f
00000060: 451e ac3f fe38 833f fe82 b33f fd70 a03f
00000070: 842f c53f 0d22 983f 7021 d63f 6d87 be3f
00000080: 12e6 9f3f 77fc 9e3f ecdf 9a3f fcf3 c63f
00000090: 4926 ab3f f27a c03f b472 a93f ffda a43f
000000a0: 4167 aa3f 0ae0 cc3f b013 af3f 3bfb 8e3f
000000b0: c2d3 993f da8c a83f 5857 c33f c0f9 a33f
000000c0: 674d a63f 88ef b53f 4ea1 a83f 3fdc b73f
000000d0: 3bd0 bb3f c97f 9a3f a122 923f 163e a73f
000000e0: c745 a03f 62d2 af3f 08dd b93f ee55 803f
000000f0: bf16 a93f 078a cb3f ba38 9e3f d564 bd3f
00000100: 3e1e b03f 9ec2 933f 898a 7e3f 7903 ac3f
00000110: 288a 8c3f ec1b b43f 8ef0 9a3f 9f94 943f
00000120: 0350 ad3f 62bb 843f eb04 9c3f 5548 b03f
00000130: 2cd0 843f 82b1 933f 85da 893f 8c45 b03f
00000140: b863 6c3f 8ed7 a23f 775f b43f f369 963f
00000150: e373 b83f 157e b03f 62b4 8f3f 7043 af3f
00000160: 1d6d bb3f 3257 a63f 5de2 a93f 31da 993f
00000170: a13b 9a3f d216 ad3f da85 8e3f 31cd a53f
00000180: e21f b43f 912d 913f 001f b43f 1e07 b13f
00000190: 5cb0 8a3f aa00 d33f a056 ad3f 2dbd a33f
000001a0: 38a8 ab3f bb23 b13f df38 a43f 2847 733f
000001b0: 83ec a93f 3033 b33f f27d 8d3f af31 973f
000001c0: b100 b53f 95f1 ad3f 67c4 913f 5ce1 9c3f
000001d0: 08f5 893f d0ae 953f f348 ad3f 88d3 be3f
000001e0: 64a8 a13f dcaf ac3f 6030 993f c30d ad3f
000001f0: 7856 b53f 8bf7 c53f 708d 9b3f 22ad be3f
00000200: d644 bc3f 75d7 ba3f 8a45 b93f e7b0 a23f
00000210: 0a26 823f 02a2 bd3f 66a6 aa3f c429 b53f
00000220: 5769 b43f c26e 803f 4551 a23f e072 a03f
00000230: 41b5 8e3f c64b a93f 1c40 9d3f cb27 da3f
00000240: 5e86 813f 2030 853f b6a6 843f a903 bc3f
00000250: 66c0 bf3f f91f b63f 9c15 cb3f 3ef8 a53f
00000260: 163b b03f 286b a63f 49bc 9d3f f783 983f
00000270: 8588 963f c46a 9a3f 67e9 b23f 3b44 b23f
00000280: 70df a93f 59c5 9f3f 5368 933f 3e2d 833f
00000290: eee4 ba3f 3cde a73f 64ea c23f 49ec 963f
000002a0: 5a11 a33f 2e80 933f ae46 aa3f e7e3 a53f
000002b0: f8c7 c23f 4304 8e3f e01a 9e3f 0d61 af3f
000002c0: b074 b53f 906b f23f 4553 ba3f a5ee 893f
000002d0: fe49 a03f 172b b43f a825 a93f 848d 963f
000002e0: dfe5 913f d51e b93f 843d 9b3f 4912 b63f
000002f0: 0897 b23f 508b 873f cbd5 9e3f 12fd d63f
00000300: c02f bc3f 9c44 a63f badd ae3f 9402 b23f
00000310: 65df a93f 0299 b13f fd87 9d3f 0255 a83f
00000320: ee48 b43f 7d76 983f e8b9 993f bf9b 9b3f
00000330: d2d0 d73f 93e1 b33f d222 c53f f5bb ad3f
00000340: 20a7 ac3f 5378 af3f fe81 bd3f a9fe a13f
00000350: f5e9 9e3f e2f4 963f 45d0 b03f da65 a13f
00000360: 89ab 883f d5a3 b03f 6b9f a23f 33f2 b93f
00000370: 575b ad3f 2e43 903f d360 973f 3812 a93f
00000380: 83a7 a93f 6405 a83f 98e2 a33f b768 953f
00000390: 1f00 b53f 0b21 a73f dec9 b13f 4d99 ad3f
000003a0: dd20 aa3f f787 983f d2a0 aa3f 9320 bb3f
000003b0: 1abf a03f 77c0 9b3f 9519 c03f 3afd 803f
000003c0: 3890 8e3f 8e3e 9d3f 1b72 c63f d6f1 b03f
000003d0: b6e5 a23f 561d ad3f c3b6 9e3f 9eea ac3f
000003e0: b24a 9e3f 656a a03f 7d2f a03f a241 bf3f
000003f0: fc8f 873f 6d7e a13f f475 983f 71c3 b63f

bias f4 [256]
0.09516013 -0.036466483 0.069789246 0.24350622 0.154565 0.14744884 0.09473164 -0.04818163
0.09169498 0.035314076 0.17707022 0.057419587 0.036844186 0.0058342586 0.29090682 0.073761806
0.17962262 0.32892194 0.21122459 0.14327475 -0.11267134 0.15987864 0.2592311 0.18793534
0.33477142 0.21290158 0.102279015 0.16764037 0.29901138 0.17575078 0.26571864 -0.0272052
0.26938224 0.06564139 0.12671615 0.19149218 0.05339128 -0.08740937 0.144609 0.24265182
0.038672417 0.018164137 0.08782698 0.020842915 0.107701056 0.17393307 0.0401467 0.0035677187
0.29887083 0.057755724 0.33587068 0.06323387 0.052568093 0.21058463 0.2175337 0.17744024
0.23036274 0.27843776 0.054241586 0.22548229 0.055872247 -0.08964886 -0.017923277 0.06474493
0.19603732 0.10270702 0.20422956 0.269939 0.26567245 0.045087148 0.13848048 0.16552047
0.11123011 0.13994549 0.074714154 0.032758687 0.16532159 0.13550977 0.20796895 0.098959014
0.118359245 0.080766976 0.06693508 -0.058588136 0.031682696 0.26521412 0.044228766 0.23414612
0.11562569 0.0084584765 0.23681404 0.22303927 0.2323445 0.10422971 0.11490241 0.048514694
0.11319402 0.29579082 0.12827758 0.09193162 0.11284781 -0.018532464 0.28286403 0.1789356
0.1859474 0.1954456 0.21041971 0.23968384 0.10701793 -0.06988366 0.15921286 0.042548954
0.27713338 0.09218063 0.032903653 0.26635614 0.10982769 0.19446822 0.04476513 0.06224427
0.1377658 0.20038144 0.2356617 0.05741654 0.2018725 0.24060455 0.1434113 -0.07556171
0.07980951 0.118696034 0.11571427 0.25235158 0.17325471 0.09532227 0.31237143 0.113694705
0.16394393 0.017897973 0.19522287 0.19846271 0.17254317 0.08555448 0.05891049 0.1268041
0.122037105 0.031766716 0.09897493 0.19197534 0.17909442 0.2804743 0.37102792 0.3036452
0.27255082 0.2232853 0.19448762 0.19330327 0.23127206 0.27125832 0.09869576 0.05467881
0.25825623 0.1972667 0.18581639 0.12502755 0.033540968 0.24381195 0.10364964 0.18837278
0.25859755 0.19643255 0.15138781 0.11002534 0.00636999 0.08505406 0.1344711 0.3048309
-0.11174059 0.21411532 0.03762632 0.23968913 0.14492905 0.22973415 0.31171227 0.12826447
0.13803643 0.18310009 0.31026047 0.040167775 0.23071018 0.10995103 0.01108043 0.10726928
-0.0006214063 0.32889444 0.012045892 -0.014694494 0.249135 0.29321113 0.2259367 0.031815115
-0.021191247 0.19697267 0.13954984 0.29382363 0.24764183 0.08866918 0.0050574783 0.16900136
0.07275124 0.08604556 0.13248569 0.28121388 0.29072708 0.020360643 0.0384756 0.14651765
-0.03506161 0.07368729 0.21382953 0.024369478 0.18861754 0.13243562 0.19785345 0.047807958
0.071964644 0.3158333 0.26544148 0.14809604 0.03837323 0.17862904 0.06706821 0.00034458234
0.28225872 0.14806888 -0.07033141 -0.05689699 0.15333295 0.07108295 0.07260803 0.14935648
0.09085849 -0.101346835 -0.04858626 0.2855949 -0.07679557 0.032082133 0.17195982 0.20460069
0.14141186 -0.036921836 0.1118979 0.10287615 0.14671238 0.1106393 0.20666261 0.2432234
00000000: 50e3 c23d e15d 15bd aaed 8e3d b259 793e
00000010: 4a46 1e3e d4fc 163e a902 c23d 1a5a 45bd
00000020: 94ca bb3d 7ea5 103d e551 353e cd30 6b3d
00000030: eee9 163d 4f2d bf3b bdf1 943e 6e10 973d
00000040: feee 373e 7568 a83e 424b 583e 9eb6 123e
00000050: 3bc0 e6bd 3ab7 233e f0b9 843e 1f72 403e
00000060: 2967 ab3e df02 5a3e a977 d13d eba9 2b3e
00000070: 0518 993e 03f8 333e 460c 883e 71dd debc
00000080: 78ec 893e fe6e 863d e1c1 013e 8716 443e
00000090: d1b0 5a3d af03 b3bd 6214 143e b879 783e
000000a0: f866 1e3d f5cc 943c a2de b33d c3be aa3c
000000b0: 5f92 dc3d 831b 323e de70 243d 63d0 693b
000000c0: 9905 993e 4491 6c3d 3ef7 ab3e c280 813d
000000d0: a451 573d 7fa3 573e 27c1 5e3e e5b2 353e
000000e0: 36e4 6b3e 658f 8e3e 6d2c 5e3d d4e4 663e
000000f0: 4cda 643d d299 b7bd d6d3 92bc fd98 843d
00000100: 02be 483e 0f58 d23d 8e21 513e 7235 8a3e
00000110: 3806 883e 4dad 383d d4cd 0d3e 337e 293e
00000120: 9dcc e33d df4d 0f3e bc03 993d f92d 063d
00000130: 104a 293e 13c3 0a3e d0f5 543e 06ab ca3d
00000140: 5566 f23d 2869 a53d 4215 893d 1dfa 6fbd
00000150: b7c5 013d 25ca 873e 3929 353d 00c4 6f3e
00000160: 29cd ec3d 6c95 0a3c 617f 723e 6864 643e
00000170: b7eb 6d3e 6376 d53d f451 eb3d 58b7 463d
00000180: 44d2 e73d e571 973e 335b 033e a546 bc3d
00000190: c11c e73d 65d1 97bc 8ed3 903e e53a 373e
000001a0: ff68 3e3e e422 483e 4478 573e ae6f 753e
000001b0: 372c db3d 2a1f 8fbd b208 233e d047 2e3d
000001c0: 6de4 8d3e 33c9 bc3d fbc5 063d d55f 883e
000001d0: 57ed e03d ad22 473e a45b 373d d9f3 7e3d
000001e0: 7a12 0d3e cb30 4d3e 4d51 713e 9b2d 6b3d
000001f0: aab7 4e3e 0a61 763e 69da 123e 19c0 9abd
00000200: 2b73 a33d e816 f33d 9afb ec3d 3a34 813e
00000210: af69 313e 5338 c33d 26ef 9f3e c5d8 e83d
00000220: ebe0 273e c59e 923c 81e8 473e cf39 4b3e
00000230: 28af 303e 3037 af3d 204c 713d efd8 013e
00000240: 97ee f93d d11d 023d 5eb3 ca3d 2f95 443e
00000250: 8764 373e 549a 8f3e 5ff7 bd3e 6277 9b3e
00000260: c88b 8b3e e7a4 643e c327 473e 4bf1 453e
00000270: 95d2 6c3e 5fe2 8a3e 0121 ca3d e3f6 5f3d
00000280: 293a 843e 4800 4a3e a746 3e3e 3907 003e
00000290: 4162 093d d7a9 793e 4346 d43d cbe4 403e
000002a0: e666 843e 9d25 493e 6805 1b3e f754 e13d
000002b0: 59bb d03b d330 ae3d cbb2 093e cc12 9c3e
000002c0: 40d8 e4bd 0c41 5b3e 0e1e 1a3d 1171 753e
000002d0: 4868 143e 6e3f 6b3e c098 9f3e c357 033e
000002e0: 6c59 0d3e 977e 3b3e 76da 9e3e f786 243d
000002f0: 4a3f 6c3e 012e e13d b18a 353c ffaf db3d
00000300: dfe5 22ba da64 a83e 225c 453c 2dc1 70bc
00000310: 3f1d 7f3e c51f 963e f35b 673e 9150 023d
00000320: 4499 adbc 34b3 493e 27e6 0e3e 0d70 963e
00000330: d295 7d3e 3098 b53d 34b9 a53b b10e 2d3e
00000340: 9afe 943d a838 b03d 54aa 073e 44fb 8f3e
00000350: 2eda 943e 5dcb a63c 9798 1d3d b908 163e
00000360: c39c 0fbd 5de9 963d 21f6 5a3e 80a2 c73c
00000370: f524 413e 349d 073e 189a 4a3e 47d2 433d
00000380: 3362 933d e7b4 a13e f2e7 873e 7da6 173e
00000390: 3f2d 1d3d 88ea 363e 0f5b 893d 0fa9 b439
000003a0: 3784 903e 5e9f 173e ea09 90bd d10c 69bd
000003b0: 5003 1d3e f093 913d 85b3 943d e8f0 183e
000003c0: 0414 ba3d ee8e cfbd 6302 47bd 7f39 923e
000003d0: ff46 9dbd 8e68 033d 3c16 303e d882 513e
000003e0: 45ce 103e 5a3b 17bd ba2a e53d bbb0 d23d
000003f0: c53b 163e db96 e23d 5d9f 533e 8e0f 793e

running_mean f4 [256]
0.3304766 0.04142827 0.13871239 0.9985652 0.47799143 0.5933948 0.642173 0.048229165
0.048061166 0.037615273 1.0720795 0.20785469 0.028531259 0.38220674 0.6094103 0.039712243
1.7038076 1.7533386 0.45643193 0.7202131 0.07971531 0.8127205 1.1531785 1.0573597
1.0239286 0.3694679 0.076507784 0.28453073 1.7705595 0.44320017 1.5806328 0.13542208
0.44474372 0.11356599 0.49213153 0.5303228 0.70886534 0.1373256 0.2599496 1.2718496
0.52642995 0.43818647 0.73725384 0.51160234 0.8116589 1.6440508 0.09296279 0.05333489
1.1411976 0.06781831 1.2965715 0.4130398 0.19453552 0.46847594 0.41185892 0.3487076
1.1611446 1.1587502 0.07014214 0.40690237 0.4551053 0.1602291 0.4314885 0.077679954
0.8642518 0.09478926 0.43189144 0.46075064 1.0105734 0.22014154 0.5516495 0.79387337
0.26928997 0.2538208 1.0059725 0.05507297 0.5380637 0.44756746 0.715584 0.04003063
0.02225992 0.4028308 0.18457961 0.0963772 0.05119407 1.1575484 0.003539016 0.9492999
0.5067874 0.05737591 0.6219509 1.1348978 2.3663785 0.38246506 0.032511447 0.5255446
0.93541855 1.0046883 0.8720617 0.06757137 0.08755115 0.3597336 0.9840022 0.8686375
0.55785483 2.0121808 1.6676412 0.751314 0.6185124 0.11970506 0.5055645 0.058053423
0.7447757 0.076080255 0.09950892 1.2762744 0.9078653 1.2830852 0.08958167 0.5802558
1.1076617 0.5708707 1.0254531 0.034858044 0.38722268 1.2398564 0.6242449 0.18856095
0.10413194 0.551554 0.8664553 1.3261813 0.6114336 0.6765908 0.5328473 0.44947755
0.13760918 0.0009097876 0.515379 1.7924519 1.5017351 0.61160636 0.027495347 0.07660436
0.3225617 0.029140875 0.60688895 0.7235447 0.72996765 1.8651145 1.6252657 0.5903983
0.33812264 0.54549986 1.2437657 0.9774931 0.6522236 0.86894864 0.6573101 0.18241003
2.2067292 0.96445125 1.3310225 1.045985 0.03390958 1.180417 0.5714197 0.3547052
1.416284 0.8075159 0.73047096 1.4055681 0.35417512 0.14528832 0.13042346 0.7077952
0.12663777 0.56658787 0.081882805 0.7010109 0.28171 3.419481 2.2586243 0.31980515
0.41498938 0.7465218 0.73080826 0.09784942 1.3664626 0.33407202 0.0019077441 0.63792694
0.0668304 1.0344374 0.022241825 0.051365744 0.9743344 1.0284921 1.2766745 0.058190748
0.14713249 0.48525712 2.186617 1.3641523 0.17724784 0.22657467 0.39704043 2.1147995
0.23128407 0.4485297 0.051456563 1.73754 1.1829648 0.005869085 0.3754731 0.8032878
0.0013510466 0.028016204 1.0762577 0.13041465 1.2257389 0.21932612 0.50197566 0.029379511
0.1710625 1.1074495 0.7322706 0.6323517 0.4707937 0.44139397 0.18786761 0.06466269
0.9158926 1.0216844 0.15674959 0.37383574 0.5365793 0.40432647 0.15428995 0.41336054
0.35625985 0.07035556 0.0425526 1.4953604 0.08440222 0.19825532 1.0904506 0.6047473
1.1164886 0.11768631 0.9446654 0.19832934 1.0421315 0.21409167 0.8951417 0.62620264
00000000: 3b34 a93e b1b0 293d 9f0a 0e3e f8a1 7f3f
00000010: 4bbb f43e b9e8 173f 7365 243f f28b 453d
00000020: c9db 443d 7912 1a3d e739 893f dcd7 543e
00000030: 63ba e93c 9ab0 c33e 5002 1c3f 4ea9 223d
00000040: 5e16 da3f 666d e03f 72b1 e93e e35f 383f
00000050: c841 a33d 730e 503f 5a9b 933f 9057 873f
00000060: 1810 833f e62a bd3e 1db0 9c3d 03ae 913e
00000070: b2a1 e23f 22eb e23e 2d52 ca3f 16ac 0a3e
00000080: 73b5 e33e 4995 e83d aaf8 fb3e 3cc3 073f
00000090: 3378 353f 159f 0c3e 1d18 853e f8cb a23f
000000a0: 1dc4 063f fa59 e03e abbc 3c3f 5ff8 023f
000000b0: e1c8 4f3f 4270 d23f 4663 be3d b075 5a3d
000000c0: c312 923f 53e4 8a3d 0ef6 a53f f479 d33e
000000d0: 5234 473e 14dc ef3e 2cdf d23e cd89 b23e
000000e0: 63a0 943f ed51 943f afa6 8f3d 8255 d03e
000000f0: 9003 e93e 1913 243e 10ec dc3e ab16 9f3d
00000100: 9b3f 5d3f df20 c23d e020 dd3e 82e7 eb3e
00000110: 785a 813f c96c 613e e738 0d3f 493b 4b3f
00000120: 60e0 893e cdf4 813e b5c3 803f 3294 613d
00000130: 8bbe 093f 9027 e53e 8330 373f 28f7 233d
00000140: 705a b63c d73f ce3e 7002 3d3e 6961 c53d
00000150: e0b0 513d 8c2a 943f d6ee 673b 5105 733f
00000160: d2bc 013f 0103 6b3d 2d38 1f3f 5544 913f
00000170: bf72 1740 76d2 c33e b92a 053d 178a 063f
00000180: 9777 6f3f a099 803f 703f 5f3f dc62 8a3d
00000190: 044e b33d 012f b83e 91e7 7b3f 075f 5e3f
000001a0: 93cf 0e3f 92c7 0040 4475 d53f 1d56 403f
000001b0: d456 1e3f ed27 f53d ad6c 013f 6dc9 6d3d
000001c0: 9fa9 3e3f f7cf 9b3d 55cb cb3d f65c a33f
000001d0: dc69 683f 233c a43f 9876 b73d a58b 143f
000001e0: dcc7 8d3f 9524 123f 0c42 833f 4fc7 0e3d
000001f0: 0d42 c63e 9db3 9e3f 84ce 1f3f 1f16 413e
00000200: 2043 d53d a532 0d3f 04d0 5d3f 4fc0 a93f
00000210: ea86 1c3f 0e35 2d3f ae68 083f ec21 e63e
00000220: 6ce9 0c3e d07e 6e3a e1ef 033f 106f e53f
00000230: db38 c03f 3c92 1c3f ec3d e13c bfe2 9c3d
00000240: cf26 a53e d8b8 ee3c 135d 1b3f 3a3a 393f
00000250: 29df 3a3f 12bc ee3f b508 d03f 5824 173f
00000260: 691e ad3e e1a5 0b3f b733 9f3f fd3c 7a3f
00000270: 20f8 263f 6b73 5e3f 7a45 283f b2c9 3a3e
00000280: 0d3b 0d40 47e6 763f f25e aa3f d6e2 853f
00000290: c6e4 0a3d e717 973f 9048 123f ec9b b53e
000002a0: cb48 b53f 5db9 4e3f 2500 3b3f a8e9 b33f
000002b0: 7156 b53e 76c6 143e ba8d 053e 1132 353f
000002c0: 55ad 013e e70b 113f 2cb2 a73d 7375 333f
000002d0: 4b3c 903e c7d8 5a40 4d8d 1040 80bd a33e
000002e0: 7d79 d43e 0d1c 3f3f 4016 3b3f 4765 c83d
000002f0: 3fe8 ae3f 7d0b ab3e 450d fa3a 2e4f 233f
00000300: 60de 883d 7268 843f 7d34 b63c e364 523d
00000310: fb6d 793f a1a5 833f 126a a33f 6c59 6e3d
00000320: e6a9 163e 9f73 f83e 88f1 0b40 8b9c ae3f
00000330: 7580 353e 3103 683e e248 cb3e e058 0740
00000340: bbd5 6c3e afa5 e53e 1ec4 523d b667 de3f
00000350: 646b 973f 7451 c03b 033e c03e 45a4 4d3f
00000360: 9a15 b13a 3d82 e53c d0c2 893f 6b8b 053e
00000370: 03e5 9c3f 0797 603e 7a81 003f 4dad f03c
00000380: 022b 2f3e e8c0 8d3f 1676 3b3f cde1 213f
00000390: df0b f13e 64fe e13e 5e60 403e df6d 843d
000003a0: f077 6a3f 8ec6 823f f782 203e 6667 bf3e
000003b0: 435d 093f e103 cf3e 2ffe 1d3e fea3 d33e
000003c0: b167 b63e 9316 903d a34b 2e3d f867 bf3f
000003d0: 12db ac3d 7103 4b3e e393 8b3f b8d0 1a3f
000003e0: 19e9 8e3f 8505 f13d 97d5 713f d916 4b3e
000003f0: 9164 853f d93a 5b3e 0228 653f d14e 203f
