Best_models/UCI_HAR_CNN_20210125_130254/CNN_UCI_HAR_Rep_6_Seed_236.pt (torch_old, 226695 bytes, 12 tensors)

weight f4 [64, 9, 3]
0.28708082 0.2611598 0.1245198 -0.2648298 0.039231263 0.13503091 -0.31941518 0.12686831
0.38711768 -0.11405775 0.09686215 0.31163147 0.0918999 0.20498392 0.015901715 -0.15604089
-0.011886665 -0.058641143 0.008815435 0.04312856 0.2466947 -0.0025384636 0.025223518 0.29338968
-0.12365933 0.112605385 0.12742935 0.037124436 -0.32619765 -0.23708479 -0.1500856 -0.17502216
-0.097865544 -0.13879146 0.07096835 -0.14168985 -0.12098067 -0.0041982434 0.1769958 -0.14520535
-0.07915507 -0.037905477 -0.03216269 -0.09013598 -0.04347288 0.053917773 -0.20044108 -0.058929026
-0.24834268 -0.24890156 -0.14224504 0.09955974 -0.15884352 0.07315926 -0.2681507 -0.28905073
-0.32173273 -0.007569294 -0.0061466936 0.028061535 0.10191282 0.1669612 -0.219306 0.012794851
-0.2525611 -0.05456861 -0.20221768 0.010782674 0.22209314 -0.12710996 -0.13862135 0.05361994
-0.11942652 0.0017984125 0.1080534 0.20080331 0.2609712 0.25402173 0.049505383 -0.046853043
-0.019399403 -0.17486216 0.054970253 0.3611621 0.056564897 0.047196455 0.30084518 0.28262138
0.3449696 0.36260006 -0.06973814 -0.08050781 -0.26395118 -0.1480247 0.2653945 0.24537346
0.23068617 0.16673379 0.004631879 -0.053001326 -0.06721696 -0.071140856 0.043247163 0.13722001
-0.06455407 0.012418377 -0.04001142 0.09650968 -0.2142 -0.06803089 0.03606108 0.06650607
-0.0032932486 0.19098352 -0.09251493 0.035653424 -0.17759423 0.0819015 -0.028814502 0.16250838
-0.02096753 0.15034798 0.06908627 -0.18548544 0.06723414 -0.010420555 -0.067531064 0.112664126
-0.15079807 0.33167696 0.42708197 0.3884318 -0.14482729 -0.15975285 -0.040726673 -0.20671368
0.11249576 0.23791572 -0.2082436 -0.1965108 0.015327868 0.09341711 -0.09764742 -0.07440158
-0.038612925 -0.16909768 -0.19031866 0.24613458 0.22178479 0.16409077 0.096118554 0.22178885
0.13385423 0.037274156 -0.16537918 -0.20554149 -0.09748926 -0.14513963 0.005980604 0.09030652
0.16117455 0.22107635 0.25226328 0.048322566 0.30225918 0.1755288 -0.18358569 0.04145349
0.18179399 0.07304027 0.08602963 -0.24215548 0.035802927 -0.055706244 -0.36676243 0.052783653
-0.096971065 0.019807182 -0.14722154 0.13320576 -0.15587585 -0.12100716 -0.050340038 -0.14496028
-0.16069117 -0.03976444 0.1744125 -0.062135335 0.15785229 -0.060291022 0.05060897 -0.23162454
-0.09993463 0.11624462 -0.043809753 0.0011465704 0.11825463 -0.06870869 0.24803396 0.08748545
0.118039705 -0.028145604 0.051294543 0.100682415 -0.01615412 0.02439019 0.061316445 0.10835363
0.102801695 0.1327685 -0.18896236 0.019810975 -0.10536691 0.09361898 0.12242056 0.30665246
0.11923567 0.15653366 -0.1690945 0.11091227 -0.18632509 -0.2646517 0.18591261 0.112440236
-0.2724309 0.027681557 0.018080983 -0.059276793 -0.20647657 -0.07403452 0.065231085 -0.06886039
0.13850075 -0.1975559 0.13597606 0.07013198 0.2133924 0.28526226 0.19303896 0.25736308
-0.073698044 -0.03376446 0.09732952 -0.06614257 0.11859007 0.093779415 -0.17502457 -0.03830531
-0.11828823 -0.09242031 -0.19450754 0.1885206 0.10045745 0.024336845 -0.090505086 0.10512104
00000000: 42fc 923e bdb6 853e 3d04 ff3d c697 87be
00000010: f6b0 203d 8b45 0a3e 638a a3be c4e9 013e
00000020: 4a34 c63e 1c97 e9bd aa5f c63d 298e 9f3e
00000030: 0436 bc3d 4ee7 513e 5044 823c 2fc9 1fbe
00000040: 49c0 42bc b231 70bd 9d6e 103c 93a7 303d
00000050: 899d 7c3e 5a5c 26bb 8da1 ce3c 2c37 963e
00000060: 1a41 fdbd a79d e63d d77c 023e cb0f 183d
00000070: 6103 a7be 5bc6 72be 0ab0 19be 0239 33be
00000080: bb6d c8bd 591f 0ebe db57 913d 2517 11be
00000090: b7c4 f7bd 6b91 89bb 633e 353e b6b0 14be
000000a0: 0e1c a2bd c642 1bbd 06bd 03bd 3699 b8bd
000000b0: 9e10 32bd e2d8 5c3d 6d40 4dbe 905f 71bd
000000c0: 8b4d 7ebe 0de0 7ebe afa8 11be fae5 cb3d
000000d0: e0a7 22be 86d4 953d 0c4b 89be 75fe 93be
000000e0: 27ba a4be d707 f8bb 346a c9bb 4ee1 e53c
000000f0: abb7 d03d e0f7 2a3e c191 60be 7fa1 513c
00000100: b04f 81be 5683 5fbd 2712 4fbe d0a9 303c
00000110: 626c 633e 1d29 02be c1f2 0dbe 95a0 5b3d
00000120: e495 f4bd b6b8 eb3a 1a4b dd3d 629f 4d3e
00000130: 049e 853e 230f 823e 28c6 4a3d fae8 3fbd
00000140: 7feb 9ebc 110f 33be 7d28 613d 3dea b83e
00000150: 98b0 673d 1251 413d 6108 9a3e c0b3 903e
00000160: db9f b03e b7a6 b93e dfd2 8ebd 47e1 a4bd
00000170: 9c24 87be c993 17be cae1 873e 2e43 7b3e
00000180: ff38 6c3e 43bc 2a3e 04c7 973b eb17 59bd
00000190: 0ca9 89bd 4cb2 91bd f023 313d 6783 0c3e
000001a0: ed34 84bd 7376 4b3c 04e3 23bd dea6 c53d
000001b0: 3f57 5bbe c753 8bbd c8b4 133d 5634 883d
000001c0: 8bd3 57bb 2f91 433e 7878 bdbd 5309 123d
000001d0: 43db 35be f9bb a73d 640c ecbc 9968 263e
000001e0: 19c4 abbc d2f4 193e 1a7d 8d3d e5ef 3dbe
000001f0: 0eb2 893d faba 2abc ba4d 8abd 73bc e63d
00000200: cf6a 1abe 90d1 a93e 7daa da3e 88e0 c63e
00000210: 9b4d 14be 4096 23be 03d1 26bd c0ac 53be
00000220: 2d64 e63d 2ea0 733e cf3d 55be 213a 49be
00000230: bd21 7b3c 7851 bf3d 5ffb c7bd db5f 98bd
00000240: 9628 1ebd f127 2dbe e5e2 42be b40a 7c3e
00000250: 8d1b 633e 6907 283e ced9 c43d 9e1c 633e
00000260: 1511 093e c9ac 183d 2959 29be 7879 52be
00000270: 73a8 c7bd 7c9f 14be f1f8 c33b a0f2 b83d
00000280: f10a 253e d761 623e a728 813e e2ed 453d
00000290: b7c1 9a3e d2bd 333e e3fd 3bbe 22cb 293d
000002a0: 3428 3a3e 2396 953d 4d30 b03d 9bf7 77be
000002b0: 17a6 123d 3b2c 64bd 49c8 bbbe ac33 583d
000002c0: c498 c6bd ac42 a23c 3ec1 16be 1767 083e
000002d0: eb9d 1fbe 9ad2 f7bd 5b31 4ebd 7870 14be
000002e0: 3a8c 24be 0ae0 22bd 3199 323e 9f81 7ebd
000002f0: 08a4 213e b8f3 76bd 5a4b 4f3d fc2e 6dbe
00000300: 87aa ccbd a911 ee3d db71 33bd 8548 963a
00000310: 7c2f f23d 24b7 8cbd 9dfc 7d3e 922b b33d
00000320: cdbe f13d 9c91 e6bc 3a1a 523d 9532 ce3d
00000330: a555 84bc f0cd c73c f426 7b3d 82e8 dd3d
00000340: b289 d23d 77f4 073e 597f 41be a04a a23c
00000350: 9bca d7bd 4fbb bf3d a1b7 fa3d 8d01 9d3e
00000360: d531 f43d 5c4a 203e 1c27 2dbe f925 e33d
00000370: 01cc 3ebe 6d80 87be e05f 3e3e 1147 e63d
00000380: 107c 8bbe 6fc4 e23c 921e 943c 39cc 72bd
00000390: 986e 53be 699f 97bd e097 853d ad06 8dbd
000003a0: 24d3 0d3e 184c 4abe 4f3d 0b3e 5ba1 8f3d
000003b0: 8a83 5a3e e50d 923e 01ac 453e 18c5 833e
000003c0: 00ef 96bd 9a4c 0abd b354 c73d c175 87bd
000003d0: 5adf f23d 6c0f c03d a439 33be 07e6 1cbd
000003e0: 1941 f2bd dc46 bdbd fc2c 47be 8b0b 413e
000003f0: a3bc cd3d 105e c73c bb5a b9bd b349 d73d

bias f4 [64]
-0.41568205 -0.0006089492 0.107162565 -0.20695187 -0.20625195 0.066099264 0.08399199 -0.15469562
-0.19140151 -0.21574911 0.11748151 -0.17114814 -0.21865103 -0.018010385 -0.096131735 -0.24312308
0.022032507 -0.12847489 0.07735986 -0.28555313 -0.04084097 -0.05509362 -0.016888248 0.039566744
-0.23325582 0.12453872 -0.29843572 0.019749185 -0.15412067 0.026240427 0.06551163 -0.16541736
-0.21337126 -0.06588201 -0.2156805 -0.021262709 -0.13721402 0.03552708 -0.117878884 -0.13008854
-0.14302202 -0.06176336 0.0067952373 -0.26503778 -0.21305431 -0.15361826 -0.028784502 0.036968857
0.13884817 -0.06533354 -0.23004399 -0.11906323 -0.076273404 0.103251696 -0.2968133 -0.17587256
-0.3372215 -0.24852508 -0.19234318 -0.037881754 -0.076972425 0.00046640352 -0.07396322 0.12998457
00000000: 47d4 d4be e4a1 1fba 0c78 db3d 31eb 53be
00000010: b633 53be 0d5f 873d fe03 ac3d 8768 1ebe
00000020: c2fe 43be 56ed 5cbe 259a f03d 7541 2fbe
00000030: 0ee6 5fbe 848a 93bc b7e0 c4bd 42f5 78be
00000040: 847d b43c ec8e 03be d96e 9e3d 0534 92be
00000050: dc48 27bd d9a9 61bd 3959 8abc bd10 223d
00000060: 9dda 6ebe 280e ff3d 91cc 98be 0bc9 a13c
00000070: cfd1 1dbe 2af6 d63c f62a 863d 2b63 29be
00000080: ff7d 5abe 26ed 86bd 59db 5cbe 222f aebc
00000090: d581 0cbe d884 113d 7c6a f1bd ee35 05be
000000a0: 5d74 12be 94fb 7cbd 95aa de3b 08b3 87be
000000b0: e92a 5abe 1b4e 1dbe 7acd ebbc a86c 173d
000000c0: 372e 0e3e 97cd 85bd a790 6bbe 6cd7 f3bd
000000d0: 3b35 9cbd a075 d33d eaf7 97be f017 34be
000000e0: 4ca8 acbe 5c7d 7ebe 9cf5 44be e629 1bbd
000000f0: b8a3 9dbd 9f87 f439 077a 97bd ad1a 053e

weight f4 [64, 64, 3]
-0.074500814 0.010359745 0.07498124 -0.04315281 0.034148697 -0.06903082 -0.015084708 0.047010805
-0.016789244 0.014980794 -0.09509637 -0.062229708 -0.034488045 0.00056735903 -0.042133544 -0.039667763
0.024548965 -0.018668214 -0.038031146 -0.080004625 -0.06651208 -0.096516006 -0.037206445 -0.058617987
-0.093078464 -0.063622795 -0.05556492 0.012335663 -0.055182446 0.0787087 0.02675197 0.06408778
-0.055976223 0.037131432 -0.04504619 -0.06618283 -0.054747336 -0.063195296 0.048277687 -0.04901994
-0.08934609 -0.09224232 0.00037948258 0.025642911 0.020688558 0.02863202 -0.008265293 -0.10299422
-0.02997726 0.040649474 -0.0360059 0.043103296 0.040355477 0.020125197 -0.009368417 -0.024064817
-0.045177795 -0.018057967 -0.07701151 -0.0042391494 -0.094227515 -0.062897764 0.081692554 -0.041247312
0.038987778 -0.011997359 -0.0044106874 0.034438483 0.03619588 -0.07336738 -0.060023747 -0.057118244
-0.026431885 -0.0806955 -0.10102361 -0.058986828 -0.013987195 -0.03075866 0.013789294 -0.07517559
-0.02513587 -0.035303563 -0.020784236 0.03511434 -0.080862634 -0.011863517 0.020743305 0.002175735
0.037014432 -0.09797703 -0.003510638 0.013292464 0.03819477 0.0335493 0.0017873045 -0.086157374
-0.010359731 0.034188014 -0.06023626 -0.09206082 0.036325555 -0.020993639 -0.04250692 0.048730157
-0.014251687 0.014918348 -0.08873691 -0.05357604 -0.068668105 -0.041483026 -0.07921187 0.042637635
-0.021848632 0.032343917 -0.07516292 0.045033775 -0.029380482 -0.094329454 0.054057293 -0.019516211
-0.061032385 -0.0050872886 -0.056181833 -0.015007088 0.03318991 0.017740054 -0.030894242 -0.013692615
0.044045344 -0.093900524 0.008088653 -0.08027402 -0.032720488 0.028945178 -0.025161278 -0.06718656
-0.08645354 -0.03840066 -0.030915221 -0.040792715 0.06498462 -0.097697616 0.03730844 0.043457214
-0.08194608 0.014455697 -0.058319457 -0.010015262 0.033040643 -0.08939901 -0.04145147 0.027686032
-0.05215115 -0.05460894 -0.028176619 0.033295915 -0.051752124 -0.07646956 -0.05833012 -0.007728182
0.021396557 -0.0029185493 0.014269999 -0.0022567813 0.030460658 -0.079215236 0.0037358124 -0.029215045
-0.059692036 -0.038694028 -0.06069885 -0.046701446 -0.012499973 -0.037431013 -0.053257845 -0.04190785
-0.07831022 -0.0016649915 -0.039136164 -0.029425085 -0.010482048 0.03177712 -0.02554965 -0.10580917
0.01349055 0.05137776 -0.062342115 -0.092610665 0.04540238 0.00015551399 0.029807117 0.03421554
0.2531305 0.22825426 0.15347132 -0.17205678 -0.1469194 -0.19794181 0.046570733 -0.024401808
0.107535884 0.027441079 -0.046756957 -0.036940563 -0.25759363 -0.17244892 -0.25923738 0.09549031
0.033594474 0.0831613 -0.1098603 -0.09445591 -0.08188088 -0.20168842 -0.20267738 -0.20420681
0.14739792 0.02716747 0.10139567 0.13760017 0.23358132 0.19512337 -0.049225144 -0.07858208
-0.091950834 0.079677574 0.05158025 0.047806542 0.18934016 0.16689774 0.061475087 -0.15987566
-0.1391082 -0.12901951 -0.039335713 -0.15088566 -0.03399464 -0.14756659 -0.08141953 0.059302047
-0.094840854 -0.099966556 -0.15400623 0.00020771727 0.042372655 0.033303685 -0.00852236 -0.07448382
-0.0751987 -0.056101736 -0.1211743 -0.20802984 -0.03238991 0.017287731 -0.012075897 0.018917302
00000000: e293 98bd ebbb 293c c48f 993d 00c1 30bd
00000010: 81df 0b3d 0860 8dbd da25 77bc 678e 403d
00000020: 9989 89bc 0172 753c e3c1 c2bd 94e4 7ebd
00000030: 5643 0dbd d2ba 143a 3994 2cbd aa7a 22bd
00000040: e91a c93c 15ee 98bc 8cc6 1bbd 77d9 a3bd
00000050: 7c37 88bd 2faa c5bd c965 18bd 6a19 70bd
00000060: ec9f bebd ab4c 82bd 0b98 63bd 851b 4a3c
00000070: fd06 62bd 0732 a13d f326 db3c 7440 833d
00000080: 5347 65bd 2117 183d 5b82 38bd dd8a 87bd
00000090: be3e 60bd 896c 81bd d3be 453d 22c9 48bd
000000a0: 15fb b6bd 8be9 bcbd 4af5 c639 1511 d23c
000000b0: 0d7b a93c b38d ea3c 276b 07bc a2ee d2bd
000000c0: df92 f5bc 1080 263d ec7a 13bd 158d 303d
000000d0: c94b 253d 99dd a43c fd7d 19bc 9423 c5bc
000000e0: 5a0c 39bd 4dee 93bc 36b8 9dbd 90e8 8abb
000000f0: 5bfa c0bd 8bd0 80bd 6d4e a73d f1f2 28bd
00000100: a6b1 1f3d 9290 44bc 8787 90bb 5e0f 0d3d
00000110: 2242 143d a341 96bd 76db 75bd d2f4 69bd
00000120: ae87 d8bc af43 a5bd 77e5 cebd 2c9c 71bd
00000130: 8c2a 65bc 96f9 fbbc 7eec 613c a9f5 99bd
00000140: bde9 cdbc 789a 10bd b443 aabc 0ed4 0f3d
00000150: 4f9b a5bd 325f 42bc dded a93c c796 0e3b
00000160: 729c 173d 2ea8 c8bd bb12 66bb a3c8 593c
00000170: 1f72 1c3d fe6a 093d fd43 ea3a 4773 b0bd
00000180: dcbb 29bc bb08 0c3d 4cba 76bd 628a bcbd
00000190: 1bca 143d dafa abbc bc1b 2ebd 4699 473d
000001a0: e87f 69bc 166c 743c b2bb b5bd 8d72 5bbd
000001b0: dda1 8cbd 1bea 29bd d539 a2bd cda4 2e3d
000001c0: e7fb b2bc 0e7b 043d 04ef 99bd 5675 383d
000001d0: 56af f0bc cd2f c1bd 2e6b 5d3d 76e0 9fbc
000001e0: 18fd 79bd 45b3 a6bb ec1e 66bd 4ae0 75bc
000001f0: 25f2 073d 9753 913c ec15 fdbc fd56 60bc
00000200: e468 343d eb4e c0bd 4586 043c b566 a4bd
00000210: eb05 06bd 701e ed3c 061f cebc 1b99 89bd
00000220: 8e0e b1bd 034a 1dbd eb41 fdbc 4316 27bd
00000230: a816 853d b015 c8bd bcd0 183d 3100 323d
00000240: 59d3 a7bd 96d7 6c3c 62e0 6ebd 0e17 24bc
00000250: a055 073d d416 b7bd 04c9 29bd d1cd e23c
00000260: 729c 55bd a0ad 5fbd a7d2 e6bc 4c61 083d
00000270: 09fa 53bd 139c 9cbd 90eb 6ebd b03c fdbb
00000280: d547 af3c 2245 3fbb b7cc 693c 82e6 13bb
00000290: a188 f93c 993b a2bd 88d4 743b 6454 efbc
000002a0: a37f 74bd a17d 1ebd 5b9f 78bd 044a 3fbd
000002b0: b0cc 4cbc 4351 19bd e624 5abd 91a7 2bbd
000002c0: 1c61 a0bd d83b daba 3e4d 20bd e00c f1bc
000002d0: e5bc 2bbc ba28 023d 804d d1bc 7ab2 d8bd
000002e0: 7807 5d3c 7c71 523d 725a 7fbd a9aa bdbd
000002f0: d9f7 393d 7811 2339 0e2e f43c 9825 0c3d
00000300: 529a 813e 7cbb 693e 9627 1d3e a72f 30be
00000310: 0a72 16be 42b1 4abe f4c0 3e3d 4de6 c7bc
00000320: c63b dc3d 1dcc e03c 3984 3fbd fd4e 17bd
00000330: 50e3 83be 7396 30be c3ba 84be 6c90 c33d
00000340: 5c9a 093d 7950 aa3d 70fe e0bd 1a72 c1bd
00000350: 2ab1 a7bd 6987 4ebe a98a 4fbe 971b 51be
00000360: 7bef 163e 508e de3c 88a8 cf3d 0fe7 0c3e
00000370: f12f 6f3e 6cce 473e 4ea0 49bd a4ef a0bd
00000380: b850 bcbd ff2d a33d d045 533d cbd0 433d
00000390: 63e2 413e 3ee7 2a3e 4dcd 7b3d 72b6 23be
000003a0: 6172 0ebe b11d 04be 7c1e 21bd c581 1abe
000003b0: f73d 0bbd b21b 17be 48bf a6bd b4e6 723d
000003c0: ec3b c2bd 44bb ccbd cfb3 1dbe aece 5939
000003d0: f38e 2d3d 7269 083d 5ea1 0bbc f98a 98bd
000003e0: c701 9abd efca 65bd 3b2a f8bd c605 55be
000003f0: 48ab 04bd 009f 8d3c fcd9 45bc 75f8 9a3c

bias f4 [64]
-0.074258804 -0.013157798 -0.069384456 -0.043960866 -0.045401637 -0.13721456 -0.03160499 -0.05640428
-0.11450466 -0.04685075 -0.04647834 -0.07445729 0.026472034 -0.09012504 -0.14706273 0.023936938
-0.026297923 0.010336668 -0.047508504 -0.13717124 0.061043046 -0.19623739 -0.15879291 -0.06386593
-0.10693621 0.013432536 0.01392274 -0.11429099 -0.061332297 -0.044538613 0.036892183 -0.038376685
0.08852582 -0.11989665 -0.08585317 -0.028761836 0.005672934 -0.13508016 -0.03629775 -0.13717063
-0.007642413 -0.12699012 -0.10653366 -0.016726656 -0.06868344 -0.027559297 0.03466635 -0.12300901
-0.11566339 -0.15801059 -0.096106976 -0.08872576 -0.2006818 -0.11780665 -0.080117576 -0.069253005
-0.1081989 -0.1547133 -0.05694531 -0.12691925 0.07957475 -0.11372941 0.02198999 -0.00082329306
00000000: 0015 98bd ce93 57bc 7019 8ebd 4f10 34bd
00000010: 11f7 39bd f981 0cbe 3c74 01bd 2d08 67bd
00000020: 6b81 eabd 92e6 3fbd 1260 3ebd 107d 98bd
00000030: e1db d83c 7a93 b8bd 9d97 16be 6617 c43c
00000040: be6e d7bc 215b 293c 4798 42bd 9e76 0cbe
00000050: 4608 7a3d 74f2 48be 9c9a 22be 24cc 82bd
00000060: 5f01 dbbd 2414 5c3c 341c 643c 6511 eabd
00000070: 9337 7bbd 1f6e 36bd 421c 173d df30 1dbd
00000080: 064d b53d 608c f5bd c9d3 afbd f19d ebbc
00000090: 05e4 b93b 7452 0abe f3ac 14bd 7576 0cbe
000000a0: 356d fabb b309 02be 522e dabd 5706 89bc
000000b0: e7a9 8cbd 09c4 e1bc 4dfe 0d3d 26ec fbbd
000000c0: ede0 ecbd 87cd 21be bcd3 c4bd dab5 b5bd
000000d0: 887f 4dbe 9d44 f1bd af14 a4bd 85d4 8dbd
000000e0: 6397 ddbd 2a6d 1ebe 7c3f 69bd 1ff7 01be
000000f0: 16f8 a23d f7ea e8bd 5a24 b43c 43d2 57ba

weight f4 [256, 128]
0.026683833 0.059512924 0.10301203 0.05755296 -0.067946106 -0.0436908 0.04342469 -0.02177249
0.03766213 0.052260213 0.032134116 0.02790288 0.055021904 0.013926012 0.002167207 0.11798952
-0.14737388 -0.13705908 0.08435452 0.053791594 -0.07835557 -0.06482172 0.069406144 -0.15706587
0.09538673 -0.15291424 0.10731264 -0.012545968 0.066649504 0.04752122 -0.060670715 0.050433837
-0.040269334 -0.014426693 0.0719236 0.016669141 -0.123897515 -0.17067592 0.031951293 0.05799941
0.0003260298 0.12206152 0.016844884 -0.030550543 0.04831281 -0.024318896 0.038079366 0.009982512
-0.067161985 -0.080338955 -0.06006296 -0.024449328 0.040983927 0.08776516 -0.0044025597 0.037270315
0.123291716 0.14433739 0.024118403 -0.054710314 0.05328804 0.033283707 -0.009366463 0.08179423
0.010295433 0.06555524 -0.00027900896 0.06761969 -0.020207211 0.023985628 0.009219407 -0.0018355572
0.15694909 0.054179512 -0.08856578 -0.14094071 0.08836904 0.0928004 0.07769299 -0.020512383
-0.14061587 -0.102420375 0.03323079 -0.15250552 0.14291033 0.014497348 -0.0812896 -0.18577135
-0.0049815993 -0.026342377 -0.16217987 -0.11814719 -0.04686982 -0.008412176 0.09608633 -0.023485988
-0.17118654 -0.12393054 0.08118764 0.075771764 -0.04142228 -0.0036047383 -0.069818385 0.04826654
0.0832159 0.03426168 -0.121912114 -0.14912423 0.0016786408 -0.0090606725 -0.045763157 0.02801676
-0.07901982 -0.072194286 0.056360114 0.08672272 -0.048643682 0.0133309085 -0.11408005 -0.008988435
-0.07126757 -0.003217796 0.048854712 0.02855673 0.0038585593 0.046472978 -0.067079805 -0.0719626
-0.025297308 0.10582324 -0.1480711 -0.12800121 0.11745569 0.17201936 0.09877867 -0.03700856
-0.0038977074 0.0971811 -0.06623875 -0.07077836 -0.003854897 0.03679449 0.004160985 0.080177665
-0.066088736 -0.06529586 0.06545659 -0.103986524 0.01182967 0.09493195 0.06345067 0.035976678
-0.08411965 -0.06872261 0.062481638 -0.04459083 -0.102652535 -0.22596133 -0.03354248 -0.00771061
-0.008436553 0.008891303 -0.078352295 -0.13750164 -0.023242248 -0.10113471 -0.062772244 0.04750216
0.0004584004 0.10352568 -0.07913426 0.014059716 0.12340076 0.10620726 -0.09244921 -0.09948687
-0.004633464 0.06019943 0.04583326 -0.08305987 0.07771775 -0.001196381 0.021260435 0.03723842
-0.0939395 -0.07336221 -0.05767072 0.050699513 -0.1493159 -0.19750214 0.11223142 -0.012260512
-0.0042305584 0.009781446 0.058460712 0.05369404 0.023785068 0.043617908 0.13802296 0.036941014
0.030544268 0.036351345 -0.25051817 -0.15571591 -0.016877234 -0.0045153587 -0.08210574 -0.14311363
-0.02449413 -0.052960824 0.08647511 0.088787615 0.09149401 0.08986907 0.043806516 0.055092372
0.031128243 0.104363844 0.101092614 0.08997325 0.097744875 0.052727886 0.07297348 0.05723966
-0.16498944 -0.15562275 0.0148631055 0.04966446 -0.046775598 -0.040937614 0.020088512 -0.09661368
-0.17945296 -0.15228538 0.021781946 -0.020459058 -0.025702389 0.04264476 0.04509193 -0.011269525
-0.15598609 0.06832578 0.009619159 0.035992216 0.030734146 -0.10993166 0.01663603 0.034636308
0.052029092 0.031383652 -0.017061077 -0.02692808 -0.15624039 -0.2042131 0.038820505 0.061156306
00000000: 0e98 da3c d3c3 733d f9f7 d23d a7bc 6b3d
00000010: 5427 8bbd 20f5 32bd 16de 313d 395c b2bc
00000020: 9b43 1a3d ce0e 563d 109f 033d 9594 e43c
00000030: a65e 613d ee29 643c b307 0e3b 7da4 f13d
00000040: 2ee9 16be 3759 0cbe 10c2 ac3d 9354 5c3d
00000050: e378 a0bd 40c1 84bd cf24 8e3d e0d5 20be
00000060: 1e5a c33d 8d95 1cbe bbc6 db3d 9b8d 4dbc
00000070: 897f 883d 9ca5 423d db81 78bd b693 4e3d
00000080: 75f1 24bd f05d 6cbc ae4c 933d b98d 883c
00000090: fbbd fdbd abc5 2ebe 5cdf 023d ca90 6d3d
000000a0: fbee aa39 64fb f93d 48fe 893c 2245 fabc
000000b0: a7e3 453d 6c38 c7bc 1cf9 1b3d b18d 233c
000000c0: 398c 89bd c088 a4bd 9404 76bd f549 c8bc
000000d0: c3de 273d 38be b33d 5943 90bb c2a8 183d
000000e0: 5e80 fc3d 2ecd 133e f593 c53c ec17 60bd
000000f0: 8f44 5a3d 7f54 083d cb75 19bc bc83 a73d
00000100: 2dae 283c d341 863d f347 92b9 317c 8a3d
00000110: 9889 a5bc 827d c43c ff0c 173c 1497 f0ba
00000120: 43b7 203e 56eb 5d3d fa61 b5bd c352 10be
00000130: d4fa b43d 230e be3d 811d 9f3d 9609 a8bc
00000140: 9bfd 0fbe c6c1 d1bd 021d 083d 682a 1cbe
00000150: 1657 123e 4986 6d3c 297b a6bd d83a 3ebe
00000160: af3c a3bb f8cb d7bc 7b12 26be 27f7 f1bd
00000170: 92fa 3fbd 39d3 09bc e9c8 c43d b065 c0bc
00000180: 864b 2fbe 4ccf fdbd b545 a63d 3a2e 9b3d
00000190: 69aa 29bd 793d 6cbb f1fc 8ebd 23b3 453d
000001a0: 196d aa3d fa55 0c3d 0fad f9bd 06b4 18be
000001b0: d705 dc3a 3773 14bc 2672 3bbd 6783 e53c
000001c0: 25d5 a1bd 99da 93bd ddd9 663d ae9b b13d
000001d0: 993e 47bd e269 5a3c cda2 e9bd 3b44 13bc
000001e0: bbf4 91bd a9e1 52bb e11b 483d ceef e93c
000001f0: e2df 7c3b 735a 3e3d 2361 89bd 2161 93bd
00000200: 4d3c cfbc dbb9 d83d f39f 17be c012 03be
00000210: 9c8c f03d d825 303e 794c ca3d 4a96 17bd
00000220: ae70 7fbb e206 c73d 2fa8 87bd 3ff4 90bd
00000230: 71a2 7cbb d2b5 163d df58 883b 3034 a43d
00000240: 8859 87bd d6b9 85bd 1b0e 863d e3f6 d4bd
00000250: 3bd1 413c af6b c23d 6df2 813d 485c 133d
00000260: ec46 acbd 71be 8cbd bfec 7f3d e0a4 36bd
00000270: 7e3b d2bd 6862 67be d763 09bd 49a9 fcbb
00000280: 7839 0abc d4ac 113c 2b77 a0bd 3bcd 0cbe
00000290: 8766 bebc b71f cfbd bc8e 80bd a091 423d
000002a0: 7655 f039 4605 d43d 2511 a2bd b95a 663c
000002b0: 8ab9 fc3d 3183 d93d 0356 bdbd c6bf cbbd
000002c0: 50d4 97bb ad93 763d a8bb 3b3d 4b1b aabd
000002d0: 7c2a 9f3d e3cf 9cba 5d2a ae3c 5087 183d
000002e0: 5a63 c0bd ed3e 96bd 2238 6cbd 4baa 4f3d
000002f0: 44e6 18be 003e 4abe 96d9 e53d 51e0 48bc
00000300: 7fa0 8abb 5c42 203c 8074 6f3d 48ee 5b3d
00000310: e7d8 c23c b1a8 323d e455 0d3e 764f 173d
00000320: f937 fa3c 26e5 143d eb43 80be fe73 1fbe
00000330: 2042 8abc 93f5 93bb 0e27 a8bd 618c 12be
00000340: eaa7 c8bc 73ed 58bd dd19 b13d 48d6 b53d
00000350: 3661 bb3d 460d b83d 766e 333d 8aa8 613d
00000360: a800 ff3c b6bc d53d a509 cf3d e543 b83d
00000370: 772e c83d 32f9 573d 1f73 953d 2274 6a3d
00000380: fef2 28be 925b 1fbe 6284 733c f66c 4b3d
00000390: c597 3fbd 33ae 27bd aa90 a43c 65dd c5bd
000003a0: 84c2 37be b3f0 1bbe 0d70 b23c c199 a7bc
000003b0: d18d d2bc 46ac 2e3d 51b2 383d d0a3 38bc
000003c0: d1ba 1fbe 63ee 8b3d ad99 1d3c 936c 133d
000003d0: 2dc6 fb3c da23 e1bd 4948 883c cdde 0d3d
000003e0: 751c 553d 258c 003d acc3 8bbc 4798 dcbc
000003f0: 7bfd 1fbe 3d1d 51be 4002 1f3d 097f 7a3d

bias f4 [256]
0.06678257 0.043114077 0.036303427 -0.0035763036 -0.0405383 -0.037200794 0.031789273 -0.009815121
0.081797756 -0.0073593077 0.044979528 0.045227665 0.061482184 -0.03971194 0.19136494 -0.010629779
0.06459583 0.059954964 0.029921804 0.00013817559 0.062695466 0.020713462 0.028165739 0.09748791
0.01825406 0.020329913 0.03605341 0.0070510763 0.20152372 0.023602411 0.08084086 0.009341226
0.16939284 0.06625475 0.032232773 0.018003132 0.0055398243 0.05038442 0.03599214 0.053242747
0.039005652 0.013569524 -0.0073017385 -0.10581653 -0.0040710326 0.15468542 0.008593601 0.047370784
0.2460496 0.011609739 0.04384338 0.02535392 -0.012953316 -0.016894607 0.030608136 0.06482203
0.055234563 0.045501806 -0.007916016 0.018999655 0.074232705 0.13286424 0.049449813 0.016962713
0.01663613 0.01970279 0.00858653 0.037185665 0.03371427 0.21840931 -0.025671238 -0.0032640344
-0.0030090327 -0.014075322 -0.0115121715 0.023380179 0.02790052 -0.0007795439 0.019189794 0.031440806
0.008954807 0.012095766 0.114264004 -0.010958053 -0.014938662 -0.041333072 0.058011997 0.061714735
0.019536514 0.008568183 0.00755082 -0.01553379 0.004266757 0.040277723 0.047728643 0.07972899
0.0016175532 0.01301383 0.0567291 -0.042721305 0.027550045 -0.020581039 0.08036178 0.034489427
-0.0034988783 0.063244484 0.12730518 0.13126849 -0.0068399566 -0.0029120378 0.05382323 0.0015718412
0.030216385 0.022675412 -0.025199933 -0.007810319 0.0034327994 0.026687847 0.040999368 -0.009803456
0.05493782 0.14699808 -0.11896376 -0.07844724 0.048227176 0.017541414 0.017256388 0.16352214
0.012135196 0.02703991 0.05047393 -0.06830865 0.08213455 0.034858283 0.04185469 0.008381056
-0.02595863 0.010069791 0.0856764 -0.022187253 0.13829419 0.03804358 0.034936033 0.025287997
0.019993175 0.021640375 0.058671426 -0.07494277 0.056344602 0.0949241 0.023155766 -0.026507111
0.043161537 -0.021119135 0.0102762375 -0.011467226 0.027981233 0.03893946 0.029758502 0.010094467
0.0032258637 0.020292182 -0.00576921 0.05892121 -0.013768221 -0.04492258 0.111924 0.010296553
0.097510554 0.049976375 0.04738531 0.01343268 -0.08065656 0.0761046 0.08072506 0.025995197
0.13267237 0.024138298 0.017242014 0.07667951 0.010939522 0.21192726 0.022445941 0.0094474675
-0.0068480074 0.028730787 -0.016047232 0.02671729 -0.025973193 0.09980772 0.02551363 0.0076139537
0.0039190417 0.019850358 -0.0011735336 0.07081806 0.13699897 0.009777931 -0.030081512 0.00020066075
0.026064873 0.06504815 -0.009920694 -0.01325479 -0.008056427 0.023609182 -0.034115955 -0.010401078
0.006584686 -0.015950633 0.08939141 0.010666703 0.022639165 0.0385285 0.03219966 0.024043731
0.06559469 0.018411547 -0.016368022 0.10134488 -0.009127931 0.04124656 0.04153762 -0.033038463
0.032166194 -0.016704429 0.020933527 0.032552876 0.01241544 0.16358283 0.021643525 0.0152977975
0.009528686 0.04167394 -0.0012133663 0.006789902 -0.006557038 0.013434429 0.023242211 0.0336683
0.082775205 0.103912614 0.019143082 0.06524132 -0.06669733 0.050015748 0.021632276 0.0026328475
0.045859173 -0.019393388 0.021933632 -0.00018793331 0.1699859 0.0944815 0.06312588 -0.031923223
00000000: 4dc5 883d 6398 303d e7b2 143d 6b60 6abb
00000010: 7d0b 26bd dc5f 18bd 7835 023d 9acf 20bc
00000020: 9585 a73d 5926 f1bb 743c 383d a540 393d
00000030: bed4 7b3d fda8 22bd 2cf5 433e 8628 2ebc
00000040: d24a 843d 5693 753d 921e f53c 3ae3 1039
00000050: 7b66 803d 47af a93c d6bb e63c bea7 c73d
00000060: 8a89 953c eb8a a63c beac 133d b70c e73b
00000070: 3c5c 4e3e d859 c13c e58f a53d f10b 193c
00000080: 5175 2d3e 92b0 873d 8306 043d 4e7b 933c
00000090: 6a87 b53b e55f 4e3d 7f6c 133d 1115 5a3d
000000a0: 64c4 1f3d b552 5e3c 6c43 efbb 56b6 d8bd
000000b0: 4c66 85bb db65 1e3e 2dcc 0c3c de07 423d
000000c0: 6df4 7b3e c636 3e3c 1e95 333d 06b3 cf3c
000000d0: 253a 54bc 8f66 8abc eabd fa3c 6ac1 843d
000000e0: a33d 623d 1a60 3a3d 2db2 01bc 2aa5 9b3c
000000f0: 5107 983d 900d 083e e38b 4a3d 63f5 8a3c
00000100: 7e48 883c bf67 a13c 84ae 0c3c ff4f 183d
00000110: f917 0a3d b1a6 5f3e 7d4c d2bc 69e9 55bb
00000120: 3133 45bb 2e9c 66bc 8c9d 3cbc ca87 bf3c
00000130: a28f e43c 4e5a 4cba ea33 9d3c 13c8 003d
00000140: 2fb7 123c 522d 463c 3f03 ea3d 6889 33bc
00000150: 4ac1 74bc de4c 29bd fd9d 6d3d 97c8 7c3d
00000160: 0a0b a03c 9061 0c3c de6c f73b 7081 7ebc
00000170: 27d0 8b3b 41fa 243d 1c7f 433d f448 a33d
00000180: 1404 d43a f637 553c c65c 683d 89fc 2ebd
00000190: a2b0 e13c 9199 a8bc b894 a43d c944 0d3d
000001a0: 704d 65bb 5386 813d 4a5c 023e 3f6b 063e
000001b0: b721 e0bb e3d7 3ebb bf75 5c3d 3d06 ce3a
000001c0: 5a88 f73c c9c1 b93c 1770 cebc b4ed ffbb
000001d0: d1f8 603b 79a0 da3c f4ee 273d ad9e 20bc
000001e0: 7b06 613d aa86 163e 46a3 f3bd f2a8 a0bd
000001f0: dc89 453d 03b3 8f3c 455d 8d3c 5972 273e
00000200: b3d2 463c cd82 dd3c c0bd 4e3d 68e5 8bbd
00000210: 2936 a83d 8fc7 0e3d d36f 2b3d b250 093c
00000220: 31a7 d4bc c4fb 243c 1c77 af3d 0bc2 b5bc
00000230: fe9c 0d3e 96d3 1b3d 1619 0f3d c628 cf3c
00000240: bac8 a33c 2847 b13c 7351 703d 987b 99bd
00000250: 99c9 663d 9167 c23d 29b1 bd3c 7125 d9bc
00000260: 27ca 303d 0902 adbc aa5d 283c 08e1 3bbc
00000270: e638 e53c fc7e 1f3d 1ac8 f33c 4363 253c
00000280: 0369 533b ca3b a63c a40b bdbb 5e57 713d
00000290: 1b94 61bc bd00 38bd 6938 e53d e0b2 283c
000002a0: 9db3 c73d 07b4 4c3d 1917 423d be14 5c3c
000002b0: 442f a5bd bbdc 9b3d 2e53 a53d e1f3 d43c
000002c0: 44db 073e aebd c53c 203f 8d3c 260a 9d3d
000002d0: ae3b 333c 7603 593e 8de0 b73c 8dc9 1a3c
000002e0: 4065 e0bb d45c eb3c 7c75 83bc 38de da3c
000002f0: bcc5 d4bc fd67 cc3d f601 d13c 797e f93b
00000300: 4e6b 803b 389d a23c 41d1 99ba 0f09 913d
00000310: 7549 0c3e 9d33 203c 816d f6bc 7668 5239
00000320: 0086 d53c f737 853d 688a 22bc 9e2a 59bc
00000330: 1bff 03bc 0b68 c13c 2cbd 0bbd 4869 2abc
00000340: 5ac4 d73b e7aa 82bc d812 b73d 65c3 2e3c
00000350: c575 b93c 0fd0 1d3d cae3 033d 5cf7 c43c
00000360: 8256 863d d0d3 963c 3b16 86bc e88d cf3d
00000370: 518d 15bc 27f2 283d 5a23 2a3d 5753 07bd
00000380: b3c0 033d bad7 88bc ca7c ab3c 2a56 053d
00000390: 216a 4b3c 4282 273e c34d b13c 9da3 7a3c
000003a0: 351e 1c3c 4bb2 2a3d d109 9fba d47d de3b
000003b0: 6cdc d6bb 141c 5c3c 7366 be3c c5e7 093d
000003c0: 0c86 a93d 23d0 d43d f4d1 9c3c 3e9d 853d
000003d0: 9c98 88bd 50dd 4c3d 2c36 b13c da8b 2c3b
000003e0: d4d6 3b3d e2de 9ebc 29ae b33c f70f 45b9
000003f0: c910 2e3e 847f c13d 2448 813d edc1 02bd

weight f4 [256]
1.2293438 1.3037612 1.1709657 1.2012382 1.0519816 1.1964875 1.2278725 1.1949248
1.1949446 1.0012363 1.2254784 1.2409116 1.2250319 1.1538252 1.2501383 1.0392481
1.2881844 1.2399772 1.0601174 1.1886027 1.14993 1.2705683 1.1292312 1.0627952
1.0310093 1.1692785 1.1635007 1.2291101 1.5971408 1.1200651 1.2469481 1.2502654
1.423959 1.1064893 1.1209937 1.1278185 1.1592158 1.2080925 1.1418768 1.2302098
1.1869498 0.97789466 1.109553 0.96083397 1.169355 1.116752 1.1199938 1.1675135
1.2341602 1.1502881 1.2142719 1.0406861 1.0495396 1.2206371 1.3040189 1.21389
1.185611 1.1177409 1.1379054 1.178291 1.2425 1.0281177 1.1153647 1.1724409
1.2062271 1.2577046 1.220826 1.1692308 1.1827823 1.3453497 1.115536 1.1593187
1.1768441 1.1635286 1.0806395 1.36412 1.1515365 1.2153767 1.2583005 1.0052933
1.2374667 1.1212978 1.1843284 1.1650136 1.1407835 0.97237915 1.1010752 1.2635335
1.1923572 1.1915841 1.2196946 1.1179649 1.1433736 1.1903647 1.1907918 1.1164422
1.2614977 1.1413118 0.9847426 1.0109521 1.1949786 0.97079206 1.2267839 1.0816066
1.0746692 1.2704147 1.2079152 1.1759231 1.1490124 1.1515063 1.2077463 1.1131567
1.249187 1.2566917 1.1870823 1.1475937 1.2985729 1.1607751 1.2451036 1.1935929
1.1782756 1.1879932 0.9640844 0.98775285 1.2629989 1.0639299 1.13198 1.3708001
1.1865404 1.31317 1.1143681 1.0353514 1.1977609 0.99751204 1.1703163 1.1146151
1.1772591 1.1371355 1.0826477 1.0188318 1.2387207 1.2498271 1.234385 1.1421208
1.2117715 1.1250423 1.0676881 1.2223022 1.2062913 1.3049532 1.3019824 1.1499393
1.2951239 1.0337754 1.1186746 1.1769923 1.1069185 1.1067551 1.2466106 1.271103
0.9756879 1.2271094 1.1458794 1.166781 1.1275929 1.0427848 1.2524294 1.2961775
1.253079 1.2219695 1.2251058 1.2813158 0.9922535 1.0568976 1.1140343 1.1582631
1.144339 1.262414 1.1837702 1.1816534 1.1850554 1.3291318 1.2426035 1.2327701
1.1437726 1.1157237 1.1592436 1.1720313 1.1564261 1.2577901 1.2018695 1.1826063
1.1768595 1.2114218 1.1734205 1.0504295 1.2278408 1.2296933 0.97980666 1.1276381
1.1058624 1.2059255 0.96716225 1.2109069 1.1493018 1.3743265 0.97688746 1.1549958
1.1693621 1.188968 1.2583923 1.258528 1.1972674 1.1155189 1.1160184 1.1561738
1.1560594 1.1917633 1.0302778 1.2873524 1.1757736 1.0821083 1.2634603 1.1293498
1.1947753 1.1717262 1.01878 1.3233247 1.2192328 1.1436535 1.3590633 1.2156967
1.0222957 1.2575222 1.1477736 1.18146 1.2194198 1.1876684 1.1957085 1.1415366
1.2843032 1.2779098 1.1104201 1.2944262 0.9830626 1.0479347 1.2128799 1.1215937
1.2510182 1.1339973 1.1938587 1.2073321 1.1180975 1.1437176 1.279665 1.0192964
00000000: 235b 9d3f a6e1 a63f 34e2 953f 2cc2 993f
00000010: 55a7 863f 8126 993f ed2a 9d3f 4cf3 983f
00000020: f2f3 983f 8328 803f 7adc 9c3f 31d6 9e3f
00000030: d8cd 9c3f 8bb0 933f 8804 a03f 1506 853f
00000040: 3ae3 a43f 93b7 9e3f edb1 873f 2224 983f
00000050: e830 933f fba1 a23f a68a 903f ac09 883f
00000060: 1df8 833f ebaa 953f 97ed 943f 7b53 9d3f
00000070: 1c6f cc3f 4b5e 8f3f ff9b 9f3f b208 a03f
00000080: 4a44 b63f 71a1 8d3f b97c 8f3f 5b5c 903f
00000090: 2f61 943f c6a2 9a3f 0529 923f 8477 9d3f
000000a0: f9ed 973f 4e57 7a3f d505 8e3f 37f9 753f
000000b0: 6dad 953f bbf1 8e3f f55b 8f3f 1571 953f
000000c0: f6f8 9d3f a43c 933f 436d 9b3f 3435 853f
000000d0: 5057 863f d63d 9c3f 17ea a63f bf60 9b3f
000000e0: 1ac2 973f 2212 8f3f e2a6 913f 3dd2 963f
000000f0: 3d0a 9f3f 5c99 833f 45c4 8e3f 8b12 963f
00000100: a665 9a3f 77fc a03f 0744 9c3f 5ba9 953f
00000110: 6965 973f 6b34 ac3f e2c9 8e3f 8e64 943f
00000120: d4a2 963f 81ee 943f 6552 8a3f 7c9b ae3f
00000130: 8c65 933f 7791 9b3f fe0f a13f 73ad 803f
00000140: 4f65 9e3f b086 8f3f 1398 973f 2a1f 953f
00000150: 3205 923f d7ed 783f 08f0 8c3f 77bb a13f
00000160: 299f 983f d485 983f f41e 9c3f 7919 8f3f
00000170: 115a 923f df5d 983f de6b 983f 94e7 8e3f
00000180: c278 a13f 8116 923f 1718 7c3f e166 813f
00000190: 0ff5 983f d485 783f 4107 9d3f 1672 8a3f
000001a0: c38e 893f f39c a23f f79c 9a3f a684 963f
000001b0: d712 933f 8f64 933f 6e97 9a3f eb7b 8e3f
000001c0: 5ce5 9f3f 46db a03f 50f2 973f 5ae4 923f
000001d0: a337 a63f 4794 943f 8e5f 9f3f a7c7 983f
000001e0: bcd1 963f 2910 983f 3cce 763f 5fdd 7c3f
000001f0: f3a9 a13f db2e 883f b8e4 903f 6176 af3f
00000200: 8ee0 973f f415 a83f 9da3 8e3f 6586 843f
00000210: 3b50 993f f35c 7f3f edcc 953f b5ab 8e3f
00000220: 6db0 963f a88d 913f 3394 8a3f 1569 823f
00000230: 668e 9e3f 56fa 9f3f 5400 9e3f 0431 923f
00000240: 541b 9b3f 6301 903f 01aa 883f 6674 9c3f
00000250: c167 9a3f b508 a73f 5ca7 a63f 3631 933f
00000260: 9fc6 a53f c152 843f bb30 8f3f afa7 963f
00000270: 81af 8d3f 27aa 8d3f f090 9f3f 81b3 a23f
00000280: afc6 793f ec11 9d3f 2dac 923f 1459 953f
00000290: f754 903f f979 853f 9b4f a03f 25e9 a53f
000002a0: e564 a03f 7f69 9c3f 44d0 9c3f 2802 a43f
000002b0: 5304 7e3f 6c48 873f ad98 8e3f f741 943f
000002c0: b379 923f c896 a13f c885 973f 6b40 973f
000002d0: e5af 973f fe20 aa3f a20d 9f3f 69cb 9d3f
000002e0: 2467 923f 09d0 8e3f 1862 943f 1f05 963f
000002f0: c505 943f 44ff a03f dcd6 993f a55f 973f
00000300: 55a3 963f df0f 9b3f a532 963f 7974 863f
00000310: e329 9d3f 9766 9d3f 9cd4 7a3f 7256 903f
00000320: e68c 8d3f c45b 9a3f f297 773f fffe 9a3f
00000330: 521c 933f eee9 af3f 4c15 7a3f e7d6 933f
00000340: a8ad 953f 1a30 983f 0013 a13f 7217 a13f
00000350: 0f40 993f 53c9 8e3f b1d9 8e3f 81fd 933f
00000360: c1f9 933f b38b 983f 25e0 833f f7c7 a43f
00000370: c07f 963f 8682 8a3f 11b9 a13f 898e 903f
00000380: 66ee 983f 20fb 953f 6267 823f b462 a93f
00000390: d20f 9c3f 3d63 923f c9f5 ad3f f39b 9b3f
000003a0: 96da 823f 7df6 a03f 3fea 923f 153a 973f
000003b0: f315 9c3f 8505 983f fa0c 993f df1d 923f
000003c0: 0c64 a43f 8c92 a33f 3f22 8e3f c2af a53f
000003d0: fea9 7b3f b922 863f a63f 9b3f 6290 8f3f
000003e0: 5d21 a03f d326 913f 5dd0 983f dc89 9a3f
000003f0: d21d 8f3f 5765 923f 10cc a33f 4e78 823f

bias f4 [256]
0.09659974 0.11705255 0.21881726 0.11499683 0.06098655 0.040277906 0.050193217 0.02838188
0.10188849 0.09847388 0.24795625 0.20301183 0.11665775 0.24622531 -0.075696796 0.13400069
0.14757995 0.07836983 -0.054557055 0.07271264 0.039634295 0.042871222 0.06448874 0.098067865
0.16688178 0.14618225 0.123613596 0.11310441 -0.25463247 0.0013845206 0.09592327 0.16689831
-0.12876686 0.111506686 0.02115393 0.037915673 0.17322934 0.08458937 0.047286272 0.030539807
0.0924672 0.051058903 0.13229647 -0.046663694 0.13433476 0.0060623507 0.15091175 0.07470317
-0.027070219 0.17387149 -0.005724566 0.14103644 0.099366605 0.15659925 -0.11683473 0.08079019
0.18844889 0.100150794 0.14855316 0.08642574 0.07854801 0.042105187 0.025976773 0.03683716
0.05709215 -0.02457492 0.20074923 0.04415373 0.14154582 -0.06703037 0.13922213 0.14514269
0.1200259 0.12816072 0.077699885 0.052884806 0.03428619 0.12024503 0.10096141 0.081812195
0.0255967 0.12719204 0.023261266 0.15220822 0.20212738 0.06683019 0.09010552 0.091642655
0.0024149164 0.0875772 0.098735526 0.14653184 0.10937183 0.053875092 0.014783415 0.057672832
0.23005351 0.07582695 0.0751011 0.104196645 0.012611118 -0.00026457963 0.120042995 -0.013031866
-0.011194263 0.14570901 -0.058357097 0.07980843 0.054666284 0.17464475 0.042046413 0.1704566
-0.016376829 0.0191834 0.113687284 0.16638967 -0.040746786 0.0567029 -0.047965135 0.058633003
-0.064636365 -0.030654045 0.016615925 0.044208463 0.15232994 0.14474793 0.16301492 -0.046534743
0.14142881 -0.01407928 0.074842624 0.071015954 0.13354531 -0.01995668 0.09663705 0.19215679
0.028095983 0.17768784 -0.08965808 0.04646994 0.06767183 0.053789668 0.14034697 0.18798465
0.1434033 0.058927674 0.031046625 -0.002865572 0.051463153 0.10634884 -0.0088863745 0.161918
-0.0472585 0.092284516 0.13501929 0.14230663 0.1431899 0.12130201 0.16226509 0.07532276
0.060690127 -0.027596517 0.07599563 0.12502494 0.2136011 0.025585178 0.11003939 -0.059267245
0.14812423 0.08366382 0.053203437 0.07755235 0.03674813 0.023077296 0.11749313 0.059999116
0.053376634 0.07272895 0.15710372 0.1746907 0.12573802 -0.07635447 0.051020283 0.038915396
0.17905939 0.015217282 0.17071001 0.031310026 0.119887576 0.16116934 -0.016486544 0.07784549
0.16497837 0.035029642 0.026475979 0.016981 0.09277596 0.09734422 0.053534213 0.09660983
0.12884732 0.17097552 0.123659 0.15828124 0.15299605 -0.0597936 -0.008701093 0.17926954
0.17595755 0.16701637 0.18980828 0.0034218016 0.15307465 0.15680473 -0.009589096 0.098537244
0.017787674 0.21153931 0.14870533 0.0056446977 0.12640256 0.10977031 0.033764865 0.10695202
0.14559901 0.14223096 0.073200986 -0.0057072644 0.14395499 0.07838005 -0.07706083 0.12198922
0.16314475 0.054335058 0.025307104 0.017497811 0.16303714 0.08965636 -0.005002395 0.079311945
0.14011383 0.15024328 0.1438076 0.077782914 0.017869467 0.11576937 0.1421365 0.1238427
0.18185489 0.19407809 0.08592493 0.10377069 0.057052426 0.07161675 0.13254403 0.09876839
00000000: 16d6 c53d 3fb9 ef3d a211 603e 7583 eb3d
00000010: 08cd 793d 72fa 243d 6797 4d3d 1e81 e83c
00000020: eaaa d03d acac c93d 3ee8 7d3e 55e2 4f3e
00000030: 42ea ee3d 7d22 7c3e ec06 9bbd 7a37 093e
00000040: 331f 173e 5d80 a03d 3877 5fbd 5dea 943d
00000050: 9257 223d bc99 2f3d ac12 843d ced7 c83d
00000060: 0fe3 2a3e cdb0 153e 2029 fd3d 49a3 e73d
00000070: 305f 82be cd78 b53a 6b73 c43d 64e7 2a3e
00000080: 76db 03be 9e5d e43d 024b ad3c 774d 1b3d
00000090: 0863 313e 313d ad3d 40af 413d 9e2e fa3c
000000a0: 715f bd3d 2423 513d ba78 073e 6e22 3fbd
000000b0: 0d8f 093e afa6 c63b 9c88 1a3e fafd 983d
000000c0: 5dc2 ddbc 5e0b 323e 2495 bbbb db6b 103e
000000d0: b880 cb3d 8e5b 203e 0c47 efbd 5475 a53d
000000e0: bff8 403e dc1b cd3d 521e 183e faff b03d
000000f0: c7dd a03d 7d76 2c3d 3ecd d43c 90e2 163d
00000100: 75d9 693d 5851 c9bc 3591 4d3e 8bda 343d
00000110: 63f1 103e 3847 89bd 3f90 0e3e 49a0 143e
00000120: 24d0 f53d 903c 033e 1e21 9f3d bd9d 583d
00000130: ad6f 0c3d 0743 f63d dbc4 ce3d 278d a73d
00000140: 2cb0 d13c a13e 023e 698e be3c 79dc 1b3e
00000150: 7bfa 4e3e 44de 883d 3e89 b83d 25af bb3d
00000160: 9343 1e3b ad5b b33d da35 ca3d 710c 163e
00000170: 57fe df3d 21ac 5c3d 2336 723c 593a 6c3d
00000180: 2693 6b3e 294b 9b3d 9bce 993d 0d65 d53d
00000190: dd9e 4e3c 47b7 8ab9 1ad9 f53d 9c83 55bc
000001a0: 2468 37bc be34 153e da07 6fbd 9a72 a33d
000001b0: c1e9 5f3d 13d6 323e dc38 2c3d 2d8c 2e3e
000001c0: b328 86bc 8126 9d3c e1d4 e83d 0e62 2a3e
000001d0: 1ae6 26bd 4d41 683d 1777 44bd 2929 703d
000001e0: 1260 84bd 311e fbbc 1f1e 883c ef13 353d
000001f0: 61fc 1b3e cd38 143e 62ed 263e 379b 3ebd
00000200: b7d2 103e c8ac 66bc 1747 993d d070 913d
00000210: 1ac0 083e 317c a3bc a5e9 c53d c0c4 443e
00000220: 8c29 e63c cdf3 353e a89e b7bd 4457 3e3d
00000230: 8797 8a3d 8e52 5c3d 1eb7 0f3e 0c7f 403e
00000240: 51d8 123e 255e 713d 7e55 fe3c 52cc 3bbb
00000250: 07cb 523d 6ccd d93d 2898 11bc d5cd 253e
00000260: 2192 41bd aaff bc3d 7f42 0a3e d4b8 113e
00000270: 60a0 123e 306d f83d d228 263e d242 9a3d
00000280: 3696 783d 1712 e2bc 99a3 9b3d 8a06 003e
00000290: 3fba 5a3e 0298 d13c 555c e13d 36c2 72bd
000002a0: e1ad 173e f057 ab3d d9eb 593d c4d3 9e3d
000002b0: 3585 163d 990c bd3c 3da0 f03d a2c1 753d
000002c0: 75a1 5a3d eaf2 943d ccdf 203e 1ee2 323e
000002d0: 78c1 003e bb5f 9cbd a5fa 503d c065 1f3d
000002e0: 585b 373e e851 793c 9bce 2e3e f13e 003d
000002f0: 9e87 f53d 9309 253e ca0e 87bc 756d 9f3d
00000300: 17f0 283e 3e7b 0f3d 27e4 d83c bd1b 8b3c
00000310: 5301 be3d 685c c73d b146 5b3d 60db c53d
00000320: 8df0 033e 3514 2f3e ee40 fd3d 7a14 223e
00000330: ffaa 1c3e 22ea 74bd 078f 0ebc 6f92 373e
00000340: 372e 343e 5706 2b3e 1a5d 423e 4e40 603b
00000350: 9abf 1c3e 6b91 203e 951b 1dbc e5cd c93d
00000360: 75b7 913c c39d 583e 3646 183e 28f7 b83b
00000370: ac6f 013e 42cf e03d 074d 0a3d a909 db3d
00000380: e817 153e fea4 113e 66ea 953d 0104 bbbb
00000390: f068 133e b885 a03d 12d2 9dbd 7cd5 f93d
000003a0: 6b0f 273e 708e 5e3d d850 cf3c 9257 8f3c
000003b0: 35f3 263e c19d b73d 21eb a3bb 4d6e a23d
000003c0: 007a 0f3e 60d9 193e 4d42 133e a64c 9f3d
000003d0: fd62 923c 7e18 ed3d 3b8c 113e 3ea1 fd3d
000003e0: 2b38 3a3e 68bc 463e 69f9 af3d ba85 d43d
000003f0: ceaf 693d cdab 923d 9fb9 073e 1547 ca3d

running_mean f4 [256]
0.1904943 0.22594807 0.17124471 0.08347437 0.0882323 0.09285901 0.11946907 0.32101065
0.24210593 0.009798399 0.18295582 0.24275106 0.23746498 0.03524883 0.06410412 0.14232978
0.24864593 0.26281416 0.019290252 0.33411425 0.18964238 0.031001344 0.26577434 0.12596221
0.2549916 0.21175212 0.17999585 0.16966005 0.054291 0.06315729 0.108273886 0.41605055
0.04263768 0.14506973 0.04559818 0.073054075 0.28441405 0.14929605 0.32262182 0.092392854
0.16467798 0.030760795 0.123767786 2.393198e-13 0.17120922 0.13450268 0.3111083 0.24387702
0.308651 0.33994672 0.014226639 0.03532746 0.17523576 0.26179826 0.017253846 0.20887965
0.43855456 0.32241043 0.29161975 0.14329001 0.19514744 0.11701473 0.09255937 0.085817054
0.14179437 0.023473376 0.23816596 0.09438507 0.40309164 0.05518407 0.30783224 0.23695764
0.23780699 0.289169 0.17026131 0.026828555 0.09054969 0.21894936 0.18493025 0.19221674
0.109201744 0.29506823 0.3520416 0.46208057 0.33433914 0.009682125 0.34708944 0.27625406
0.03646095 0.15292439 0.01765035 0.12906551 0.29760304 0.24234061 0.16599993 0.11756607
0.23760368 0.2582685 0.13288262 0.20278412 0.047150984 0.01197184 0.198087 0.018864065
0.032416213 0.34654018 0.092358276 0.15998878 0.15122703 0.20105058 0.26364386 0.3532861
0.025826862 0.024982348 0.15257978 0.30021402 0.026030842 0.12528041 0.027727932 0.35639894
0.09156085 0.055417273 0.00084119604 0.028281368 0.2363424 0.3421665 0.15963054 0.040747322
0.34392017 0.0384622 0.3200136 0.039157238 0.1952369 0.041950896 0.15672737 0.28372467
0.34535655 0.22115809 0.024881903 0.20387568 0.40542445 0.11862211 0.10979261 0.42019066
0.25576594 0.1939857 0.094537035 0.19954847 0.08846343 0.19902597 0.17486115 0.32629663
0.043272562 0.2858826 0.29158154 0.08425123 0.20958087 0.14921877 0.27857053 0.1562965
0.040342424 0.018419357 0.19193342 0.45535722 0.13313268 0.23125994 0.27712482 0.020234881
0.21401358 0.26148418 0.23077372 0.017316585 0.18924206 0.3213983 0.12797306 0.15533315
0.18567692 0.042584106 0.1692567 0.42540178 0.21601483 0.058216076 0.12468339 0.023781002
0.21293308 0.14807937 0.29317793 0.04708687 0.16793478 0.15460412 0.020681618 0.02545545
0.2414594 0.16461474 0.11728338 0.09355944 0.35888487 0.20586617 0.09583789 0.14388123
0.18518773 0.2957456 0.07983732 0.09422118 0.31152746 0.022927567 0.23885342 0.29160553
0.12778334 0.15956949 0.20867403 0.02409908 0.018177811 0.3064477 0.021063458 0.26695627
0.1957509 0.21421812 0.08288056 0.1802368 0.3158201 0.0707622 0.0986917 0.11683379
0.1958579 0.088320866 0.13051209 0.03612879 0.26745722 0.4019865 0.021796988 0.108144194
0.16066046 0.13972387 0.4401465 0.006099348 0.17097895 0.33413807 0.019302636 0.2838004
0.2870014 0.18882576 0.50035644 0.25891042 0.23102556 0.28626505 0.16688241 0.26002198
0.23078674 0.17408106 0.30390438 0.25871077 0.16410841 0.45854515 0.23320515 0.081174865
00000000: f010 433e ee5e 673e c65a 2f3e 9cf4 aa3d
00000010: 23b3 b43d dd2c be3d 33ac f43d 825b a43e
00000020: 9eea 773e 7789 203c c558 3b3e bc93 783e
00000030: 052a 733e 1461 103d 0549 833d e6be 113e
00000040: 0a9d 7e3e 948f 863e 9706 9e3c 0611 ab3e
00000050: 9d31 423e 88f6 fd3c 9313 883e 3dfc 003e
00000060: 428e 823e 8cd5 583e d550 383e 5dbb 2d3e
00000070: 3d60 5e3d 9c58 813d b3be dd3d 9404 d53e
00000080: d9a4 2e3d 298d 143e 28c5 3a3d 609d 953d
00000090: b89e 913e 10e1 183e b02e a53e 7738 bd3d
000000a0: 58a1 283e 10fe fb3c f779 fd3d 9eb9 862a
000000b0: 7851 2f3e 12bb 093e 9649 9f3e e6ba 793e
000000c0: 8107 9e3e 7f0d ae3e d916 693c 87b3 103d
000000d0: 0171 333e 6c0a 863e f057 8d3c 8ce4 553e
000000e0: 398a e03e fb12 a53e 2f4f 953e 9eba 123e
000000f0: bbd4 473e 6ba5 ef3d c48f bd3d dac0 af3d
00000100: 8b32 113e 3d4b c03c c7e1 733e f64c c13d
00000110: 0762 ce3e b108 623d 309c 9d3e 06a5 723e
00000120: ad83 733e f60d 943e fb58 2e3e 8fc7 db3c
00000130: 1e72 b93d 4334 603e 5b5e 3d3e 77d4 443e
00000140: 2aa5 df3d 2f13 973e cc3e b43e d395 ec3e
00000150: 802e ab3e c7a1 1e3c b5b5 b13e 2c71 8d3e
00000160: 1458 153d 3698 1c3e 7897 903c c029 043e
00000170: 6d5f 983e 2328 783e e3fb 293e 7bc6 f03d
00000180: 614e 733e c53b 843e 6212 083e a4a6 4f3e
00000190: 6421 413d 8925 443c 52d7 4a3e d088 9a3c
000001a0: ddc6 043d b76d b13e 5626 bd3d 19d4 233e
000001b0: 42db 1a3e 34e0 4d3e 54fc 863e eae1 b43e
000001c0: db92 d33c c8a7 cc3c e03d 1c3e a7b5 993e
000001d0: a23e d53c 8249 003e b025 e33c ec79 b63e
000001e0: 4184 bb3d 39fd 623d b683 5c3a 54ae e73c
000001f0: be03 723e 7330 af3e 3076 233e aae6 263d
00000200: 4e16 b03e 8a8a 1d3d d3d8 a33e 5763 203d
00000210: 2fec 473e b4d4 2b3d 247d 203e 5c44 913e
00000220: 93d2 b03e 4477 623e 22d5 cb3c c9c4 503e
00000230: cb93 cf3e 26f0 f23d f3da e03d 3b23 d73e
00000240: c1f3 823e 30a4 463e a29c c13d 6f56 4c3e
00000250: 512c b53d 77cd 4b3e cd0e 333e 5a10 a73e
00000260: 923e 313d 345f 923e 2d4a 953e e98b ac3d
00000270: 5e9c 563e cecc 183e cca0 8e3e 310c 203e
00000280: 193e 253d 31e4 963c 328a 443e 9524 e93e
00000290: ef53 083e 68cf 6c3e 4ee3 8d3e 9fc3 a53c
000002a0: 6026 5b3e 41e1 853e f24f 6c3e 83db 8d3c
000002b0: acc8 413e 518e a43e 5f0b 033e a70f 1f3e
000002c0: 1722 3e3e ac6c 2e3d a151 2d3e 43ce d93e
000002d0: fe32 5d3e fb73 6e3d 015a ff3d 60d0 c23c
000002e0: 210b 5a3e 1ea2 173e 6b1b 963e 29de 403d
000002f0: 18f7 2b3e 8b50 1e3e 7f6c a93c f387 d03c
00000300: 2241 773e c490 283e 4532 f03d 179c bf3d
00000310: c2bf b73e 95ce 523e a846 c43d 9a55 133e
00000320: daa1 3d3e f86b 973e c081 a33d 09f7 c03d
00000330: 8780 9f3e 98d2 bb3c fe95 743e 524d 953e
00000340: a3d9 023e 2f66 233e a5ae 553e 6f6b c53c
00000350: a2e9 943c b7e6 9c3e 468d ac3c 7eae 883e
00000360: ed72 483e ff5b 5b3e 48bd a93d ff8f 383e
00000370: 2cb3 a13e c6eb 903d e01e ca3d 8e46 ef3d
00000380: f98e 483e 92e1 b43d f6a4 053e c8fb 133d
00000390: 27f0 883e 2dd1 cd3e 998f b23c b47a dd3d
000003a0: 2d84 243e c613 0f3e e25a e13e 0add c73b
000003b0: 1b15 2f3e 2514 ab3e 9020 9e3c 494e 913e
000003c0: d9f1 923e 8a5b 413e 5c17 003f e88f 843e
000003d0: f791 6c3e 5591 923e 39e3 2a3e 9a21 853e
000003e0: 5c53 6c3e 4e42 323e 5b99 9b3e bd75 843e
000003f0: 090c 283e 6ec6 ea3e 55cd 6e3e 023f a63d
