Best_models/UCI_HAR_CNN_20210125_130254/CNN_UCI_HAR_Rep_2_Seed_82.pt (torch_old, 226695 bytes, 12 tensors)

weight f4 [64, 9, 3]
00000000: 829e e23d dcd9 893d 5fcc 333e e095 a7be
00000010: 360c 93bd 3be9 0e3e d8a1 5cbe f5b9 063e
00000020: 2eeb 823e 1119 e03e 53e1 b13e aadd 8d3e
00000030: 833a 4d3e 3e8a 7d3e 8d66 a4bd f591 6cbe
00000040: b698 4ebe f77c cabd cb96 09bc b730 563e
00000050: 4640 a33c a2fb e8bd 3f4f 5e3e 8dc7 973e
00000060: a69e 17be 937d 09bd c3b9 7abd 8c85 2cbe
00000070: c907 393e 8ccb 4a3e f867 663e f231 a9bc
00000080: c0ce 753c e69c ae3e ef4a 843e 64bd cb3e
00000090: 5092 f13d 8aa3 9fbd a51f 8a3d 8fdb c9bd
000000a0: 1f0d 43bd 8616 e1bd f5c2 a03e 2092 123e
000000b0: 6834 69bd e45d 59be 3be1 9abe 236f 38be
000000c0: 7bb8 1e3e b157 94bd fd89 12be 00d7 4c3e
000000d0: 6cb0 d7bd fad1 0d3e 3a7d 473d 142c 613c
000000e0: 7ee9 52be 2ffe c0be 1cb1 27be d883 783d
000000f0: 2c14 30be aaf3 d43c b2e6 043e bf62 d23e
00000100: 426c 083f 3acc 083f 9ff1 6c3e 0d20 13bd
00000110: d04a 563e 3075 533e 4e86 2e3e 3ffc d33e
00000120: 1819 edbd 8114 debd d890 303e 0614 4b3e
00000130: 53ef b2bd d1cd e93d 5072 543e a176 b2bc
00000140: 3b77 45bd 643d 2bbd 3ca4 9d3e 405d 933c
00000150: 5d8c 333e e079 e03d cec7 933e a35b 98bd
00000160: 7fa5 f43d f939 833d cfe2 113e 56df 923e
00000170: 4eeb f93e 7886 8abe 2fb3 0fbe cd7d 34be
00000180: 778d 2b3e 4bcd 153e 5383 d1bd d014 d2be
00000190: 879a afbe 64fe a2be b2ad 623e 0a8d 893e
000001a0: eb5d 793e 88d8 633c 07be c43b 11a8 d83d
000001b0: 6db3 0a3d 06b0 0c3e cec4 c03d 657f d2bd
000001c0: e99a 163b 2487 28be 5187 693d 4201 dc3b
000001d0: 9689 0c3d 1e95 2abf 5d1c 51bf ac8f 63bf
000001e0: 2ed3 02be 458c 993c 9ea6 f4bd 70b1 bd3e
000001f0: 4628 a43d 09b2 7e3e 1959 d7ba c4b8 e33d
00000200: 7052 ce3d 5e69 bd3b 9da1 5c3c d4fa 7c3b
00000210: 10ce b23d f7e8 21bc 45c8 94bc d984 333c
00000220: 6663 273d 021b c2be 7889 a73e 8d22 763e
00000230: 1692 02be 5ef0 ad3e 1fb8 683d caa7 a8be
00000240: 9f2f 51be c3d0 7f3d 4dcc 4abd c4dd 96be
00000250: 2c9b 4bbe 4a60 7bbd 8cad 583f 061e d53e
00000260: e6bb 203f f619 b2bd 957a 123e 0906 c9bd
00000270: 7015 0c3e 0653 1a3e d909 f33c 3119 1fbd
00000280: e06c 2fbd 8565 1dbe 4f99 b43e 8bc0 e83c
00000290: 12d3 1a3d 38d9 cc3d 46e8 e43d 8c7d f83d
000002a0: cd23 143e c8d7 e1bd 992d ae3c 7f6a 373e
000002b0: 6dac 073e 327d c93c ef19 023e 168b 4c3e
000002c0: 742c 903e 1bae 333e 7cc8 273c 1fd4 90be
000002d0: 00b5 a5bd 6eb8 b13d 67a9 933d ac85 cabd
000002e0: 802d 3fbc 3862 7b3e b596 3a3d 77c1 a83d
000002f0: d829 313e b62b dfbd 9cb5 38be 4f8e b3bd
00000300: b8f8 8fbd 723a 2d3e e41b 26bd 92f4 eb3d
00000310: 3309 01bd ec49 26bc e6f7 613e e7fe 26bd
00000320: 64f8 69bd 7bb3 a6bd 1652 ba3d a2ce 613e
00000330: 40c6 cebd 5258 363e 3449 b0bd f087 75be
00000340: 658f 5bbe dfbf 13be 2916 6bbe 164e 86be
00000350: d289 01be 3793 583e 9388 ac3d 96c2 ae3d
00000360: db79 603d 0617 283e a494 85bd f5c2 27be
00000370: 01c0 33be 3ef8 aa3d c838 c23c c534 b2bd
00000380: f761 c33d 2700 453f fa2a 693f 694e 853f
00000390: 541f fa3c 6483 d8bd fbc8 2ebe 5488 53be
000003a0: a859 8cbd debd 2cbd 44fd d83d b48f 66be
000003b0: dce4 0b3e d978 b33c 011d 273e 0f3a 1dbe
000003c0: b514 71bd 764f 18bd 423d bf3d c50a 59bd
000003d0: dc4d 6f3e c2f3 183e d0b8 a23c d3d7 a6bd
000003e0: 63d6 a63a d051 adbd 4c90 0abe f115 013e
000003f0: bc92 4ebe 8941 b0be df2f 90be 5d45 833e
0.11065389 0.067310065 0.1755843 -0.32731533 -0.071800634 0.13956158 -0.21546113 0.13156874
0.25570053 0.43769124 0.3474222 0.2770818 0.20041852 0.24759766 -0.080273725 -0.23102553
-0.20175442 -0.098871164 -0.008397768 0.2091702 0.019928109 -0.1137612 0.21709917 0.29644433
-0.14806613 -0.033567023 -0.061212312 -0.16847819 0.18069376 0.1980421 0.22500598 -0.020653699
0.015002906 0.3410408 0.2583842 0.3979293 0.11795485 -0.077948645 0.06744317 -0.098563306
-0.047619935 -0.10990624 0.3139874 0.14313555 -0.056934744 -0.21227223 -0.30249962 -0.18011145
0.15500061 -0.07243288 -0.14310451 0.20003891 -0.10531697 0.13849631 0.04870341 0.013743419
-0.20596883 -0.37693927 -0.16376156 0.06067261 -0.17195195 0.025995094 0.12978628 0.41090962
0.5329019 0.53436625 0.23139046 -0.035919238 0.20926976 0.20650172 0.1704342 0.41403386
-0.11577052 -0.108437546 0.17242754 0.19831857 -0.08737054 0.114162095 0.20746732 -0.021785082
-0.04820941 -0.041806594 0.30789363 0.017988801 0.17534013 0.10960746 0.28863376 -0.07439353
0.119456284 0.06407542 0.14246677 0.28686017 0.48812336 -0.27055717 -0.14033197 -0.17626114
0.16753183 0.14629094 -0.10230126 -0.41031504 -0.34297583 -0.3183471 0.22136572 0.26865417
0.24352233 0.013906606 0.0060040983 0.10578931 0.03386252 0.13739023 0.094125375 -0.10278205
0.0022980517 -0.16457802 0.057013813 0.006714017 0.0343109 -0.66633785 -0.81683904 -0.888911
-0.12775871 0.018743644 -0.11945842 0.37049437 0.08015494 0.24872603 -0.0016429751 0.111192256
0.100743175 0.005780383 0.013466266 0.0038601654 0.087307096 -0.009882203 -0.018161902 0.010956966
0.040866278 -0.3791123 0.32722068 0.24036618 -0.1275104 0.33972448 0.056816217 -0.32940513
-0.20428322 0.06245495 -0.049511243 -0.2946607 -0.19883412 -0.061371125 0.8463981 0.4162447
0.6278671 -0.08696358 0.14304574 -0.09815604 0.13680053 0.15070733 0.029667782 -0.038842384
-0.04282844 -0.15370758 0.35273215 0.028412124 0.03779895 0.10002369 0.11177115 0.12133321
0.14466782 -0.11027485 0.021261977 0.17911719 0.13249369 0.02459583 0.12705205 0.19974932
0.28158915 0.17546885 0.01024067 -0.28286836 -0.08091164 0.08677755 0.07210045 -0.09888777
-0.011668563 0.24549186 0.04555388 0.082400255 0.17301118 -0.10897009 -0.18038028 -0.087673776
-0.07029861 0.16916826 -0.040553942 0.115212575 -0.031502914 -0.01014946 0.22067222 -0.040770438
-0.05712165 -0.08139702 0.09097688 0.2205148 -0.10096407 0.17807129 -0.086077124 -0.23977637
-0.2144142 -0.14428662 -0.22957672 -0.2623145 -0.1265023 0.21149908 0.08424487 0.08533208
0.05480371 0.16415033 -0.065224916 -0.16382964 -0.17553712 0.0834813 0.023708716 -0.08701471
0.0954017 0.7695336 0.910812 1.0414554 0.030532517 -0.10571936 -0.17068855 -0.20657474
-0.06853038 -0.04217326 0.105951816 -0.22515756 0.13661522 0.02190821 0.16319658 -0.15354179
-0.05885764 -0.037185155 0.09337856 -0.052988786 0.23369545 0.14936736 0.019863516 -0.08146634
0.0012728687 -0.0846287 -0.13531607 0.12606026 -0.20173162 -0.34425 -0.28161523 0.25638857

bias f4 [64]
00000000: cffd fabe 658c cf3d 560b 0e3c a296 893e
00000010: eb2a c6bd 3bd0 09be b5df c5be 1961 7bbd
00000020: da7f b1bc 6f65 9ebe 0c8a bbbe d905 04be
00000030: 9445 37be ff70 613c 9f6e b03d 871c 7fbd
00000040: 3e17 d4bd ebdd 803d f839 31bd 7263 83be
00000050: 2ffd 80be aa22 6f3c 1521 c2be 7ba0 213d
00000060: 409d e73c 3e9b 80be f506 4fbc 06f5 38be
00000070: f304 8ebd dd5f 41bc 4892 19be 37ed bdbd
00000080: 887c 96be cbae 3dbe 7b5c 34be d4b1 653e
00000090: 6ce1 b33d 12d9 86be 7360 053e 6d45 a4be
000000a0: ce5b e3bd 9055 2e3d 23d1 51bc 8a96 c8be
000000b0: ea22 dcbc 123d e2be 9b05 95be c1bc 273c
000000c0: 7b4c f7bb 46ff bc3c d8df c7bd 7e2f 14ba
000000d0: c0fb ccba d4b2 62be 29cd d43c f5ac 353d
000000e0: 36c6 63be c3a8 3cbd 712e 9cbe 1162 04bf
000000f0: fa92 72be 77f0 82bc 859b 1ebe 5dff b5bd
-0.49021766 0.101342 0.008669695 0.26872736 -0.09676155 -0.1345834 -0.38647237 -0.061371896
-0.02166741 -0.30936763 -0.3662876 -0.12892856 -0.17897636 0.0137598505 0.08614849 -0.062283065
-0.103559956 0.062923275 -0.043268174 -0.25661808 -0.25193164 0.014595667 -0.37915865 0.039459687
0.028273225 -0.2511844 -0.012635936 -0.18062219 -0.06934538 -0.011802641 -0.14997208 -0.09273761
-0.29391885 -0.1852371 -0.17613403 0.22431117 0.0878323 -0.26337487 0.13025074 -0.32084218
-0.11101495 0.042562068 -0.01280621 -0.39177352 -0.026872117 -0.44187218 -0.2910584 0.0102378735
-0.007546959 0.023070943 -0.09759492 -0.0005652829 -0.0015638992 -0.2213853 0.025976734 0.044354398
-0.2224358 -0.04605938 -0.30504182 -0.5171214 -0.2368888 -0.015983803 -0.15489013 -0.08886597

weight f4 [64, 64, 3]
00000000: 8dcb 0c3e 5495 603d c472 2d3e e250 92be
00000010: 641c 1fbe 23ab 19be cf8f 5dbb 3c7d 8ebd
00000020: b700 40bd 4caa 51bc 127c 51bd a8eb c1bd
00000030: 1d8f aebd ace5 3dbd 9929 c3bc 6df9 22be
00000040: 2e30 8cbd d800 3ebd bde1 bdbb bb9d 81bd
00000050: e583 c2bb 77a0 15bd 29b5 43bc 711a c9bd
00000060: f84b 993d 8a32 ac3c 20e4 dc3b 1cd5 f03d
00000070: ff72 113e 045b c1bb c6b0 f9bd 9cec 3fbe
00000080: af39 33be fac1 a0bc bee7 22be 0026 23be
00000090: 0ac4 4bbe fbec edbd bfd5 15be 4c9e 31be
000000a0: a01d 0abe bd24 3ebd 9388 bfbd e230 25be
000000b0: c174 36be 36fb 0dbd 7981 72bc c1c4 04bb
000000c0: d5c9 f4bd 0812 28be 8dc0 40be 0675 2bbe
000000d0: 3590 19ba b0db 9d3c 6141 62bd b0cd babc
000000e0: 8b6c f4bd f435 f73c 78bb 87bd ab52 4dbd
000000f0: 2905 8cbe 1be5 2cbe d3f1 1b3b 9cf4 ecbd
00000100: 22c4 debd 6414 ccbd a955 f2bd 136a c1bd
00000110: 16c9 d13c 833e 8fbc 87d7 79bd bf31 bdbd
00000120: e84c 583d 8ead c0bc 2623 b1bc 2912 413d
00000130: b08e 9abc 0c86 b9bd 3e15 553d cd02 9c3d
00000140: 0c6d ba3d 5409 8cbd 9dfb 8ebd 1f78 c0bd
00000150: b66d 7dbe a67b 67bb bdae b3bd 0970 0dbd
00000160: 9302 543b 279f 21bc e19d d93d 8305 113e
00000170: 9b07 193e e35a 58bd 5d0b 89bd e401 00be
00000180: 549a 8a3d 36e5 813b f39d 833d 8e32 d53c
00000190: dafd 93bd e19d d6bd dee7 b53e 9ad9 ca3e
000001a0: d350 8d3e 5cc4 b7bd 1034 723b 305d b3bd
000001b0: 522d da3b 526b 633d 7150 36bd 54eb f03d
000001c0: 5c41 c33a bc06 a43d 0064 4fbd e1b2 fdbd
000001d0: f7b6 13be b4c1 36be 5091 30be 4733 35be
000001e0: 72fc d53c e4be 26bd 7828 1bbe e111 ce3d
000001f0: 6149 073e 9b34 143e 9d4b a73d 2dbd 943d
00000200: 6716 d7bc ba47 053e 8122 37bb 84e1 bc3d
00000210: 2fe2 abbd ff52 d3bd fd73 b2bd a45d d3bc
00000220: 1fb1 013e 2e61 c53d b0b6 40bd c684 593d
00000230: ef89 a5bd 1f4f 82bd b218 56bd f529 203c
00000240: dd37 8e3d d384 c23c 7fc8 183d 14ce e63b
00000250: 64e7 19bd dfda 25be fd70 87bd c666 88bd
00000260: 41e5 73bd 6772 3abe 98c1 57bd f217 b33d
00000270: 37cd a1bc 9d01 673d fa23 02bb 8189 57be
00000280: e5c8 84be 64de babe 92c9 46be beac 31be
00000290: 635a 84be 5786 633d b817 4d3d 9c4f 8dbd
000002a0: ad23 b3be dde9 a3be c5df c2be 6e23 0a3c
000002b0: c2f6 be3d 787c 1b3e d65f 16be 1f96 18be
000002c0: bba4 6dbe b3e3 943e acb9 823e afa3 5a3e
000002d0: 0c26 e8bd fbdf 42be 0734 b8bd ece5 adbd
000002e0: fe4e b2bd 26fd 47be 54cd f73d 39df 863d
000002f0: 2fec 263d 33c0 403c 2608 d73d 66aa de3d
00000300: acde b1bd d921 45bd 5e03 e4bd 7fae abba
00000310: 04c8 4abd e82c 7dbe b66f 7f3d 30ad 543e
00000320: a6d4 503e a36d d4bc 7d11 8cbd 58a9 2ebe
00000330: 565f c0bc e1e4 9dbc ad76 90bc 62da 0abe
00000340: cf7f b0bd da58 76be e84e ab3d 6819 0c3e
00000350: c7a6 8bbd acc7 78bd fe78 bfbd 01bd 41bd
00000360: 0690 97bc 1551 223c f54f a9bd 0d37 43bd
00000370: 4284 183c 23be f13d 3bf3 503d 8591 393b
00000380: 6563 31be 04b3 c7bd db7d 4bbe ec33 7cbe
00000390: 242c a0be 282d a7bd c42a 973e b4b2 2fbe
000003a0: 5160 ebbb 6464 1c3e 2d84 81be 67f2 2bbe
000003b0: 5e6c dfbd f0ff c6bd 525b ee3c b4a4 063e
000003c0: 8877 b5be f4ca 0ebe 84ff 00be fcdb 033e
000003d0: 61aa 043b 7d47 2cbe 93f5 1dbd c715 0f3c
000003e0: adb1 99bd 1351 f73b 681b 30bd 3319 99bd
000003f0: 9b85 70be 72a1 11be 7c47 1bbe c82b 24be
0.13749523 0.05482991 0.16938311 -0.28577334 -0.15538174 -0.1500669 -0.003380764 -0.0695748
-0.04687568 -0.01279695 -0.051143713 -0.09468776 -0.085233904 -0.04636161 -0.023823546 -0.15915461
-0.06845127 -0.046387523 -0.0057947324 -0.06328913 -0.005936133 -0.036529984 -0.011945047 -0.098194964
0.07485193 0.021020193 0.006741062 0.117593974 0.14204024 -0.0059007425 -0.1219192 -0.18742603
-0.17502473 -0.019623745 -0.15908715 -0.15932465 -0.19899002 -0.11617466 -0.14632319 -0.17345542
-0.13487864 -0.046421755 -0.09352221 -0.16131929 -0.17817976 -0.0346634 -0.0148013765 -0.0020258876
-0.11952559 -0.16413128 -0.18823452 -0.1674386 -0.00058579753 0.019269794 -0.05523813 -0.022803158
-0.119347654 0.030177094 -0.06627554 -0.050127666 -0.27347687 -0.16884272 0.0023795262 -0.11570093
-0.10877253 -0.09964827 -0.11832745 -0.0944406 0.02560858 -0.017485863 -0.06099656 -0.09238004
0.05280772 -0.023520257 -0.021623205 0.04713646 -0.018866867 -0.090587705 0.05202221 0.07617722
0.0910283 -0.06837717 -0.06981585 -0.09397911 -0.24748883 -0.0035321503 -0.08773563 -0.034530673
0.0032350167 -0.009864605 0.10625816 0.14162259 0.14944308 -0.05282105 -0.066916205 -0.12500721
0.06767717 0.0039640917 0.06426611 0.026025083 -0.07226153 -0.10479332 0.35528463 0.39619142
0.27600726 -0.089729995 0.0036957301 -0.087580085 0.0066582346 0.05552227 -0.04451031 0.11763635
0.0014896798 0.08009097 -0.050632477 -0.12387634 -0.14425264 -0.1784733 -0.17242932 -0.17695342
0.026121352 -0.04070939 -0.15152156 0.10062004 0.13211586 0.14473192 0.08168719 0.07262645
-0.0262558 0.13015643 -0.002794415 0.09222701 -0.083927505 -0.103185646 -0.08713529 -0.025801487
0.12665223 0.09637676 -0.047049224 0.05310514 -0.08082949 -0.063627474 -0.052269645 0.009775628
0.06944249 0.023744976 0.037300583 0.0070436094 -0.037574187 -0.16196774 -0.06613348 -0.066602275
-0.059544805 -0.18207704 -0.05267486 0.087448016 -0.019751174 0.056398023 -0.001985787 -0.21048547
-0.2593452 -0.36497796 -0.1941283 -0.17351052 -0.2585021 0.05554804 0.050071448 -0.0689995
-0.34988156 -0.3201436 -0.38061348 0.008431299 0.09324409 0.151842 -0.14684996 -0.14901017
-0.23207371 0.2907997 0.2553228 0.21351503 -0.11335382 -0.19030754 -0.089942984 -0.0849112
-0.08706473 -0.19530162 0.1209971 0.06585545 0.040752586 0.011764574 0.10499601 0.10872345
-0.086850494 -0.048127983 -0.11133455 -0.0013098269 -0.049507156 -0.24724162 0.062362395 0.20769191
0.20393619 -0.025931185 -0.06839273 -0.17056787 -0.02348296 -0.019274177 -0.017634714 -0.13559869
-0.086181276 -0.24057332 0.083646595 0.13681567 -0.0681892 -0.060737297 -0.09349249 -0.04729939
-0.018501293 0.009907027 -0.08267204 -0.047659922 0.0093088765 0.11803844 0.051013213 0.0028315496
-0.17323072 -0.097509414 -0.19872229 -0.24629182 -0.31283677 -0.0816291 0.29524815 -0.17158014
-0.0071831127 0.15272671 -0.25296155 -0.16791688 -0.10909341 -0.09716785 0.02909628 0.13148767
-0.35442758 -0.13944608 -0.12597471 0.12876886 0.0020243155 -0.16824146 -0.038564276 0.0087332195
-0.07504592 0.0075475066 -0.042994887 -0.074755095 -0.23488466 -0.14221743 -0.15163988 -0.16032326

bias f4 [64]
00000000: f744 6ebe a32f 23be 5d9f cc3d 3a61 c7bc
00000010: 499f 9cbc 5fa5 2e3c d0c1 64be 5aeb c7bc
00000020: 38ee 38be eaa5 0a3e 9c18 83be a7e0 91be
00000030: dad4 f13b 7d84 053e d35c 64bc 4ab7 efbd
00000040: 758c 7bbe 421c dfbd 1410 49be f85d 8bbd
00000050: 408b d9bd 78c9 313d cbd4 5d3c ab4a 20be
00000060: 72cc 99bd 445b e6bd f1d4 40bd c107 27be
00000070: b72e acbe 855f ddbd b4bf 84be e6c2 45be
00000080: 1901 1bbd eec8 dbbd 884a febd e08c d3bc
00000090: 343f edbd 40ac a6bc 1a05 313d f0cf 19bc
000000a0: d8c4 bcbc 2cb3 7ebe d0c2 69be cd31 f3bc
000000b0: a10a cbbd 09d6 fe3d d2aa a6bd ae6c 75be
000000c0: efb7 1dbd fafc 75be 79ca 55be db26 36be
000000d0: 21c8 0b3e c142 b9bc f117 1cbe 2888 e6bd
000000e0: ada5 90bc ac49 a6be 872e d7bc fa7f c7bd
000000f0: de79 1cbe 799f b6bd 6fd8 c1bd d21e 36be
-0.23268496 -0.1593614 0.09991334 -0.024338353 -0.019118922 0.010659545 -0.22339559 -0.024404217
-0.18059623 0.13539854 -0.25604713 -0.2849171 0.00738011 0.13038822 -0.013938147 -0.117048815
-0.24565299 -0.108940616 -0.1963504 -0.068050325 -0.10622263 0.043405026 0.013539503 -0.15653484
-0.07509698 -0.11247876 -0.047078077 -0.16311552 -0.3362939 -0.108092345 -0.25927508 -0.19312629
-0.037842844 -0.10731684 -0.124165595 -0.02582401 -0.11584321 -0.020345807 0.043217756 -0.009387955
-0.023043081 -0.24873036 -0.22828221 -0.029686833 -0.09914137 0.12443168 -0.0813805 -0.2396724
-0.03850549 -0.24022284 -0.20878018 -0.1778826 0.13650562 -0.022614839 -0.15243508 -0.112564385
-0.017657125 -0.32478082 -0.026267303 -0.097412065 -0.15280864 -0.08917136 -0.094651096 -0.17785195

weight f4 [256, 128]
00000000: 0fc5 363d 8efc a33d f3be afbc 1290 17be
00000010: a5d6 973e 0e31 fc3d 3657 01bd 43e1 83bd
00000020: cd0f 30bd e8df 6e3c b030 a0bd 3f8f 6a3c
00000030: 107d 1dbe e890 28be 556f 40be 7794 b3bc
00000040: e19a 1c3e 91db bcbc 70bd ea3c dc5d afbc
00000050: ce44 333d f008 903b 9824 b03d 641a 3f3d
00000060: 1c28 083d a8c8 bc3b 3617 29be 1853 51be
00000070: 22b7 ed3d cc61 ba3d d54b 2fbd bd0a bc3d
00000080: 1ef3 e73d baf5 113e 4d8d 15bc 5272 df3c
00000090: a1f3 5d3d 54a4 3f3c 5ddc c73c 7f75 61bd
000000a0: e036 c63d 05c1 91bd 6863 b7bd faea 85bd
000000b0: 01f4 4dbd 0a58 983d b6ae 1e3b a6cb 4dbd
000000c0: 742d a3bd c129 193d 1728 12be cb77 00be
000000d0: 36ba 693d 1390 e03a 1429 e7bb 2072 02be
000000e0: d70a ad3d 5973 5b3e 60af 8fbd 6e11 62be
000000f0: 810c 1e3d 5b17 ad3d 7b83 eb3d ec6c c63c
00000100: 2d33 8ebd 9ba7 2cbd 0fbe 483d c73f 223d
00000110: 5059 85bd d3e0 a73d f3b5 513d 66b1 d9bc
00000120: 9235 9f3d dd19 0a3d 030d 553d 13ef 2b3d
00000130: bba9 c43d 0310 283e abfa 9cbc 80f3 23bd
00000140: 3fef e93d bb67 263e b857 0dbe 9688 1abe
00000150: ecb1 103e 7938 583e 7c10 ec3b b30a b83c
00000160: 4be4 b7bc c7f9 e63b 0681 f83d 422a 1d3e
00000170: 7652 2bbe c0a7 9bbd ae01 09bd 2457 0abe
00000180: f242 a13d d562 febd 2a44 87bd e525 163d
00000190: 61cc 523d f474 e83d 72e1 12be 6db8 cdbb
000001a0: a8c0 993c a356 c23b 2732 07be 8a84 903c
000001b0: bc6f 0e3d 7c9b 5e3d 2401 643d abf7 063e
000001c0: 076c 5a3d 1531 de3c 06df f5bd fc31 93ba
000001d0: 1822 1dbd 94c6 883d 48bc f63d 1f82 883d
000001e0: 8237 77bd 1074 0ebe 75c3 c73d 28b1 b9bc
000001f0: 6b4e cb3d 6621 d53d 845c 123d 88e8 88bd
00000200: 8adb ea3d 0118 cb3b 41bb 4dbd 5562 f2bd
00000210: 58d9 7939 ce84 7dbd 70ba 94bc 7c48 84bd
00000220: 23fa 8c3d 7034 41bd 4cba 61bd 1335 e9bd
00000230: 10db e03d fdb0 9f3d 2660 243e c123 8a3d
00000240: 683f ce3d 00dc 24bd dba3 4c3b d491 14bd
00000250: d926 9cbc 5db1 123d da62 dfbc f8fa 7bbd
00000260: ddc9 e93b a8ca 673c 9448 50bd 0e22 7bbd
00000270: d067 4cbc eff5 623d a484 1abe b39b 80be
00000280: d9b1 d23d 9a2b b13c b560 bbbd 3ecf f7bc
00000290: 215c d0bd 3897 ee3d 1b42 4dbd 6059 ba3d
000002a0: 3ecd 92bd 2a70 2bbe 0d54 e3bd 6f80 f6bc
000002b0: 3178 323d a256 5cbd 36dc ad3c 9ef6 73bd
000002c0: 7d0d 4d3c cb41 e33c 95ab f83c f595 013d
000002d0: 126b b8bd 1bc9 0fbd 38af 963d be4d bf3d
000002e0: 0bc1 d83d a793 423d abc3 d53c 7b85 453d
000002f0: 1256 cabd ad56 ff3d 3874 d43d e021 b03d
00000300: ccdd c23c f5a5 8b3d fc5c 68be 2e64 aabe
00000310: 8774 eb3d 5706 2b3d cb49 a1bd a12b 65bd
00000320: 3802 183e 2736 c23c 2114 7ebd 83d2 b43c
00000330: 356b c53c 1b85 c5bc d885 93bc 7803 4d3c
00000340: d47e 853d e274 20bc fc6e 27bd fe0c dbbb
00000350: 32e6 8d3d 8b4c 87bd 54cd 3f3c b395 97bd
00000360: 6a06 c23c db49 40bd cae4 81bd 880b b9bd
00000370: 7988 9c3c 9776 56bc 71df 1d3d 2285 3bbd
00000380: d703 2fbd e8cc 973d e579 8b3e 027d 303e
00000390: ec0c 593e 7f89 263e c5b0 ad3d 68ad aa3d
000003a0: 051a 9c3d 956f b63d 6f79 fabc 18b2 463d
000003b0: 9ee4 7ebd 0214 cebd 384d 433d ec32 96bd
000003c0: 04f1 3e3d 5acd 6ebd 96e0 e33d 7222 bc3d
000003d0: c94c 6b3d 2f8f a23d 0e13 fc3c a958 f5bc
000003e0: 7156 283d b156 8a3d fcf1 87bd 3ac1 b2bd
000003f0: df02 3abd f9c4 b23d cc1e b63d 29ca 233e
0.044621523 0.08007155 -0.021453356 -0.14801052 0.29655948 0.12314044 -0.03157731 -0.0643945
-0.04298382 0.014579751 -0.078217864 0.014316379 -0.15379739 -0.16461527 -0.1879247 -0.02192138
0.15293457 -0.023053916 0.028654784 -0.02140706 0.04376679 0.0043955967 0.0860073 0.046656027
0.033241376 0.005761225 -0.1651276 -0.20441854 0.116071954 0.091006845 -0.04279693 0.09181736
0.11325668 0.14253893 -0.009127927 0.027276192 0.05418742 0.011696894 0.02439707 -0.055043694
0.09678435 -0.07116894 -0.08954507 -0.06538959 -0.05028153 0.07438667 0.0024213023 -0.050243042
-0.07967654 0.037393335 -0.14273106 -0.12545697 0.05706235 0.0017132781 -0.0070544574 -0.12738848
0.08449333 0.2143072 -0.07015872 -0.22076961 0.038586143 0.0845172 0.11499687 0.02422186
-0.06943355 -0.04215203 0.04900938 0.039611604 -0.06511176 0.08197179 0.05119891 -0.026573848
0.077738896 0.03371607 0.052014362 0.041976046 0.09602686 0.16412358 -0.019162497 -0.04002714
0.11422586 0.16250508 -0.13802993 -0.15091166 0.14130372 0.21115293 0.0072041135 0.02246604
-0.022447726 0.0070488187 0.12133984 0.15348151 -0.16730675 -0.07600355 -0.033448867 -0.13509804
0.07874097 -0.124211945 -0.06604798 0.036657233 0.051464442 0.11350432 -0.14343813 -0.006278089
0.018768623 0.005930738 -0.13202725 0.017641325 0.034774527 0.0543475 0.05566515 0.13180415
0.05332568 0.027123014 -0.12005429 -0.0011230106 -0.038362592 0.06678501 0.120476305 0.06665444
-0.06035567 -0.13911462 0.09754077 -0.022667482 0.099270664 0.10406761 0.03573276 -0.06684977
0.11467655 0.00619793 -0.050227407 -0.118351616 0.00023827457 -0.06189423 -0.018155307 -0.06459138
0.06883647 -0.04716915 -0.055109307 -0.11387076 0.10979283 0.0779743 0.16052303 0.06745101
0.100706875 -0.04024887 0.0031225595 -0.036271885 -0.019061493 0.035813678 -0.027268816 -0.06151864
0.0071346597 0.014147438 -0.050850466 -0.061311774 -0.012475923 0.05541032 -0.15089661 -0.2511879
0.10287828 0.021627236 -0.09149305 -0.030250188 -0.10173822 0.116499364 -0.05011187 0.09099078
-0.07168053 -0.16742006 -0.11100016 -0.030090539 0.043571655 -0.053793557 0.021223169 -0.059561364
0.012515423 0.027741333 0.030355254 0.03163715 -0.09004797 -0.0351039 0.07357639 0.09341
0.10583695 0.047504093 0.026094278 0.048223 -0.09879698 0.12467704 0.103737295 0.08600211
0.023787402 0.06818763 -0.2269172 -0.33279556 0.11496835 0.041754093 -0.07875403 -0.05594981
0.14844596 0.023707462 -0.062030915 0.022073036 0.024098972 -0.024111321 -0.018008158 0.012513034
0.06518331 -0.009793492 -0.040877327 -0.0066848984 0.06928672 -0.06606396 0.011706669 -0.074016
0.0236847 -0.046945434 -0.06342466 -0.090354025 0.019108044 -0.013089797 0.03854317 -0.045781262
-0.04272827 0.0741213 0.27241436 0.17235187 0.21196336 0.16263388 0.08480982 0.08333856
0.0762215 0.08908001 -0.030575482 0.048509687 -0.062229745 -0.1006241 0.047681063 -0.07333931
0.04661657 -0.058301307 0.11126821 0.091862574 0.057446275 0.07937466 0.030770805 -0.029949503
0.041098062 0.06754816 -0.06637952 -0.08728261 -0.045412894 0.08728976 0.08892593 0.15995087

bias f4 [256]
00000000: 4743 17bc 6875 36bc 7ed7 263e 8078 9c3d
00000010: e701 debd d3de a33d 3ff8 723d 301f f1bc
00000020: 9acb 863d 405b a6bd b6af 8e3d f1aa 9cbc
00000030: 212c 95bd c1e1 81bc 1b73 0e3d 6d59 f43d
00000040: a253 113d fca1 a0bc 90af da3c 35fd be3c
00000050: 4f42 3b3d 12a5 323d 416c 8d3e 84fd 153d
00000060: b1fe bb3d 1323 7c3c 20fb 73bd b005 a93c
00000070: 61d3 86bc 5710 933c f4a6 533e ece0 3e3d
00000080: e893 073d 1a61 ac3d c255 f33d b3a8 5bbc
00000090: 7067 dd3c f262 8d3d 7f3b 2a3d be78 163b
000000a0: bc0d 14be a08a 193d e3f4 32bd 3e87 163d
000000b0: acd5 7f3c 25b4 963d 33de bb3c 69a5 b73c
000000c0: 79b6 ac3d 9353 0b3e 94ab 133d 0d3b 723d
000000d0: 4a48 233d 865e 8f3d 6e3b 103e e154 963c
000000e0: 6286 b13d 5606 dc3c cec1 5dbb 6553 e13d
000000f0: fbe7 383e cac6 923d c748 043d d53f 7a3d
00000100: 6b43 ad3c a23e 9f3c 2bd2 d23b 7df5 fcbb
00000110: 07a1 3e3d 5d99 713d aa48 e4bb 51c4 0e3d
00000120: a78a d03d 9d3f 36bd f3bf 1c3e 68af 3c3d
00000130: a9a4 c63d f24f 0a3d 1926 1a3d e6ca 233d
00000140: 20ab 433d 6eae 8e3e 23c6 f83c 011c d73c
00000150: c553 203d 293d 6cbd 73c4 c63d 6a8e 5f3e
00000160: 3c0e de3c 89b5 083d ea1a a8bb 83d5 5c3e
00000170: b096 f43c f4cc dc3c c35c c63d 2134 f8bc
00000180: dfd6 b3bc 2059 903c 921f 053d b836 153d
00000190: 28d6 833d f0fc bc3d 6d63 d7bc 2ada 163d
000001a0: 6178 2d3d 1fb5 ee3d 4a50 b23c 0961 883c
000001b0: cb2c ea3d 6de0 283e 9fd3 583d 0192 ed3c
000001c0: 9086 e23b c61d 893c eed2 473d 084f e93c
000001d0: 43a8 403d 4f92 76bd 51c6 eb3c 6f00 3c3d
000001e0: e96c 743e ed91 ca3d b838 de3a b063 953e
000001f0: e87c fcbb 36c6 1b3e 75ee c33d 6854 033e
00000200: af14 69bc 9133 be3d 4955 443d a735 b93c
00000210: ba9f 623d 41cb 1d3d 94c6 bf3d 0e94 ad3d
00000220: c406 133d 9a63 2c3d ec20 143e 14f4 64bd
00000230: fadf 693d cbbd 183d 10c4 0c3d ed09 ebbc
00000240: 3af8 0a3e 1a9c f5bc d068 0a3e 04da 213d
00000250: fe26 17bd 4646 e0bc 73d4 cf3c 20c1 973e
00000260: be15 2e3d f085 ec3c 2eb2 403d 118a 973d
00000270: 271c c23d 8e4e 1f3d 01d1 a0bd 788b 913d
00000280: eb45 683d f334 913d 1b62 7a3c c401 ad3d
00000290: 22bf aa3d 59e8 383e aefa 0b3d bb27 d33c
000002a0: b019 d23d 421a 3ebd 5a17 2b3e 5058 ee3d
000002b0: c618 ac3d ebc9 5fbc bf4d c43d b0f2 823c
000002c0: 8d38 173d 1dae 953d d204 483d 1372 103d
000002d0: 3507 753d c5c7 463d 8d38 5dbd 5130 78bc
000002e0: a6ae 093d 724b 813d 5cbd 873e 33a0 403e
000002f0: 0434 813d 0dc5 8cbc e9fe 643d dd8b f83b
00000300: 3cde 903c 82be da3c cd32 e73d 0135 3cbc
00000310: 11b6 843e 1adf a9bb 0e10 7b3c e74b 183d
00000320: d4e7 76bc 27de 423e fdde 9d3c a580 163d
00000330: 625d cf3d 111f 773d e1ad f9bc 9cda ad3d
00000340: b025 cc3d 5d8e 363c 480e a53b 5673 5a3d
00000350: e5d7 bf3d 13e2 bbbd 65bf 6f3e 7393 3b3d
00000360: 39da ca3c 18f8 883e 0d3b a13c be05 073e
00000370: 8eb6 9c3c 0f8b 42bc 71ba 0a3d cabd b33d
00000380: 22e9 233d 86a3 733d c32b bebc a290 913d
00000390: b72f a0bd c9a5 5c3d e053 a73d e351 a53c
000003a0: 05cf f53c 053b 283d 8567 003e 299d c4bb
000003b0: 6065 433d e19d 3f3c 058e 473d 4c1a 9e3d
000003c0: 4153 6d3d aecc a4bc a530 38bb 1a9d a53d
000003d0: fac7 5c3e 7f3e a13c c486 723e ae36 e03d
000003e0: 010f 863e 0ef4 893d 172d 473d 0837 293d
000003f0: 2e22 02bd 1a13 b43d 3655 9d37 99fb 9e3d
-0.009232349 -0.01113639 0.16293141 0.07640171 -0.108402066 0.08001485 0.059318777 -0.029433817
0.06581803 -0.08122873 0.06967108 -0.01912448 -0.072838075 -0.015854718 0.034777742 0.11931119
0.03548015 -0.01960849 0.026695043 0.023314098 0.045717534 0.043614455 0.27621654 0.036618724
0.09179438 0.015389222 -0.059565663 0.020632595 -0.016458215 0.017952127 0.20669156 0.04660122
0.03310004 0.08416958 0.118815914 -0.01340692 0.027026862 0.06903638 0.041560646 0.0022960152
-0.14458364 0.03748572 -0.043690573 0.03675007 0.015614908 0.073585786 0.022933101 0.02241774
0.084332414 0.136061 0.0360523 0.059138346 0.039863862 0.07000451 0.1408517 0.01835102
0.086682096 0.02685849 -0.003383744 0.11002234 0.18057244 0.07166822 0.03229597 0.06109603
0.021150311 0.019439045 0.0064337454 -0.007719694 0.046540286 0.05898415 -0.00696667 0.03485519
0.10182696 -0.04449426 0.15307598 0.046065718 0.09699375 0.033767648 0.03763399 0.03998842
0.04777062 0.27867454 0.030367916 0.02625847 0.03914239 -0.057675514 0.097054385 0.2183167
0.027106397 0.03337625 -0.0051301615 0.21565823 0.02985701 0.026953198 0.09685662 -0.030298294
-0.021953044 0.017620623 0.03250081 0.036429137 0.064373314 0.092279315 -0.026292527 0.03682915
0.04235113 0.1165564 0.0217668 0.016647832 0.11434325 0.16491862 0.052936193 0.029000284
0.0069130138 0.01673783 0.048785143 0.028480068 0.047035467 -0.060198124 0.028781088 0.04589885
0.23869671 0.098911144 0.0016954159 0.29177618 -0.0077053197 0.1521233 0.095669664 0.12825167
-0.014226123 0.09287179 0.047932897 0.022608591 0.05532811 0.038523916 0.09364048 0.08475505
0.035895124 0.042087175 0.14465684 -0.055896834 0.057098366 0.037290376 0.034366667 -0.028691256
0.13571253 -0.029981662 0.13516545 0.039514557 -0.03690242 -0.027377259 0.025369858 0.2963953
0.042501204 0.02887246 0.047044925 0.07399381 0.09478026 0.038893275 -0.07852364 0.0710668
0.056707304 0.070901774 0.015282179 0.084476024 0.08337237 0.18057384 0.034174614 0.02577578
0.10258806 -0.04641176 0.16708127 0.11637938 0.08403163 -0.013658981 0.095851414 0.015984863
0.036919165 0.073086 0.048832722 0.03526504 0.059821326 0.04853036 -0.05400901 -0.015148238
0.033613823 0.06313218 0.26511657 0.18811111 0.06308749 -0.017183805 0.055907164 0.0075850324
0.017684095 0.02670217 0.11288986 -0.0114872465 0.25920156 -0.0051840665 0.015323652 0.03718176
-0.015069921 0.19030057 0.019271368 0.03674378 0.10125233 0.06033236 -0.03047842 0.08488962
0.09968126 0.0111423405 0.005037103 0.05333265 0.093673505 -0.091739796 0.23412855 0.045794915
0.02476226 0.2675178 0.019681478 0.13185784 0.019130018 -0.011873974 0.03386921 0.08776434
0.040017255 0.05948212 -0.023214227 0.07107665 -0.07821601 0.053869043 0.08170295 0.020180648
0.030005941 0.04107191 0.1253949 -0.0060001803 0.0477041 0.011695356 0.048719425 0.077198595
0.057940725 -0.02011713 -0.0028105166 0.08086605 0.2156066 0.01968312 0.23684222 0.10947929
0.26183322 0.06736003 0.048626985 0.041312248 -0.031770878 0.08792706 1.8755538e-05 0.07762832

weight f4 [256]
00000000: 6e62 9c3f 4cc0 9a3f f40a a53f 62fa aa3f
00000010: 4eee a43f 07e0 943f 6e2f b73f b260 943f
00000020: a373 8e3f 7dbc 993f 0260 9e3f fa69 913f
00000030: ecb2 983f 24d3 8f3f e812 8c3f 65f4 a93f
00000040: bd3e a83f 83fa 993f 3443 a63f e3ce a23f
00000050: 28bd 8d3f 4362 9f3f 0130 ba3f a9c1 b53f
00000060: c8c0 a03f e81d 923f 2145 833f 5535 953f
00000070: da8f 963f 185e 9f3f 2d8d b33f 9665 a03f
00000080: 85aa a03f c954 a13f aecf 963f e213 a63f
00000090: 5a65 953f 1bb7 853f 14ef 893f cd36 983f
000000a0: 9329 953f 3533 bb3f 3b7c 9a3f a0fb 9c3f
000000b0: 654b 9c3f b67f 9d3f 3530 953f 8482 9d3f
000000c0: ab82 9b3f ca49 ae3f 862c 913f 25eb ae3f
000000d0: b4ab a93f e176 973f f964 a63f 92a7 a33f
000000e0: 8b26 923f 20f2 923f 011d 943f 515c 893f
000000f0: 5d38 9a3f 301f 953f 88fa 933f 9869 a63f
00000100: 4ef5 973f 54d1 993f 4dbd b13f f26e 983f
00000110: 9a0f be3f 2b1e ae3f d5e1 973f 0846 8d3f
00000120: 5de9 a53f 29a1 903f f2cc 993f fa96 8d3f
00000130: 819d cd3f 293d ae3f 29d4 913f 8727 ac3f
00000140: 8114 933f 4b03 ae3f b770 c73f 23fb 9f3f
00000150: d4cb 943f e64f 8a3f 3c38 9a3f 8889 903f
00000160: 388d 843f 2f8c 983f 247b 8f3f 0805 ae3f
00000170: fdcd 913f c2bd 963f 7ee9 953f c43c a03f
00000180: 8089 af3f 8fc6 aa3f dd9c a93f 4d25 923f
00000190: d0b1 983f 7634 9a3f 9e90 743f 1130 a03f
000001a0: c7ac a33f 6f78 9a3f 46b4 9b3f 8efd 953f
000001b0: 3c7f 893f 3e2f 933f 922d 973f cdc7 9a3f
000001c0: cb0a 9f3f 7c50 a13f 22cd 993f 15de 843f
000001d0: 5b3d ab3f ffbe 9c3f 6d75 903f 7230 aa3f
000001e0: f17d c33f d53d 863f 94b8 943f 3b32 bb3f
000001f0: c38a aa3f 7787 a43f fbe9 9b3f 19a6 9a3f
00000200: 5724 963f 0297 993f 8f99 b23f f0e5 983f
00000210: c412 993f df4f ac3f cbb8 a33f 3783 8d3f
00000220: 274c 8d3f 2254 7f3f 6177 b13f 4254 923f
00000230: 8903 ad3f 1005 953f ada5 963f 413c 963f
00000240: 399e 943f 9f04 993f 9adf 993f 7b04 943f
00000250: 7891 963f 8e96 913f 0cf8 9e3f 7bff a13f
00000260: 74ec 963f e3e3 933f 43e1 ab3f c1a8 913f
00000270: 24a5 af3f aee4 aa3f ec47 8e3f 6050 833f
00000280: 0dc0 923f 587d a43f 6f62 9b3f 0b27 ab3f
00000290: f4fa 753f c93d a23f 22de b23f fd91 a93f
000002a0: 69db 983f a651 843f 4215 843f 2edf 903f
000002b0: de3e a23f be98 823f d1dd a53f dc36 b13f
000002c0: 502f b73f b2bd b23f dae0 833f d5a2 a83f
000002d0: 98e1 953f 4ce2 953f e8ce 973f 247d 8a3f
000002e0: 624d 993f 187e c33f 542c b83f 38d2 9a3f
000002f0: 3541 993f 5a83 a43f 0331 913f b59b 773f
00000300: bf26 8d3f 5795 983f ca17 903f 964c 893f
00000310: 3278 a83f 03bd 893f 1900 993f e24c 8a3f
00000320: 6d71 8d3f c896 a53f 5b63 a13f 9a78 ac3f
00000330: f870 8a3f ab97 a23f dd1f 953f 6a8c 8d3f
00000340: 9f80 993f 0981 9c3f 82d2 9d3f 43bd 993f
00000350: 5de8 8c3f acb7 803f bfc9 af3f fb6a 983f
00000360: c5f6 a03f c65c a53f 9905 a23f c322 983f
00000370: c9e3 8d3f 0d60 933f 1c6e ab3f 633c 9f3f
00000380: 8dae 963f 4938 933f c74b 963f 1588 a83f
00000390: 4b76 953f 8204 893f 81b9 993f 18ab 843f
000003a0: e598 8b3f 464f 983f 0506 9c3f dddb 923f
000003b0: ecb0 9b3f f9f1 8a3f 7516 963f 162d a83f
000003c0: 2e1a 8e3f 223a 9c3f a251 ad3f 81cc 9b3f
000003d0: 4077 b63f 79c2 a73f 02cc cf3f 1752 aa3f
000003e0: e3b9 a33f d1e2 a13f 7c4c 8e3f d79f 973f
000003f0: 78c3 8b3f a0a1 ab3f 960b 9c3f d92a 9b3f
1.2217538 1.2089934 1.2893968 1.3357661 1.2885225 1.1630868 1.4311349 1.1592009
1.112904 1.2010647 1.2373049 1.1360466 1.1929603 1.123631 1.094327 1.3277708
1.3144146 1.2029575 1.2989259 1.2719387 1.1073351 1.2451862 1.45459 1.4199725
1.2558832 1.1415377 1.0255471 1.1656901 1.176265 1.245059 1.4027458 1.2531002
1.2552038 1.2603999 1.1782129 1.2974818 1.1671555 1.0446504 1.0776086 1.1891724
1.1653312 1.4625002 1.2069162 1.226429 1.2210509 1.2304599 1.1655337 1.2305455
1.2149252 1.3616269 1.1341712 1.366551 1.3255525 1.1833154 1.2999564 1.2785513
1.1418012 1.1480141 1.1571351 1.0731298 1.2048451 1.1650143 1.1560831 1.3000975
1.1871736 1.2017007 1.3885895 1.1908858 1.4848511 1.3602957 1.1865793 1.1036997
1.2961842 1.1299182 1.2015669 1.1061699 1.6063691 1.3612415 1.1392871 1.3449563
1.1490632 1.3594755 1.5581273 1.2498516 1.1624703 1.0805633 1.2048411 1.1291971
1.0355597 1.1917781 1.1209455 1.3595285 1.1390988 1.177666 1.1711881 1.2518544
1.3713837 1.3341845 1.3250996 1.1417633 1.1929264 1.204726 0.9553317 1.2514669
1.2787102 1.2068003 1.216439 1.1718004 1.0741954 1.1498792 1.1810782 1.2092224
1.2425169 1.2602687 1.2015727 1.0380274 1.3378099 1.2245787 1.1285836 1.3296034
1.5272809 1.048762 1.1618829 1.4624704 1.3323597 1.285384 1.218078 1.2081939
1.172984 1.1999209 1.3953112 1.1945171 1.1958852 1.3461875 1.2790769 1.1055669
1.1038865 0.9973775 1.3864557 1.1431963 1.3516704 1.164217 1.176931 1.1737138
1.1610786 1.1954535 1.2021363 1.1563867 1.1763144 1.1374071 1.2419448 1.2656091
1.179091 1.155392 1.342812 1.1379625 1.3722272 1.3351038 1.1115699 1.0258904
1.1464859 1.2850752 1.2139415 1.337129 0.9608605 1.2675105 1.397404 1.3247677
1.1941959 1.0337417 1.0318987 1.1318109 1.2675436 1.0202863 1.2958318 1.3844867
1.4311314 1.396414 1.0302994 1.3174692 1.1709471 1.1709685 1.1860018 1.081944
1.197674 1.5272856 1.4388528 1.2095404 1.1973025 1.2852585 1.1343082 0.96721965
1.1027449 1.1920575 1.125726 1.0726497 1.3161681 1.0760807 1.1953155 1.0804713
1.105024 1.293664 1.2608446 1.3474305 1.0815725 1.2702535 1.1650349 1.1058476
1.1992377 1.2226878 1.2329867 1.2010883 1.1008412 1.0056052 1.3733443 1.1907648
1.2575308 1.2918937 1.2657958 1.1885608 1.108514 1.1513687 1.3392978 1.2440304
1.1772019 1.1501552 1.1741875 1.3166529 1.1676725 1.0704501 1.2009736 1.0364714
1.0906035 1.1899192 1.2189337 1.1473347 1.2163367 1.0855094 1.1725603 1.3138759
1.110174 1.2205241 1.3540537 1.2171785 1.4255142 1.3106223 1.6234133 1.3306302
1.2791103 1.2647344 1.1117091 1.1845654 1.0919027 1.3408699 1.2191036 1.2122451

bias f4 [256]
00000000: 61c2 443e a76d 403e 00a3 853c dbee df3d
00000010: a4c9 8a3e 19de 193e 80ca 0d3d 2d58 363e
00000020: 9a23 043e 73d9 293e 0b47 063e 6474 543e
00000030: b75e 473d ae19 413e 0020 a63d 725b 88bd
00000040: dddf ce3c 40b6 7f3e 762b 1abd c448 c23d
00000050: 8232 783d 2d46 b83c b43b 8fbd ff1e 8a3d
00000060: 36b4 bf3d 6a81 093e a57a 883d e44f 053e
00000070: 2aa3 193e fa2a 6fbc 9229 8abc cf1d ddbc
00000080: 0c1e 26bd ba8a fd3d 51b6 ee3d b88f 5f3e
00000090: 76ca 2f3e 9868 c8ba 52f6 2b3e 3d5c 553e
000000a0: 7d97 293e 8e64 843d 9a7b 483e fff1 de3d
000000b0: 421f 823e e4ec 413e 5536 aebb fed8 8e3d
000000c0: 94c8 3a3e 381c 88bd 7d3a 593e 7ecf 513d
000000d0: ed0b e0bc a490 003e 0f6b 023e 3d68 873a
000000e0: 625f 233e 1fce 2a3e 2e1c 373e 5132 bc3d
000000f0: 1023 f93d 88b8 453e 0b3a 933d f6d6 943c
00000100: 95df 6f3d 022a 7c3d 776b 693d d2b0 193e
00000110: 051e 3e3e eefe 5a3e 5fde 833e f710 d83b
00000120: 93b8 4f3d b805 243e e0da f23d ff8e bc3d
00000130: 9686 383e 5b3c 173d 3db1 c53d a65f 693e
00000140: 221a 913d bb74 283e 3775 223c b578 6bbb
00000150: 7625 983d fc2e cc3d a067 863d 7404 fcbd
00000160: eed2 0c3e 7063 483e 5b84 513e c08e 4cbd
00000170: 3701 d33d 09eb bd3d 8f23 743e 7997 523e
00000180: 735e 843e 1f79 dfbc 86c4 a83c 093b 1f3e
00000190: b739 c23c 6e54 903c 18ca 7b3c 8fee f13d
000001a0: b687 2f3e 826f 30bd c3dd 8c3c d91e c33c
000001b0: 72db a53d 2650 623d e042 0c3e 76c8 df3d
000001c0: 8df3 593e 5558 0f3d 1065 633e 274c d23d
000001d0: 1399 5d3e 2eb7 823e 7ca0 e53d 60c5 e13c
000001e0: b1e2 f8bd 4d06 133e c76e 2d3e 7c3c ddbd
000001f0: dd4e 113d 1c07 c13d ff94 cf3d 2926 073e
00000200: 1703 343e eab7 973d b8f4 a13d f990 aa3d
00000210: f335 e03d d8ad cd3b 1414 1c3e bbd2 b33d
00000220: 5e27 a33d ed0b 0f3e c761 9e3d 6306 363e
00000230: 92e3 e63d 3310 193e 3887 c13d 58d4 893c
00000240: 68b7 db3d 414f 6c3e 46df d83d a721 c43d
00000250: 3efb 4c3e 074a 393e 1bfd 48bd 268f a5bd
00000260: 485c 803d d399 173e 1c78 be3d b4f1 1e3e
00000270: c759 163d d4ca 173c 168d 283e 2ad9 d73d
00000280: 10eb c83d 2f3a 6f3e f097 cd3d 7f55 143e
00000290: a24a ed3d 50f7 203e 5114 2b3d 7b37 a1bd
000002a0: a531 623e b377 653e 2ea0 8abd fb14 573e
000002b0: 3984 d13d 2e0d ce3d 4e0c b63d e1b0 a13c
000002c0: a4aa 853d 9de5 203d c4ce f23d 044f ab3d
000002d0: e158 6a3e c0e8 d53d 2b86 423e 5b36 533e
000002e0: e256 e33d 49d3 473e af22 4b3e b517 173e
000002f0: fc1a 0f3e e7c2 2f3e 3896 ca3d a99b 46bb
00000300: 57a2 6b3e b29b bb3d cdf7 4f3d 147c 823d
00000310: 9012 8ebd 3123 833e aa26 84bc 8adb 113e
00000320: 4302 ed3d c7e7 db3d 3652 fbbc 0285 373e
00000330: 1ac5 013e 2a36 ab3d 6815 753e 921b ac3d
00000340: 3a41 043e f946 223e 4127 4c3e 544c 803d
00000350: ca56 103e 29ca 3c3e 979e a4bd 4daa 093e
00000360: c7f6 5bbd 7ab4 a63d 147d 3bbd f006 213e
00000370: 9cbb 033e d18f 2f3e 00c1 843d f362 4c3d
00000380: fa75 fe3d 5be7 a73d ca09 313e 299b 583e
00000390: 58f5 483e 8044 d13d c756 113e fdd5 43bd
000003a0: c278 443e 7256 d63c e27c 363d f402 753e
000003b0: eee8 0e3e e478 743e 83f2 323e 1500 163e
000003c0: b5d7 713e cf53 403e 33bc ad3e 2f53 263e
000003d0: bfe4 1dbe 0c71 fb3b 4dd3 19be 1fd6 ca3d
000003e0: 3e3a bebd 0252 70bd a4b7 cb3d 1387 eb3d
000003f0: e409 1b3e 57ee dc3d dc57 7c3e 0584 0f3e
0.19214775 0.18791829 0.016313076 0.1093423 0.27106965 0.1502613 0.034616947 0.17807074
0.12904206 0.16586857 0.13113038 0.20747524 0.04867431 0.18857452 0.08111572 -0.06658067
0.02525323 0.24971867 -0.037639104 0.09486535 0.060595043 0.0224944 -0.06993809 0.06744193
0.093605444 0.13428274 0.066640176 0.13018757 0.15003648 -0.014597649 -0.016865525 -0.026991753
-0.040556 0.123799756 0.11655868 0.21832168 0.17167076 -0.001528996 0.16793182 0.20835967
0.16561694 0.06464492 0.195784 0.10886001 0.25414473 0.18938023 -0.0053165355 0.06974982
0.18240577 -0.06646007 0.21213718 0.05122327 -0.027349437 0.12555176 0.12736152 0.0010330748
0.15954354 0.16680191 0.17881843 0.091892846 0.12164891 0.19308674 0.07188805 0.018168908
0.058562834 0.0615635 0.056987252 0.15008858 0.18566139 0.2138631 0.25755593 0.0065938192
0.050713133 0.16017807 0.11858153 0.09206962 0.1802009 0.036922794 0.09652946 0.22790393
0.070850626 0.16450779 0.0099156415 -0.0035930101 0.0742902 0.09969899 0.06562734 -0.12305537
0.13752338 0.19569182 0.20460646 -0.049940825 0.10302966 0.09273345 0.2384169 0.20565595
0.2585331 -0.027279435 0.020601522 0.15549864 0.023709161 0.017618384 0.015368007 0.118130796
0.17141613 -0.043075092 0.017195588 0.02381842 0.080984965 0.055252217 0.13697386 0.10926907
0.21284313 0.03499635 0.22206521 0.10268431 0.21640424 0.2553038 0.112122506 0.027559936
-0.12152613 0.14357872 0.1693679 -0.10802552 0.0354756 0.09425184 0.101358406 0.1319815
0.17579304 0.07408126 0.079080045 0.083284326 0.1094779 0.0062768273 0.15242034 0.08780428
0.07966493 0.13969393 0.07733493 0.17775874 0.11273874 0.14947586 0.09449619 0.016824886
0.10728341 0.23077108 0.10589461 0.09576731 0.20017716 0.18094645 -0.049069505 -0.08083944
0.06267601 0.14804773 0.09300253 0.1552189 0.036706712 0.009264667 0.1646007 0.10539468
0.098104596 0.23362039 0.100387454 0.14485739 0.11586501 0.15719342 0.041767422 -0.0787191
0.2208925 0.22408943 -0.06768833 0.21004097 0.102302976 0.100611076 0.08889066 0.019737663
0.06526688 0.039281476 0.11855844 0.083646804 0.22885467 0.10444784 0.18996494 0.20626204
0.11100556 0.19514193 0.1983745 0.14755137 0.13975137 0.17164193 0.09891933 -0.0030305183
0.23011146 0.09160556 0.05077343 0.06371322 -0.06937134 0.25612786 -0.016131718 0.14243904
0.11572697 0.107375674 -0.03067885 0.17921832 0.12672845 0.0835994 0.23933947 0.08403696
0.12915507 0.15847386 0.19936849 0.062645584 0.14095607 0.18436493 -0.08038061 0.13443871
-0.053702142 0.08139892 -0.04577358 0.15725303 0.12864536 0.17144705 0.06482124 0.049899053
0.12424846 0.081984244 0.1728889 0.21152939 0.19624841 0.102181435 0.14193259 -0.047811497
0.1918669 0.026164267 0.04455269 0.23926908 0.13956043 0.23874241 0.17475323 0.14648469
0.23617442 0.1878197 0.33932647 0.1624267 -0.15419291 0.0076733883 -0.15022011 0.099041216
-0.092884526 -0.05867196 0.09947136 0.11500373 0.15140492 0.10787647 0.2464289 0.14015205

running_mean f4 [256]
00000000: b933 8b3e f49b 2c3f 300b 8d3e 4fd9 3a3e
00000010: b235 b03e 9f9a b63e c473 343e d4f5 dc3e
00000020: f002 0f3f 70fd a63e 9ac9 fc3e 4bf3 c43e
00000030: c681 b83e 1f8d f63e b821 5e3e b2b8 103d
00000040: 62f6 ee3d f911 973e 708e 173d dd91 a33d
00000050: a553 ac3e 41a7 803d 66ef 9a3d 77cb 1a3d
00000060: d838 713e 4af3 503f b855 783c 94d7 083f
00000070: 5f3f 033f d472 723c f4c1 833e 9588 e53d
00000080: 9edb 043d 23bf 063f 8d50 443e fd02 123f
00000090: ce2f 043f 84bb 673d 7383 043f 9226 023f
000000a0: 3157 a93e 8658 753e 21d5 fb3e 60c5 063d
000000b0: 2409 db3e 25f4 103f 63fc 243c 69c8 063d
000000c0: 34ce 973e 2e6f 773e 105f d53e 96c5 3c3e
000000d0: 586c 9b3d 0bf3 ae3e 9bae 4c3f e225 933d
000000e0: 1f3c c23e 044a 173f 5e73 aa3e 2d00 673e
000000f0: 8361 6e3e 7e8f f43e a55c 7c3d 533c 633e
00000100: 6f0f c93c 463b 823d 6610 203d 2ab9 8c3e
00000110: f70d 393f 5bdd bd3e 5d11 1a3f 73ef 813d
00000120: 1621 bb3e 9cdb 1f3f d6cf f83e e902 5d3e
00000130: 8d1f 8e3e 6292 983d 206d 283e 3107 5a3e
00000140: 8a2c 993d 1164 0a3f 10a8 9a3d d9cc 3e3d
00000150: ca14 953c 16a2 ac3c eab9 043f 3ac1 553d
00000160: f723 cf3e 5523 0d3f c0c0 b73e ba7b 593e
00000170: a58b 973e aa71 483e 07ae db3e faaa e43e
00000180: 487f 1c3f b06c 4c3d 7bb7 db3c fc87 dd3e
00000190: 1e31 b23d 79bd 273f 3db3 063c bd0c c43e
000001a0: 340f c43e 8171 3b3e c3f2 ec3d dd46 113c
000001b0: 2909 a63e a802 153f 3621 893e 69e9 dd3d
000001c0: 689e 1a3f a4d1 333d cead 133f 9f97 b03d
000001d0: 59a2 053e 9b0a be3e 73ea ef3b 315f 9e3d
000001e0: f2a6 8d3d c304 c73e 2e6a 393e 5744 a63d
000001f0: 1816 e93e c3f6 933e bd9c b03e c193 ce3e
00000200: d277 013f 6ec7 c93e e420 803d e847 653e
00000210: bea1 243f 22c8 d93c 7b8e 1b3f 0db7 523e
00000220: 3a51 ef3e 5af2 493e 5fb2 043f 0c30 8a3f
00000230: 1d0d 813e 0e43 523e ab04 0e3f ce6a 233f
00000240: d5c3 c73e db7a fc3e e8b5 dc3e 189a 433e
00000250: 969a 113f 8a3f 133f b0ba 3d3d 708f 0c3e
00000260: bd7b 383e ca1a ee3e 44e2 693e 9530 323f
00000270: 2770 5f3e 88d9 e23d 8e67 723d f7d3 043e
00000280: c87b 0e3e 7b12 853e 927b 3d3e 017e 853e
00000290: 54fb 193e 6ef3 8b3e 721d 2a3d 6ba3 c63c
000002a0: 2caf 423f dec0 353e d340 3b3d e48d 053f
000002b0: c0e5 d53e 7f56 483c 8fdb 3a3e c85a a73c
000002c0: 3547 763e 1e60 5a3e 6858 ec3e f189 7f3d
000002d0: 1199 b83e 832e bb3e 3f37 713e b914 043f
000002e0: 64a9 893e c3a4 033f 6a82 ab3e 66ab 613e
000002f0: 34f2 7b3e 138d 893e 4098 3d3e db1a 8d3c
00000300: af44 2a3f 8431 0f3f 9298 e03e 0bd6 2e3f
00000310: 3b67 833d 672f 063f 9e5b 0a3d 9b63 b93e
00000320: 363e 3c3e dc75 063f 834e c23c b0ab e13e
00000330: 6465 043f fb20 f93e 65f4 003f 8cd2 1d3e
00000340: e8fb b93e 734c 883d 6cc0 7f3e 8f11 d83e
00000350: 345d 3a3e 19dc ce3d afbf 823d 032f 3c3f
00000360: 092d 063d a03c c83e 14a4 8c3c 58d7 d93e
00000370: c20a d53e 743a c33e 8b12 1a3d 2782 ac3e
00000380: de3d 2c3f 475e 9b3e 44d4 1c3e 0527 213f
00000390: d0e7 b83e 1135 3e3e 0259 853e 1bcc b83b
000003a0: 3535 053f 48b6 273d c3e6 f13e d5de 903f
000003b0: ecbc 043f 2920 283e 49ef 223f 8986 2f3e
000003c0: 6770 0e3f d0ab ff3e 2404 163f 56e8 bc3e
000003d0: d725 7a3d 13de 203d 360d 883d 3b03 7c3e
000003e0: e8d7 8b3d 1b98 133d fa05 833d 9075 3a3e
000003f0: f7d0 933e 945d a03e e7c8 813f 9cea 4b3f
0.271879 0.67425466 0.27547598 0.18246959 0.34415966 0.35664842 0.17622286 0.43156302
0.5586386 0.32615232 0.4937256 0.38466868 0.3603651 0.48154542 0.2169255 0.03533239
0.116680875 0.295059 0.037001073 0.079868056 0.33657566 0.06281901 0.07565193 0.037791695
0.2355684 0.8162123 0.015157156 0.53453946 0.5126857 0.014797885 0.25733912 0.112076916
0.032436006 0.526354 0.19171353 0.5703581 0.51635444 0.056575313 0.51763076 0.50840104
0.33074334 0.2395955 0.49186042 0.032903075 0.4278041 0.56622535 0.010069939 0.03290597
0.29649508 0.24163505 0.4167409 0.18434748 0.07589024 0.34169802 0.79953927 0.0718496
0.37936494 0.59097314 0.33291143 0.22558661 0.23279385 0.47765726 0.06161179 0.2219098
0.024543492 0.06358962 0.03907814 0.2748502 0.72286934 0.37082943 0.60182744 0.063444994
0.3654868 0.6244447 0.48596066 0.21583141 0.27758446 0.07449795 0.16447878 0.21291806
0.07479198 0.5405894 0.07551587 0.046582077 0.01819839 0.021073382 0.5184618 0.05218623
0.40457126 0.5513204 0.35889244 0.21238604 0.29598728 0.1957461 0.4290621 0.44661695
0.61131716 0.04990834 0.026820889 0.4326781 0.087007746 0.6552349 0.008221445 0.3829097
0.3829285 0.18305017 0.115697406 0.008866993 0.32428864 0.5820718 0.2678315 0.10835535
0.6039796 0.0439011 0.5768708 0.086226694 0.13050212 0.37117466 0.0073216497 0.07733
0.06916608 0.3887082 0.1810691 0.081185035 0.4552467 0.28899202 0.34494582 0.40347102
0.50573456 0.39409965 0.062562734 0.22390711 0.643093 0.026584689 0.6076428 0.20577641
0.46741658 0.19721356 0.5183467 1.0795913 0.25205317 0.20533392 0.5547587 0.63834846
0.39016595 0.4931248 0.43107533 0.19101751 0.56876504 0.5751883 0.046320617 0.13726592
0.18015952 0.46504813 0.2284022 0.6960538 0.21820126 0.11076647 0.05918079 0.12971483
0.13914406 0.25990662 0.1850417 0.26072696 0.1503728 0.2733416 0.041531987 0.024247846
0.7604854 0.17749354 0.045716118 0.5216963 0.41776848 0.0122276535 0.18247817 0.02042903
0.24050601 0.21325728 0.461612 0.06238741 0.3605428 0.36558923 0.23556231 0.5159412
0.26887047 0.5142328 0.33497936 0.2203804 0.24604112 0.26865444 0.1851511 0.01722472
0.6651105 0.5593493 0.43866402 0.68295354 0.06416174 0.5241608 0.03377878 0.36208805
0.18383107 0.5252359 0.023719078 0.440763 0.5171721 0.48657975 0.50372916 0.15412349
0.36325002 0.066552065 0.24975747 0.42200896 0.18199617 0.10100574 0.06384217 0.73509234
0.032757793 0.39108753 0.017168082 0.42547107 0.4160977 0.38130534 0.03761534 0.33693048
0.672819 0.30345365 0.15315348 0.62950164 0.3611436 0.1857493 0.2604447 0.0056395656
0.5203431 0.04094532 0.4724637 1.1318003 0.5185077 0.16418518 0.6364637 0.17141165
0.5564026 0.4993577 0.5860007 0.36896008 0.061071243 0.039274286 0.06643145 0.24610607
0.0682829 0.03603373 0.06397624 0.18208909 0.28870365 0.31321394 1.0139436 0.7965486
