Best_models/UCI_HAR_CNN_20210125_130254/CNN_UCI_HAR_Rep_1_Seed_471.pt (torch_old, 226695 bytes, 12 tensors)

weight f4 [64, 9, 3]
0	0xbe9cedc1	-0.30650142
1	0xbe733707	-0.2375146
2	0xbed18a7c	-0.40925968
3	0x3dfe6567	0.12421685
4	0xbe1c2a96	-0.1525062
5	0xbe21ceea	-0.15801588
6	0x3da876c1	0.082257755
7	0xbe682262	-0.22669366
8	0xbd1bd28c	-0.03804259
9	0xbe60aae3	-0.21940188
10	0xbeb7c114	-0.35889494
11	0xbedabf57	-0.42724106
12	0x3e6299c1	0.22128965
13	0xbdeef91b	-0.11668607
14	0xbe7643a6	-0.24049243
15	0x3e891e8e	0.26781124
16	0x3e4fccf6	0.2029303
17	0x3d4b8f4f	0.049697217
18	0x3bc75b0a	0.0060838507
19	0x3d2cd9ea	0.042200007
20	0x3e47e89e	0.1952233
21	0x3e80219d	0.25025645
22	0x3d8c9d02	0.06865884
23	0x3e669610	0.22518182
24	0x3e282e0c	0.16423815
25	0x3d4cf5be	0.050039046
26	0x3d5b8e5b	0.053602558
27	0x3e2bfbc7	0.16795264
28	0x3e510f9f	0.20416115
29	0x3e2839de	0.16428325
30	0xbd85cfca	-0.06533773
31	0x3cee03ab	0.029054483
32	0x3d5ded93	0.054181647
33	0xbec68844	-0.38775837
34	0x3de8bea7	0.11364489
35	0x3ec87ae8	0.3915627
36	0xbe360012	-0.17773464
37	0x3daa4143	0.08313229
38	0xbd8cfe28	-0.06884414
39	0xbcd25f4a	-0.025680203
40	0xbe24b103	-0.1608315
41	0x3d4d87ad	0.05017822
42	0xbe572758	-0.21011102
43	0xbdf2d2be	-0.11856602
44	0x3d01e8e5	0.031716246
45	0xbe06a43e	-0.13148591
46	0xbe4c7120	-0.19965029
47	0xbd349e43	-0.044096243
48	0xbb764d83	-0.0037582822
49	0xbd9e5fc6	-0.07733111
50	0xbe47e6fc	-0.19521707
51	0x3dc99d72	0.098444834
52	0x3e1b04ef	0.15138601
53	0x3e104386	0.14088258
54	0xbe91884d	-0.28424302
55	0xbec505ba	-0.38480932
56	0xbe732fd9	-0.23748721
57	0xbeb2aa84	-0.34895718
58	0xbec6a767	-0.38799593
59	0xbdaf47a5	-0.08558587
60	0xbd767a44	-0.060175195
61	0xbdd0e3dd	-0.101997115
62	0xbd9b88c9	-0.07594449
63	0x3e84faed	0.2597269
64	0x3da93947	0.08262878
65	0xbd008ce5	-0.031384367
66	0x3d775740	0.060385942
67	0xbdc6c5f3	-0.097057246
68	0xbe712bce	-0.23551866
69	0x3e20172c	0.1563384
70	0xbd0e4e6d	-0.03474276
71	0x3e0659af	0.13120149
72	0x3e1f2b31	0.1554382
73	0xbd5f5c0f	-0.054531153
74	0xbe160ff5	-0.14654525
75	0x3e53e8fc	0.20694345
76	0x3e293a37	0.16526113
77	0x3e13e245	0.14441784
78	0x3d0f4e7d	0.03498696
79	0x3ca2d82e	0.019878473
80	0xbd7e2638	-0.062048167
81	0x3e28b66e	0.16475841
82	0x3e7fd59b	0.24983828
83	0x3e3a061c	0.18166393
84	0xbe08ba60	-0.13352346
85	0x3d8dd723	0.069258
86	0xbe47df80	-0.19518852
87	0xbddbfc8b	-0.10741528
88	0x3ddda7e9	0.10823042
89	0x3db4c659	0.08826894
90	0x3e8eff1b	0.27929005
91	0x3d5f5886	0.054527782
92	0x3df02344	0.117254764
93	0x3d913d92	0.07091822
94	0xbe571366	-0.21003494
95	0xbdfdff4f	-0.12402212
96	0x3e39edbb	0.18157093
97	0xbccd65ee	-0.025073018
98	0xbd12d685	-0.035849113
99	0x3cb9ef73	0.022697186
100	0xbcaad645	-0.020854125
101	0xbd440a64	-0.04786147
102	0xbd2118c0	-0.039330244
103	0xbd2e0ff8	-0.042495698
104	0x3dfb7a42	0.12279178
105	0x3e2c74b0	0.16841388
106	0x3e8ef42c	0.27920663
107	0x3d956e8f	0.07296478
108	0xbe874beb	-0.26425108
109	0xbd08eb47	-0.033427503
110	0x3d940413	0.072273396
111	0x3e0c6bbd	0.13712974
112	0x3e8b10ca	0.27161247
113	0x3dcb0b71	0.09914292
114	0xbd2ad092	-0.041702814
115	0xbe81336c	-0.25234544
116	0x3caa3a73	0.020779824
117	0x3ea94a44	0.33064473
118	0x3c89e2d4	0.016831793
119	0xbecd6ce5	-0.40122142
120	0xbe1ea49b	-0.1549248
121	0x3d81e26b	0.06342014
122	0x3e8dd5b9	0.2770212
123	0x3c3b5013	0.011432665
124	0xbe4887a6	-0.19582996
125	0xbe21cddd	-0.15801187
126	0xbdce8249	-0.10083444
127	0x3dbd2b19	0.09236736
128	0x3e0a1e53	0.1348813
129	0x3e0e8d64	0.13921124
130	0x3dad6a35	0.08467523
131	0x3e7ecc04	0.24882513
132	0xbe15b480	-0.14619637
133	0x3da5d9b6	0.08098166
134	0x3bdfeee0	0.006833896
135	0xbe4c511f	-0.1995282
136	0x3e1a902b	0.15094058
137	0x3e2b928a	0.16755119
138	0xbe1d1628	-0.15340483
139	0xbe4970b8	-0.19671905
140	0xbe52c2bf	-0.20582102
141	0xbda55d5f	-0.0807445
142	0x3d381c11	0.04494864
143	0x3e08ecc2	0.13371566
144	0x3eb4284d	0.35186997
145	0x3e655d1a	0.22398797
146	0x3ef12b12	0.47103173
147	0x3e7d97ca	0.24764934
148	0x3d82693b	0.06367727
149	0x3de4f4f6	0.11179535
150	0xbe78408d	-0.24243374
151	0xbe4e3b3e	-0.20139787
152	0xbe590346	-0.21192655
153	0xbcb84d9d	-0.022497946
154	0x3de6da12	0.11272062
155	0x3d9fb4c7	0.077981524
156	0x3e035cb8	0.12828338
157	0x3e8a495c	0.27009094
158	0x3e42a8bb	0.19009678
159	0x3d3b3171	0.045701448
160	0xbddfff82	-0.10937406
161	0x3c450266	0.012024498
162	0xbe11ca7c	-0.14237398
163	0x3d834049	0.06408746
164	0xbe309c01	-0.17247011
165	0xbe1205a7	-0.14259969
166	0xbdc186cd	-0.09449539
167	0xbcebb348	-0.028772011
168	0x3e54153e	0.20711228
169	0x3e9f131b	0.31069264
170	0x3ef5108d	0.4786419
171	0x3e45abf1	0.19303872
172	0xbd0cc10c	-0.03436379
173	0x3c4a5bfb	0.012351031
174	0xbe81f42b	-0.25381598
175	0xbc96013e	-0.01831114
176	0xbe88e018	-0.2673347
177	0x3efd031d	0.49416438
178	0x3eb2be67	0.3491089
179	0x3d582e61	0.052778605
180	0xbe8dd417	-0.27700874
181	0x3cf8ada4	0.030356236
182	0xbdea018f	-0.114260785
183	0xbd8c3408	-0.06845862
184	0xbe485df4	-0.1956709
185	0xbd7f34d6	-0.062306248
186	0x3d884e59	0.06655569
187	0x3e70f6fe	0.2353172
188	0x3e0efdc8	0.13963997
189	0x3e0f8144	0.14014155
190	0x3e9be691	0.30449346
191	0x3e642281	0.22278787
192	0xbe3c364b	-0.18380086
193	0x3df5cba5	0.12001733
194	0xbcb35f38	-0.02189599
195	0xbe06f4db	-0.13179342
196	0x3df5acb7	0.11995833
197	0x3d8ec88b	0.06971844
198	0xbd80c4df	-0.0628755
199	0xbc53e118	-0.0129320845
200	0x3e4c29d5	0.19937833
201	0x3dd23f6b	0.10266002
202	0xbe25f4ca	-0.16206661
203	0xbe7a71db	-0.24457495
204	0x3ebb1795	0.3654143
205	0x3debcbd2	0.11513485
206	0x3e8d4123	0.27588758
207	0x3d9e32fb	0.077245675
208	0x3d406380	0.04696989
209	0x3de2b689	0.11069972
210	0x3edffe32	0.43748623
211	0x3ea91baf	0.33028933
212	0x3eb34ec8	0.35021043
213	0xbc1a4c43	-0.009417596
214	0xbe6dda7b	-0.23227875
215	0xbe45f60f	-0.19332145
216	0xbc1cee0e	-0.009578241
217	0x3daa5ea6	0.08318834
218	0x3e97982b	0.29608282
219	0xbf0da583	-0.55330676
220	0xbe1f7c9e	-0.15574881
221	0xbe6f3019	-0.23358192
222	0xbe93aa63	-0.28840932
223	0xbe885129	-0.2662442
224	0xbe120f9f	-0.14263771
225	0x3ce7030c	0.028199695
226	0x3e5bab8c	0.21452159
227	0xbe189de1	-0.14903976
228	0x3ed330c3	0.4124814
229	0xba6223f2	-0.0008626572
230	0x3c2ede8c	0.0106731765
231	0x3dc6d1a0	0.097079515
232	0x3d80f7a4	0.06297234
233	0x3e8c1079	0.27356318
234	0x3d5e3331	0.05424804
235	0x3d835bc1	0.06413985
236	0x3d3d7b0d	0.04625993
237	0x3dd6282e	0.104568824
238	0x3e0403de	0.128921
239	0x3d40d44a	0.047077455
240	0xbda5c06e	-0.08093344
241	0x3daac4ce	0.08338319
242	0x3e0a6f9c	0.13519138
243	0x3e4edfae	0.20202515
244	0x3da3c939	0.079973646
245	0x3dfd4651	0.123669274
246	0x3eeb31b0	0.45936346
247	0x3e154f24	0.14580971
248	0xbe34e9ee	-0.17667362
249	0x3f19fd7f	0.6015243
250	0x3e944192	0.28956276
251	0xbe1f7e97	-0.15575634
252	0xbe0e2782	-0.13882259
253	0xbd9ab22c	-0.07553515
254	0x3e31d1e0	0.17365217
255	0x3dc73a0d	0.09727869

bias f4 [64]
0	0x3da54666	0.08070068
1	0xbdc24b4c	-0.09487018
2	0xbe422081	-0.18957712
3	0xbe5cac45	-0.2155009
4	0x3d267719	0.040640924
5	0xbec7fcb0	-0.39059973
6	0xbeaeddee	-0.34153694
7	0xbdf28866	-0.11842422
8	0xbde50b3c	-0.111837834
9	0xbeb519a3	-0.35371122
10	0xbddcde25	-0.10784558
11	0x3c88a273	0.016679024
12	0xbdfe64a1	-0.12421537
13	0xbdf2bd0e	-0.118524656
14	0x3e0422a4	0.1290384
15	0xbe809ea7	-0.25121042
16	0xbda5985b	-0.080857
17	0xbe1176b2	-0.14205435
18	0xbda859c1	-0.08220244
19	0xbcbaedfd	-0.02281856
20	0xbd5fbc8d	-0.054623175
21	0x3cbd3cc4	0.023100264
22	0xbdce9523	-0.10087039
23	0xbb8ff032	-0.004392647
24	0xbe6838d5	-0.2267793
25	0xbdc9b6d9	-0.098493285
26	0xbe46e32a	-0.19422594
27	0xbdf38a89	-0.11891658
28	0xbd4d2d95	-0.0500923
29	0x3d9c7713	0.07639899
30	0xbe577b1d	-0.21043058
31	0xbcc8604b	-0.024459979
32	0xbe1eae7d	-0.1549625
33	0xbdd8a69a	-0.10578652
34	0x3e307016	0.17230257
35	0x3df383a9	0.118903466
36	0xbd87fdff	-0.06640243
37	0xbe7893ff	-0.24275206
38	0xbe05ce23	-0.13066916
39	0x3c6fcc7e	0.014636157
40	0x3e11261d	0.14174695
41	0x3cfad397	0.030618472
42	0xbe5f169a	-0.21785966
43	0xbdf84d6d	-0.12124143
44	0x3d374346	0.04474189
45	0xbd2bf284	-0.041979328
46	0xbe9a788a	-0.3017009
47	0xbeb22031	-0.34790185
48	0xbe167c3d	-0.1469583
49	0xbe07ed9e	-0.13274238
50	0x3c7b38df	0.015333383
51	0xbccd085c	-0.0250284
52	0xbeb5e995	-0.3552977
53	0x3d221785	0.03957321
54	0xbe94da8e	-0.29072994
55	0xbe6f4872	-0.2336748
56	0xbb2616b4	-0.0025343122
57	0xbe34eadd	-0.17667718
58	0xbbba3148	-0.0056821443
59	0xbe95e3fa	-0.29275495
60	0xbe346f08	-0.1762048
61	0xbd2ceb96	-0.04221686
62	0x3d656be2	0.05601109
63	0xbe5200b2	-0.20508078

weight f4 [64, 64, 3]
0	0xbec3c24e	-0.3823418
1	0xbedb7378	-0.42861533
2	0xbe0e7d87	-0.13915072
3	0xbe2d82a3	-0.16944365
4	0xbd546a0f	-0.051858958
5	0xbd20b487	-0.039234664
6	0xbd956eeb	-0.072965465
7	0xbdcb6894	-0.09932056
8	0xbd8e212f	-0.06939923
9	0xbd8601af	-0.0654329
10	0xbe20432a	-0.15650621
11	0xbd43d1b6	-0.047807418
12	0x3cb2fd01	0.021849157
13	0x3dff8b5a	0.12477751
14	0x3e50061e	0.20314834
15	0xbeaee741	-0.34160808
16	0xbe95c808	-0.29254174
17	0xbea37d9f	-0.3193178
18	0xbd5d2408	-0.05398944
19	0xbe2875c0	-0.16451168
20	0xbd1b3b2c	-0.037898228
21	0xbbfd1f06	-0.0077246455
22	0x3d77e536	0.060521327
23	0x3de4f417	0.11179369
24	0xbba6b928	-0.0050879903
25	0xbd9f2c75	-0.077721514
26	0x3d5c6258	0.053804725
27	0x3d0cae1d	0.034345735
28	0xbdee33ea	-0.116309956
29	0xbd08ed9e	-0.033429734
30	0xbbcf2233	-0.0063212155
31	0xbdf25588	-0.1183272
32	0xbe09ce66	-0.13457641
33	0xbe0e6b61	-0.1390815
34	0xbe104891	-0.14090182
35	0xbe0df24b	-0.13861959
36	0x3d3d993a	0.046288706
37	0xbb82435a	-0.003975314
38	0xbc591a73	-0.013250935
39	0x3d0a70d7	0.03379902
40	0xbd9b88d2	-0.07594456
41	0xbd871f79	-0.065978
42	0xbdc7bf2d	-0.09753261
43	0xbe13b48b	-0.1442434
44	0xbcad6cb3	-0.021169996
45	0x3d5ffeba	0.054686286
46	0x3e2d1f79	0.16906537
47	0x3e0d4dba	0.13799182
48	0x3de7e3b5	0.113227285
49	0x3d5fc793	0.05463369
50	0x3dee1607	0.11625295
51	0x3d3b9c1a	0.045803167
52	0xbb8f2633	-0.0043685674
53	0x3da48ee7	0.08035069
54	0xbe264132	-0.16235808
55	0xbe81065b	-0.2520016
56	0xbe598ee3	-0.21245913
57	0x3d5c3306	0.053759597
58	0x3d7878b4	0.060661986
59	0x3d86b4f4	0.06577483
60	0xbe9651ad	-0.2935919
61	0xbe42843f	-0.1899576
62	0xbdcf2b96	-0.10115735
63	0x3ca164a5	0.019701311
64	0xbde69c6b	-0.11260303
65	0xbded030c	-0.11572847
66	0xbd71ed5a	-0.059064247
67	0xbd991092	-0.07473864
68	0xbd8a94e4	-0.0676668
69	0x3cd1e687	0.02562262
70	0x3947c6cf	0.00019052181
71	0x3d1472f7	0.03624245
72	0x3d94c2b5	0.072637
73	0x3d4ac3c1	0.04950309
74	0xbd59edb0	-0.053205192
75	0x3db80c25	0.089866914
76	0x3d992223	0.07477214
77	0xbcdc0dc5	-0.026862035
78	0xbcb5cc67	-0.022192193
79	0x3ca9a185	0.020706901
80	0x3d807d5a	0.06273909
81	0xbd356af9	-0.04429147
82	0xbd5f03e5	-0.054447073
83	0xbcad249c	-0.02113562
84	0xbd9cce4e	-0.07656537
85	0x3bea6b64	0.0071539152
86	0xbda735aa	-0.081645325
87	0xbd645439	-0.055744383
88	0x3b87faaf	0.004149757
89	0x3cd7a691	0.026324542
90	0xbd6b0a7c	-0.057383046
91	0xbe08fd09	-0.13377775
92	0xbd8b1a3d	-0.06792114
93	0xbd7beabf	-0.06150317
94	0xbdcd3568	-0.10019952
95	0xbe058b6b	-0.13041465
96	0x3b7940d8	0.0038033035
97	0x3c72e75e	0.01482567
98	0x3caaa655	0.020831266
99	0xbd821f8c	-0.06353673
100	0xbdbd460f	-0.09241878
101	0xbe13a46d	-0.14418192
102	0xbe45c718	-0.1931423
103	0xbe364781	-0.17800714
104	0xbe974acb	-0.2954925
105	0x3ddebb90	0.108756185
106	0x3bfb39e6	0.007666814
107	0x3c7f3d69	0.015578606
108	0xbd1bda9e	-0.038050286
109	0xbca1e990	-0.019764692
110	0x3dd88260	0.10571742
111	0xbe067a5e	-0.13132617
112	0xbe2c0a6e	-0.16800854
113	0xbe43dd07	-0.19127284
114	0x3bac492c	0.005257746
115	0xbb178ed4	-0.0023125904
116	0x3d3dfde7	0.04638472
117	0x3eaa8532	0.33304745
118	0x3e4d38aa	0.20041147
119	0x3bf02aec	0.0073293354
120	0xbe465a5e	-0.1937041
121	0xbe595b78	-0.21226299
122	0x3d03c914	0.032174185
123	0x3e5a6a89	0.21329702
124	0x3e9e7539	0.3094881
125	0x3e5c7b34	0.21531373
126	0xbd5ebcff	-0.05437946
127	0xbe4af210	-0.19818902
128	0xbd8f9056	-0.07009952
129	0x3c3b0cb8	0.011416607
130	0x3c9df9dc	0.019284181
131	0x3ad44cd5	0.0016197214
132	0xbe5de362	-0.21668771
133	0xbe6c1559	-0.23055018
134	0xbd9f2a2c	-0.077717155
135	0xbea0b2a8	-0.31386304
136	0xbe74afb8	-0.23895156
137	0xbe27c675	-0.16384299
138	0xbd98bd14	-0.07457939
139	0xbcf13f95	-0.029449264
140	0xbdcc7aa9	-0.09984333
141	0xbd4d1488	-0.05006841
142	0xbd5a0cd0	-0.053234875
143	0xbbf26a83	-0.007397951
144	0x3de25d5a	0.11052962
145	0x3d74bfc2	0.059753187
146	0x3d67e500	0.056614876
147	0xbe03aefa	-0.12859717
148	0x3e14508b	0.1448385
149	0x3e3c9005	0.18414314
150	0x3e2bdb13	0.16782789
151	0x3d8f69fc	0.07002637
152	0x3cbe6786	0.023242723
153	0x3e08a2a8	0.13343298
154	0x3e2772e8	0.16352427
155	0x3e65f206	0.22455606
156	0xbd47a9e2	-0.048745997
157	0xbe536b35	-0.20646365
158	0xbe3ce518	-0.18446767
159	0x3db7b8ea	0.089708164
160	0xbc8b7427	-0.01702316
161	0x3b3ca2fe	0.0028783674
162	0xbcbf3fbc	-0.02334582
163	0x3d918249	0.07104928
164	0x3e22fb6a	0.1591622
165	0xbe27702b	-0.16351382
166	0xbe44be07	-0.19213115
167	0xbe424584	-0.1897183
168	0xbdbb8069	-0.09155352
169	0xbd12bb9d	-0.035823453
170	0xbc13ec24	-0.009028468
171	0x3c6e6798	0.014551066
172	0x3d379230	0.04481715
173	0x3e0e11dc	0.13874
174	0xbe51ca8c	-0.20487422
175	0xbe47165b	-0.19442122
176	0xbe456ef5	-0.19280608
177	0xbd95d8f9	-0.07316775
178	0xbd81a1eb	-0.063297115
179	0xbdc6019c	-0.09668276
180	0x3dc8644e	0.097847566
181	0x3dce7454	0.100807816
182	0x3c138cd3	0.009005743
183	0xbdd8c890	-0.10585129
184	0xbd5328b6	-0.051552497
185	0x3d84f661	0.064923055
186	0xbd0c0204	-0.03418161
187	0x3d5e3672	0.05425114
188	0x3e15e208	0.14637005
189	0xbdb56440	-0.08857012
190	0xbe1c715b	-0.15277617
191	0xbdf71469	-0.1206444
192	0xbcd7ddbc	-0.026350848
193	0xbe05a401	-0.13050844
194	0xbd0ceec7	-0.034407403
195	0xbd047ffd	-0.03234862
196	0x3d3884a5	0.045048375
197	0xbd94e4d1	-0.07270206
198	0xbdba445d	-0.090950705
199	0xbddf905e	-0.10916208
200	0xbdbedf68	-0.09319955
201	0xbd8e7727	-0.0695632
202	0xbd610ebc	-0.054945692
203	0xbd8696f0	-0.06571758
204	0xbe1b7d13	-0.15184431
205	0xbda087ec	-0.07838425
206	0x3d33db04	0.04391004
207	0xbe85254b	-0.26005015
208	0xbe9a28a1	-0.30109122
209	0xbeb205a3	-0.34769925
210	0x3d0759aa	0.033044495
211	0x3db4ae7e	0.08822344
212	0x3e86217d	0.26197425
213	0xbec724de	-0.38895315
214	0xbedd9a1c	-0.4328164
215	0xbee0782c	-0.43841684
216	0x3de36cbe	0.11104725
217	0x3cdbd9d3	0.026837265
218	0x3c60c498	0.013718747
219	0xbd4c186c	-0.049827978
220	0x3c31d1f4	0.010853279
221	0x3e7a88b4	0.2446621
222	0xbe347b24	-0.176251
223	0xbe4c3dd1	-0.19945456
224	0xbe7107c3	-0.23538117
225	0xbe3270ca	-0.17425838
226	0xbe8b35e6	-0.2718956
227	0xbe745d81	-0.23863794
228	0x3e078747	0.13235198
229	0x3d9ab4c2	0.07554008
230	0x3e34ea7e	0.17667577
231	0x3d191214	0.037370756
232	0xbc1c58c7	-0.009542651
233	0x3ce8d6de	0.02842277
234	0xbe78ec32	-0.24308851
235	0xbe80e8c3	-0.25177583
236	0xbe2f0d39	-0.17094888
237	0xbcc39f6c	-0.02387973
238	0xbda17f41	-0.078856
239	0xbdb99d69	-0.09063227
240	0x3ecf5ec2	0.40501982
241	0x3ee509c9	0.44734028
242	0x3e8201a1	0.25391868
243	0xbdcb3661	-0.09922481
244	0x3d16481e	0.03668987
245	0x3d2ff407	0.042957332
246	0xbd9ebebf	-0.07751226
247	0xbc2340b8	-0.009964161
248	0x3d5b4596	0.05353316
249	0x3d9a8dfc	0.075466126
250	0xbcc7f72a	-0.02440985
251	0xbdb7968a	-0.0896426
252	0xbdbc8fd5	-0.09207121
253	0xbe1adb79	-0.15122785
254	0xbdd5ea02	-0.10445024
255	0xbd3f6e70	-0.04673618

bias f4 [64]
0	0xbd493834	-0.049125865
1	0x3c0f0d95	0.008731266
2	0x3b564702	0.0032696133
3	0xbe030413	-0.12794523
4	0xbde51849	-0.11186273
5	0xbdada3fa	-0.08478542
6	0xbe5d6706	-0.21621332
7	0xbe186e64	-0.1488586
8	0x3d0dcb6d	0.03461783
9	0x3d9a2cad	0.075280525
10	0x3deb2ec7	0.114835314
11	0xbe0d45a4	-0.13796097
12	0xbd9f3db6	-0.07775442
13	0xbda3e306	-0.08002286
14	0xbce627c7	-0.02809514
15	0xbe4eadd3	-0.20183496
16	0x3ca72971	0.020405503
17	0xbe111013	-0.14166288
18	0xbe0805f0	-0.13283515
19	0xbdb9ae0c	-0.090664
20	0xbd61e43a	-0.055149294
21	0x3b959757	0.0045651603
22	0xbd4a12d6	-0.04933437
23	0x3da2b42e	0.07944523
24	0xbe4e6398	-0.2015518
25	0xbe5c1e25	-0.21495874
26	0xbe0728bf	-0.13199137
27	0xbc192c9a	-0.009349013
28	0xbd0287ed	-0.03186791
29	0xbd572c4f	-0.05253249
30	0xbd6eb738	-0.0582802
31	0x3c7bd567	0.015370703
32	0xbde4a09f	-0.111634485
33	0x3c986c60	0.018606365
34	0xbe0d58fd	-0.13803478
35	0xbe2ca3d5	-0.16859372
36	0x3d3fa6ff	0.04679012
37	0xbe1852ee	-0.14875385
38	0xbe3b2c6b	-0.18278663
39	0xbd0b4afd	-0.03400706
40	0xbe3e63c3	-0.18592744
41	0x3db4d6cc	0.08830032
42	0xbce50907	-0.027958406
43	0x3d9dc634	0.0770382
44	0xbcd1d3ef	-0.025613753
45	0xbe24416f	-0.16040586
46	0xbca6228b	-0.020280143
47	0xbd8511ae	-0.06497513
48	0x3d1c8a8a	0.03821806
49	0xbe00a888	-0.1256429
50	0xbd0a16cb	-0.033713143
51	0xbe280963	-0.16409831
52	0xbdbf9da5	-0.0935624
53	0x3d11e591	0.035619322
54	0x3cddbe91	0.027068408
55	0xbc418ad2	-0.0118128825
56	0x3d2b9d19	0.041897867
57	0xbdfd9e4c	-0.12383708
58	0xbd94e3a9	-0.07269985
59	0xbd863549	-0.06553132
60	0xbdcc78cb	-0.09983977
61	0xbc1b70e5	-0.009487365
62	0xbc64ff51	-0.013976888
63	0xbd9e2e1a	-0.07723637

weight f4 [256, 128]
0	0x3cd7d53f	0.0263468
1	0xbb71e4e1	-0.0036910104
2	0xbbf96ae9	-0.0076116216
3	0x3e0106a3	0.12600188
4	0xbc2355f2	-0.009969221
5	0xbd7cfc38	-0.061763972
6	0xbd487edb	-0.048949104
7	0xbc40b35d	-0.011761514
8	0xbdbec10f	-0.09314167
9	0xbbdb36da	-0.0066898884
10	0xbdda971a	-0.106733516
11	0xbdf20425	-0.11817197
12	0xbd3ed0a4	-0.046585694
13	0xbdee27d9	-0.11628694
14	0xbdca917a	-0.09891029
15	0x3cfefb9c	0.031125836
16	0xbc832680	-0.01600957
17	0x3dd88d39	0.10573811
18	0x3d2bb38c	0.041919276
19	0x3c6bb146	0.014385527
20	0xbd9c1bfe	-0.076225266
21	0xbc31b9b1	-0.010847495
22	0xbca30a42	-0.019902352
23	0xbd4188a4	-0.04724945
24	0x3cd24abd	0.025670404
25	0xbe260985	-0.16214569
26	0xbc15727d	-0.009121534
27	0xbc9f9436	-0.019479852
28	0xbc660726	-0.01403979
29	0x3d638b26	0.055552624
30	0xbd4e6767	-0.05039158
31	0x3db4d342	0.08829357
32	0x3c609a25	0.013708626
33	0xbd6dcfef	-0.05805963
34	0xbe0ac97f	-0.13553427
35	0xbd42401d	-0.047424424
36	0xbdef95aa	-0.11698468
37	0xbe742b5b	-0.23844664
38	0xbe00e886	-0.125887
39	0xbd0ee695	-0.03488787
40	0xbddb067e	-0.10694598
41	0x3d8d0bce	0.06887017
42	0xbd474aa1	-0.048655156
43	0x3c62450d	0.013810408
44	0xbe7c1c89	-0.2462026
45	0xbd9b1cc5	-0.07573847
46	0x3dd43dfe	0.103633866
47	0xbdc34610	-0.09534848
48	0xbda8fddc	-0.08251545
49	0xbe02d3ea	-0.12776151
50	0x3d53340e	0.051563315
51	0x3df3cf8e	0.11904822
52	0x3cb2a864	0.02180881
53	0x3d87867f	0.0661745
54	0x3e1b0163	0.15137248
55	0x3e5a3b1b	0.2131161
56	0x3d17fa14	0.037103727
57	0x3ba6fa2c	0.005095741
58	0x3cb69306	0.022286903
59	0x3d82036c	0.06348309
60	0xbda3548f	-0.07975113
61	0xbe5d8636	-0.21633229
62	0xbc234384	-0.009964827
63	0x3d2dfdb5	0.042478282
64	0xbc8b8c1b	-0.01703458
65	0x3d8f5364	0.069983274
66	0xbbb13833	-0.005408311
67	0x3b4a0f79	0.0030831976
68	0xbd6ef0d8	-0.058335155
69	0xbdb689f3	-0.089130305
70	0xbd91e56b	-0.07123836
71	0xbe0122f2	-0.12610987
72	0xbcac0d23	-0.021002358
73	0x3ca87124	0.020561762
74	0xbe34850d	-0.1762888
75	0xbddc0c8a	-0.10744579
76	0xbbdf4c17	-0.0068144905
77	0x3e023f8b	0.12719552
78	0xbd48afab	-0.048995655
79	0xbdb16e91	-0.08663667
80	0xbd73a3b0	-0.059482276
81	0xbdcc526e	-0.0997666
82	0xbdf0f5b8	-0.11765617
83	0xbd5d7b81	-0.05407286
84	0x3c376a23	0.011194739
85	0xbb4def82	-0.0031423275
86	0xbdb0400e	-0.086059675
87	0x3d70c62b	0.058782738
88	0xbdd9031e	-0.10596298
89	0xbe0560b1	-0.13025166
90	0xbde98b89	-0.11403567
91	0xbdb8e3b2	-0.090278044
92	0xbd2f77f7	-0.042839017
93	0xbd0b8400	-0.034061432
94	0xbd7db8b6	-0.061943732
95	0xbd94a8d3	-0.07258763
96	0x3d1bd1c5	0.03804185
97	0xbdce678d	-0.100783445
98	0xbd87b965	-0.06627158
99	0x3d0f2914	0.034951285
100	0x3cdf3f7b	0.02725195
101	0xbd7358bd	-0.0594108
102	0x3c2c0e2a	0.010501424
103	0xbd420667	-0.047369387
104	0xbdc59908	-0.09648329
105	0x3dff6708	0.124708235
106	0xbde578b4	-0.11204663
107	0xb9b26b95	-0.0003403096
108	0xbd8c7685	-0.06858543
109	0x3dcb9e68	0.09942323
110	0xbe11909e	-0.14215323
111	0xbd046819	-0.032325838
112	0x3b3dc809	0.0028958342
113	0xbce7ce99	-0.028296756
114	0x3d22f0f7	0.039780583
115	0x3da68aff	0.0813198
116	0xbdb3a6ea	-0.08772071
117	0xbd2d5e7c	-0.042326435
118	0x3b158436	0.00228144
119	0xbe3ec716	-0.18630633
120	0x3ca73b09	0.020413892
121	0x3c4874b9	0.01223486
122	0xbc172838	-0.0092258975
123	0x3c8bad48	0.0170504
124	0xbdd35d99	-0.10320587
125	0x3c5ce6d2	0.013482766
126	0x3e166555	0.14687093
127	0x3cd8fd10	0.026487857
128	0x3d6ea24f	0.05826026
129	0x3cc48eb6	0.023993831
130	0xbdaf3dae	-0.08556686
131	0xbd8f7215	-0.07004181
132	0xbe145e7d	-0.1448917
133	0xbe167858	-0.14694345
134	0x3dcb8ea2	0.099393144
135	0x3d08b8d9	0.03337941
136	0xbd6ec563	-0.05829371
137	0x3d094707	0.033515003
138	0xbe106eca	-0.14104763
139	0xbcf21091	-0.029548915
140	0xbd6205d2	-0.055181332
141	0xbde0dc83	-0.10979559
142	0xbd0579c6	-0.032586835
143	0x3e222702	0.15835193
144	0x3d01c82d	0.031685043
145	0x3d8b1158	0.067904174
146	0x3d1ffa67	0.03905716
147	0x3dd92f09	0.10604674
148	0x3d49574d	0.049155522
149	0x3e240d66	0.16020736
150	0xbdc772a1	-0.097386606
151	0x3d01503b	0.031570654
152	0x3d9e51cc	0.07730445
153	0xbda5f4e0	-0.08103347
154	0xbcf6b3d0	-0.030115038
155	0xbdde25f6	-0.10847084
156	0xbbf0ff85	-0.007354679
157	0xbda8cf07	-0.08242612
158	0x3c1eab96	0.009684464
159	0xbafff718	-0.0019528596
160	0x3e055ae1	0.13022949
161	0x3d3ad1ad	0.04561012
162	0xbd1a677a	-0.03769634
163	0xbd72d872	-0.05928845
164	0xbdab2fa0	-0.08358693
165	0xbe32ab6b	-0.17448203
166	0xbd9396ab	-0.07206472
167	0x3d32d230	0.04365748
168	0xbd0496ce	-0.03237038
169	0xbb205ffe	-0.0024471278
170	0xbd3d9338	-0.046282977
171	0x3b850295	0.0040591457
172	0xbdefb3fb	-0.117042504
173	0xbe1ebe44	-0.15502268
174	0x3d25ac60	0.040447593
175	0x3c2668e2	0.010156842
176	0x3d21d272	0.039507337
177	0x3e09f140	0.13470936
178	0x3c75cdbb	0.015002663
179	0x3d9a7b7d	0.07543085
180	0x3d1c0426	0.038089894
181	0xbc97e85e	-0.018543418
182	0xbc8901f6	-0.016724568
183	0xbdbbb850	-0.09166014
184	0x3d852cd5	0.06502692
185	0x3d11adf8	0.0355663
186	0xbc6599fa	-0.014013762
187	0x3db011e7	0.085971646
188	0xbd8522be	-0.06500767
189	0x3a6ec977	0.0009109
190	0x3c414113	0.0117953
191	0x3cc2958a	0.023752946
192	0x3e047acf	0.12937473
193	0x3dc4b321	0.096044786
194	0xbdd1dd87	-0.10247331
195	0xbd970491	-0.07373918
196	0x3c2acc5b	0.010424699
197	0x3d81ca8a	0.063374594
198	0x3bb47b1a	0.005507839
199	0x3d2dabe6	0.042400263
200	0xbbc0b6ad	-0.0058811517
201	0xbdf17cf1	-0.11791409
202	0x3ad30476	0.0016099352
203	0x3c8e81ce	0.01739588
204	0x3de2e415	0.110786594
205	0x3e00eb1c	0.12589687
206	0xbc25dc11	-0.010123269
207	0xbda0aaf8	-0.0784511
208	0x3d0025fb	0.03128622
209	0x3e14b94e	0.14523813
210	0xbe033b1f	-0.12815522
211	0xbdc651cb	-0.096835695
212	0xbcd9b071	-0.026573392
213	0x3da7abd0	0.081870675
214	0xbe034dae	-0.12822601
215	0xbda78b57	-0.08180874
216	0x3ca6b65c	0.020350628
217	0x3cadd339	0.021218883
218	0xbe3ce89c	-0.18448108
219	0xbbb95bbc	-0.0056566875
220	0xbd237101	-0.03990269
221	0x3d0b2feb	0.033981245
222	0x3d463cd6	0.04839786
223	0x3d96921c	0.07352087
224	0xbd7deddd	-0.061994422
225	0xbe31cfd8	-0.17364442
226	0xbc8b5c2b	-0.017011723
227	0xbc4f2cc4	-0.01264495
228	0x398e2756	0.00027113658
229	0x3def814f	0.116945855
230	0x3db4ebc8	0.08834034
231	0x3d82f18f	0.0639373
232	0x3dd9542c	0.10611758
233	0x3d1dcefe	0.03852748
234	0x3e34ac00	0.17643738
235	0x3b163078	0.0022917073
236	0x3e284f52	0.16436508
237	0x3c2163da	0.009850467
238	0xbcbddf0c	-0.023177646
239	0xbd38c6bb	-0.0451114
240	0x3cc373ca	0.023858923
241	0x3d038da8	0.032117516
242	0x3db39559	0.0876872
243	0x3e50762e	0.20357582
244	0xbbf977e1	-0.0076131676
245	0x3d0f4672	0.03497929
246	0x3dd6efe0	0.10494971
247	0x3e159556	0.14607748
248	0x3e11cc83	0.14238171
249	0x3d4c9014	0.04994209
250	0x3d59dba8	0.053187996
251	0x3d7d0eaf	0.06178158
252	0x3d6e326c	0.058153555
253	0x3dbb0b7f	0.09133052
254	0xbdb172b5	-0.08664457
255	0x3d5ce629	0.053930435

bias f4 [256]
0	0x3e11c2b7	0.14234434
1	0x3ccad06d	0.024757588
2	0x3d988224	0.07446697
3	0x3caa57c8	0.02079381
4	0x3d85240f	0.06501018
5	0x3cff1875	0.031139592
6	0x3d30bfad	0.043151546
7	0x3e17ca06	0.1482316
8	0x39ce29e1	0.00039322584
9	0x3d28efff	0.041244503
10	0x3d4db708	0.05022338
11	0x3d819019	0.063263126
12	0xbc49277c	-0.01227748
13	0xbc70cb89	-0.014696964
14	0x3d975729	0.07389671
15	0x3cbe7ad3	0.023251927
16	0x3c689416	0.014195463
17	0x3c24f28d	0.010067594
18	0x3e46cd08	0.1941415
19	0x3ce280d9	0.02764933
20	0xbcdaa678	-0.026690707
21	0x3dc921ca	0.09820898
22	0x3d5bb3cc	0.053638265
23	0x3dcd7f57	0.10034054
24	0x3c4462eb	0.0119864745
25	0xbe0d229f	-0.13782738
26	0xbb1b1731	-0.0023664946
27	0x3dcb44cc	0.09925231
28	0xba4aad2a	-0.0007731492
29	0x3d0b5d03	0.03402425
30	0x3db13ade	0.08653806
31	0xbdbc3b18	-0.09190959
32	0x3ced5e6f	0.028975694
33	0x3e424267	0.18970643
34	0x3cd0922b	0.025460323
35	0xbdb49aae	-0.08818565
36	0xbd53ee2e	-0.051740818
37	0x3d42ddd0	0.047574818
38	0xbdb9d08c	-0.0907298
39	0x3d0663ab	0.032809895
40	0x3d2b3c52	0.041805573
41	0x3d193e7e	0.037413113
42	0x3d3d0c92	0.046154566
43	0x3d01826c	0.03161852
44	0x3d8b0e32	0.06789817
45	0x3d5104fb	0.05103014
46	0x3e477328	0.19477522
47	0x3d053c53	0.032528233
48	0x3cac7774	0.021053053
49	0x3d1e579f	0.03865778
50	0x3d461ba6	0.04836621
51	0x3d070032	0.03295917
52	0x3d424f88	0.04743913
53	0xbc98dc7f	-0.018659828
54	0x3c921446	0.017831933
55	0x3d929bf6	0.071586534
56	0x3da38b4c	0.07985553
57	0x3de815c7	0.11332279
58	0x3c622585	0.013802891
59	0x3c5abcfb	0.0133507205
60	0x3c5c932c	0.013462823
61	0x3dfb24c0	0.12262869
62	0x3d5d6dc3	0.054059755
63	0x3dacb474	0.08432856
64	0x3cc1a217	0.02363686
65	0xbdd07d81	-0.10180188
66	0x3d01e1ef	0.031709608
67	0x3cb6f860	0.022335231
68	0xbc6b5cb5	-0.014365365
69	0x3d77e781	0.060523514
70	0x3d54d010	0.051956236
71	0x3e514cc4	0.2043944
72	0x3cc8efaf	0.024528353
73	0x3c9125a9	0.017718153
74	0x3c6fa724	0.014627252
75	0x3c312565	0.010812138
76	0x3d8d5380	0.06900692
77	0x3cce3422	0.025171343
78	0xbd5ba213	-0.053621363
79	0x3d495d37	0.049161162
80	0xb909afc3	-0.00013130814
81	0x3e02c224	0.12769371
82	0x3dd564d8	0.10419625
83	0x3cc0f6ae	0.023555126
84	0xbd9f8edf	-0.077909224
85	0x3d81e4fe	0.06342505
86	0x3dbaf6c4	0.09129098
87	0x3c65141a	0.013981843
88	0x3d5a5a75	0.053308923
89	0xbba0786a	-0.004897167
90	0x3ce6b044	0.028160222
91	0x3cff9807	0.031200422
92	0xbd832d5a	-0.064051345
93	0x3c45e04e	0.012077404
94	0x3d67bfd4	0.056579426
95	0xbdaf8ea4	-0.085721284
96	0x3ca5b7f6	0.020229321
97	0x3d95eb7c	0.07320306
98	0x3d1ef2c2	0.03880573
99	0x39545e1d	0.00020252955
100	0x3daf88a0	0.08570981
101	0x3cdeb263	0.02718467
102	0x3ca395e6	0.019968938
103	0x3d962a21	0.07332254
104	0xbb544ecc	-0.00323956
105	0x3cd954bd	0.026529664
106	0xbc9b5e64	-0.018965907
107	0x3ce604bb	0.028078428
108	0xbd2b3ebd	-0.04180788
109	0xbc84dc97	-0.016218467
110	0xbda36bb9	-0.07979531
111	0x3b4690fa	0.0030298815
112	0x3cd8bcde	0.026457246
113	0x3c20f66e	0.009824378
114	0x3d1b5358	0.03792128
115	0x3c7f53fb	0.015583987
116	0x3d882e33	0.06649437
117	0x3cb5efb0	0.022209018
118	0x3d4357c1	0.04769111
119	0xbd1a288a	-0.037636317
120	0x3ddd404f	0.108032815
121	0x3c0c728d	0.008572233
122	0x3d23a938	0.0399563
123	0x3d395465	0.0452465
124	0xbce09b13	-0.027417695
125	0xbc28617a	-0.0102771465
126	0x3e2d34bf	0.16914652
127	0xbc30e0fc	-0.010795828
128	0xbc6a6348	-0.014305897
129	0x3d3394c0	0.04384303
130	0x3d7f6244	0.062349573
131	0x3d1e2854	0.03861268
132	0x3cf61284	0.030038126
133	0x3e2a6d2b	0.16643207
134	0x3ca708b6	0.020389896
135	0x3ce78a82	0.028264288
136	0x3d759674	0.059957936
137	0x3d32f709	0.043692622
138	0xbc9a157a	-0.018809069
139	0x3e659a61	0.22422172
140	0xbbbf8acc	-0.0058454033
141	0xbcce88de	-0.025211748
142	0x3d87dbfd	0.06633756
143	0x3de12063	0.109925054
144	0x3cf4b14e	0.029869702
145	0x3dc9d87e	0.09855746
146	0xbc8a14fe	-0.016855713
147	0x3cc4b5bd	0.02401244
148	0xba987ee4	-0.0011634496
149	0x3dcd3300	0.10019493
150	0x3ddf157b	0.10892769
151	0x3c9315f8	0.017954811
152	0xbc5c851c	-0.01345947
153	0x3e46a7bf	0.19399928
154	0x3d356974	0.04429002
155	0x3c5df6c5	0.013547604
156	0xbdeb263f	-0.11481904
157	0x3d3cb270	0.04606861
158	0x3dbab12d	0.09115825
159	0x3e2322c5	0.15931232
160	0x3d2a1d36	0.041531764
161	0xbb3c145d	-0.002869866
162	0x3ba3550c	0.0049845036
163	0x3d75bb65	0.059993166
164	0x3e570d50	0.21001172
165	0x3cbb7613	0.02288345
166	0x3bf98257	0.0076144147
167	0x3d340fa8	0.043960243
168	0x3c4ee061	0.012626738
169	0xbdc90c21	-0.098167665
170	0x3db3fcfa	0.08788486
171	0x3d875622	0.066082254
172	0xbcb39a57	-0.02192418
173	0xbb46927b	-0.0030299712
174	0x3d5c480c	0.053779647
175	0x3e29b216	0.1657184
176	0x3d44c5cb	0.048040193
177	0x3d9205b9	0.07129998
178	0xbc354bed	-0.011065465
179	0x3d8d3b0f	0.0689603
180	0x3d7b2117	0.061310854
181	0x3d705735	0.058676917
182	0x3e058598	0.13039243
183	0x3df88b3b	0.12135931
184	0xbd202351	-0.03909618
185	0x3a8ef153	0.001090566
186	0x3e56d864	0.20980984
187	0xbc2f3b4e	-0.010695292
188	0xbce5d0e7	-0.028053714
189	0x3d5062ce	0.050875477
190	0x3d80b819	0.06285114
191	0x3d166a84	0.036722675
192	0x3d722312	0.059115477
193	0x3ca1ac6d	0.01973554
194	0xbd48887b	-0.048958283
195	0xbcdd3e66	-0.027007293
196	0x3c815dd1	0.015791805
197	0x3d0b5867	0.034019854
198	0xbbbcb4d5	-0.0057588615
199	0x3d917b1d	0.0710356
200	0x3c92492f	0.017857162
201	0x3d191dce	0.03738194
202	0x3d510f53	0.051040005
203	0x3c9b72d1	0.018975647
204	0x3d88386c	0.066513866
205	0x3da09fb6	0.078429624
206	0xbd50cc2d	-0.050975967
207	0x3d570020	0.052490354
208	0x395cc9ee	0.0002105606
209	0x3dade985	0.08491806
210	0x3ca136f7	0.01967953
211	0x3d9de668	0.07709962
212	0x3ce46a74	0.027882792
213	0x3dabc273	0.083866976
214	0x3d51ef24	0.051253453
215	0xbe0c2107	-0.13684474
216	0x3cbe3c5b	0.02322214
217	0x3d3f6e62	0.04673613
218	0x3cda9de0	0.026686609
219	0x3d5c0a44	0.053720728
220	0xbccc92f5	-0.024972418
221	0xbd823afa	-0.06358905
222	0x3e4933e5	0.19648702
223	0x3cc28c8e	0.023748662
224	0x3cc4b1c2	0.024010543
225	0x3e2b7fa6	0.16747913
226	0xbdd23f85	-0.10266022
227	0x3cfea34c	0.031083725
228	0x3d23e0e6	0.0400094
229	0xbc81c5e4	-0.015841432
230	0x3d1821ec	0.037141725
231	0x3e4977c4	0.19674593
232	0x3e5fb212	0.21845272
233	0x3d1b3913	0.037896227
234	0xbd095b91	-0.03353459
235	0x3c7afd7f	0.015319227
236	0x3ce36583	0.027758365
237	0x3d79a7a8	0.060950905
238	0x3ca5969a	0.020213414
239	0x3e6eb1ad	0.23309965
240	0x3c12424f	0.008926942
241	0x3d86fdd6	0.06591384
242	0xbd091ca8	-0.033474594
243	0xbd892f04	-0.06698421
244	0xbe06fe9b	-0.13183062
245	0xbc968b8b	-0.018377086
246	0xbd4f6006	-0.050628684
247	0x3d524be7	0.051341917
248	0xbbae436f	-0.0053180973
249	0x3da9bda3	0.082881235
250	0x3d25d1be	0.04048323
251	0xbe0a4efa	-0.1350669
252	0x3c8301f4	0.015992142
253	0x3d8be06d	0.06829915
254	0x3cf0d99c	0.02940064
255	0x3dae6d83	0.085169815

weight f4 [256]
0	0x3f947eb4	1.1601167
1	0x3f9a7be2	1.2069056
2	0x3f893fbb	1.0722574
3	0x3f89eb21	1.0774881
4	0x3f979e6f	1.1845225
5	0x3faebdb2	1.365164
6	0x3f9e797d	1.2380825
7	0x3f8baa0e	1.0911272
8	0x3f9cb91a	1.2243989
9	0x3f9cecee	1.2259805
10	0x3f8f41e1	1.119198
11	0x3f99fb63	1.2029842
12	0x3f96f350	1.1793003
13	0x3f9d7e80	1.230423
14	0x3f956fb2	1.1674712
15	0x3f95c07a	1.1699364
16	0x3fb12d97	1.3842038
17	0x3fa0b8be	1.2556379
18	0x3fb4240c	1.4073501
19	0x3f9e8f93	1.2387565
20	0x3f8b12b7	1.0865086
21	0x3f9db41b	1.2320589
22	0x3f97a778	1.1847982
23	0x3fa56ded	1.2924172
24	0x3f9d2de2	1.2279627
25	0x3f9d4661	1.2287103
26	0x3f9763d7	1.1827344
27	0x3f8f49db	1.1194414
28	0x3f9d8aee	1.2308023
29	0x3f9de6b9	1.2336036
30	0x3f9566aa	1.1671956
31	0x3f8383c3	1.0274585
32	0x3fb1d206	1.3892219
33	0x3fa297e4	1.2702603
34	0x3f84d7ee	1.0378397
35	0x3f9393a1	1.1529428
36	0x3f8febb0	1.1243801
37	0x3f8842a3	1.0645336
38	0x3f6525f7	0.89511055
39	0x3f908f1d	1.1293675
40	0x3f9973e8	1.1988497
41	0x3fb024d1	1.3761235
42	0x3fa31204	1.2739873
43	0x3fa83620	1.3141518
44	0x3f8a5e84	1.0810094
45	0x3f98f442	1.1949542
46	0x3f9587b7	1.1682042
47	0x3f94090e	1.1565263
48	0x3fa14a4f	1.2600802
49	0x3f8fd1e5	1.123593
50	0x3f836f03	1.0268253
51	0x3f9e91e4	1.2388272
52	0x3fadc3d8	1.3575392
53	0x3f82f427	1.0230759
54	0x3fa77dce	1.3085268
55	0x3f983eec	1.1894202
56	0x3f996cd5	1.1986338
57	0x3fa5bca6	1.2948196
58	0x3f89a085	1.0752112
59	0x3fa6966b	1.3014654
60	0x3f79bd60	0.9755459
61	0x3f9c763b	1.2223581
62	0x3f95354f	1.1656893
63	0x3faea75c	1.3644824
64	0x3f901c7f	1.1258696
65	0x3f9a9652	1.2077124
66	0x3fb708e6	1.429959
67	0x3f96efa8	1.1791887
68	0x3f88ec33	1.0697082
69	0x3fad0dfe	1.3519895
70	0x3f96265b	1.1730455
71	0x3fb6c371	1.4278394
72	0x3f8a15f0	1.0787945
73	0x3f8601d5	1.0469309
74	0x3fa0e7f4	1.2570786
75	0x3f9915af	1.1959742
76	0x3f9a8ce6	1.2074249
77	0x3fb7f270	1.4370861
78	0x3fa4e547	1.288247
79	0x3f968482	1.1759188
80	0x3f98e78b	1.1945661
81	0x3f921870	1.1413708
82	0x3fa0958e	1.254564
83	0x3fa6635a	1.299907
84	0x3f957098	1.1674986
85	0x3f92fc9d	1.1483341
86	0x3f87bd0e	1.060457
87	0x3fa45641	1.2838823
88	0x3f928c09	1.1448985
89	0x3fa2066e	1.2658212
90	0x3fa258d7	1.2683362
91	0x3fa0d69f	1.2565497
92	0x3f7d98f2	0.990615
93	0x3f962366	1.1729553
94	0x3f92fc5d	1.1483265
95	0x3fa62e05	1.2982794
96	0x3f906a98	1.128253
97	0x3f9e7ec0	1.2382431
98	0x3f98a45c	1.1925159
99	0x3f9054af	1.1275843
100	0x3f9eaed4	1.2397103
101	0x3f9d15a2	1.2272227
102	0x3f957eae	1.1679285
103	0x3f99821e	1.1992834
104	0x3fa00884	1.2502599
105	0x3f8f1a1c	1.1179843
106	0x3f9ac3cd	1.2091004
107	0x3f91014b	1.132852
108	0x3f994058	1.1972761
109	0x3f9c1a5e	1.2195547
110	0x3f7e85d6	0.9942297
111	0x3f9b273e	1.2121351
112	0x3f9c1fb4	1.2197175
113	0x3f94e305	1.1631781
114	0x3fa0e80d	1.2570816
115	0x3f9117a2	1.1335337
116	0x3fa802cf	1.3125857
117	0x3fa2d6f0	1.2721844
118	0x3f964429	1.1739551
119	0x3f862d74	1.0482621
120	0x3f9a7e9d	1.2069889
121	0x3f841b5d	1.0320851
122	0x3f9f8be9	1.2464572
123	0x3f8cbdc6	1.0995414
124	0x3f8bed9e	1.093189
125	0x3f943fb9	1.1581947
126	0x3f8a8365	1.0821348
127	0x3f8639a9	1.0486346
128	0x3f95e8cb	1.1711668
129	0x3fa406f4	1.2814622
130	0x3f99643e	1.1983716
131	0x3fa8aa39	1.3176948
132	0x3f8a3bf1	1.0799543
133	0x3f95bdc3	1.1698536
134	0x3fa604fc	1.2970271
135	0x3f8fc82b	1.1232961
136	0x3fa3f629	1.2809497
137	0x3fac574c	1.3464141
138	0x3f85d9dd	1.0457112
139	0x3fb021f8	1.3760366
140	0x3f95c47a	1.1700585
141	0x3f9f510a	1.2446606
142	0x3f8399a3	1.0281261
143	0x3f9517b5	1.164786
144	0x3f8ff2c9	1.1245967
145	0x3f95cded	1.1703469
146	0x3f94833c	1.160255
147	0x3f9cf957	1.2263592
148	0x3f9d3e7d	1.2284695
149	0x3f9c775f	1.2223929
150	0x3fa1945d	1.2623402
151	0x3fa3f4a0	1.2809029
152	0x3f9267b3	1.1437896
153	0x3fa3fbea	1.2811253
154	0x3fa2d40f	1.2720965
155	0x3f9498e5	1.160916
156	0x3f9a5afe	1.2059019
157	0x3f8e7566	1.1129577
158	0x3f963055	1.17335
159	0x3f97aa9a	1.1848938
160	0x3f975b65	1.1824766
161	0x3f97d68a	1.1862347
162	0x3f98fb86	1.1951759
163	0x3fa05bc8	1.252801
164	0x3fc736a8	1.5563555
165	0x3fa24db1	1.267996
166	0x3f960c31	1.172247
167	0x3fa7ad9e	1.3099859
168	0x3fa8f4bf	1.319969
169	0x3f905787	1.1276711
170	0x3f998601	1.199402
171	0x3f9c795e	1.2224538
172	0x3fa257c0	1.2683029
173	0x3f8f8634	1.121283
174	0x3f98d9a0	1.1941414
175	0x3fb02e4a	1.3764126
176	0x3f9889ad	1.1917015
177	0x3fa13160	1.2593193
178	0x3f80ffc3	1.0078052
179	0x3f9adf4e	1.2099397
180	0x3f961f6b	1.1728338
181	0x3fb816a7	1.4381913
182	0x3f8ff4f3	1.1246628
183	0x3fa02fb8	1.2514563
184	0x3fa1977e	1.2624357
185	0x3f9a3f3b	1.2050546
186	0x3fa9982c	1.3249564
187	0x3f9998b1	1.1999723
188	0x3f983052	1.1889746
189	0x3f920457	1.1407574
190	0x3fa8ccf2	1.3187544
191	0x3fafd963	1.3738216
192	0x3f9bbf73	1.2167801
193	0x3f8fba6a	1.1228764
194	0x3f9d00a2	1.2265818
195	0x3f9a747b	1.2066797
196	0x3f94b194	1.1616693
197	0x3f9ed691	1.240923
198	0x3f9268d8	1.1438246
199	0x3fa49c0c	1.2860122
200	0x3fb5247e	1.4151762
201	0x3f96b784	1.1774755
202	0x3f9abb6f	1.208845
203	0x3f971730	1.1803951
204	0x3f8faa65	1.1223875
205	0x3fb32b3e	1.3997571
206	0x3f9e26a9	1.2355548
207	0x3f8f1550	1.1178379
208	0x3f8f0a3f	1.1175002
209	0x3f9526aa	1.1652424
210	0x3f9034aa	1.1266072
211	0x3fab6ee2	1.3393214
212	0x3f932a91	1.1497365
213	0x3fa23d7a	1.2675011
214	0x3f925a01	1.1433717
215	0x3f74db2c	0.9564693
216	0x3f9fea5e	1.2493398
217	0x3f90b558	1.1305342
218	0x3fac3c3e	1.3455884
219	0x3fb68ba1	1.4261361
220	0x3f92bf58	1.1464643
221	0x3fa031ef	1.2515239
222	0x3fb552c3	1.4165882
223	0x3f9fbe3b	1.2479929
224	0x3fa547c0	1.2912521
225	0x3f97a91e	1.1848485
226	0x3f8f0f9b	1.1176637
227	0x3f8a8338	1.0821295
228	0x3f9585c3	1.1681446
229	0x3f9a7fea	1.2070286
230	0x3f99ae9d	1.2006413
231	0x3f9655c1	1.174492
232	0x3fae1457	1.3599957
233	0x3f92a88d	1.1457688
234	0x3f94f811	1.1638204
235	0x3f8cd2b6	1.1001804
236	0x3f822ed3	1.017054
237	0x3f9c04c1	1.2188951
238	0x3f9de785	1.2336279
239	0x3fb81824	1.4382367
240	0x3f9c01e4	1.2188077
241	0x3fa018e5	1.2507597
242	0x3f8fd178	1.12358
243	0x3f793e1f	0.97360414
244	0x3f9f321f	1.2437171
245	0x3f904daa	1.1273701
246	0x3f9aad27	1.2084092
247	0x3f8ef247	1.1167687
248	0x3f870315	1.0547816
249	0x3f941a25	1.1570479
250	0x3f929a4a	1.1453335
251	0x3f75ba2b	0.95987195
252	0x3f803595	1.0016352
253	0x3fa17888	1.2614908
254	0x3f93dbc6	1.1551445
255	0x3f83d030	1.0297909

bias f4 [256]
0	0x3c59f827	0.013303793
1	0x3e305efd	0.17223735
2	0x3d83161f	0.06400704
3	0x3d492880	0.04911089
4	0x3da233f0	0.079200625
5	0xbca6c7ca	-0.020358939
6	0xbc6b4dd2	-0.0143618155
7	0xbd2892c3	-0.041155588
8	0x3e1962d6	0.14979109
9	0x3d9bd9ce	0.07609902
10	0x3dc9fc51	0.09862579
11	0x3e025ed9	0.12731494
12	0x3da36f15	0.079801716
13	0x3e9923c5	0.29910102
14	0x3db1351d	0.08652709
15	0x3d804a31	0.06264151
16	0x3d98f9e8	0.07469541
17	0x3d3ff443	0.046863806
18	0x3d6caf70	0.057784498
19	0x3e3dab7c	0.18522447
20	0x3cf5facc	0.030026816
21	0x3d9ce168	0.0766018
22	0x3dcac2ce	0.09900437
23	0xbc12e6c0	-0.008966148
24	0xbbb56ee3	-0.0055369004
25	0x3e048621	0.12941791
26	0x3d4fa6bf	0.05069613
27	0x3d8d441f	0.06897759
28	0x3d89dd9c	0.06731722
29	0x3cffa72c	0.031207643
30	0x3d94a18b	0.072573744
31	0x3dd05d80	0.10174084
32	0x3cf0156e	0.029307093
33	0xbde910b3	-0.11380138
34	0x3d9b27b1	0.0757593
35	0x3dc94a92	0.09828676
36	0x3dc9b43b	0.09848829
37	0x3dd2315f	0.10263323
38	0x3cafac3c	0.021444432
39	0x3d64a47a	0.05582092
40	0x3e04a31b	0.12952845
41	0x3d0f1efb	0.034941655
42	0x3d442e64	0.047895804
43	0x3e0d321a	0.13788643
44	0x3d9927cf	0.07478296
45	0x3e6daa84	0.23209578
46	0x3d3ac966	0.045602225
47	0x3e1eecdf	0.15520047
48	0x3e3e2845	0.18570049
49	0x3de4b542	0.11167385
50	0x3d16f01c	0.03685008
51	0x3d1ebb6a	0.03875295
52	0x3e88af7e	0.2669639
53	0x3e0f5d53	0.14000444
54	0x3c7d2d17	0.015452645
55	0x3e2b733e	0.1674318
56	0x3d5b4bd3	0.05353911
57	0x3e893dbd	0.26804915
58	0x3e022b21	0.12711765
59	0x3dc38c9e	0.09548305
60	0xbc66cbe1	-0.014086694
61	0x3daef715	0.08543221
62	0x3d33f85f	0.043938037
63	0x3d851579	0.06498236
64	0x3defc596	0.117076084
65	0x3e4d327c	0.2003879
66	0x3e6ba119	0.23010673
67	0x3ea89b34	0.3293091
68	0x3ddf3c4c	0.109001726
69	0xbc40ebad	-0.0117749395
70	0x3ddcabd6	0.107749626
71	0x3cb31e02	0.021864895
72	0x3dc46835	0.095901884
73	0x3decd329	0.11563713
74	0x3eaf582a	0.3424695
75	0x3e1006ad	0.14065047
76	0x3da47f70	0.08032119
77	0x3dc8d657	0.09806507
78	0x3e3c13a7	0.18366872
79	0x3e3776b5	0.17916377
80	0x3d9b3ae6	0.07579593
81	0x3df7a5ab	0.120921455
82	0xbbd30c09	-0.0064406437
83	0x3e47b115	0.19501145
84	0x3e4a4adc	0.19755119
85	0x3decb83c	0.115585774
86	0x3bd98661	0.0066383337
87	0x39596311	0.00020731638
88	0x3e549636	0.20760426
89	0xbc1d6dd9	-0.009608709
90	0x3d09a283	0.03360225
91	0x3e4e6b26	0.20158061
92	0x3d977423	0.07395198
93	0x3de319fc	0.110889405
94	0x3dbb0a37	0.09132808
95	0x3e563632	0.20919111
96	0x3d421681	0.047384743
97	0x3d9b5ad2	0.07585682
98	0x3d5b784b	0.053581517
99	0x3e3c99bc	0.1841802
100	0x3da8dd43	0.08245327
101	0xbc4e73d9	-0.012600862
102	0x3e2d8b2f	0.16947626
103	0x3decb0b7	0.11557143
104	0x3ba6d1ec	0.0050909426
105	0x3d2bb6ff	0.041922566
106	0x3dc1360f	0.09434139
107	0x3e379a26	0.17929897
108	0x3e83c1f6	0.25733918
109	0x3e3443f8	0.17604053
110	0x3d7c0947	0.061532285
111	0x3dedb0fb	0.11606022
112	0x3da2ba05	0.07945637
113	0x3e011e1c	0.12609142
114	0x3e8937d1	0.26800397
115	0x3df9773d	0.12180946
116	0x3ce5c43f	0.028047679
117	0x3b281cc4	0.0025651911
118	0x3d2e1af4	0.042506173
119	0x3e088ba6	0.13334522
120	0x3dd90225	0.10596112
121	0x3d97a06f	0.07403647
122	0x3db25447	0.08707481
123	0x3dc40960	0.09572101
124	0x3dccf0d5	0.100068726
125	0x3e8b03e8	0.27151418
126	0xbd4f0e99	-0.05055103
127	0x3dd5446d	0.10413442
128	0x3de88982	0.113543525
129	0x3d9036e7	0.07041722
130	0x3def7c46	0.11693625
131	0xbc0ff153	-0.0087855635
132	0x3d7c25ef	0.061559614
133	0x3df06ad6	0.11739127
134	0x3d532f92	0.05155904
135	0x3e21ab53	0.15788011
136	0x3ce43b0c	0.027860187
137	0x3d88c64a	0.06678446
138	0x3e3d6a66	0.18497619
139	0x3c4ddd0e	0.012564911
140	0x3e16e263	0.14734797
141	0x3e0ccd21	0.13750125
142	0x3dcffc16	0.101555035
143	0x3dc6e783	0.09712126
144	0x3dce84ac	0.10083899
145	0x3e5d841c	0.21632427
146	0x3dfdeea9	0.123990364
147	0x3e350ad5	0.17679913
148	0x3db6db53	0.089285515
149	0x3e480d7e	0.19536397
150	0xbd4fa877	-0.05069777
151	0x3d965a79	0.07341475
152	0x3e7d0abc	0.24711126
153	0xbdf9490b	-0.12172135
154	0x3dc69015	0.0969545
155	0xbb5d8340	-0.0033800155
156	0x3e0b0aa6	0.13578281
157	0x3d7bfc87	0.061520126
158	0x3d915c58	0.07097691
159	0xbcc8a558	-0.024492905
160	0x3de79464	0.113076
161	0x3dd38651	0.10328353
162	0x3ddcccf3	0.107812785
163	0x3e142f19	0.14471091
164	0xbe17620d	-0.14783497
165	0x3db2efe0	0.08737159
166	0x3e6a05ca	0.22853771
167	0x3ca476ef	0.020076243
168	0x3e4adfb3	0.19811897
169	0x3e0d2872	0.1378496
170	0x3d746013	0.059661936
171	0x3e538621	0.20656635
172	0x3e819c5a	0.253146
173	0x3e2d5880	0.16928291
174	0x3dbdeaba	0.09273286
175	0xbddd20fc	-0.10797307
176	0x3dda4535	0.106577314
177	0x3d5f28ca	0.05448226
178	0x3e05712f	0.13031457
179	0x3e2087e2	0.15676835
180	0x3d962ecc	0.073331445
181	0x3ceb0cb3	0.028692579
182	0xbb463ebb	-0.0030249793
183	0x3ddca59f	0.10773777
184	0x3e54b63d	0.20772643
185	0x3defc913	0.11708274
186	0xbdf9f9d5	-0.12205855
187	0x3e7ea8be	0.24869058
188	0x3e5576a3	0.20846038
189	0x3de23f68	0.1104725
190	0x3d81304f	0.06308042
191	0x3c3e624a	0.011620114
192	0x3e9e182e	0.30877823
193	0x3e065856	0.13119635
194	0x3d604af8	0.054758996
195	0x3e18d7bd	0.14926048
196	0x3e2db896	0.16964945
197	0x3b738a78	0.0037161391
198	0x3e0a4642	0.13503364
199	0x3e230677	0.15920435
200	0x3d829c79	0.06377501
201	0x3d999e18	0.07500857
202	0x3dda806a	0.10669024
203	0x3dbc191b	0.09184476
204	0x3db5655e	0.08857225
205	0x3d3699fe	0.044580452
206	0x3e5a1546	0.21297178
207	0x3d88bd57	0.06676739
208	0x3e5930d4	0.21210033
209	0x3da351ce	0.079745874
210	0x3dab2461	0.08356548
211	0x3c9c353b	0.019068351
212	0x3c83b73e	0.016078588
213	0x3dd6e699	0.10493202
214	0xbcf47274	-0.029839732
215	0xbd42d600	-0.047567368
216	0x3d494ab8	0.049143523
217	0x3de8465c	0.11341545
218	0x3cedac93	0.029012954
219	0xbd14c030	-0.036316097
220	0x3e40d496	0.18831095
221	0x3e34be1f	0.1765065
222	0xbe135691	-0.14388491
223	0x39f8d2b5	0.00047459235
224	0x3e6e053e	0.23244187
225	0x3e03f09f	0.12884758
226	0x3e2ccfe2	0.16876176
227	0x3cddc6dd	0.027072364
228	0x3e5d5c31	0.216172
229	0x3eae2218	0.34010386
230	0x3d8d19f0	0.06889713
231	0xbd9d29dc	-0.07674
232	0xbdb3191a	-0.08745022
233	0x3dc76c42	0.097374454
234	0x3dec897d	0.11549661
235	0x3dff6249	0.12469918
236	0x3dd73675	0.10508434
237	0x3e19ec28	0.15031493
238	0x3b19ba70	0.0023457073
239	0xbdd9a328	-0.10626823
240	0x3e81d3a6	0.25356787
241	0x3e165c45	0.14683636
242	0x3dfb17b3	0.1226038
243	0x3d9a8b8f	0.0754615
244	0x3e0b522c	0.13605565
245	0x3e55a479	0.20863523
246	0x3e334930	0.17508388
247	0x3de2bfb9	0.110717244
248	0x3e33f064	0.1757217
249	0x3e0253bf	0.12727259
250	0x3df82490	0.12116349
251	0xbb608e89	-0.0034264645
252	0x3dcfb3b9	0.10141701
253	0xbb33c6fd	-0.0027431839
254	0x3de625fc	0.11237714
255	0x3dcbacb4	0.0994505

running_mean f4 [256]
0	0x3db1f743	0.086897396
1	0x3efbbfa3	0.49169645
2	0x3dfaf12d	0.12253032
3	0x3d63b883	0.055595886
4	0x3e63aa4e	0.22232935
5	0x3d170fa6	0.036880158
6	0x3cf4bd43	0.029875403
7	0x3d6822cf	0.05667382
8	0x3eed7087	0.46374914
9	0x3e9520be	0.29126543
10	0x3eb367e6	0.35040206
11	0x3e86d5bf	0.2633495
12	0x3e916846	0.28399867
13	0x3ee1c49d	0.44095317
14	0x3e28617c	0.16443437
15	0x3c32436c	0.010880332
16	0x3d16540d	0.03670125
17	0x3dda34b9	0.10654587
18	0x3f0adb3d	0.5424078
19	0x3f65cab4	0.89762425
20	0x3ea50eae	0.32237762
21	0x3f06ba6b	0.526282
22	0x3eda4054	0.42627203
23	0x3eaff67e	0.34367746
24	0x3c023d8f	0.007949247
25	0x3e269fe8	0.16271937
26	0x3eb20c3c	0.3477496
27	0x3e035780	0.12826347
28	0x3e69278d	0.22768994
29	0x3ea7c425	0.32766834
30	0x3e195f17	0.1497768
31	0x3e5acb21	0.2136655
32	0x3d1a6946	0.037698053
33	0x3d6df2ed	0.058093
34	0x3e309c88	0.17247212
35	0x3e538f6e	0.20660183
36	0x3e5baeab	0.2145335
37	0x3ed45bd4	0.4147631
38	0x3d29dab9	0.041468356
39	0x3e4bf75f	0.19918583
40	0x3e9d99a9	0.30781296
41	0x3c916a44	0.017750867
42	0x3e9961a7	0.29957315
43	0x3f0c200d	0.54736406
44	0x3f505b18	0.81389
45	0x3f3de943	0.74184054
46	0x3e7005ce	0.23439714
47	0x3e97305d	0.29529086
48	0x3e9792a2	0.2960406
49	0x3e88aa69	0.26692513
50	0x3db6f6c2	0.08933784
51	0x3d8c0983	0.06837752
52	0x3e87389e	0.26410383
53	0x3ca1d931	0.019756885
54	0x3c519bdf	0.01279351
55	0x3f383615	0.7195752
56	0x3e5c0fce	0.21490404
57	0x3f2056ae	0.6263226
58	0x3e4fb874	0.20285207
59	0x3d07c255	0.033144314
60	0x3c853fb8	0.016265735
61	0x3f1aad5c	0.60420775
62	0x3e412b71	0.18864228
63	0x3e169a3b	0.14707272
64	0x3eb55fed	0.35424748
65	0x3e837fb3	0.25683364
66	0x3efc55ba	0.49284154
67	0x3f458f22	0.7717153
68	0x3d0c1f0a	0.03420929
69	0x3dd2397f	0.10264873
70	0x3f0b2d52	0.5436603
71	0x3e840878	0.2578771
72	0x3e03254f	0.12807201
73	0x3eb3b87c	0.35101688
74	0x3f152ac7	0.582684
75	0x3e998d38	0.29990554
76	0x3e325dea	0.17418638
77	0x3d464678	0.048407048
78	0x3ea5555c	0.32291687
79	0x3f0e5127	0.5559258
80	0x3f176ca8	0.5915017
81	0x3eb24104	0.34815228
82	0x3e8b3721	0.27190498
83	0x3eba2932	0.36359555
84	0x3ea73e92	0.32664925
85	0x3e879c6c	0.26486528
86	0x3e74046e	0.23829815
87	0x3d305e92	0.04305894
88	0x3f831fa3	1.024403
89	0x3c127e7a	0.008941287
90	0x3c38711f	0.011257439
91	0x3ec07bd9	0.37594488
92	0x3c942bf0	0.018087357
93	0x3ec62ffc	0.38708484
94	0x3ec0afdb	0.37634167
95	0x3eee57d8	0.46551394
96	0x3d2b5f5a	0.04183898
97	0x3e62e840	0.22158909
98	0x3eaa83da	0.3330372
99	0x3f4b6de2	0.7946454
100	0x3e151096	0.14557108
101	0x3cb70d68	0.02234526
102	0x3f6e862f	0.931735
103	0x3f087565	0.5330413
104	0x3cbdc89b	0.023166945
105	0x3d225d93	0.03964002
106	0x3e9790b7	0.29602596
107	0x3f4c1d47	0.79732174
108	0x3e06b704	0.13155752
109	0x3f0fb614	0.56137204
110	0x3e1bed3d	0.15227218
111	0x3f014f42	0.5051156
112	0x3e0a33a3	0.1349626
113	0x3ef26ed6	0.47350186
114	0x3f5f372b	0.87193555
115	0x3e8e4933	0.27790222
116	0x3df47196	0.11935727
117	0x3cb5be54	0.022185482
118	0x3e6b5ceb	0.22984664
119	0x3e26e0db	0.16296713
120	0x3edc6c8c	0.43051565
121	0x3df46347	0.11932998
122	0x3e172ead	0.14763899
123	0x3e98069d	0.29692546
124	0x3e213d26	0.15745983
125	0x3f7f8b8f	0.99822325
126	0x3d7de434	0.06198521
127	0x3ee7de7d	0.45286933
128	0x3e85d566	0.26139373
129	0x3e6469d8	0.22306001
130	0x3ef18938	0.47175002
131	0x3d1dd40b	0.038532298
132	0x3e4fa7f9	0.2027892
133	0x3e918076	0.2841832
134	0x3d19c075	0.037537057
135	0x3ef97bda	0.48727304
136	0x3e5acc62	0.21367028
137	0x3dc7cb52	0.09755577
138	0x3d881e88	0.066464484
139	0x3e9466b8	0.28984618
140	0x3f2b3e2c	0.6689174
141	0x3e2e90a9	0.17047371
142	0x3e7fde5b	0.24987166
143	0x3eeba4fd	0.46024314
144	0x3eabb98e	0.33540004
145	0x3f3f5d81	0.7475205
146	0x3e96ed9e	0.29478163
147	0x3e738a79	0.23783292
148	0x3e2ca1c7	0.16858588
149	0x3f00e434	0.5034821
150	0x3cffdecc	0.031234168
151	0x3e2a89a9	0.16654076
152	0x3f4703f3	0.777404
153	0x3d9e5cb9	0.07732529
154	0x3ea22321	0.31667426
155	0x3d59d80a	0.053184547
156	0x3e5ce120	0.21570253
157	0x3e4bd8cc	0.1990692
158	0x3ebb17e0	0.36541653
159	0x3de8f8f5	0.1137561
160	0x3e82a0cf	0.25513312
161	0x3f2695a2	0.6507207
162	0x3e73c2f2	0.23804834
163	0x3eb5ad1e	0.3548364
164	0x3da62809	0.08113105
165	0x3e258780	0.1616497
166	0x3ea31899	0.31854704
167	0x3dba5683	0.09098532
168	0x3ecde40b	0.40213045
169	0x3e786253	0.24256258
170	0x3eb5b004	0.35485852
171	0x3eb353f3	0.35024986
172	0x3eb72e1a	0.3577736
173	0x3f368f6f	0.7131261
174	0x3edac1e0	0.4272604
175	0x3d8b14ca	0.067910746
176	0x3e87d449	0.26529148
177	0x3e5fe5e0	0.21865034
178	0x3cce6a48	0.025197163
179	0x3e76c003	0.24096684
180	0x3e9f29dc	0.31086624
181	0x3d78b208	0.06071666
182	0x3ea41f35	0.3205506
183	0x3f0bf6c7	0.5467343
184	0x3f0cacea	0.54951346
185	0x3e3e2e5b	0.1857237
186	0x3d9e7fa7	0.077391915
187	0x3f23520c	0.6379707
188	0x3ed7226a	0.42018443
189	0x3e4ec9fa	0.20194235
190	0x3e08883d	0.13333221
191	0x3e27fd6f	0.16405271
192	0x3f1d3e39	0.6142307
193	0x3e7f4652	0.24929169
194	0x3ea84f2d	0.32872906
195	0x3f3c9bf8	0.7367549
196	0x3e949566	0.29020232
197	0x3d1dc593	0.0385185
198	0x3ee1f55b	0.44132504
199	0x3ee64dfa	0.44981366
200	0x3ca49173	0.020088887
201	0x3e864a85	0.2622873
202	0x3d0fbcb1	0.03509206
203	0x3cff94b4	0.031198837
204	0x3eb328e9	0.3499215
205	0x3e2e957f	0.17049216
206	0x3ed9ec62	0.42563158
207	0x3e7fe174	0.24988347
208	0x3f671476	0.90265596
209	0x3e99e6f9	0.3005903
210	0x3e471d72	0.19444826
211	0x3e370d49	0.17876162
212	0x3d28cbeb	0.041210096
213	0x3f0a4b4d	0.5402115
214	0x3d06fb2c	0.03295438
215	0x3892bcb8	6.996974e-05
216	0x3e55c813	0.20877104
217	0x3eb7881c	0.3584603
218	0x3d3752fa	0.044756867
219	0x3d959611	0.073040135
220	0x3eadf1ff	0.3397369
221	0x3ec32bf4	0.3811947
222	0x3d85229c	0.06500742
223	0x3cd83ea5	0.026397059
224	0x3e78f1ac	0.2431094
225	0x3efc5e66	0.4929077
226	0x3e52bf76	0.20580849
227	0x3d0504b9	0.032475207
228	0x3f701234	0.93777776
229	0x3f0ac251	0.54202753
230	0x3dd8152b	0.105509125
231	0x3d7d3a50	0.06182319
232	0x3d829135	0.06375352
233	0x3e8979d0	0.26850748
234	0x3ea760b5	0.3269097
235	0x3eb137cd	0.34612885
236	0x3e113e2b	0.14183871
237	0x3ed2dfde	0.41186422
238	0x3d699613	0.057027888
239	0x3da7c285	0.081913985
240	0x3f283a1d	0.65713674
241	0x3e8d406a	0.27588207
242	0x3da2f9c8	0.07957798
243	0x3e6f3de5	0.23363455
244	0x3e50d79a	0.20394745
245	0x3f8d9efd	1.1064144
246	0x3e6964ea	0.22792402
247	0x3f26a7ed	0.65099984
248	0x3ee7820b	0.45216402
249	0x3f205fd8	0.62646246
250	0x3ebc2c76	0.3675267
251	0x3b6d3bbb	0.0036198932
252	0x3f02d59a	0.5110718
253	0x3dc37852	0.09544434
254	0x3edc68aa	0.43048602
255	0x3e865f95	0.26244798
