Best_models/UCI_HAR_CNN_20210125_130254/CNN_UCI_HAR_Rep_8_Seed_122.pt (torch_old, 226695 bytes, 12 tensors)

weight f4 [64, 9, 3]
00000000: ded7 1abe 6d92 083e 32e0 d93d d6c2 413c
00000010: 76b6 503e dd82 3dbe 25b5 b0bc eecf 7c3c
00000020: 7bed e9bd 9351 a03d 4752 97bc 8e1d 24be
00000030: 8380 2bbe 4d87 3f3d 3857 603e 17c2 7f3d
00000040: 5868 52be e48e a3be 4e70 1a3e efff 523e
00000050: f1c9 ae3d 0885 233e 1c43 6cbd 02e5 783e
00000060: 88e5 353e b32a 8c3d d149 afbd b564 10be
00000070: 9047 6fbe 9d63 ddbd 5dc2 18bc 5d0f 303e
00000080: 8826 a9bd 4fb3 4abd 2a81 82be 608f 66be
00000090: 4f7c a73c fb24 d4bc 7cc9 2b3e 0cd9 8fbd
000000a0: 0877 13be 0984 af3c f4e1 7bbe 4c3e 1abe
000000b0: 77a9 8bbd 9b68 d03d ee77 983d 0b59 43bd
000000c0: 6ec4 bdbd f8b6 43be e7d0 a8bc 6b61 0fbe
000000d0: e83d ad3d 41e2 fe3d a579 bdbb 41e5 303e
000000e0: c024 113e 6cc2 b1bd 8717 ab3c 0486 0e3d
000000f0: b3b4 a0bd 4b9e 84be 8ccd 133e d632 843e
00000100: fe93 973e 9e89 e13b 1618 a23e 48b0 103e
00000110: f8e8 cb3c 3ed2 0c3e 3f42 a1bd 06ad 2dbe
00000120: 20b5 61bd 642b 21be 6e38 1d3e ac41 3ebc
00000130: 28b2 453e 439f 04be 7bed acbd 911f b13d
00000140: 7e14 7abc 14ba 83be 49e5 2dbe 75d0 36be
00000150: aaca 0c3e 1141 0a3e debd 2ebe 3ae2 c83c
00000160: b1d0 64bd 8b5a 58bb 44fb 1dbd c428 fcbd
00000170: 743c 3abe a921 2f3e b9b3 12be 7d00 62be
00000180: 2bee 8e3e b4f9 933d b7a1 a1be 8587 96bd
00000190: a73d 813e fd6c ae3c e0bd d53d ac7a 9a3d
000001a0: e167 783e 7d30 6d3e b2f8 4fbd 591f 70bd
000001b0: ef53 27be 9dfa 98be 1899 fabd 4bf4 9e3b
000001c0: 1a2a 00be c3e4 00be 00df 66bc 1cda b33b
000001d0: 3fef 88bd eced 1ebd c600 1cbe 744e 1cbe
000001e0: 6bd1 0d3e e360 7fbe e418 34be a934 613e
000001f0: c06c 063c a510 2bbe d251 af3c a63b bf3d
00000200: 1745 7c3e 30c2 803d c0cc 0f3e 9bd4 833e
00000210: 16c7 a2bd 92d5 123d d51d 923d 3def 2f3e
00000220: 0e98 363e e1d8 353d c37b 0d3e f611 02bd
00000230: 99eb 17be 0a14 293e 3714 94bc ee80 6cbe
00000240: cf02 2e3e 6118 f63d 58cc 523d 47fb 1cbd
00000250: 783c 3b3c 7253 03bc a0f5 b73d a618 dc3d
00000260: 7426 89be 6bab 20be eb51 013e 9b2e 773d
00000270: b80a f23d fb74 4abe 286e 56be 4b54 cabd
00000280: 6ca1 e73d ab9b d3bd 7a73 5fbe e53e 82be
00000290: af7f dbbd b6ae 96be 25cf 0d3d 4733 3fbe
000002a0: c2de c3bd b350 a33d 73e3 06be 22a9 c6bd
000002b0: 7ca0 00be f2f1 2fbe d753 b73d 199f f1bd
000002c0: 8fc7 d4bc 69a4 a3be 9a42 49be 40c0 69be
000002d0: a578 883d 68b3 dbbd f285 8a3d 4539 9ebc
000002e0: 348a 963d 4d01 8e3d 9e56 ecbd 73ea fbbd
000002f0: 81b5 b13d 4dc1 20be 7661 b63d 7dc2 1b3e
00000300: 7e22 bbbd 5949 e4bc 6d9b 10be 4ae2 68be
00000310: 9bbd eebd 9b25 ecbd fb5b f7bd ddbd b2bd
00000320: 84b2 c6bd 8240 8a3e 3bc0 c33d 251c d83b
00000330: 02f8 d63d b8d5 86bd 31d9 613e 92cc 79bb
00000340: 38e7 c0bb 0293 6b3d c58f 01be 66c6 f7bd
00000350: e4e7 e53d e802 e4bd cfb7 03bd 8ce3 ccbb
00000360: 0cc8 49be 4371 dc3d e2d9 a1bd b968 043c
00000370: c87e 0cbd eaaf 1dbe 3eeb 25bd c96d 303e
00000380: 8e03 4e3c 77ab b7bd 2525 cc3d faff 8d3e
00000390: 2862 6abe abce 08bc 0ba4 9ebd 79cc ebbd
000003a0: 71cd 093d 585c 903e ed5f 29be 61ca 05be
000003b0: 74ef de3c b3ad a03e 518a ab3d 76f5 793e
000003c0: ca06 8ebe c419 84bd e177 5fbe 9a25 853e
000003d0: 248b 7e3d da00 2d3e 4b02 85be d4b0 eb3d
000003e0: b546 c9bc 1c4e 81bc 1e2c f03d fb94 103c
000003f0: b4aa 983e f143 873e 866b 023e df2e 383e
-0.1512141 0.13337107 0.10638465 0.011826238 0.20382103 -0.18506952 -0.021570751 0.015430434
-0.11422249 0.07828059 -0.01847185 -0.16026899 -0.16748242 0.046759892 0.21908271 0.062440958
-0.20547616 -0.31944954 0.15081903 0.20605443 0.08534611 0.15968716 -0.057681188 0.2430611
0.1776334 0.06844082 -0.08559001 -0.14100917 -0.23367143 -0.10810015 -0.009323684 0.1719336
-0.082593024 -0.04948741 -0.2548917 -0.2251563 0.020445017 -0.02589654 0.16776079 -0.0702382
-0.14400876 0.021425264 -0.24597913 -0.15062827 -0.06819432 0.10176202 0.0744475 -0.04769234
-0.092659816 -0.19112766 -0.020607425 -0.14002006 0.08459073 0.12445498 -0.0057823234 0.17274953
0.14174175 -0.08679661 0.020885242 0.034795776 -0.07846966 -0.25902018 0.14433879 0.25820035
0.29605097 0.0068828603 0.31659 0.14129746 0.024891362 0.13752076 -0.078739636 -0.16960534
-0.055104375 -0.15739208 0.15353557 -0.011612337 0.19306242 -0.12951379 -0.08443733 0.08648599
-0.015263675 -0.25727904 -0.16981997 -0.17852958 0.13749185 0.13501383 -0.17064616 0.024521936
-0.055863086 -0.0033012952 -0.038569704 -0.12312463 -0.18187124 0.17102684 -0.14326371 -0.22070499
0.27916083 0.072253615 -0.3156869 -0.07350067 0.2524235 0.021292204 0.104366064 0.07542929
0.24258377 0.23163028 -0.050774284 -0.058623645 -0.16340612 -0.29878703 -0.122362316 0.0048508993
-0.1251606 -0.12587266 -0.014091253 0.005488647 -0.066862576 -0.03880112 -0.1523467 -0.15264302
0.13849418 -0.24939303 -0.1758762 0.21992745 0.008204639 -0.16705568 0.02140132 0.09337549
0.2463573 0.06287038 0.1404295 0.25748143 -0.07948129 0.035848208 0.07134596 0.17181106
0.17831442 0.044396285 0.13816743 -0.03175541 -0.14835967 0.1651155 -0.018076045 -0.23096058
0.16993259 0.12016369 0.05146441 -0.038325574 0.011427991 -0.0080155 0.08982396 0.10746889
-0.2678715 -0.15690391 0.12628905 0.06034718 0.11818451 -0.19771187 -0.20940459 -0.09879359
0.11310086 -0.10332426 -0.21821395 -0.2543861 -0.10717713 -0.2943017 0.034621377 -0.18671905
-0.09563972 0.079743765 -0.13172702 -0.09700228 -0.1256122 -0.17182139 0.08951538 -0.117979236
-0.025974063 -0.31961372 -0.19654313 -0.22827244 0.06663636 -0.107275784 0.06763829 -0.019314418
0.07350579 0.06933842 -0.115399584 -0.12300577 0.08677197 -0.15698738 0.08905308 0.1521091
-0.09137438 -0.027867006 -0.1412179 -0.22742572 -0.11657258 -0.1153061 -0.12078091 -0.0872762
-0.09702018 0.2700234 0.095581494 0.006595152 0.104965225 -0.06583732 0.22055508 -0.0038116318
-0.0058869384 0.057513244 -0.126525 -0.120983884 0.1122587 -0.11133367 -0.032157715 -0.0062527116
-0.19705218 0.107637905 -0.07902886 0.008081608 -0.034300596 -0.15399137 -0.040507548 0.1722938
0.01257409 -0.08968251 0.09968022 0.27734357 -0.22889006 -0.008350055 -0.077461325 -0.115136094
0.03364319 0.28195453 -0.16540499 -0.13065483 0.02721379 0.31382522 0.08375991 0.24410042
-0.27739555 -0.06450227 -0.21823074 0.2600525 0.062144414 0.16894856 -0.25978312 0.11508337
-0.024569849 -0.015784316 0.11727165 0.008824582 0.29817736 0.26419023 0.1273633 0.1798663

bias f4 [64]
00000000: efd3 45be 9d6c 24bd 8bac 9cbe 883b 8dbd
00000010: 9847 00be 3b4e a43a 643a ddbd d00f 2ebe
00000020: 68bc 25be e276 76be 9cf2 9fbd bb97 94be
00000030: 8010 bbbc fb03 1ebe ff0a 80be 9de6 b8ba
00000040: 051a 13be b7a0 87bb 7fef d9bd fb4c d9bd
00000050: 4e66 8dbd b20e 4bbe fbb4 583d 6bf8 943d
00000060: 8d35 28be 5f4f c2bd 864c f7bd 4c4f f63d
00000070: 8f1d 5b3c e5c1 20be cda5 293e ba32 76be
00000080: 8da9 9cbd 0ebb 9a3d 43c2 27be 2c92 a83d
00000090: 87c3 a03c 6793 53be e17c 14be 80e8 a0bd
000000a0: 6b15 eebd 1801 4abc 4db0 89be 431e 143d
000000b0: deb4 883d 5993 0ebe b85d 1c3d 1dab 29be
000000c0: 28b6 a3bb 30db cc3d 60da b9bc cb41 42be
000000d0: 0c34 32be 80f3 2f3e 77f9 8c3c 6d6f 18be
000000e0: 9214 a5bd 9b90 dabc ed4c f5bc c696 fbbd
000000f0: de96 2bbe c5d0 30be 4c3f f53d 1728 81bd
-0.19319128 -0.040142644 -0.3060039 -0.0689612 -0.12527311 0.0012535522 -0.10802153 -0.1699822
-0.16185153 -0.24068788 -0.07809946 -0.2902201 -0.022835016 -0.15431206 -0.2500839 -0.0014106814
-0.14365394 -0.0041390317 -0.106413834 -0.10610386 -0.06904279 -0.19829825 0.05290697 0.072739445
-0.16426678 -0.09487795 -0.120751426 0.120268434 0.013373747 -0.15698965 0.16567154 -0.24042788
-0.07649527 0.07555209 -0.16382699 0.08231005 0.019624485 -0.20661698 -0.14500763 -0.07856846
-0.11625179 -0.012329362 -0.2689232 0.036161672 0.06675123 -0.13923396 0.038175315 -0.16569181
-0.00499608 0.10002744 -0.022687137 -0.1897041 -0.17402667 0.17182732 0.017208798 -0.14886256
-0.08060564 -0.026680281 -0.029943908 -0.12284617 -0.1675677 -0.1726714 0.119749635 -0.06306475

weight f4 [64, 64, 3]
00000000: 4339 95bd 0bc5 4fbd 8872 2a3b 5fd3 b03d
00000010: bade 663d 6d15 d53d 5916 b539 a436 243d
00000020: bc14 6fbd 7017 c9bd 838d 9abd 9cc9 bebd
00000030: 8606 6ebc 4f59 80bd 9731 293d a4f6 023e
00000040: c6bc 6dbc dc2b 173d 8eb1 d73c 2245 093c
00000050: 5f30 453d ab47 00be 718e 7abd 0a3c 77bd
00000060: e387 d2bc 4787 d6bd 73b8 3fbd bb53 ec3d
00000070: 2d67 d83b a791 9d3a e9db 08be 197b 06be
00000080: 0614 60bd 3c1d 04bc cc07 8dbd 956c 8fbd
00000090: e096 5c3c f3f5 1e3d 88f7 71bd ae80 f1bc
000000a0: 328d a8bc edcf f83a af32 9b3c 4afb 333d
000000b0: 38d0 3cbd 3659 1dbd 25d5 81bd 5ed5 39bd
000000c0: 9ba5 0abe 639d 563d 47a3 bc3c 509e 13bd
000000d0: c1ea 9cbd 4280 aebd c50f aebc 58bb acbc
000000e0: 3638 303c c41f 933d 7c65 fb3b ea90 bbbc
000000f0: 87c2 3cbb 6c27 89bd 1d74 9ebd 970c 5f3d
00000100: 2001 5e3c 3bf0 edbc 93c8 e4bd 673a cabd
00000110: 9acb 68b9 8655 17be 7fea b4bd 18ba 42bd
00000120: 5036 90bd 3b31 debd 1568 f63b 957a a63d
00000130: a117 b33d 0910 4b3d 090f 5a3d 4edb df3c
00000140: 7dc7 453d 8144 25be 031d f9bd 7b7c 7dbe
00000150: a7e7 8abd 13ea 53bd b2f4 a1bc d565 8abd
00000160: dd17 abbd 0ac0 e73d dc53 8dbd ccc1 c5bd
00000170: e10e adbd 678d 3d3d f1b7 8fbc 0268 873d
00000180: 9642 90bd 8e01 04be 93c8 1abe 6534 aa3b
00000190: 2065 5dbc f65e d5bd 0aab 983d 59df 8b3d
000001a0: 8562 fb3c 46ab d6bd 975d 5a3c 5a7a 16bd
000001b0: d2b5 92bd 4ab1 97bd 88d8 b8bd 2d23 43bd
000001c0: 1252 2b3c cbdf 7a3b bc3f b4bc 670c eebc
000001d0: a1d0 30bc b616 ff3d 01b2 353d 2b14 3b3d
000001e0: 838b 0cbe 6ad1 0fbe b4f7 30be 5a96 4cbe
000001f0: bf6c abbd 3d41 143d f04c c13d 44fe 59bd
00000200: df6f c7bd bed9 72bc b8fa 8a3c 736c a6bc
00000210: 7378 43bc 3d25 6e3b 8319 bd3b fd4a 6cbb
00000220: 0fd9 80bc 9478 1c3d 5155 efbc da8e 05bd
00000230: 05e3 02bd a742 3f3e df51 0c3e b275 143e
00000240: d513 b33d f837 97bc ccd4 453c e778 51bc
00000250: 73a9 5a3c cda1 8d3d f8c7 a6bd eb93 76bd
00000260: 59bf 03be 8f65 c8bd c4a6 1abe b0c1 0abe
00000270: 8c11 063c 9459 8a3a 1917 0c3c ab89 90bd
00000280: 4a23 12be e1af cebd 2883 ff3d e40b 08bc
00000290: 0b93 41bc 7cd5 a03c 6ce3 ea3d e88e a63d
000002a0: d9a1 a3bd 2e0a e9bd 10f6 84bd 48c0 2dbd
000002b0: 3cac 143d 72d7 613c 60cf 1e3d e9c8 18bc
000002c0: 922b 4c3d 2c0e 213e a333 433d d0c6 dbbb
000002d0: 63db 47bd 9a70 483d d964 103e 162f acbc
000002e0: 67fb 87bb 0465 edbd aee2 91bc c66a 41bc
000002f0: e543 a4bd 4954 ad3c 8fd3 f83c b166 36bd
00000300: a4d3 a4b8 2b5e b63d f0cf 5a3e 8fde 71bd
00000310: 22a8 52bb 36a6 1aba 8648 d1bd e729 8bbd
00000320: 193e 34bb e82a 263e 2487 bb3d df84 c3bd
00000330: 1c09 083d 58af 9f3b 1cee 02be 741e febc
00000340: 64b4 cabc 496d 6d3d 771d ae3b fac9 7cbd
00000350: f547 05be 8dcc 273d 6398 b7bc 61cb da3d
00000360: c3d5 adbe ef59 94be 0adf 84be f9ed 70bc
00000370: 86a0 f53a 2ee7 133e 8ce5 34bd b02e fbbd
00000380: 7379 00be 10c6 e5bc cbbf 09bd 125a 85bd
00000390: 6909 37bc fc70 bd3c 3020 273d 8c16 27be
000003a0: bd1d 8dbc 6d26 a5bd 5f69 f5bc 8ea6 a73d
000003b0: bf25 4f3e 6f61 843b 58f8 313d 3eac 6fbc
000003c0: 0538 73bb 4a0a df3d d721 8c3d bd04 e5ba
000003d0: 46b2 d43c 7604 853d 201a 8dbe 2b27 69be
000003e0: a0f4 7ebe 214d aa3d 39d2 173b bda0 dc3d
000003f0: 8e49 113a 284a c03d 5154 b73d 7782 0cbc
-0.072863124 -0.050725024 0.0026008207 0.08634066 0.056364752 0.10404477 0.0003453966 0.04009117
-0.058369383 -0.098189235 -0.075465225 -0.09315798 -0.0145279225 -0.06267034 0.04130706 0.12789398
-0.014510339 0.036907062 0.026329782 0.008378299 0.048141833 -0.12527339 -0.061171 -0.060359992
-0.025699561 -0.10475021 -0.046806764 0.11539408 0.0066040964 0.0012021557 -0.13365139 -0.13132896
-0.054706596 -0.008063611 -0.06886253 -0.07003132 0.013463706 0.038808774 -0.059073955 -0.029480305
-0.02057514 0.0018982865 0.018945066 0.04394082 -0.04609701 -0.038415156 -0.06339482 -0.0453695
-0.13539736 0.05239619 0.023027075 -0.03603965 -0.07661963 -0.08520557 -0.021247754 -0.021085426
0.010755589 0.07183793 0.00767201 -0.022896249 -0.002880247 -0.06696972 -0.077369906 0.054455366
0.013550073 -0.029045215 -0.11171069 -0.098744206 -0.00022201092 -0.14778718 -0.08833789 -0.047540754
-0.07041609 -0.10849234 0.0075197318 0.081288494 0.08744741 0.04957584 0.053236995 0.027326252
0.04828595 -0.16139413 -0.12163737 -0.24754517 -0.067824654 -0.051736902 -0.01977 -0.06757704
-0.08354161 0.113159254 -0.069007605 -0.096561044 -0.084501036 0.04627743 -0.017543765 0.06611635
-0.0704395 -0.12891218 -0.15115575 0.005194234 -0.01351288 -0.10418503 0.07454498 0.068297096
0.030686626 -0.104818866 0.013327978 -0.036737777 -0.07163586 -0.07406862 -0.09025675 -0.047640968
0.010456579 0.0038280364 -0.022003047 -0.029058648 -0.0107919285 0.12455504 0.04435921 0.04567353
-0.13725094 -0.14044729 -0.17281991 -0.1997923 -0.08370351 0.03619503 0.09438503 -0.053221002
-0.097381346 -0.014822422 0.016965255 -0.020315384 -0.011930573 0.0036338114 0.0057708635 -0.0036055439
-0.015728502 0.03820093 -0.029215487 -0.032606937 -0.031954784 0.1867777 0.13703106 0.14498022
0.08744017 -0.018459305 0.0120746605 -0.012785173 0.013346064 0.06915627 -0.0814361 -0.06019966
-0.12865962 -0.09784996 -0.15102679 -0.13550448 0.008182894 0.0010555261 0.008550429 -0.07057508
-0.14271274 -0.1009214 0.12476188 -0.008303616 -0.011814843 0.019633047 0.114691585 0.08132726
-0.07989854 -0.11378895 -0.06492245 -0.0424197 0.036297068 0.013784276 0.038771987 -0.009325244
0.04984624 0.15728062 0.047656666 -0.00670705 -0.048793208 0.04893551 0.1410097 -0.021018546
-0.0041498425 -0.11591533 -0.017808285 -0.011805242 -0.08020762 0.021158354 0.030374316 -0.044531528
-7.8595505e-05 0.0890468 0.21368384 -0.05905014 -0.0032143672 -0.0005899401 -0.10218911 -0.067951016
-0.0027502833 0.16227305 0.091566354 -0.095468275 0.033211812 0.0048731975 -0.12786144 -0.03102038
-0.02474422 0.05796555 0.005313571 -0.061716057 -0.1301573 0.04096656 -0.02241153 0.10683323
-0.3395215 -0.28974864 -0.25951415 -0.014705175 0.0018739856 0.14443657 -0.044164225 -0.12264764
-0.12546329 -0.028048545 -0.033630174 -0.0651132 -0.011171677 0.023125164 0.04080218 -0.16317195
-0.017226094 -0.0806397 -0.029957471 0.08186065 0.20229243 0.0040399353 0.04344973 -0.014628468
-0.0037112248 0.10890634 0.06842392 -0.0017472726 0.025963914 0.064949915 -0.27558994 -0.22768848
-0.24898005 0.083154924 0.0023166074 0.10772846 0.00055422715 0.09389144 0.08951629 -0.008576027

bias f4 [64]
00000000: 6460 03bd c496 89bd 3b2a 0bbd 2b4a 60bd
00000010: 57f4 b93c 490d 1abd 4a43 83bc 2667 ffbd
00000020: 3a78 8ebd 0056 00be 850a 1f3d 5c03 43bd
00000030: 5ddf f5bd a995 b53d caf2 a9bd 3ef5 40bd
00000040: 37db 67bc 7e78 cebd 1aa5 97b9 8274 953c
00000050: 800c ec3d 0462 7e3b 08f3 8bbc 8446 ccbc
00000060: 5517 24bd 8765 d7bd 9613 e73d 5e32 a83c
00000070: 66df 47ba 97be b4bd 1c15 2bbd e4cb 81bc
00000080: 8079 0cbd e3b7 d63c 880f dab9 e647 15be
00000090: 350b 09bc 10d5 0c3d 896e 2cbe c0ea 233c
000000a0: fd8c 5d3d 2423 9abd 0b67 01bd 1a6c 833d
000000b0: b636 e2bd 1069 e7bd fde6 81bd 9b18 49bd
000000c0: c71a 29bd ec69 b63c c72c 1a3c 76b8 9cbc
000000d0: e763 a23b 575b aebd a416 1abe 852d babd
000000e0: 801a 7a3c c23b 9ebd af84 63bd c15e 41bb
000000f0: a7ad 0ebc be1a 1cbd c150 cfbd 7ebb c5bd
-0.032074347 -0.067182094 -0.03397582 -0.054758232 0.022699518 -0.037610326 -0.016023297 -0.12470846
-0.06956525 -0.12532806 0.03882839 -0.047610626 -0.12005494 0.08866436 -0.082982615 -0.04710888
-0.014151386 -0.10081576 -0.00028923975 0.018244032 0.11525822 0.0038815746 -0.01708366 -0.024935968
-0.040061314 -0.10517412 0.112830326 0.02053183 -0.00076245365 -0.08825415 -0.04176818 -0.015844293
-0.03429556 0.02621073 -0.00041591772 -0.14578208 -0.008364488 0.03438288 -0.16839041 0.010004699
0.054089535 -0.07526234 -0.03159241 0.06417103 -0.110455915 -0.11299336 -0.06342886 -0.04909573
-0.041285302 0.022267304 0.00941009 -0.019130927 0.004955757 -0.085135154 -0.15047699 -0.090907134
0.015265107 -0.07726242 -0.05554646 -0.002950594 -0.008708394 -0.03811144 -0.101228245 -0.09654902

weight f4 [256, 128]
00000000: 7100 e03d c844 8e3c 036b 66bc 15a5 4dbd
00000010: 7d6d b2bd 8283 013d b117 ebbc 4999 82bc
00000020: 21ce 773d c117 033d b2f5 77bd 3c46 90bd
00000030: aca1 cb3d 41fe 3a3d df83 2bbd 9c10 9f3d
00000040: f8aa 2ebd b62b 4fbd 2af8 1e3d 3b3f 0e3d
00000050: 43be d63c 6c4f 60bd a267 333c d82c 55bc
00000060: 5550 bc3d 06b7 9a3d c710 d73d 41d6 b23c
00000070: 29e8 673d db25 633e bcfa 5e3d 1b17 143c
00000080: cd3f aa3d c0bc 88bc 0742 833d cd96 633d
00000090: 78f3 cbbc a285 dc3c a5fe 343d 9825 8fbc
000000a0: ce7e 943c 3bad 7f3d da81 e13c 8aa3 8c3d
000000b0: 5837 ab3d 2998 65bd 14c5 f8bc b833 d23d
000000c0: df51 9c3d 5cc6 013e 915c c8bd 7424 263c
000000d0: 460d 2b3c f68a 04bd d8d5 96bc 678e 08be
000000e0: 3d36 273d 315b 14be 7335 b43d df87 1c3e
000000f0: f721 33bc 75ad d9bc 2b96 743d d854 123e
00000100: faf4 c83d 7fe2 313e e7b8 dc3d ae78 0fbe
00000110: 1aee f43c e9f3 c43d 22f0 9abd 154e 323d
00000120: 83fd cbbb 6600 a43d 0d7f abbc 139a 963d
00000130: daf5 d03d 1835 c03c 1ea9 ad3d de26 5e3d
00000140: 3ae2 ddbb f809 51bd 0eb1 babd 185e d03d
00000150: 8434 083d 4d47 203d 33db 96bc 68b0 8cbb
00000160: 2c35 983d 3505 bbbb b168 bf3c cd82 573d
00000170: 696b d63d a187 b4bc 20ee 89bd 4f70 00bd
00000180: cb7d 01bd 9831 55bd fbdf 5ebd 9b48 7dbc
00000190: 7860 183d 8b8f 19bd 680c 92bd f196 4b3b
000001a0: 6ab2 b6ba 1ee2 3d3c 4086 f93d fddd 1f3c
000001b0: 4ec9 0bbd 8e6a d43d 0fca 6f3d 83b5 873d
000001c0: b0a8 a43b f427 82bd 0669 193e 5e57 393d
000001d0: 061a 4b3d c3bb 98bd b112 efbc 0249 a6bd
000001e0: 2016 48bd 75df e93c a673 223a 0a93 ed3d
000001f0: 6506 3e3d e65b 80bd b317 0cbd bb7a 01be
00000200: 135c 183e 4e6a 843d 3347 7a3d 08c7 993c
00000210: ec3b 85bd d49e bf3d 5737 d9bc 7dce 0b3d
00000220: 21b3 7d3d 6051 ddbb db2b febc e230 76bd
00000230: ae58 493d bde6 d1bb 486f 3e3d ea49 dc3d
00000240: 281d 2abe eed9 06be 736b 86bd 6c36 dfbc
00000250: 8931 8fbd 9661 2ebd a1f6 89bd ffa3 1f3d
00000260: 4d32 493c e47f 24bd 2e56 b13c 67fa 0ebd
00000270: 786c 8a3d 5b9f 633d 0781 7abd 0455 44bd
00000280: de9e ad3d fc8c c0bb 7aec c23d 2c14 ce3d
00000290: 4f34 0fbd aaa0 98bc 19f4 0abd dd70 213d
000002a0: e06c d03d 8af5 af3d a0ca 853c a8bc e8bb
000002b0: ede1 af3d 15ba e93d 52c0 643d 2f95 613b
000002c0: b199 e5bc 7c1c 313d 6973 2abd 4bf6 48bd
000002d0: 24bd 6d3d 78ab 60bd 4c97 62bb 3b9a 043c
000002e0: 8b3d dd3d a3ad a03d 6d5c 1cbd 3e78 a13d
000002f0: cb77 f33d a18e b93d 8c62 d23d e162 d73c
00000300: 6db9 5e3c d276 83bd 3a62 c0bd 426e f0bd
00000310: cfde 95bd 0633 f33c b193 aabd 39e0 f6bc
00000320: 48cd b53d 4400 81bc 8d99 053c b501 fe3c
00000330: 4911 193e 4efa b13d 3c99 a33d 2d2c ec3c
00000340: cd2c b7bb 6fcd 833d c935 2fbc dbeb 703d
00000350: f7c0 113d 7d32 70bd 0d6b 9c3c 447e c43c
00000360: 1dc4 933c 20bc 77bd a951 cc3d bca3 29ba
00000370: e35c 5abb 1a48 133d 465b 0b3e 95d3 8f3d
00000380: 0faa 50bd dbe6 853d 59d3 463e 6cab 3d3e
00000390: 3806 ce3d 8207 d93c b2fb 0bbd 8511 743d
000003a0: a229 2e3d 4b09 083e d10c 183e 29ea d3bb
000003b0: a925 07bd b06c c5bb 8795 f6bd f2d1 a4bd
000003c0: 4d9a 38bd 37f0 71bd 072d 423c 767e f6bc
000003d0: 86de c03d b864 ea3b f338 ef3c b208 c73c
000003e0: 089b 453b 102e 94bc eb61 c0bd 2fa1 09be
000003f0: db3d dcbc e28e b5bd 0bfa 803d efb5 dd3c
0.10937584 0.017366782 -0.0140635995 -0.050206263 -0.087122895 0.031619556 -0.02869782 -0.015942233
0.060499314 0.032005075 -0.060537048 -0.07044646 0.09942946 0.04565263 -0.04187381 0.0776684
-0.042643517 -0.050578795 0.038810886 0.03472827 0.02621377 -0.054763243 0.010950001 -0.01301118
0.091950096 0.0755444 0.10501247 0.02183068 0.05661789 0.2218241 0.054438338 0.009038712
0.0831295 -0.016691566 0.06409078 0.055563737 -0.024896368 0.02691919 0.04418816 -0.01747398
0.018126871 0.062421065 0.027527738 0.0686713 0.08360165 -0.056053314 -0.030367412 0.10263771
0.07632803 0.12673324 -0.09783281 0.010140527 0.010440176 -0.032359086 -0.018412516 -0.13335572
0.04082321 -0.14487912 0.08799257 0.15286206 -0.010933391 -0.026571969 0.059713524 0.14290178
0.098123506 0.17371558 0.10777455 -0.1401088 0.029898692 0.09616835 -0.07565333 0.043531496
-0.0062252893 0.080078885 -0.020934606 0.07353606 0.102031425 0.023462817 0.08479522 0.054236285
-0.006771353 -0.051034898 -0.09115802 0.10174197 0.033253208 0.039130498 -0.01841507 -0.00429349
0.07432017 -0.005707408 0.02336535 0.052614976 0.104697056 -0.02203733 -0.06734872 -0.031357106
-0.031614106 -0.05204925 -0.054412823 -0.015459205 0.037201375 -0.03749041 -0.071312726 0.003106531
-0.001393867 0.011589555 0.12183809 0.009757516 -0.034127526 0.10371886 0.058542307 0.066264175
0.005024992 -0.06355277 0.1498147 0.045249335 0.049585365 -0.07457688 -0.029183717 -0.08119394
-0.048849225 0.028548935 0.00061970425 0.11600311 0.046392817 -0.06267528 -0.03420229 -0.12644474
0.14878874 0.064655885 0.061103057 0.018771663 -0.0650557 0.09356466 -0.026515646 0.03413247
0.06193841 -0.0067540854 -0.031026771 -0.060105212 0.049156837 -0.00640568 0.046492845 0.107562855
-0.16612685 -0.13169071 -0.06563463 -0.02724763 -0.0699187 -0.042573534 -0.06736494 0.03897476
0.012280059 -0.04016103 0.021647539 -0.03490677 0.0675897 0.055571895 -0.061158206 -0.04793264
0.08477567 -0.0058761816 0.095177606 0.10062441 -0.034961995 -0.018631298 -0.033924196 0.039414275
0.10177016 0.08591755 0.01633197 -0.0071025677 0.08588014 0.114124455 0.055847473 0.0034421196
-0.028027387 0.043240055 -0.04161397 -0.04906301 0.058041707 -0.054851025 -0.0034575043 0.008093412
0.10802754 0.078456186 -0.03817408 0.078842625 0.11888083 0.090604074 0.102727026 0.026292266
0.013594014 -0.064191476 -0.09393735 -0.1173978 -0.07317888 0.029687416 -0.08328951 -0.030136215
0.08877045 -0.015747197 0.008154285 0.031006673 0.14948 0.0869032 0.079882115 0.028829658
-0.0055900575 0.06435668 -0.010693976 0.05881868 0.035584416 -0.0586419 0.019094015 0.02398599
0.01803785 -0.060482144 0.09976513 -0.00064712367 -0.0033319525 0.035957433 0.13609037 0.07022778
-0.05094343 0.06538173 0.1941656 0.18522424 0.1005978 0.026492838 -0.034175582 0.05958702
0.042520173 0.13284795 0.14848639 -0.006467123 -0.0329949 -0.0060249195 -0.12040239 -0.080478564
-0.045069028 -0.059066977 0.011851556 -0.030089598 0.09417443 0.00715312 0.02920196 0.024296138
0.003015222 -0.01808837 -0.09393676 -0.13440393 -0.026884964 -0.08865143 0.06297692 0.027064292

bias f4 [256]
00000000: 0eb6 f6bc 891e 7a3d d31e 21bd 1ce1 dcbd
00000010: 1e1c 633d 4064 323b 3a0f 053d 90fb 6e3d
00000020: fdec 8a3c b771 623d 9da9 40bd 414f b13b
00000030: 40f5 53ba cb58 8fbd ba04 823d 853a a43c
00000040: c865 9fb9 1850 af3d e7c0 ebbc 50a6 0e3c
00000050: 14ea 65bc 453a 2abd 8fa1 693d e493 793d
00000060: 6f35 123e a6bd 233d 42cb 5d3d b242 5c3d
00000070: 7580 363e f56e 20bd c903 ad3c 9d7f 08bb
00000080: 0989 753d 286b 483d 6f86 f4bb f987 333d
00000090: 7d5d 283d 2308 29bd c4e3 913d 1a87 2dbd
000000a0: fdc9 1f3e df11 7e3c 99ab 6c3d c465 2dbc
000000b0: a629 6ebc 924a 54bc cc69 0f3b 7da7 013d
000000c0: 9d52 ca3c 9f1d 343d 4d68 b73d 6ec5 693d
000000d0: 189c 043e ab94 fb3c 2c94 16bb 8611 ec3c
000000e0: 3211 0e3e 11c1 b83c faa9 453d 1ad2 e33c
000000f0: a3f1 613d 4aec ae3b 7045 1b3e 064f 1a3d
00000100: de35 0d3c 5391 aa3d feca 4a3e 2c54 813c
00000110: 68f9 ac3c 7464 183e 8351 203d 1774 d73b
00000120: ee9b 97bd 9d9c 8bbd 955c 813d 8960 07ba
00000130: 6c4f 153c 1e4d c83c 968a 00bd 9118 443d
00000140: 7c79 2e3d 5153 bd3c 9c43 553d d588 913d
00000150: 29c0 2fbd 5a01 613b f60c 27bb 8ac9 413d
00000160: 9708 b73d e81e 1e3e 41a0 d1bd e8d0 09bc
00000170: 71c6 993d 48a9 303d c7d1 dc3d b65d 0bbd
00000180: 1de8 583d 93b7 a1bd edd9 853d 4484 d7bc
00000190: 6d18 8f3d 43b0 1f3d 594a 1fbd 9284 293d
000001a0: 58d6 c63c 668d 8cbc 2042 6f3c e7fd b4bb
000001b0: 097b 17bc c7cb 82bc 9be9 bd3d 0058 283d
000001c0: 98d6 12bd fdb8 ff3c 0071 f33c 051c 00bc
000001d0: 2f0d 4f3d ddee 4fbc 0353 233d 9978 bc3c
000001e0: c04d 5f3d 2752 ddbc f358 6d3d 4b84 763d
000001f0: 361d 503c ff1d 42bc e35d eb3c c40c 9d3b
00000200: 7bc5 393c 95dd a5bb 83e3 5e3c 099c 54bd
00000210: 7c37 e1b9 3575 b13c d070 093d 0612 d8bb
00000220: ba8a 81bc 1f50 c03c bbd6 9c3c b21a 193d
00000230: 2c8d 6d3c dc61 5f3c 7ecd 0abd ae9b 1b3d
00000240: b0a3 843d bcb5 513d 7bc6 1a3d 055e a2bc
00000250: 54a0 873d bd24 e73c ecbc 803d 051c 113e
00000260: 0f93 bdbc 1939 0abc 76e3 f23c dd9f 7dbd
00000270: cf03 19bc 8feb 8c3d cf5d 703b 7fd4 ec3c
00000280: 7dd1 223d 6049 8cbb e6bd 4ebd 40f1 6e3d
00000290: 6217 09bd b147 bd3c 5170 373d 4783 093d
000002a0: 6b52 003d 6ccc c83d a23c 783d 29f6 303d
000002b0: 0e3a e53d aa06 c63c 89fc 353d a9f4 bd3c
000002c0: ec46 df3b 8d88 123e f5b8 173c 6ecb d93c
000002d0: 32a7 c73d 4cc2 7d3d bffe 30bc 1d08 843c
000002e0: eea1 cc3c 630e 783c 716b 2d3d d518 bf3d
000002f0: b649 08bd c2ae d0bc 7c25 f13c f083 c73c
00000300: 901f 963c f678 753c 46ba bf3d d33e 1e3c
00000310: ffd8 573c 6f8a 1f3d 9d2b ac3d 68b7 443b
00000320: a8b7 b93d 5df9 9bb9 97a1 4dbd df92 bd3c
00000330: 0baf 6e3c caf6 99bd e1e2 5b3d 8c80 503d
00000340: 13ee 143d eaee c03d 3d9c 143c 9aac a43d
00000350: 8501 713c c376 013d f7ff 6ebd 6fca 963d
00000360: a55f c9bd c79c 5b3d 7b14 7bba c3f9 f4bc
00000370: 205b 0e3d ac62 db3b 9fd2 023d f56a 1a3d
00000380: 67c4 933d 6f15 313d 8843 273d 616a 77bc
00000390: 7b33 e3bc db52 b33d 1720 533d 37a8 fb3c
000003a0: 597b fb3b 111b cc3b 6fbd c23c 329c d83c
000003b0: c1c3 ae3c 9f7d 673d 7bbe b83d 95b0 0cbe
000003c0: fc89 f13c 0d6c 323d 87c5 a53c c52b b63c
000003d0: 538f 8e3d 3944 e93a e04b febd 9f19 f33c
000003e0: 49ba 753d 25e8 833d 0056 0abe e6d3 383c
000003f0: ef79 313e 642f 833c 3015 7f3c 5d1a bf3d
-0.030116107 0.061064277 -0.039336037 -0.10785124 0.055446737 0.0027220398 0.032485224 0.058345377
0.016958708 0.05528423 -0.047036756 0.005411059 -0.00080855563 -0.06999358 0.06348558 0.020047436
-0.00030402676 0.085601985 -0.028778506 0.008706644 -0.014032859 -0.041559476 0.05703884 0.060932055
0.14278196 0.039975785 0.05414892 0.053774543 0.1782244 -0.039168317 0.021119969 -0.0020828017
0.05994514 0.048930317 -0.007462315 0.043830846 0.041104782 -0.041267525 0.07123521 -0.04236517
0.15604396 0.0155071905 0.057780836 -0.010583345 -0.014536297 -0.012957232 0.0021883128 0.03165387
0.024697596 0.04397356 0.08955441 0.05707305 0.1295017 0.030710539 -0.00229765 0.02881695
0.13873747 0.022552999 0.048257805 0.027810145 0.055162083 0.0053382264 0.15163207 0.03767302
0.0086188 0.083285 0.19803998 0.015787207 0.02111502 0.1488207 0.039140236 0.0065751183
-0.07402788 -0.06816981 0.06316487 -0.0005164226 0.009113174 0.024450835 -0.031382166 0.04787499
0.042596325 0.023111017 0.05206643 0.07106177 -0.042907868 0.003433308 -0.0025489903 0.047311343
0.08937185 0.15441477 -0.10235644 -0.008411624 0.07508553 0.04313019 0.10782199 -0.034024917
0.052955735 -0.07896342 0.06535707 -0.026308186 0.06987081 0.038986456 -0.038889263 0.041386195
0.024272129 -0.017157268 0.014603168 -0.0055234316 -0.009245642 -0.01596631 0.09273072 0.04109955
-0.035849184 0.031216139 0.029716969 -0.00781918 0.050549682 -0.012691227 0.039874088 0.023006724
0.054517508 -0.027016712 0.057946157 0.06018476 0.012702277 -0.011847972 0.028731292 0.0047927815
0.011338587 -0.005061815 0.013604048 -0.05190662 -0.00042956683 0.021662334 0.033554852 -0.0065939454
-0.01581322 0.023475705 0.01914536 0.037378974 0.01449899 0.013634171 -0.03388738 0.037990265
0.064765334 0.051198706 0.037786942 -0.019820223 0.06622377 0.02821576 0.06286034 0.14170845
-0.023141412 -0.008436465 0.029649477 -0.061920036 -0.009339287 0.06880867 0.0036677008 0.02890992
0.039750565 -0.004281208 -0.05047407 0.058335543 -0.033469565 0.023105474 0.044784848 0.03357246
0.0313286 0.098046154 0.0606047 0.043203507 0.11192714 0.0241731 0.04443029 0.023187952
0.0068138745 0.14309902 0.009260406 0.02658626 0.09748687 0.061952874 -0.010802924 0.01611715
0.024979558 0.015140149 0.042338792 0.09330908 -0.03327342 -0.025473956 0.02943682 0.024354905
0.018325597 0.014982453 0.09361701 0.009658533 0.0131742945 0.03895038 0.08406756 0.0030016545
0.09068233 -0.00029749694 -0.050202932 0.023141323 0.014568101 -0.075177744 0.053683165 0.05090384
0.036359858 0.09420569 0.009070453 0.08040734 0.014709835 0.0316074 -0.058349576 0.0736283
-0.09832696 0.05361631 -0.0009577942 -0.029904252 0.034754872 0.006695112 0.031939145 0.03769966
0.07215195 0.04323333 0.040835887 -0.015101046 -0.027734509 0.08756038 0.051544275 0.03071986
0.0076746163 0.0062288125 0.02377197 0.026441667 0.021333577 0.056516286 0.09020706 -0.13739236
0.029484741 0.043560077 0.02023579 0.022237668 0.06960931 0.0017796821 -0.12416816 0.029675303
0.05999211 0.064407624 -0.13509369 0.011280989 0.1733167 0.016013809 0.015569016 0.093312

weight f4 [256]
00000000: 35e7 7a3f a968 953f 5ba5 8e3f 6417 763f
00000010: 6347 8d3f 1c87 8a3f a097 8e3f 96af 863f
00000020: 41e3 8c3f 2898 9d3f 25f3 8f3f 6dd3 863f
00000030: cca4 923f f540 8b3f fbf1 8d3f 0f02 8f3f
00000040: 11ab 983f 179a 903f 40bb a23f 821e 933f
00000050: 4049 953f 7141 863f 7631 843f 5af4 813f
00000060: 3246 8a3f eb20 883f 528e 923f c473 8a3f
00000070: 88ee a13f de96 8f3f c3ed 8e3f e0a9 903f
00000080: b9ba 883f fac8 933f 688e 923f 38f1 8a3f
00000090: a25a 973f 3b67 7e3f cd1c 903f 9802 803f
000000a0: 66ab a23f 7722 8a3f 3f49 933f 547b 833f
000000b0: e5ca 8b3f ca68 913f cf47 8d3f 07a6 9d3f
000000c0: 0a32 943f 5c79 963f b816 833f 2563 8e3f
000000d0: 8451 983f d5f2 8c3f 3141 903f 1ddb 903f
000000e0: f0a3 943f 70be 8f3f e998 903f ed96 8c3f
000000f0: 4ea7 913f dfd3 903f 5f0a a73f 5020 8e3f
00000100: 7902 983f 9649 913f 2400 993f 71bd 953f
00000110: 516f 953f 5a15 813f 9603 973f 21fb 8e3f
00000120: 9d2a 813f fbe5 933f 1a7a 883f abb8 943f
00000130: d53f 8a3f 82aa 973f be27 833f 789a 963f
00000140: 4f40 853f 97a9 933f 0e84 903f c35d 8b3f
00000150: f4dd 973f 21a0 8a3f 7a9b 9a3f b0ce 9d3f
00000160: 2e91 8e3f 29b1 a33f 8563 733f 1789 8b3f
00000170: ba48 813f 638e 8b3f ade0 973f 5dc6 953f
00000180: bd38 943f f920 823f 6b69 973f 570c 943f
00000190: 02b5 9a3f 177e 8b3f 7883 7f3f 3ed8 933f
000001a0: a70b 863f 6c84 8e3f 8e4c 8d3f 8eec 8c3f
000001b0: 733c 903f c101 8d3f 4805 983f e97b 993f
000001c0: 62d6 823f d24c 963f 1467 883f ff0e 873f
000001d0: 7c85 933f b7a9 933f 83f9 933f 2b3b 953f
000001e0: 3113 843f 3ba4 843f 441c 9a3f a706 8d3f
000001f0: 7f21 8f3f bdf9 853f c44b 853f 2410 833f
00000200: c73f 833f a579 803f 749e 8e3f f773 893f
00000210: 34b7 813f f748 883f fc06 983f ff88 8c3f
00000220: 8638 943f 2bbf 8f3f 6c3d 983f e426 8d3f
00000230: 2cfc 8f3f f6a6 963f 85e3 803f 874e 8d3f
00000240: 7e9a 943f e9b2 933f dd73 7b3f c06b 833f
00000250: ddc0 8b3f a5db 9f3f 5485 a13f 3f4b 8f3f
00000260: 14d1 923f 2119 943f c03d 8e3f 4549 833f
00000270: facd 963f 52ca 803f f786 913f ed6b 8f3f
00000280: f2bf 903f db73 8a3f 71b5 853f 2a1c 853f
00000290: fbc9 a43f 00f3 943f 81ef 903f 4f1d 943f
000002a0: e456 993f f0bb 883f 10da 823f 0d27 983f
000002b0: eb5c 9e3f 3be0 903f f84c 8e3f b4ba 853f
000002c0: 466b 8e3f 6edb 953f bb54 823f e671 873f
000002d0: 8696 843f 0902 823f 0082 843f be5a 943f
000002e0: 49af 9a3f 7f92 833f 0115 8c3f d909 9d3f
000002f0: a3da 7d3f 4629 983f 41c2 9c3f 662e 963f
00000300: 4ae3 863f cbae 893f aae8 7c3f 2b18 903f
00000310: 3ce6 933f 0e10 8a3f 6edb 963f 7f35 913f
00000320: d354 8a3f 5f8e 953f d7be 913f ca8e 933f
00000330: 70d6 a83f 1aa9 953f 6e2f 923f 6e12 8e3f
00000340: f68e 913f 9f62 8f3f d8d1 8b3f 29ec 8b3f
00000350: 5ea2 903f 6111 873f 5835 923f 0308 8d3f
00000360: ebbd 913f d364 a93f 652a 9f3f 9a33 923f
00000370: 7920 923f 3005 9e3f 042f 8e3f ef97 8f3f
00000380: 5c60 823f f813 a63f 7796 943f 19a1 883f
00000390: cb78 893f c8ff 933f d6a7 813f df2d 833f
000003a0: 2151 923f 273f 863f 3eec 923f 547a 8e3f
000003b0: 7df7 8f3f 55f0 9f3f a1e7 8c3f 3d13 713f
000003c0: ea14 903f ce2f 953f a2c9 8c3f 4237 993f
000003d0: 6fdb 913f 3aaf 823f 395e 7b3f f912 913f
000003e0: abc3 983f 8186 6e3f 9c9b 6f3f 65d4 8a3f
000003f0: 85ec ac3f 745c 9c3f 8938 903f aa8c 8c3f
0.98009044 1.1672565 1.1144212 0.9612944 1.103741 1.0822482 1.1140022 1.0522335
1.1006852 1.2312059 1.1246077 1.0533272 1.1456542 1.0879198 1.1089472 1.1172503
1.1927205 1.1297024 1.2713394 1.1493685 1.1662979 1.0488721 1.0327594 1.0152695
1.0802672 1.0635046 1.1449683 1.0816579 1.2650919 1.1217916 1.1166309 1.1301842
1.0681983 1.1545708 1.1449709 1.0854864 1.1824534 0.9937627 1.1258789 1.0000792
1.2708557 1.0791768 1.1506728 1.0272012 1.0921293 1.1360104 1.1037539 1.2316293
1.1577771 1.1755786 1.0241308 1.1124007 1.1899877 1.1011606 1.1269895 1.1316868
1.161253 1.1229992 1.1296664 1.0983559 1.1379182 1.1314658 1.305004 1.1103611
1.1875755 1.1350582 1.1953168 1.1698438 1.1674596 1.0084641 1.1797969 1.1170388
1.009113 1.155456 1.0662262 1.1618856 1.080073 1.184891 1.0246503 1.176589
1.041025 1.153613 1.12903 1.0887989 1.186461 1.0830117 1.2078698 1.2328701
1.1138055 1.278844 0.9507373 1.0901212 1.0100319 1.0902828 1.1865441 1.1701161
1.1579815 1.0166312 1.1829046 1.1566266 1.2086489 1.0897855 0.9980998 1.1550367
1.0472306 1.1134162 1.1038988 1.1009691 1.1268448 1.101616 1.1876612 1.1990939
1.0221674 1.1742194 1.0656457 1.0551451 1.1525111 1.1536168 1.156052 1.1658682
1.0318357 1.0362619 1.2039876 1.1017655 1.1182097 1.0466839 1.0413747 1.0239301
1.0253838 1.0037123 1.1142106 1.0738515 1.0134034 1.0647267 1.1877131 1.0979308
1.157975 1.1230215 1.1893744 1.1027493 1.1248832 1.1769702 1.0069433 1.103959
1.1609647 1.1538974 0.9822367 1.0267258 1.0918232 1.2488905 1.2618814 1.1194838
1.1470056 1.1570169 1.1112595 1.0256735 1.1781609 1.0061743 1.1369313 1.1204811
1.1308577 1.0816606 1.0445997 1.039922 1.287414 1.1636658 1.1323091 1.1571444
1.1979642 1.0682354 1.0222797 1.1886917 1.2372106 1.131843 1.1117239 1.0447602
1.1126487 1.170759 1.0182108 1.0581634 1.0358436 1.0156871 1.0352173 1.1590192
1.2084743 1.0279082 1.094391 1.226863 0.9916174 1.1887596 1.2246782 1.173291
1.0538113 1.0756468 0.9879252 1.1257375 1.1554637 1.078615 1.1785715 1.1344451
1.0807136 1.1684073 1.1386365 1.1527951 1.3190441 1.1692231 1.1420724 1.1099374
1.1371753 1.1201972 1.0923414 1.0931445 1.129955 1.0552179 1.1422529 1.101807
1.1386083 1.3233894 1.2434813 1.1421998 1.141616 1.2345333 1.1108098 1.1218241
1.0185657 1.2974844 1.1608418 1.0674163 1.0739988 1.1562433 1.0129344 1.0248374
1.1431009 1.0488023 1.1478345 1.1131082 1.1247402 1.2495219 1.1008188 0.9416998
1.1256382 1.1655214 1.0999033 1.1969988 1.1395091 1.0209725 0.9819065 1.1333915
1.1934713 0.93173987 0.93596816 1.0846068 1.350968 1.2215714 1.1267253 1.0980427

bias f4 [256]
00000000: afdf 163e 5f4b 013e 5dc0 e03d 82c8 1d3d
00000010: bcab 373d 957b 173e 01b9 1d3e 456e 9e3d
00000020: f066 0d3e 1bd0 163d 208b 9d3d 01c0 80bc
00000030: 17f4 b53d 5215 f73d 17e0 ce3d 2acb c33d
00000040: 96af 0f3e 0c6b 953d b743 da3d c76f b63c
00000050: d9b7 db3d 8bce dd3d 9fc5 a13d afa1 9f3c
00000060: 8f13 a53d ebae 383d 52ca 983d 7080 1a3e
00000070: 1e6d 71bd 4307 223e 04bf cb3d 7473 4e3e
00000080: c7bd e33d 03ee a23d d7d1 0c3e c4fe 933d
00000090: b1e2 b03c c197 733d 7653 b33d ec24 983d
000000a0: 85a3 94bd 7275 adbb 32fd af3d 991c 933d
000000b0: 8e19 d53d 14e0 053e 4f4b e33d 2d5f 373d
000000c0: c048 e53d 3fe6 c33d 7b00 0a3d bcd8 b63d
000000d0: 1dfc 2b3d 0063 343e 030e 193e f7f9 d93d
000000e0: 3df5 a83d 6a1b 023e c469 573d 3860 1f3e
000000f0: 7bcf 1d3d 033b c43d 0dd9 c0bd c530 363e
00000100: d29e 28bd 00ac 283e c6d6 77bd 256d 133e
00000110: 9bd5 003e 5e1e eabc de18 e43d 9e38 983d
00000120: 159d 303d fa3c c63d 5c9b 843d 94d0 fd3d
00000130: 168e d93d bea0 4f3d ac38 da3d 0027 b13d
00000140: 0c49 d6bb 2842 413d 84df 343e 5ced 9cbc
00000150: f6d7 253e f30b 9c3d 969e 933d 181c 7dbc
00000160: 520a 223e 5f89 b0bd 161b 8d3d 4fbc 033e
00000170: 9a89 0f3d ec63 ad3d 04b2 963d fe5c 3c3d
00000180: a938 833a 93ab 543d 4b25 c23d 2273 4c3e
00000190: 7f8f 9bbd 5453 55bb 4866 533d 8ed3 663d
000001a0: d330 c03d 6d72 b93d e35a f23d 36e3 853d
000001b0: 61d3 de3d f910 513e ac04 e13d 472c 903d
000001c0: 5f9c 023e 33e6 2abd 4003 093d 60ba f13d
000001d0: af16 9a3d 984c 013e 4dc6 ad3d 37b2 ed3d
000001e0: 4a0b d63c 5048 803c e5c3 dc3d c91c 77bd
000001f0: b252 b93d cd43 083e f957 893d 498e 843d
00000200: 2e05 6dbb e0c6 fe3d 759f c53d 2675 8b3d
00000210: 277b ae3d ca4b 1d3d 30a4 883e 1d93 363e
00000220: 0ec5 a13d f477 35bb f5c2 5a3d 7a79 073e
00000230: 924f d73d cecc 1cbd 1ccb 093b 0830 833c
00000240: e9b9 d43d efe7 153e abda ca3d d28f ce3d
00000250: f6d1 fd3d 84fa 953d 424c 0d3c 5aef 003e
00000260: 9f84 d73d 442a e83d d7e2 073e 19c6 cf3c
00000270: ff19 da3d 900b 8c3d ec40 243e 28e0 5b3d
00000280: f5d7 043e 818e e4bc 6ce4 233d 951f c63d
00000290: ba17 0e3e 463d b83d b309 193e 8468 4f3d
000002a0: 8581 713b 1072 b13b e6b0 a63d 5217 e23d
000002b0: a076 533e ec3f 153e 293c 563a 7b85 a23d
000002c0: 8d9e 8e3d 44ee 013c 7fa9 923d 5dc0 d33d
000002d0: a029 e73d 8d69 963d d112 0a3e c8cf ed3d
000002e0: 7791 e3ba a359 203e 9b50 ca3d 191c f13d
000002f0: 88ae 493b 1aed fa3d eaf4 dc3d 2c03 8e3d
00000300: f6d1 2d3d 4db2 173e b1a0 e53c bec3 a13d
00000310: 8703 263e 1377 a03d 6adf 383e 15df f13d
00000320: aa9f 8c3d 272e 3a3d 3e07 e33d ef7e 043e
00000330: 71fb bbbc d8da 3a3d f8d8 cb3d b1fe 913d
00000340: 6672 0b3e d7fe 033e 3c17 283e d316 c33b
00000350: 4971 353e c385 b83d 5012 fb3d f9f1 183e
00000360: 4698 c03d 80fe 653d 16ee 273e 047b 1d3e
00000370: f6c1 113e 8be9 da3d f746 db3d 43f5 033d
00000380: 84b9 c23d e319 8c3c 332a c33c 32bc 663d
00000390: b8f8 643d 836d c5b9 2888 3d3d 4a50 413d
000003a0: c9b1 de3c a21a 913d fad0 203e cf05 d03d
000003b0: 9af1 843d 902c b2bd 560f fc3d 9c32 3c3d
000003c0: a96c 7c3d efe4 093e c0fa 263d e7e1 fe38
000003d0: 9850 763d 071b b23d 9f22 f33d e279 f6bb
000003e0: 4cab 46bd d4e5 ae3d 5f53 033d 8b7d 953d
000003f0: 24f5 a8bd 814c 9a3c 4429 323e be6b 103e
0.14733766 0.12626408 0.109741904 0.038521297 0.044841513 0.14793237 0.15402605 0.07735876
0.13808799 0.03681956 0.076925516 -0.015716555 0.08884447 0.120646134 0.101013355 0.09560235
0.14031824 0.07295808 0.10657447 0.022270096 0.107284255 0.108304106 0.07899021 0.019486276
0.08060371 0.04508869 0.074604645 0.15088058 -0.058941953 0.15823083 0.09948543 0.2016123
0.111201815 0.079555534 0.13751923 0.07226327 0.02159247 0.059470896 0.08756153 0.07428917
-0.072577514 -0.0052935416 0.08593215 0.07183189 0.10405265 0.1307376 0.11098348 0.0447685
0.111955166 0.095654 0.033691864 0.089280576 0.04198848 0.1761589 0.14946751 0.1064338
0.082499005 0.1270577 0.0525911 0.15564048 0.038527947 0.09581568 -0.09416399 0.17792042
-0.041167088 0.16471863 -0.06050756 0.14397104 0.12581484 -0.028578933 0.111375555 0.07432674
0.043118555 0.09679599 0.06474945 0.12393299 0.10622804 0.050690405 0.106553406 0.08650017
-0.0065394696 0.047182232 0.1766339 -0.01915615 0.16195664 0.07619467 0.07207982 -0.015448593
0.1582425 -0.086199515 0.06889932 0.12864803 0.035043336 0.08466324 0.073581725 0.04598712
0.0010011393 0.05192144 0.09479769 0.19965795 -0.07595729 -0.0032550888 0.051611215 0.056354098
0.093843125 0.09055028 0.118337415 0.06537478 0.10880161 0.20416631 0.10987219 0.07039695
0.12754963 -0.04172344 0.033450365 0.11803126 0.07523858 0.12626874 0.084850885 0.116062574
0.02612843 0.015659481 0.107795514 -0.060330186 0.09048976 0.13307114 0.067062326 0.06472451
-0.0036166417 0.12440276 0.09649555 0.06809454 0.08519583 0.038402356 0.26687765 0.17829557
0.07898913 -0.0027689906 0.05340858 0.13229933 0.10513224 -0.038281254 0.0021025604 0.016014114
0.10387022 0.14639257 0.09904989 0.10086025 0.123935625 0.07323173 0.008624138 0.12591305
0.10523342 0.113361865 0.13270126 0.025363015 0.106494896 0.06838143 0.1604039 0.05368057
0.12973006 -0.027899982 0.040012762 0.096739925 0.13876238 0.08996062 0.14945106 0.050636783
0.0036850881 0.0054152086 0.081392094 0.11039604 0.2065072 0.14575166 0.0008172417 0.07935616
0.06963835 0.007930342 0.07161235 0.10339425 0.11287236 0.07344351 0.1348374 0.11611897
-0.0017362077 0.15659194 0.098786555 0.11772937 0.0030774195 0.12252255 0.10788901 0.06934199
0.042436562 0.1481411 0.028030725 0.07898663 0.16212283 0.078352116 0.18053976 0.11810128
0.06866391 0.04545417 0.11085366 0.12939046 -0.022947045 0.045618862 0.09953493 0.07128657
0.13617858 0.12890182 0.16415113 0.0059536486 0.17718996 0.09009888 0.12259352 0.14936055
0.09404044 0.056150913 0.16399416 0.15378958 0.14234146 0.10689076 0.10706895 0.03221632
0.095080405 0.017102187 0.023823833 0.05633182 0.05590126 -0.0003765636 0.046272427 0.04719571
0.027184384 0.07085158 0.15704718 0.10157358 0.06491394 -0.08699906 0.123076126 0.045946702
0.061627064 0.13466237 0.040766478 0.000121537414 0.060135454 0.08696561 0.11871838 -0.007521854
-0.048503205 0.0853993 0.03206193 0.07299336 -0.08249882 0.018835308 0.17398554 0.141036

running_mean f4 [256]
00000000: 2a6e 3d3e 96df d53e eccc b63e 5269 923d
00000010: 7446 c53e a184 5a3e d09b 873e c630 7d3e
00000020: 1d70 f83e db1a d33d ed6d 2b3e 302e 3e3c
00000030: 0d44 d23e 380e c13e fff2 053e cd8f 5c3e
00000040: 8806 b63e 91cb 233e f47a 2f3e 0a74 3c3c
00000050: 5053 443e 0d11 743e 509d 5c3e 1ff3 813e
00000060: c81f 4b3e 33b6 b43e b704 953d e317 5c3e
00000070: 974f 763d e972 993e cc38 753e 13b7 643e
00000080: 4e2c c73d 93a7 bf3d 1a2a 4d3e f561 9a3e
00000090: cee4 0d3d 827f 823e 1cb5 563e 69e3 b93d
000000a0: 926b 3d3d 1e68 863d 8d9e 143e 9f8e 3c3e
000000b0: d224 c83e c498 b63e 5b73 a03e c702 bf3d
000000c0: 3ab9 ac3e 209e b63d 21d5 8c3e ba47 d13e
000000d0: c27a 413e b114 d13e a5e4 dc3e 3b59 963e
000000e0: 957c df3d b538 123e bd82 3f3e 28a4 093f
000000f0: da3c 8b3d 1613 9b3e 5fe5 673d d3ed 8f3e
00000100: a734 2e3c 1cd2 623e a222 803d 3b16 d33d
00000110: 392f 9c3d b76d 933d 286a d53e 8183 143e
00000120: 6758 013d 17fd 9b3e f0ca bd3e dba5 003e
00000130: 7f27 263d c940 9e3e eef8 583d 45eb 503e
00000140: 0d72 a43c edae 153e cbfc db3e 2963 c13c
00000150: 127b 703e 4c8e 393e 4e9c 9c3d c044 973c
00000160: 9312 de3e 673c 513d dbea a93a 02dc 163f
00000170: 75c2 993d 69ac 3d3e 614e 943e 77ba 853e
00000180: 7538 b33d 6842 833e c7e8 973d 9e4c 6c3d
00000190: 6e64 d33c 10e1 863d bf26 053d 54e3 1b3e
000001a0: 9d06 2b3e eb64 353e e184 b13e aeb5 263e
000001b0: 831e af3e 8cf4 8f3d fc00 963e e09d 013e
000001c0: e877 f43d 6ebd 8c3c 050d 833c 8d84 713e
000001d0: 1aeb 983e 9765 603e 887c 2c3e bd02 773e
000001e0: 44e3 f93d 95b5 1f3e 193c 273e 7540 a93d
000001f0: 3ab3 913e fb79 db3d e985 ea3d 4793 893e
00000200: cf7c 8c3c 3198 fb3d 78a3 b83e 8129 333e
00000210: 80c0 473e cdcb 633e 50e2 c43e 68fd 163e
00000220: 0df5 443e 6c6e 7c3c 4ec5 f13d b588 e63e
00000230: 4435 9f3e 3029 2c3c ba1a 453e 0ae0 423e
00000240: 7ff8 0c3e d2d4 d53e 5707 b83d ba32 7f3c
00000250: 3dac 7a3e df33 1b3e 4ffa c13d 2fe6 b33e
00000260: 14eb 5d3d f99b a73e a11d f23e 9499 293e
00000270: 337b 0c3e 19f6 1e3e 1dee a03e 4ac4 a63e
00000280: 4568 ae3e f76d b53c 9fff 5a3e a31a 4c3e
00000290: f670 5c3e 783d 413e 1e13 143e 7824 fd3d
000002a0: de86 863c 531c 7e3d 90ff d13d f635 693e
000002b0: ecdf 853e cc75 c83e 0cab 433e ef38 933e
000002c0: 2eef 863d 7f44 733d a583 103e dfd6 bb3d
000002d0: 9ae3 dd3d e07b 393e 005b 353e 0da8 783e
000002e0: 58ad 7b3d 1c50 923d 007e 893d 3c96 5d3e
000002f0: e0ba 353e 63f0 ac3e 5d08 963e cc73 0c3e
00000300: e3dd 4f3e b025 933d 1f8e 623e 8d4c d23e
00000310: 3fbc c03e e0e5 4b3d 08ea 113e 5687 fc3e
00000320: 63a8 3b3e b4cf d43d b558 813e 07e0 853e
00000330: 99ee 763d 7e36 343e 4823 163e df60 6c3d
00000340: f973 b53e ce22 ac3e 9fc7 163f 6474 123e
00000350: f742 173e ac15 903e a59a 233e 2cb5 113e
00000360: b9a9 303e a522 323d 6099 7b3e b516 9d3e
00000370: 853d cc3e 7aa4 8e3e b1ee 503e 7bbe bc3c
00000380: 9757 0d3e 5ed0 5b3d ac42 513d eb60 813e
00000390: 1055 0f3e 55c1 bd3d c44a 2b3e 2eb4 7d3e
000003a0: f2ee 3f3c 9f4a d03d bbc6 7e3e c266 9c3e
000003b0: 85d5 563d 5b0e c63c 72c1 593e a400 3339
000003c0: c1b4 523e 02d1 cf3e 6371 823e 2926 423c
000003d0: c3c9 5f3e 58cf 763e 9889 b53c fcb2 bb3d
000003e0: f0f3 ab3c 7642 113e 9f4a 042a efe8 8c3c
000003f0: 6c42 623d 6e3f 973d e93d 153f 70d8 753e
0.18499056 0.41772145 0.35703218 0.071489945 0.38530314 0.21339656 0.26486063 0.24725637
0.48523036 0.10307857 0.16741152 0.011607692 0.41067544 0.3770616 0.13080977 0.2153923
0.35551858 0.15995623 0.17136747 0.011502275 0.19172406 0.2383463 0.21544385 0.253808
0.19836342 0.35295257 0.0727629 0.21493487 0.060134497 0.29970482 0.23947448 0.22335462
0.09725247 0.09358134 0.20035592 0.3015286 0.034642033 0.25487906 0.20967525 0.09076578
0.046245165 0.065628275 0.14513607 0.1841378 0.39090592 0.35663426 0.3133801 0.093267016
0.33735067 0.08916879 0.27506354 0.40875036 0.18894485 0.408361 0.43143192 0.29364952
0.10912434 0.14279445 0.18702216 0.5376611 0.06798716 0.30288 0.05661523 0.28111133
0.0106326705 0.22150463 0.06256606 0.103069745 0.076261945 0.07198661 0.41682553 0.1450329
0.031578448 0.3046653 0.37068892 0.12563269 0.04056501 0.30908802 0.052971773 0.20402248
0.020073915 0.1461751 0.42966303 0.023606854 0.23484448 0.18120688 0.07647 0.0184654
0.43373546 0.051082995 0.0012963669 0.58929455 0.07507793 0.185228 0.28966048 0.26118824
0.08751003 0.256366 0.07417446 0.057690255 0.025804725 0.06585896 0.032507654 0.15223438
0.16701742 0.17714278 0.3467169 0.16280243 0.34202966 0.070290655 0.29297626 0.12657881
0.11936933 0.01718017 0.01599742 0.2358572 0.29866868 0.21913753 0.1684438 0.24122138
0.122015506 0.15596612 0.16331519 0.08264247 0.28457052 0.10716625 0.114513226 0.26870176
0.017149357 0.122848876 0.36062217 0.17496301 0.19507027 0.22245713 0.38453913 0.14745104
0.19234104 0.015407186 0.11805211 0.45026174 0.31095326 0.010507867 0.19248477 0.19030777
0.13766669 0.41763932 0.08985775 0.015576059 0.24479766 0.15156506 0.09471571 0.35136554
0.054179266 0.32736185 0.4728823 0.16562492 0.13718872 0.15523566 0.31431666 0.32571632
0.34063926 0.022147162 0.21386574 0.19932036 0.21527466 0.18871105 0.14460418 0.123604715
0.016421732 0.06203873 0.10253823 0.2277449 0.261474 0.39152372 0.19108218 0.28754374
0.06588589 0.059391495 0.14112718 0.09171843 0.10834427 0.18113661 0.17710495 0.24282856
0.06144461 0.07144186 0.06713486 0.21639341 0.17747068 0.3377715 0.29303256 0.13716048
0.20299487 0.07184923 0.22124527 0.4107403 0.3764362 0.049779773 0.14249432 0.49322003
0.18325953 0.10391179 0.2526299 0.26147482 0.06028614 0.17598912 0.14661896 0.05770957
0.35440043 0.33620304 0.5889835 0.14302212 0.14771639 0.28141534 0.15976961 0.14229268
0.17252244 0.04349007 0.24570227 0.30681387 0.39890686 0.2785986 0.20403554 0.023040047
0.13802944 0.05366551 0.051088974 0.25269255 0.13997293 0.09265391 0.1672774 0.24775764
0.011714684 0.10170483 0.24880497 0.30547148 0.05244972 0.024176767 0.212652 0.00017071009
0.20576765 0.40589148 0.25477132 0.011849918 0.2185431 0.24102533 0.022160336 0.09164998
0.020990342 0.14185509 1.1749845e-13 0.017200915 0.055239126 0.07385145 0.5829759 0.24008346
