Best_models/UCI_HAR_CNN_20210125_130254/CNN_UCI_HAR_Rep_7_Seed_34.pt (torch_old, 226695 bytes, 12 tensors)

weight f4 [64, 9, 3]
-0.008036835 -0.29039532 -0.09788939 0.07851542 0.13047892 -0.20531847 -0.12714824 -0.019808114
-0.18979307 0.19707099 0.082069725 0.16047876 -0.07856358 0.083753936 0.07407483 0.19166036
0.22403774 0.107023835 -0.28181145 -0.23719367 -0.19733196 -0.11277325 -0.26795092 -0.17047004
0.12105481 -0.05934085 0.22892317 -0.01660601 0.23728532 0.36056685 0.009268175 0.01846881
0.12766972 -0.3679108 -0.23769815 -0.20984988 -0.13427454 -0.11773245 -0.02199349 0.15005377
0.079944976 -0.20497024 0.20263022 0.09114265 0.185876 -0.07706984 0.040987488 -0.091347
0.14120103 -0.022907857 0.10765191 -0.07281117 0.08125056 -0.16340926 -0.083840184 0.35006043
0.3653537 0.58739966 0.2253476 0.18584411 0.21502766 -0.016024433 0.074632645 0.11276313
0.12425761 -0.13633393 0.016912833 -0.070529975 -0.15223242 0.15717484 0.15997581 -0.29234883
-0.09270443 0.26945385 0.0505177 0.011171902 0.1206213 0.0103456415 0.014714553 0.1644188
0.026512453 0.031055626 0.116623 -0.15944895 -0.3529597 0.2285258 0.3367118 0.34074467
-0.08189482 -0.30334947 0.18031794 0.061602984 0.1561412 -0.081114754 -0.23292254 -0.03592609
0.22660084 0.37669164 -0.11714676 0.083647124 -0.12996133 0.15100063 0.17200297 0.01944128
0.2968806 -0.08692389 -0.15777504 0.032812968 -0.017931044 -0.36933145 -0.19727904 -0.117214166
0.024600064 -0.099527806 -0.0075796596 -0.1602497 -0.1751347 -0.2969671 -0.06299179 -0.07229385
-0.03426178 -0.07920444 0.07830591 0.036608424 0.13610765 0.10425097 0.07851972 0.050863754
0.13349265 0.3467193 0.17416587 0.34074104 0.25508988 0.19322547 0.09023715 0.4243086
0.33897144 0.16362153 0.3358792 0.12717748 -0.121281944 0.05038065 -0.103600696 -0.15425994
0.11171342 0.012193261 0.08371848 0.27372524 0.14686769 0.06421945 0.34057307 0.42072964
0.31196824 -0.10258404 -0.02053555 0.105092935 -0.2216088 -0.079826586 -0.0033572242 0.04867606
-0.026320983 0.125392 -0.25180423 -0.32380188 -0.23205581 0.31887496 0.22351345 -0.24127673
-0.13270953 -0.3245729 -0.12801524 0.06070843 -0.22465687 -0.22165114 -0.13737473 -0.08354947
0.059435967 -0.008552091 -0.04472582 -0.09503399 -0.11502369 -0.107867986 -0.1629622 -0.1947419
-0.11706487 -0.3491868 0.312198 0.17092724 0.03828914 0.31577724 0.034918457 0.00085118687
-0.03197985 0.003981722 -0.24416366 -0.15073374 0.025985057 0.14170766 -0.27036816 0.0012566793
-0.21853788 -0.2754095 0.05466676 -0.09679112 -0.28371966 -0.2203035 -0.24638832 -0.027865037
0.23785573 0.041385017 0.1382874 -0.16702294 0.12861092 0.07376535 0.04310636 -0.13256215
0.06866737 0.07648716 -0.03150121 0.2526595 0.112027526 0.31742966 0.023774793 -0.23507309
-0.07246091 0.4009 0.4986913 0.3063693 -0.16141397 -0.055394128 0.01912703 -0.27195314
0.06658789 -0.022525128 0.17636366 0.012073349 0.13384937 0.020375645 -0.076850414 -0.018867899
0.012480204 0.16198222 -0.09467627 -0.2711553 -0.34812593 -0.14878455 -0.02165246 -0.07554429
0.28328124 0.06537919 -0.08486016 -0.18006842 0.2670854 0.08264533 -0.036640804 -0.039919306
00000000: eeac 03bc b2ae 94be 3c7a c8bd b1cc a03d
00000010: 449c 053e 013f 52be 2633 02be a044 a2bc
00000020: 1d59 42be facc 493e 2c14 a83d 8b54 243e
00000030: f1e5 a0bd 2f87 ab3d 8bb4 973d 9d42 443e
00000040: 266a 653e 502f db3d 9749 90be e6e2 72be
00000050: 6411 4abe a9f5 e6bd dd30 89be b38f 2ebe
00000060: 96eb f73d 640f 73bd d66a 6a3e 5409 88bc
00000070: ecfa 723e 389c b83e 8bd9 173c e74b 973c
00000080: dabb 023e ce5e bcbe 2567 73be e3e2 56be
00000090: 447f 09be b61d f1bd b12b b4bc b2a7 193e
000000a0: 31ba a33d b8e3 51be 4c7e 4f3e ffa8 ba3d
000000b0: 4756 3e3e cbd6 9dbd 7fe2 273d 2314 bbbd
000000c0: 0197 103e 42a9 bbbc 9b78 dc3d 061e 95bd
000000d0: b266 a63d c254 27be 67b4 abbd 1f3b b33e
000000e0: a40f bb3e d35f 163f 85c1 663e eb4d 3e3e
000000f0: 3630 5c3e ac45 83bc 00d9 983d 5bf0 e63d
00000100: c67a fe3d 1f9b 0bbe c88c 8a3c 0572 90bd
00000110: d1e2 1bbe 71f2 203e b3d0 233e bfae 95be
00000120: d2db bdbd dbf5 893e a6eb 4e3d 5a0a 373c
00000130: 4d08 f73d c480 293c 4f15 713c 675d 283e
00000140: a530 d93c 5e68 fe3c 0ad8 ee3d 9646 23be
00000150: 22b7 b4be ab02 6a3e 7d65 ac3e 1676 ae3e
00000160: 79b8 a7bd 9f50 9bbe 44a5 383e 6953 7c3d
00000170: 7be3 1f3e 7e1f a6bd 3f83 6ebe 3c27 13bd
00000180: 0d0a 683e badd c03e a4ea efbd 2f4f ab3d
00000190: 9514 05be e99f 1a3e 8c21 303e 5243 9f3c
000001a0: bc00 983e 2705 b2bd c88f 21be e466 063d
000001b0: 20e4 92bc 0319 bdbe 8403 4abe fb0d f0bd
000001c0: 1386 c93c 3cd5 cbbd cb5e f8bb 7f18 24be
000001d0: 8356 33be 120c 98be d701 81bd cc0e 94bd
000001e0: 1556 0cbd f035 a2bd d95e a03d b7f2 153d
000001f0: ce5f 0b3e 8881 d53d f2ce a03d 8356 503d
00000200: 4cb2 083e 3185 b13e 8a58 323e 9c75 ae3e
00000210: 249b 823e e6dc 453e 41ce b83d fa3e d93e
00000220: aa8d ad3e 678c 273e 5cf8 ab3e d03a 023e
00000230: ab62 f8bd f15b 4e3d 9a2c d4bd 51f6 1dbe
00000240: 01ca e43d 3ec6 473c 9874 ab3d b725 8c3e
00000250: 7c64 163e 7d85 833d 985f ae3e e069 d73e
00000260: 4dba 9f3e 9517 d2bd 2b3a a8bc f73a d73d
00000270: 6bed 62be 1f7c a3bd e004 5cbb 8c60 473d
00000280: 1a9f d7bc c366 003e 7cec 80be 5cc9 a5be
00000290: 0aa0 6dbe 9443 a33e b6e0 643e 3f11 77be
000002a0: 02e5 07be 6b2e a6be 6d16 03be 67a9 783d
000002b0: 730c 66be 84f8 62be f6ab 0cbe fc1b abbd
000002c0: 2173 733d 121e 0cbc 6c32 37bd 2ea1 c2bd
000002d0: 8a91 ebbd e4e9 dcbd 90df 26be 6c6a 47be
000002e0: b5bf efbd 9dc8 b2be 6bd8 9f3e 8d07 2f3e
000002f0: 13d5 1c3d 8ead a13e a806 0f3d 2f22 5f3a
00000300: 4efd 02bd 1b79 823b 0a06 7abe f259 1abe
00000310: 9dde d43c d01b 113e b26d 8abe 29b7 a43a
00000320: 65c8 5fbe 7902 8dbe 41ea 5f3d 6c3a c6bd
00000330: b443 91be 3e97 61be 384d 7cbe 3845 e4bc
00000340: 7490 733e 5683 293d 369b 0d3e 1008 2bbe
00000350: 95b2 033e 4a12 973d 4b90 303d 5fbe 07be
00000360: 7aa1 8c3d 4da5 9c3d 6a07 01bd 965c 813e
00000370: b06e e53d 2486 a23e 5bc3 c23c 00b7 70be
00000380: 6366 94bd c442 cd3e 7754 ff3e 70dc 9c3e
00000390: b449 25be f4e4 62bd 4ab0 9c3c 713d 8bbe
000003a0: 3b5f 883d 9e86 b8bc ad98 343e 4ccf 453c
000003b0: cf0f 093e d3ea a63c c063 9dbd da90 9abc
000003c0: c579 4c3c abde 253e a2e5 c1bd ded4 8abe
000003d0: 903d b2be fa5a 18be 8060 b1bc f7b6 9abd
000003e0: 3d0a 913e 86e5 853d 2acb adbd db63 38be
000003f0: 6bbf 883e f441 a93d ab14 16bd 6d82 23bd

bias f4 [64]
-0.019121807 -0.32026485 -0.111693755 -0.09041128 0.11322199 0.029040353 -0.21794249 -0.29308128
-0.14893442 -0.16845262 -0.12778267 -0.03578775 -0.013647923 -0.24310718 -0.21939927 0.06643349
-0.15736392 -0.18107347 -0.19269052 -0.06560676 -0.10955517 -0.08793111 -0.18838325 -0.13099842
0.01694414 -0.045718268 -0.033872053 0.021456007 -0.1631411 0.047109902 -0.054263398 -0.15652676
0.13479656 0.18773745 -0.061126642 -0.31014788 -0.006880329 -0.08932458 -0.22023481 -0.06908074
0.01234453 0.0077495812 -0.30640247 0.04589107 0.032914307 -0.060947597 -0.1478329 -0.35131302
-0.14400266 -0.09540896 -0.14258009 -0.09831552 -0.1958715 0.2560938 -0.24702129 0.03839714
0.1174534 0.004615407 0.011596187 -0.1605359 -0.34788546 0.1007602 -0.046731677 -0.051545613
00000000: 56a5 9cbc c1f9 a3be b2bf e4bd 8d29 b9bd
00000010: eee0 e73d 09e6 ed3c 512c 5fbe c00e 96be
00000020: 4482 18be d87e 2cbe 76d9 02be 2d96 12bd
00000030: 8a9b 5fbc 17f1 78be 34aa 60be 480e 883d
00000040: 0224 21be 536b 39be aa50 45be d65c 86bd
00000050: 765e e0bd 3a15 b4bd 8ae7 40be 7324 06be
00000060: 70ce 8a3c 1443 3bbd 6cbd 0abd 82c4 af3c
00000070: 760e 27be 50f6 403d 4c43 5ebd 8d48 20be
00000080: 1c08 0a3e 3f3e 403e ee5f 7abd b4cb 9ebe
00000090: 6274 e1bb ceef b6bd 3c85 61be 347a 8dbd
000000a0: b640 4a3c 33f0 fd3b c9e0 9cbe 46f8 3b3d
000000b0: 27d1 063d 30a4 79bd 8261 17be 4ddf b3be
000000c0: 6f75 13be c665 c3bd 8400 12be a659 c9bd
000000d0: 8a92 48be ba1e 833e 26f3 7cbe 5246 1d3d
000000e0: 688b f03d d73c 973b effd 3d3c 8663 24be
000000f0: 0b1e b2be 5d5b ce3d b769 3fbd 7e21 53bd

weight f4 [64, 64, 3]
-0.11340757 -0.11874179 -0.076594256 -0.121650934 -0.08230765 -0.10130056 -0.24581356 -0.22580998
-0.24350154 -0.1306165 -0.08080414 -0.06968201 0.052392524 0.07219654 0.0392373 0.12049894
0.09566466 0.09895119 -0.23842819 -0.15545034 -0.2686818 0.17706591 0.054508463 0.05914075
0.07315683 0.08997785 0.08776151 0.009415767 -0.0605596 0.0025098256 -0.093004905 -0.1726167
-0.06751596 0.02107662 0.05324665 0.021954024 -0.008243922 -0.009323778 0.00058208255 0.13793702
0.13601379 0.055832077 -0.462111 -0.4403827 -0.4512615 -0.13148485 -0.09858067 -0.0003751954
-0.28231284 -0.24232161 -0.11951442 -0.042818 -0.084373266 -0.005506755 0.041426696 0.08692356
0.048615832 -0.042550832 0.04401893 -0.057023253 -0.11130921 -0.06935183 -0.06156553 -0.14295875
-0.13618593 -0.10787854 -0.033844404 -0.010519763 0.03476999 -0.011758034 -0.04334397 -0.02295305
0.059788488 0.04092407 0.15903401 0.002935692 0.022309808 0.021096012 -0.0035248245 0.002793143
0.026875125 0.04829743 0.01408008 0.04510468 0.16943827 0.111383565 0.035236124 -0.1753542
-0.14168027 -0.25510058 -0.12841846 -0.1148615 0.028441856 -0.03273672 0.000116129224 0.028159678
-0.040121544 0.020994741 0.011807173 0.021287879 0.036584638 0.005887589 -0.051187284 -0.09405928
-0.06721239 -0.036398333 -0.030764276 -0.12341942 0.11564093 0.022073166 0.00057723984 0.046422068
0.0006331019 0.0918544 -0.037378643 -0.07792307 0.008960143 -0.011705668 0.006358189 0.045785002
-0.027759176 -0.00082946586 -0.0035928674 -0.021743448 -0.017155116 -0.074998215 -0.029469052 0.019258015
0.04353121 0.0065740645 -0.00036737882 -0.007081101 -0.051462688 -0.030082155 -0.09886511 -0.031501282
0.041634373 0.0055241343 -0.27081037 -0.174232 -0.26761237 -0.058429703 -0.0058947606 -0.017074954
-0.059640687 -0.037200134 -0.059455294 -0.04460825 -0.02311961 -0.060428333 -0.16110432 -0.1728619
-0.10484591 -0.16476937 -0.23525226 -0.20479509 -0.030117318 -0.07489169 -0.014481737 0.050912373
0.025630172 0.021261225 -0.34444895 -0.32619423 -0.3281202 -0.033779323 -0.059534445 -0.026813475
0.006366399 -0.047384992 0.047051262 0.0479906 0.0353449 -0.015647586 0.014755544 0.019419283
0.00858661 0.06169952 0.029311687 0.044644687 -0.10484179 -0.023007529 -0.043463662 0.020355387
0.024383541 -0.0047134873 0.017415073 0.043370582 0.075015195 0.019876586 0.051995795 0.048099365
0.037082866 -0.079385825 -0.07814564 -0.06956014 -0.014679486 -0.04407729 -0.09923806 -0.04411796
-0.012363361 -0.02534725 -0.08278535 0.025926778 -0.03182459 -0.08560789 0.026176624 -0.046926487
-0.037908312 -0.035838727 -0.006260621 -0.043817032 -0.087745145 0.008749228 -0.04284329 -0.093553014
-0.071968846 -0.028670527 -0.087131366 -0.048392963 0.03640662 -0.023773568 -0.101134665 -0.01184898
0.02116214 0.0069065634 0.014174714 -0.06639608 -0.024792831 0.01752036 -0.066074125 0.02577852
-0.022081966 0.020464247 -0.028086279 -0.09237987 -0.063085765 -0.02672457 -0.09407363 -0.02816791
0.028677927 -0.098439746 -0.05833217 -0.040228274 -0.06291334 -0.03637298 -0.101651035 -0.041045614
-0.08063768 0.01310299 -0.08457577 -0.09180097 0.0032921352 -0.005446404 -0.09550735 -0.06820561
00000000: 3a42 e8bd e52e f3bd 73dd 9cbd 2024 f9bd
00000010: ea90 a8bd ab76 cfbd 8db6 7bbe bb3a 67be
00000020: 7858 79be 55c0 05be a47c a5bd 71b5 8ebd
00000030: 8b99 563d c8db 933d 4bb7 203d 26c8 f63d
00000040: d5eb c33d eca6 ca3d 8526 74be 602e 1fbe
00000050: a990 89be c450 353e 4444 5f3d 923d 723d
00000060: 40d3 953d 4f46 b83d 4ebc b33d 9744 1a3c
00000070: 580d 78bd e37b 243b 5b79 bebd 6fc2 30be
00000080: cf45 8abd e0a8 ac3c 2919 5a3d edd8 b33c
00000090: 8411 07bc c2c2 18bc e696 183a 5d3f 0d3e
000000a0: 3347 0b3e 2db0 643d d099 ecbe d779 e1be
000000b0: bf0b e7be f7a3 06be aae4 c9bd e0b5 c4b9
000000c0: 4f8b 90be 2823 78be fac3 f4bd ed61 2fbd
000000d0: e4cb acbd 0272 b4bb 0aaf 293d fb04 b23d
000000e0: 6521 473d c849 2ebd 324d 343d 3791 69bd
000000f0: 15f6 e3bd 5508 8ebd 232c 7cbd c763 12be
00000100: 5374 0bbe 6def dcbd 6ea0 0abd 165b 2cbc
00000110: fa6a 0e3d c5a4 40bc 7289 31bd 0908 bcbc
00000120: c6e4 743d ff9f 273d d0d9 223e bd64 403b
00000130: 0fc3 b63c 8bd1 ac3c be00 67bb 2a0d 373b
00000140: 3929 dc3c 87d3 453d 23b0 663c afbf 383d
00000150: 3a81 2d3e 111d e43d c153 103d 0d90 33be
00000160: a214 11be 8b9c 82be 2180 03be 823c ebbd
00000170: e5fe e83c f016 06bd 678a f338 20af e63c
00000180: 7d56 24bd 2afd ab3c df72 413c eb63 ae3c
00000190: c6d9 153d adec c03b c2a9 51bd 27a2 c0bd
000001a0: a6a6 89bd 6b16 15bd 5d05 fcbc 52c3 fcbd
000001b0: 27d5 ec3d c9d2 b43c e951 173a 1125 3e3d
000001c0: c0f6 253a 291e bc3d 591a 19bd 2196 9fbd
000001d0: 90cd 123c 21c9 3fbc 5b58 d03b 0e89 3b3d
000001e0: 3667 e3bc 8370 59ba 5076 6bbb 511f b2bc
000001f0: e388 8cbc aa98 99bd 1569 f1bc fcc2 9d3c
00000200: c84d 323d 406b d73b c09c c0b9 9508 e8bb
00000210: 8aca 52bd da6e f6bc ca79 cabd 7d07 01bd
00000220: ce88 2a3d cc03 b53b a8a7 8abe e069 32be
00000230: 7d04 89be fc53 6fbd d628 c1bb c6e0 8bbc
00000240: cb49 74bd 2b5f 18bd 6587 73bd 24b7 36bd
00000250: 5665 bdbc b383 77bd 88f8 24be b602 31be
00000260: 74b9 d6bd 4db9 28be f8e5 70be ceb5 51be
00000270: 98b8 f6bc d060 99bd cf44 6dbc 7e89 503d
00000280: 5ef6 d13c 052c ae3c 9d5b b0be ee02 a7be
00000290: 5fff a7be 305c 0abd 64da 73bd efa7 dbbc
000002a0: 3a9d d03b c416 42bd d3b8 403d cb91 443d
000002b0: d0c5 103d 5e2f 80bc 3dc1 713c 3015 9f3c
000002c0: daae 0c3c a3b8 7c3d 101f f03c 59dd 363d
000002d0: 4bb7 d6bd 497a bcbc f406 32bd 57c0 a63c
000002e0: febf c73c 9973 9abb 0eaa 8e3c 5aa5 313d
000002f0: 91a1 993d 39d4 a23c 8bf9 543d d703 453d
00000300: 34e4 173d 0995 a2bd d20a a0bd 8c75 8ebd
00000310: 3a82 70bc 638a 34bd 533d cbbd 09b5 34bd
00000320: b28f 4abc 09a5 cfbc 5e8b a9bd 6564 d43c
00000330: 805a 02bd 3053 afbd 5c70 d63c fd35 40bd
00000340: bf45 1bbd a1cb 12bd e525 cdbb 7d79 33bd
00000350: bab3 b3bd ec58 0f3c 727c 2fbd b998 bfbd
00000360: 6764 93bd 74de eabc ee71 b2bd b337 46bd
00000370: 1c1f 153d c9c0 c2bc b11f cfbd 3922 42bc
00000380: 395c ad3c 7450 e23b 0f3d 683c abfa 87bd
00000390: 561a cbbc dc86 8f3c df51 87bd 7a2d d33c
000003a0: 3de5 b4bc a3a4 a73c 3215 e6bc a831 bdbd
000003b0: 1c33 81bd 7ced dabc ada9 c0bd 64c0 e6bc
000003c0: f9ed ea3c c79a c9bd b7ed 6ebd 67c6 24bd
000003d0: b6d8 80bd d5fb 14bd 6b2e d0bd 721f 28bd
000003e0: 5e25 a5bd ecad 563c 1036 adbd 2602 bcbd
000003f0: ddc0 573b c077 b2bb 5c99 c3bd 62af 8bbd

bias f4 [64]
0.012207214 -0.03125401 0.03401089 0.03621025 -0.15535997 -0.020866457 -0.12534702 -0.033981528
-0.0046659997 -0.11062339 -0.11626543 -0.061239794 -0.008392176 -0.2316585 0.0031824338 -0.12465386
-0.13663365 -0.0031842839 -0.14127722 0.04277882 -0.11240037 -0.14310443 0.00087795994 -0.059921913
-0.118602164 -0.23583393 -0.08779785 -0.034588993 0.021869535 -0.06539271 -0.019966645 -0.005410326
-0.018590339 -0.18823685 -0.16403885 -0.053302173 -0.006568228 -0.00031025 -0.14356127 -0.067617506
-0.09348462 -0.1288241 -0.008820021 -0.1730871 -0.13173553 -0.1889891 -0.006149885 -0.20210715
-0.13923185 -0.16301095 -0.06946959 -0.0905911 -0.08974594 -0.084991544 0.027390312 -0.06177428
0.08483181 0.019775815 -0.041854117 0.0067633186 -0.13349019 -0.09516919 -0.09293759 0.10668009
00000000: c400 483c 3404 00bd 014f 0b3d 3351 143d
00000010: af16 1fbe 22f0 aabc f85a 00be 3730 0bbd
00000020: 3ee5 98bb 848e e2bd 921c eebd 94d6 7abd
00000030: 567f 09bc e337 6dbe 6190 503b 864a ffbd
00000040: b1e9 0bbe 6baf 50bb faaa 10be d838 2f3d
00000050: 2a32 e6bd f889 12be e526 663a ae70 75bd
00000060: b1e5 f2bd 737e 71be 5ccf b3bd 30ad 0dbd
00000070: bd27 b33c 9dec 85bd 1791 a3bc 1b49 b1bb
00000080: c44a 98bc 29c1 40be cdf9 27be 6153 5abd
00000090: 4a3a d7bb 0da9 a2b9 ba01 13be 0c7b 8abd
000000a0: dd74 bfbd 77ea 03be d981 10bc bf3d 31be
000000b0: aee5 06be 5c86 41be f984 c9bb 2df5 4ebe
000000c0: cb92 0ebe 58ec 26be 1346 8ebd d487 b9bd
000000d0: b8cc b7bd 0c10 aebd a661 e03c 0707 7dbd
000000e0: 4dbc ad3d e400 a23c 396f 2bbd d49e dd3b
000000f0: a7b1 08be 10e8 c2bd 1056 bebd 177b da3d

weight f4 [256, 128]
0.09319007 0.013111168 -0.06050081 0.014572486 -0.15435687 -0.12663919 -0.061250325 -0.044460922
0.08338374 -0.059194498 -0.07107443 0.045764025 -0.014778153 -0.10152965 0.001757448 -0.11420516
-0.12226854 -0.09823376 -0.07543581 -0.123548046 0.026004512 0.08206255 -0.09585703 0.041619662
-0.23291185 -0.13598861 -0.14410652 -0.099241994 -0.16785212 -0.21414132 -0.05068243 0.03383978
-0.07405731 0.036566243 0.0835817 0.026964594 -0.15478732 -0.041980688 0.116215676 0.104294285
-0.033526078 -0.2006017 -0.1546086 -0.32802245 -0.012198356 -0.20714898 -0.1514446 -0.21176045
-0.07612375 -0.12369908 -0.0620329 -0.039451875 0.10498107 -0.09715375 -0.048301008 -0.012380966
0.22406794 0.059916623 -0.16009341 -0.17723712 0.033754025 -0.041974608 -0.1168622 -0.084863074
0.20561436 -0.0471732 -0.04578682 -0.06386721 -0.10863892 -0.032551393 -0.031814747 0.060304526
-0.19220199 -0.15099967 0.03662909 0.010863177 0.13573785 0.002888155 -0.07610995 -0.008130784
-0.21501982 -0.21881802 0.2441636 0.042426806 -0.08205915 -0.05214599 -0.16379225 -0.17011741
0.1173572 -0.011650141 -0.005049894 0.07387668 -0.31253853 -0.21398608 0.075499356 -0.061465908
0.0036527992 -0.23628503 0.07337681 0.014548299 -0.014042823 -0.0059844865 -0.024782436 0.018654536
-0.13949051 -0.061328728 -0.08955202 -0.12809412 -0.03122573 -0.04383332 -0.31221372 -0.24276926
0.07905622 0.03881613 0.066468745 -0.03107033 0.020456351 0.12236855 -0.21204354 -0.149359
-0.17020926 -0.113186926 -0.045109354 -0.13746466 0.045294255 0.083238244 0.074161746 0.17628628
-0.06952713 -0.07442115 -0.107051775 0.034614053 -0.090859175 -0.005500189 0.09145456 0.056678537
-0.11216554 -0.06290391 -0.0229648 -0.05447561 -0.06060555 -0.0021430324 0.07773432 0.05161417
-0.028277209 -0.0129390415 -0.08266098 -0.21224366 -0.1599419 -0.14353606 -0.009296646 -0.04899952
-0.11322742 -0.002945651 -0.035832625 -0.073286235 -0.10810931 -0.08027505 0.06574005 -0.020283129
-0.008928032 -0.09984246 -0.09546925 -0.03986892 -0.06991146 -0.062284335 0.016286831 -0.014003818
-0.027730068 -0.008437553 -0.0011760131 0.05137221 0.14073238 -0.07809567 -0.08381547 -0.08341848
0.053195693 0.04489891 -0.020190436 0.013073733 0.0019131281 0.04257482 -0.11987415 -0.07829604
-0.23785861 -0.34237346 0.0337521 0.006899842 0.02049782 0.017898122 0.13003802 0.1342992
-0.030694319 0.015796779 -0.21100536 -0.0913182 0.040388696 0.09208589 -0.07259263 -0.07172276
-0.13086063 -0.2070744 0.019141223 0.0024632122 -0.03503916 0.0567569 -0.0052141543 0.013259451
-0.012262237 -0.0066752397 -0.021088054 0.0004788703 0.008031386 0.030972283 0.042233568 0.017243965
0.012795181 0.082725056 -0.06688022 -0.085834526 -0.08322602 -0.19629166 -0.10464024 0.043733507
0.038957644 0.015226694 -0.097583026 0.029197026 -0.055927273 0.018553535 0.11210225 0.109219894
-0.06566348 0.0735562 0.028017785 -0.07269434 0.12558775 0.144563 -0.1044235 -0.04832353
0.033382554 0.05909398 0.0065226546 -0.03148554 -0.063912146 -0.0645397 -0.019403018 -0.09577286
-0.04398412 -0.030726029 0.027311223 -0.07060519 -0.046736546 0.07581812 -0.15847535 0.07671329
00000000: 6fda be3d 39d0 563c b3cf 77bd 70c1 6e3c
00000010: ba0f 1ebe b4ad 01be 9fe1 7abd a81c 36bd
00000020: 18c5 aa3d ee75 72bd 798f 91bd 0f73 3b3d
00000030: 1120 72bc c7ee cfbd 2b5a e63a 65e4 e9bd
00000040: ee67 fabd c82e c9bd 177e 9abd c206 fdbd
00000050: 6a07 d53c 6910 a83d b150 c4bd 6179 2a3d
00000060: 7280 6ebe 9940 0bbe a990 13be 633f cbbd
00000070: 6de1 2bbe dd47 5bbe 6198 4fbd 959b 0a3d
00000080: 5cab 97bd 7cc6 153d e22c ab3d dae4 dc3c
00000090: 9180 1ebe f1f3 2bbd 7c02 ee3d 3e98 d53d
000000a0: a452 09bd 886a 4dbe b851 1ebe 8ff2 a7be
000000b0: 9ddb 47bc dd1e 54be 4b14 1bbe bbd7 58be
000000c0: c5e6 9bbd f155 fdbd 3616 7ebd 4a98 21bd
000000d0: 5100 d73d 8cf8 c6bd 47d7 45bd 89d9 4abc
000000e0: 1172 653e 226b 753d 87ef 23be a67d 35be
000000f0: a941 0a3d 91ed 2bbd 7355 efbd b1cc adbd
00000100: 928c 523e af38 41bd f68a 3bbd d0cc 82bd
00000110: 157e debd 9c54 05bd 2e50 02bd e101 773d
00000120: 99d0 44be a89f 1abe 6208 163d 77fb 313c
00000130: ddfe 0a3e 3347 3d3b 89df 9bbd fb36 05bc
00000140: 282e 5cbe d511 60be 0606 7a3e bbc7 2d3d
00000150: a10e a8bd 0997 55bd 28b9 27be 4233 2ebe
00000160: f958 f03d 3ce0 3ebc 9579 a5bb a84c 973d
00000170: 0d05 a0be 2b1f 5bbe 689f 9a3d adc3 7bbd
00000180: cd63 6f3b b4f4 71be 9546 963d fd5b 6e3c
00000190: de13 66bc 8319 c4bb 8904 cbbc 66d1 983c
000001a0: 9ad6 0ebe d533 7bbd 0d67 b7bd 1b2b 03be
000001b0: 1acd ffbc 918a 33bd 7ada 9fbe 8198 78be
000001c0: 3ae8 a13d aafd 1e3d c420 883d 3487 febc
000001d0: 1494 a73c 5d9c fa3d f121 59be 91f1 18be
000001e0: 564b 2ebe 8cce e7bd 96c4 38bd 89c3 0cbe
000001f0: 7886 393d d078 aa3d 1de2 973d 6484 343e
00000200: 3d64 8ebd 1e6a 98bd f63d dbbd 77c7 0d3d
00000210: 6014 babd ee3a b4bb 874c bb3d c127 683d
00000220: 0cb7 e5bd c4d3 80bd ad20 bcbc d121 5fbd
00000230: 863d 78bd 1e72 0cbb 2c33 9f3d 6169 533d
00000240: 9ba5 e7bc 46fe 53bc 294a a9bd 6756 59be
00000250: cfc7 23be 1efb 12be f650 18bc b8b3 48bd
00000260: c7e3 e7bd d30b 41bb 3bc5 12bd 1817 96bd
00000270: 6a68 ddbd 3f67 a4bd b8a2 863d ce28 a6bc
00000280: e146 12bc 347a ccbd 6285 c3bd 984d 23bd
00000290: bd2d 8fbd dc1d 7fbd f66b 853c 4570 65bc
000002a0: 2b2a e3bc aa3d 0abc 7424 9aba ab6b 523d
000002b0: 261c 103e 9ff0 9fbd 72a7 abbd 4fd7 aabd
000002c0: bae3 593d ebe7 373d 6a66 a5bc 3633 563c
000002d0: edc1 fa3a ef62 2e3d 9480 f5bd ad59 a0bd
000002e0: 3591 73be 934b afbe a43f 0a3d 1218 e23b
000002f0: 0beb a73c 159f 923c b028 053e bb85 093e
00000300: a772 fbbc 3f68 813c ca11 58be 0905 bbbd
00000310: 9e6e 253d 8797 bc3d 72ab 94bd 62e3 92bd
00000320: 5400 06be 500b 54be 0ece 9c3c d86d 213b
00000330: 3985 0fbd ec79 683d 7fdb aabb 2b3e 593c
00000340: 8de7 48bc f8bb dabb dbc0 acbc e210 fb39
00000350: 1396 033c 96b9 fd3c 1bfd 2c3d 3743 8d3c
00000360: e1a2 513c c16b a93d 7ff8 88bd 03ca afbd
00000370: 6772 aabd ae00 49be 9f4d d6bd e821 333d
00000380: 0d92 1f3d 6279 793c 9cd9 c7bd 9a2e ef3c
00000390: ff13 65bd 95fd 973c dd95 e53d aeae df3d
000003a0: 937a 86bd a2a4 963d 8e85 e53c c5e0 94bd
000003b0: 139a 003e 5308 143e fddb d5bd e5ee 45bd
000003c0: 25bc 083d 870c 723d febb d53b fbf6 00bd
000003d0: 5fe4 82bd 642d 84bd 14f3 9ebc 9024 c4bd
000003e0: b128 34bd 27b5 fbbc c9bb df3c 7499 90bd
000003f0: d26e 3fbd 8846 9b3d 5d47 22be db1b 9d3d

bias f4 [256]
0.03049479 0.025036942 0.05878112 0.046261296 0.029980749 -0.04836744 0.03768371 0.034786772
0.083804704 0.13503408 0.011744794 0.0841348 -0.005300214 0.12465069 0.022595726 0.041954383
0.05884787 0.033669055 -0.016828451 0.043682333 0.035231594 0.027475048 -0.015836615 -0.042225447
-0.0048215827 0.09581338 0.051256273 0.013121994 0.00755106 -0.07339916 0.04143999 0.0052818977
0.013590102 0.18202184 0.04613579 0.034764692 0.04261109 0.036226865 -0.020375283 0.032541268
0.013707901 0.06740454 -0.011931055 0.0108133275 0.04134181 -0.021959536 0.011401131 -0.03187864
0.019611035 0.026418632 0.0036775768 0.043679588 0.16688491 0.02837624 -0.01957423 -0.029049214
0.045212418 0.030059429 0.11090828 -0.016047468 0.22199427 0.017227177 -0.028343808 0.050263047
0.081152216 0.035528973 0.092092775 0.07654309 0.034248624 0.015096149 0.008582013 0.0786975
0.034044538 0.07002685 0.038552094 0.01673495 0.024538336 -0.031247128 0.07219967 0.040536627
0.058422398 0.0098103 0.010399708 0.14675686 0.04850924 0.019191507 0.01655524 0.03340464
0.04068041 -0.044146836 -0.011688582 0.02122683 0.06374398 0.029929705 0.027031817 0.060160585
0.03773749 -0.011766126 0.020705052 0.015444963 -0.034749202 0.03655971 0.050827105 -0.016799223
0.008918647 0.03213731 -0.076621436 -0.09371556 0.024609236 0.045688905 0.1285126 -0.024601096
-0.0010729661 0.0776381 -0.03630656 0.027358357 0.07126524 0.13068554 0.03940191 0.13115768
-0.030769464 -0.051882654 0.12637368 0.06296656 0.010650349 -0.018528497 0.0835725 -0.009495404
-0.016493425 0.098448426 0.03682138 0.014755513 0.020336343 0.0885986 0.021677349 0.004381756
0.02895319 0.08691798 0.052874155 -0.03305099 0.008198939 -0.04378918 0.04865386 0.04593427
0.048334368 -0.012507256 0.16781934 -0.0024357778 -0.022330726 0.013152531 0.03349153 -0.09053651
-0.011371067 -0.010696435 0.009558418 0.062374096 -0.0037022836 -0.034698397 -0.04079569 0.030376095
0.021342268 0.030842083 -0.0148113 0.09040684 -0.014056946 -0.0061834785 0.047614843 0.02589874
0.017948313 0.009238877 0.030316966 0.0450057 0.07000652 0.05658417 0.046904534 0.027754484
-0.015726896 0.1805502 0.073199555 0.031746995 -0.043460727 0.10320507 0.050790504 -0.05121205
0.1347805 0.118217185 -0.07940035 -0.054738104 -0.010466225 0.033239853 0.05136791 0.018367354
0.07159601 0.046695303 0.16147394 0.0068647405 0.063961945 0.04068237 -0.039283365 0.020410856
-0.04327291 0.043613542 0.0127624385 0.06579551 0.02075577 0.032649484 0.21071075 0.029269325
0.038591757 0.023137506 0.025127549 0.014224811 0.025639256 -0.004046502 0.028008059 0.09902789
0.01799356 -0.0225623 -0.0025840618 0.03544344 0.036001302 0.036656182 0.08659665 0.048226275
0.2179343 0.120267935 -0.040827096 0.041187774 0.056928102 0.17915322 0.14099057 -0.046634395
0.0024329775 0.021321462 0.16784559 0.21682832 0.009046341 0.029046489 0.13080396 0.014161034
0.025953185 0.17120914 0.03156664 -0.04293219 0.18550332 -0.025946228 0.11919125 0.11114255
0.025649944 0.06955019 0.020154338 -0.019212827 -0.012835676 0.058289915 -0.040186387 0.03174053
00000000: 36d0 f93c 461a cd3c 79c4 703d 7c7c 3d3d
00000010: 309a f53c f01c 46bd 3c5a 1a3d 937c 0e3d
00000020: cda1 ab3d 6046 0a3e 3d6d 403c de4e ac3d
00000030: 6bad adbb dc48 ff3d ac1a b93c 5cd8 2b3d
00000040: 770a 713d 90e8 093d d2db 89bc 3fec 323d
00000050: 014f 103d 5a13 e13c cabb 81bc 97f4 2cbd
00000060: 5efe 9dbb ce39 c43d 19f2 513d a2fd 563c
00000070: e26e f73b 4c52 96bd fbbc 293d c513 ad3b
00000080: 05a9 5e3c ef63 3a3e e2f8 3c3d 6c65 0e3d
00000090: f788 2e3d 9f62 143d 11ea a6bc fe49 053d
000000a0: 1b97 603c 640b 8a3d 797a 43bc 622a 313c
000000b0: 0856 293d 7ce4 b3bc cfcb 3a3c 2d93 02bd
000000c0: 52a7 a03c e36b d83c 8003 713b 5ee9 323d
000000d0: e1e3 2a3e 4a75 e83c 235a a0bc 9ef8 edbc
000000e0: a830 393d 313f f63c e123 e33d fb75 83bc
000000f0: 7752 633e 0220 8d3c 4631 e8bc a0e0 4d3d
00000100: 2233 a63d d486 113d 239b bc3d a0c2 9c3d
00000110: 4948 0c3d d755 773c 929b 0c3c 282c a13d
00000120: 4972 0b3d 3d6a 8f3d cde8 1d3d bc17 893c
00000130: 9f04 c93c faf9 ffbc 6cdd 933d bc09 263d
00000140: 534c 6f3d 61bb 203c 8963 2a3c 6e47 163e
00000150: a0b1 463d 8237 9d3c db9e 873c 4ed3 083d
00000160: 80a0 263d 50d3 34bd 7781 3fbc e4e3 ad3c
00000170: 348c 823d 242f f53c d471 dd3c f26a 763d
00000180: a092 1a3d b6c6 40bc a49d a93c df0c 7d3c
00000190: 2e55 0ebd a2bf 153d 1530 503d 869e 89bc
000001a0: 841f 123c 69a2 033d b3eb 9cbd f2ed bfbd
000001b0: 4f99 c93c 4a24 3b3d cf98 033e 3d88 c9bc
000001c0: c5a2 8cba b900 9f3d 30b6 14bd a21e e03c
000001d0: 83f3 913d 6ed2 053e e663 213d 334e 063e
000001e0: 3e10 fcbc e882 54bd 1a68 013e 9df4 803d
000001f0: cd7e 2e3c 13c9 97bc 0f28 ab3d 9c92 1bbc
00000200: 381d 87bc 549f c93d 04d2 163d 1bc1 713c
00000210: 6798 a63c 2f73 b53d b294 b13c d594 8f3b
00000220: 3e2f ed3c 0e02 b23d 9292 583d 7a60 07bd
00000230: d854 063c 495c 33bd 4549 473d 9325 3c3d
00000240: 42fa 453d 3ceb 4cbc d5d8 2b3e 92a1 1fbb
00000250: edee b6bc b77d 573c 6a2e 093d 356b b9bd
00000260: b64d 3abc 1a40 2fbc e99a 1c3c fb7b 7f3d
00000270: 03a2 72bb e81f 0ebd 6219 27bd 4ad7 f83c
00000280: fbd5 ae3c 89a8 fc3c 18ab 72bc 3927 b93d
00000290: 1b4f 66bc c79e cabb c807 433d 9829 d43c
000002a0: 5708 933c a95e 173c 495b f83c e657 383d
000002b0: 945f 8f3d cdc4 673d f81e 403d 5f5d e33c
000002c0: b1d5 80bc 27e2 383e a6e9 953d 2309 023d
000002d0: e003 32bd 2e5d d33d b409 503d bac3 51bd
000002e0: e603 0a3e da1b f23d a79c a2bd 1035 60bd
000002f0: 887a 2bbc 8326 083d 2867 523d 2277 963c
00000300: eea0 923d 9343 3f3d 6d59 253e 9ef1 e03b
00000310: 7bfe 823d 8fa2 263d 98e7 20bd ab34 a73c
00000320: ef3e 31bd 1da4 323d 8c19 513c ccbf 863d
00000330: 0108 aa3c 77bb 053d 8fc4 573e 39c6 ef3c
00000340: 6412 1e3d de8a bd3c 4ad8 cd3c 2f0f 693c
00000350: 6b09 d23c 8598 84bb 2871 e53c 22cf ca3d
00000360: 3b67 933c 93d4 b8bc 5d59 29bb 242d 113d
00000370: 1a76 133d cb24 163d 9659 b13d ea88 453d
00000380: 2b2a 5f3e 094f f63d 503a 27bd 83b4 283d
00000390: 712d 693d f173 373e d55f 103e b503 3fbd
000003a0: 9772 1f3b 59aa ae3c b7df 2b3e 3e08 5e3e
000003b0: 1b37 143c e7f2 ed3c 79f1 053e ae03 683c
000003c0: c69b d43c 7351 2f3e 054c 013d aad9 2fbd
000003d0: 95f4 3d3e 2f8d d4bc 8b1a f43d b59e e33d
000003e0: d51f d23c 5470 8e3d b61a a53c 3864 9dbc
000003f0: ba4c 52bc 68c1 6e3d 7b9a 24bd 5c02 023d

weight f4 [256]
1.2492368 1.202474 1.2576113 1.1288257 1.0800678 1.1333452 1.0880232 1.1248722
1.081428 1.1320542 1.1575928 1.2764888 1.2228621 1.232299 1.1357723 1.2377418
1.2082676 1.1418824 1.2594777 1.1538143 1.1359288 1.14261 1.2469556 1.1529052
1.2844387 1.2794693 1.0390698 1.146449 1.1223134 1.2200513 1.0628973 1.1772118
1.3845674 1.0901936 1.268765 1.233036 1.3693832 1.0722713 1.1348778 1.2641793
1.1353552 1.2157758 1.1430639 1.0292199 1.1845926 1.0041292 1.0773777 1.2362612
1.2795199 1.1417805 1.1718343 1.1599373 1.141843 1.1584893 1.1262703 1.051189
1.282958 1.1210256 1.2573655 1.1557994 1.3051834 1.1151105 1.1077545 1.1663176
0.9609156 1.1677502 1.2596722 1.0922307 1.1962268 1.1763595 1.2394192 1.2647243
1.2679924 1.3396968 1.148469 1.2148336 1.2015216 1.101965 1.1890169 1.161614
1.1182077 1.1151322 1.1230171 1.1606355 1.195515 1.1685959 1.1325694 1.1819699
1.2514542 1.2289289 1.2550747 1.2410465 1.1817749 1.2777787 1.1646607 1.196083
1.0967771 1.1964653 1.0271364 1.1984534 1.1810806 1.0473363 1.1762006 1.2296954
1.2300868 1.3156036 1.0562822 1.1410316 1.0637165 1.1370863 1.1909465 0.99165356
1.0044194 1.2488883 0.97082335 1.1760042 1.2849616 1.0664195 1.0835751 1.2373791
1.1516076 1.1284245 1.2121223 1.1274643 1.2635815 1.2433975 1.1011351 1.1199627
1.1550107 1.1524155 1.0213783 1.1507487 1.0974118 1.1238575 1.0823574 1.167825
1.2864734 1.3433143 0.9921614 1.2235833 1.1094991 1.1214278 1.137806 1.2268171
1.2792226 1.1919441 1.2785097 1.152958 1.158145 1.141824 1.2111253 1.1437644
1.158013 1.2456969 1.1494322 1.1737837 1.17684 1.1765699 1.1788093 1.204972
1.1356302 1.160651 1.1374942 1.0827763 1.0904229 1.1078922 1.3206656 1.1368095
1.0695661 1.0671813 1.0959811 1.2404212 1.2569695 1.2706785 1.2298415 1.2557886
1.1515846 1.082368 1.2020265 1.2610899 0.9957163 1.2016723 1.2649404 1.0528039
1.1204278 1.2953904 0.98027456 1.1554606 1.0800927 1.0927535 1.2766451 1.119259
1.0210347 1.2934493 1.2250311 1.297629 1.2750856 1.1507748 1.1352367 1.1452137
1.136983 1.2480159 1.1381003 1.1536429 1.244965 1.1134917 1.1902971 1.0326333
1.3244206 1.0736209 1.1084628 1.0110269 1.3033721 1.0100789 1.0226817 0.9962163
1.3028051 1.0948361 1.2440698 1.1785067 1.1417481 1.1539816 1.2946032 1.168683
1.2348285 1.0031785 1.2043898 1.0957445 1.2154735 1.3085219 1.0368893 1.2711576
1.1093929 1.1096016 1.1100603 1.0532387 1.2775608 1.1617032 1.0897497 1.0164318
1.1638842 1.0686264 1.234032 1.1047169 1.4441823 1.0267764 1.3430169 1.4745325
1.1011876 1.1694715 1.150912 1.1528285 1.1978345 1.0483391 1.1433876 1.0259558
00000000: fee6 9f3f abea 993f 68f9 a03f 5c7d 903f
00000010: a93f 8a3f 7511 913f 5844 8b3f d0fb 8f3f
00000020: 3c6c 8a3f 27e7 903f 002c 943f fc63 a33f
00000030: bf86 9c3f f9bb 9d3f fd60 913f 536e 9e3f
00000040: 83a8 9a3f 3429 923f 9136 a13f 30b0 933f
00000050: 1d66 913f 0b41 923f 3e9c 9f3f 6692 933f
00000060: 7d68 a43f a6c5 a33f 3d00 853f d7be 923f
00000070: f7a7 8f3f a42a 9c3f 050d 883f e0ae 963f
00000080: 8139 b13f 778b 8b3f e466 a23f 20d4 9d3f
00000090: f347 af3f 3040 893f ad43 913f a1d0 a13f
000000a0: 5253 913f 8b9e 9b3f eb4f 923f 7abd 833f
000000b0: bba0 973f 4e87 803f 83e7 893f cf3d 9e3f
000000c0: 4fc7 a33f dd25 923f abfe 953f d378 943f
000000d0: e927 923f 6149 943f a029 903f 5c8d 863f
000000e0: f837 a43f c47d 8f3f 5af1 a03f 3cf1 933f
000000f0: 4010 a73f f1bb 8e3f e6ca 8d3f e549 953f
00000100: 91fe 753f d778 953f f03c a13f 37ce 8b3f
00000110: f61d 993f f392 963f 4aa5 9e3f 7ce2 a13f
00000120: 934d a23f 2f7b ab3f 0801 933f ab7f 9b3f
00000130: 76cb 993f 300d 8d3f b531 983f c4af 943f
00000140: 6e21 8f3f a7bc 8e3f 06bf 8f3f b48f 943f
00000150: a306 993f 8d94 953f 09f8 903f ca4a 973f
00000160: a72f a03f 8b4d 9d3f 4aa6 a03f 9dda 9e3f
00000170: 6644 973f 418e a33f 9a13 953f 3f19 993f
00000180: 3163 8c3f c625 993f 3579 833f ec66 993f
00000190: a62d 973f 1e0f 863f be8d 963f a966 9d3f
000001a0: 7c73 9d3f b365 a83f 4134 873f 530d 923f
000001b0: dd27 883f 0b8c 913f ef70 983f 02dd 7d3f
000001c0: d190 803f 92db 9f3f e187 783f 4e87 963f
000001d0: 9f79 a43f 6f80 883f 97b2 8a3f 7062 9e3f
000001e0: e167 933f 3770 903f d326 9b3f c050 903f
000001f0: 0abd a13f a627 9f3f fff1 8c3f f05a 8f3f
00000200: 64d7 933f 5a82 933f 86bc 823f bc4b 933f
00000210: fd77 8c3f 90da 8f3f b08a 8a3f 4a7b 953f
00000220: 29ab a43f b9f1 ab3f 4afe 7d3f 619e 9c3f
00000230: 1104 8e3f f28a 8f3f a1a3 913f 5808 9d3f
00000240: 91bd a33f a091 983f 35a6 a33f 2194 933f
00000250: 183e 943f 4a27 923f 2706 9b3f df66 923f
00000260: c539 943f ff72 9f3f 9820 933f 8b3e 963f
00000270: b1a2 963f d899 963f 39e3 963f 863c 9a3f
00000280: 555c 913f 3690 943f 6999 913f 6a98 8a3f
00000290: fa92 8b3f 69cf 8d3f 920b a93f f982 913f
000002a0: 8be7 883f 6699 883f 1c49 8c3f 1fc6 9e3f
000002b0: 60e4 a03f 98a5 a23f 726b 9d3f aebd a03f
000002c0: 2067 933f 098b 8a3f 01dc 993f 656b a13f
000002d0: 43e7 7e3f 66d0 993f 91e9 a13f 47c2 863f
000002e0: 2e6a 8f3f 5acf a53f 46f3 7a3f 22e6 933f
000002f0: 7a40 8a3f 59df 8b3f 1b69 a33f e143 8f3f
00000300: 44b1 823f bf8f a53f d2cd 9c3f b518 a63f
00000310: 0136 a33f 974c 933f 704f 913f 5d96 923f
00000320: a988 913f fcbe 9f3f 45ad 913f 92aa 933f
00000330: 035b 9f3f e586 8e3f a85b 983f 542d 843f
00000340: 9d86 a93f 696c 893f 1ce2 8d3f 5469 813f
00000350: e6d4 a63f 444a 813f 3ce7 823f 0808 7f3f
00000360: 51c2 a63f 9723 8c3f ae3d 9f3f 4fd9 963f
00000370: cd24 923f abb5 933f 8fb5 a53f 6897 953f
00000380: dc0e 9e3f 2768 803f 7229 9a3f 5b41 8c3f
00000390: a394 9b3f a57d a73f cab8 843f 4bb5 a23f
000003a0: 9600 8e3f 6d07 8e3f 7516 8e3f 87d0 863f
000003b0: 1d87 a33f b1b2 943f eb7c 8b3f 701a 823f
000003c0: 28fa 943f c0c8 883f c3f4 9d3f 5d67 8d3f
000003d0: f7da b83f 696d 833f fae7 ab3f 7bbd bc3f
000003e0: b7f3 8c3f 3eb1 953f 1651 933f e28f 933f
000003f0: a452 993f fa2f 863f 865a 923f 8552 833f

bias f4 [256]
-0.0035890487 0.16620559 0.09209792 0.08007906 0.052437175 0.17871656 -0.0017418921 0.05761214
0.07558646 0.0013331824 -0.007514224 -0.10498047 0.07219612 0.12406157 0.1538369 0.113541625
0.07477766 -0.04050963 0.15622072 0.0061079697 0.22630219 0.12509915 0.15468538 0.13401125
0.13372324 0.10156468 -0.036719825 0.06828455 0.22763383 0.07714843 0.049337275 0.15383826
0.0716835 -0.006171551 0.04617351 0.0066296156 0.045939893 0.08772577 0.1041438 0.012861701
0.25735563 0.08179613 0.17002907 0.07917726 0.07783698 0.1010201 0.04156407 0.11310127
-0.0097627975 -0.0013160418 0.055273704 0.14184089 -0.07209501 0.22059855 0.20153071 0.0863549
0.07978328 0.14658569 0.042242605 0.15648691 0.044878785 0.16129747 0.12237998 0.11825451
0.06929518 0.03253643 -0.12890103 0.14197731 0.07131633 0.12986857 0.109822325 0.07041906
-0.050496835 0.025494117 0.1403274 0.11716509 0.15386814 0.08293892 0.045574516 0.09747048
0.22530189 0.24301426 0.15004925 -0.065641746 0.09638624 0.14392759 0.21618007 0.1397085
0.2912837 0.11928001 0.23439081 0.025647845 0.10898551 0.017411314 0.088240914 0.09131778
0.12669119 0.11949277 0.014740855 -0.04679465 0.17657511 0.07820021 0.10968963 0.09350123
0.25168762 0.08078898 -0.005566994 0.17251123 0.12362192 0.19229011 0.06146212 0.052893844
0.047861278 0.077946275 0.19394949 0.11108953 0.09215644 0.05710327 0.2523088 0.08909931
0.21460569 0.13221553 0.0337402 0.0022990324 0.05309472 0.15979591 -0.055807386 0.11138569
0.18287973 0.18234643 0.03429476 0.15608032 0.1240744 0.045294736 0.13179569 0.1555123
0.029167825 0.0688276 0.027208958 0.16319026 0.119266085 0.1483545 0.015828041 -0.032592785
0.23223093 0.094301954 -0.03894342 0.14838424 0.21621929 0.16053505 -0.030232098 0.22345763
0.09181831 0.14386772 0.121043906 0.12061927 0.21104456 0.17693484 0.16442385 0.2124378
0.1556226 0.01584394 0.11174445 0.0018144681 0.18782756 0.13174488 0.19975097 0.05918326
0.13730071 0.1946656 0.118463956 0.100652896 0.057741247 0.062722914 0.06792001 0.042169124
0.13436757 -0.078224756 0.2545751 -0.086138904 0.106364906 0.08481988 0.18684326 0.055183638
0.03293155 0.08898758 0.1067225 0.121769264 0.24590765 0.14559504 0.1356216 0.17743537
0.07950017 -0.071943186 0.055900507 0.016912013 0.09264191 0.097207144 0.18549359 0.034717824
0.14117481 0.27494237 0.19822541 0.09671704 0.22721745 0.13033287 0.11942582 0.0071017616
0.05864259 -0.05087899 0.118645996 0.092146255 0.007717632 0.052696083 0.22172488 0.07471308
0.08830572 0.16482687 0.06524707 -0.008679888 0.12794013 0.044031017 0.019376514 0.1309678
-0.08389537 -0.019440684 0.18186846 0.11470727 0.09850507 -0.024505861 -0.046333898 0.25016424
0.100983255 0.065075 0.0058928323 -0.0073064845 0.28457814 0.1655664 0.044172164 0.11186127
0.039122026 -0.015915023 0.02118824 0.12965322 -0.118775435 0.13728744 -0.013835545 0.03741001
0.096164316 0.13114443 0.109752074 0.114057675 0.058318987 0.088151425 0.075452894 0.02130914
00000000: 3f36 6bbb cc31 2a3e d69d bc3d 7d00 a43d
00000010: 5dc8 563d 7901 373e 3350 e4ba b5fa 6b3d
00000020: 13cd 9a3d 2ebe ae3a e139 f6bb 0000 d7bd
00000030: 8fdb 933d fe13 fe3d 6c87 1d3e 8388 e83d
00000040: 0825 993d 6ded 25bd 53f8 1f3e 5d25 c83b
00000050: c3bb 673e fe19 003e d865 1e3e 3f3a 093e
00000060: bfee 083e 2501 d03d 8767 16bd c5d8 8b3d
00000070: d818 693e ffff 9d3d e215 4a3d c787 1d3e
00000080: cdce 923d b93a cabb 6f20 3d3d 3f3d d93b
00000090: 782b 3c3d 92a9 b33d 5849 d53d e2b9 523c
000000a0: 1ec4 833e bb84 a73d 1a1c 2e3e b027 a23d
000000b0: ff68 9f3d a0e3 ce3d 163f 2a3d a3a1 e73d
000000c0: 24f4 1fbc 097f acba ae66 623d bd3e 113e
000000d0: 8ca6 93bd 96e4 613e 115e 4e3e d6da b03d
000000e0: 6b65 a33d 8f1a 163e 9506 2d3d 1b3e 203e
000000f0: d1d2 373d 2a2b 253e 5ba2 fa3d 6c2f f23d
00000100: a2ea 8d3d eb44 053d a2fe 03be 8062 113e
00000110: 4c0e 923d 44fc 043e 87ea e03d de37 903d
00000120: c5d5 4ebd 0ad9 d03c fcb1 0f3e 40f4 ef3d
00000130: 9c8f 1d3e e1db a93d 58ac 3a3d 9a9e c73d
00000140: 8ab5 663e bbd8 783e 83a6 193e 2e6f 86bd
00000150: 2666 c53d c161 133e 4f5e 5d3e bf0f 0f3e
00000160: 2323 953e 1449 f43d 2504 703e 6e1b d23c
00000170: cc33 df3d 2ca2 8e3c a7b7 b43d d104 bb3d
00000180: 56bb 013e a0b8 f43d a183 713c bfab 3fbd
00000190: 1bd0 343e 6f27 a03d f5a4 e03d 937d bf3d
000001a0: 33dd 803e b174 a53d 556b b6bb c9a6 303e
000001b0: 7d2d fd3d b3e7 443e b4bf 7b3d 37a7 583d
000001c0: 300a 443d 4ca2 9f3d b29a 463e e882 e33d
000001d0: 84bc bc3d 1ee5 693d 9e2e 813e b379 b63d
000001e0: 98c1 5b3e 8263 073e 2a33 0a3d 5dab 163b
000001f0: d979 593d 8aa1 233e 4996 64bd 2e1e e43d
00000200: d344 3b3e 06b9 3a3e aa78 0c3d 85d3 1f3e
00000210: b81a fe3d f986 393d 73f5 063e 9e3e 1f3e
00000220: 5df1 ee3c 7cf5 8c3d 52e5 de3c 591b 273e
00000230: c741 f43d 3eea 173e cfa9 813c 0380 05bd
00000240: f2cd 6d3e 6221 c13d 2383 1fbd 0af2 173e
00000250: 9768 5d3e 4d63 243e 4ea9 f7bc 14d2 643e
00000260: 3d0b bc3d 0f52 133e dee5 f73d 3c07 f73d
00000270: 111c 583e 682e 353e ba5e 283e 4b89 593e
00000280: 885b 1f3e 27cb 813c 46da e43d 72d3 ed3a
00000290: de55 403e 21e8 063e 858b 4c3e 256a 723d
000002a0: 8f98 0c3e 6b56 473e 3b9d f23d 1b23 ce3d
000002b0: 1682 6c3d df74 803d a519 8b3d 88b9 2c3d
000002c0: a797 093e 4d34 a0bd ab57 823e 9869 b0bd
000002d0: d8d5 d93d 0cb6 ad3d d753 3f3e 3d08 623d
000002e0: 3ce3 063d 1f3f b63d 5391 da3d 2a62 f93d
000002f0: 37cf 7b3e de16 153e 64e0 0a3e 9eb1 353e
00000300: fcd0 a23d f356 93bd eef7 643d 108b 8a3c
00000310: 0bbb bd3d 8a14 c73d 08f2 3d3e 4734 0e3d
00000320: 2190 103e 3fc5 8c3e 9afb 4a3e 9513 c63d
00000330: b1ab 683e fb75 053e 8695 f43d e5b5 e83b
00000340: 3633 703d 7d66 50bd acfc f23d 2db7 bc3d
00000350: 31e4 fc3b d9d7 573d d90b 633e 2c03 993d
00000360: a1d9 b43d 60c8 283e 41a0 853d 1736 0ebc
00000370: bd02 033e de59 343d 7fbb 9e3c 6c1c 063e
00000380: 56d1 abbd 1242 9fbc ba3b 3a3e a5eb ea3d
00000390: 07bd c93d 84c0 c8bc 9dc8 3dbd 8715 803e
000003a0: 4fd0 ce3d 0b46 853d a918 c13b 3c6b efbb
000003b0: 3ab4 913e 3d8a 293e dfed 343d 8617 e53d
000003c0: 6b3e 203d 3960 82bc f692 ad3c d0c3 043e
000003d0: 8940 f3bd 1495 0c3e 7bae 62bc 3d3b 193d
000003e0: ccf1 c43d ba4a 063e b2c5 e03d 1297 e93d
000003f0: e4df 6e3d bc88 b43d 0c87 9a3d 8190 ae3c

running_mean f4 [256]
0.0113248285 0.33766606 0.27670452 0.0973627 0.12203131 0.9169891 0.05232226 0.27902964
0.3234223 0.24356797 0.02435379 0.020331746 0.16401081 0.422851 0.56606114 0.10755575
0.11202924 0.01981536 0.3620246 0.11885227 0.53044695 0.0282389 0.6725311 0.44567358
0.17718184 0.15737256 0.028845003 0.03977597 0.3952329 0.2015195 0.5843974 0.21344778
0.14314301 0.05327675 0.025086185 0.030054476 0.10434922 0.17610735 0.09780706 0.07961797
1.1749046 0.24467663 0.2069567 0.27132717 0.06445079 0.16996968 0.053256918 0.088083565
0.030315576 0.14158966 0.08687583 0.18277164 0.047993913 0.871215 0.5751987 0.063888565
0.02319361 0.4004239 0.28308633 0.17186637 0.29992393 0.66518843 0.17575435 0.5798589
0.15981433 0.0201038 0.026195195 0.33427715 0.116372496 0.2864896 0.2315642 0.06587805
0.024233934 0.104440935 0.156285 0.008098374 0.50256616 0.09773353 0.110491976 0.3608405
0.5478252 0.7063684 0.8070022 0.04630857 0.19307731 0.33988062 0.29518512 0.18529865
0.6997833 0.11981984 0.35968152 0.046979956 0.3765558 0.03191036 0.2975246 0.19864504
0.39194316 0.28918117 0.010868591 0.029901164 0.3392647 0.20346414 0.3456382 0.18961856
0.6665588 0.03165458 0.0007439147 0.21101163 0.13360697 0.3567905 0.25707266 0.0953253
0.0070390617 0.3197611 0.06711915 0.16512871 0.40826562 0.15099484 0.6338808 0.19484505
0.19203319 0.09270525 0.26277155 0.06978013 0.10871977 0.6101452 0.10609447 0.24970593
0.30234754 0.58372194 0.2847426 0.3670332 0.26742896 0.20279625 0.20087042 0.18497929
0.025703331 0.08824163 0.11788195 0.12586176 0.14938939 0.5610959 0.114538096 0.034989186
0.67380935 0.12922876 0.047715634 0.32158744 0.2332586 0.7475809 0.050481237 0.2604575
0.16042225 0.10750334 0.2912536 0.12045838 0.6961917 0.28250098 0.1205635 0.5334982
0.36353526 0.110423885 0.22263487 0.027505647 0.2434946 0.31774324 0.27003208 0.53647816
0.34664986 0.06045714 0.2677648 0.17971058 0.11066694 0.038250957 0.0431213 0.031436954
0.37139717 0.05092383 0.8104954 0.036613733 0.12673013 0.20979263 0.36508068 0.6165652
0.16815688 0.31986436 0.19103497 0.34537876 0.58836436 0.7848762 0.40063682 0.20986679
0.16952953 0.022332143 0.375578 0.056558486 0.15534966 0.25232327 0.64313316 0.044960037
0.41100496 0.43259758 0.54842395 0.39585423 0.26148194 0.64518166 0.41119063 0.021559026
0.10677739 0.025338609 0.33433598 0.16783573 0.016423916 0.47984284 0.34645072 0.19818498
0.026986895 0.5407512 0.0063264696 0.025728745 0.338171 0.08524092 0.11148632 0.13034922
0.077894725 0.21905604 0.9065875 0.25824043 0.24533352 0.10755967 0.052129798 0.18876807
0.20588735 0.06929468 0.2258926 0.1635118 0.72137666 0.21007124 0.058838263 0.6907362
0.02296444 0.054358892 0.02758155 0.17121635 0.052706733 0.71432835 0.16100577 0.14807211
0.33697224 0.29369923 0.57136965 0.67069775 0.60659605 0.20399012 0.5795485 0.025447853
00000000: c68b 393c 91e2 ac3e 37ac 8d3e 1866 c73d
00000010: 8deb f93d ccbf 6a3f de4f 563d f9dc 8e3e
00000020: 9c97 a53e e269 793e 9981 c73c c38e a63c
00000030: 73f2 273e ed7f d83e 62e9 103f 3046 dc3d
00000040: 966f e53d d253 a23c 4a5b b93e d268 f33d
00000050: 5fcb 073f 4455 e73c 002b 2c3f 542f e43e
00000060: 286f 353e 4626 213e 5b4c ec3c 21ec 223d
00000070: f75b ca3e 215b 4e3e 119b 153f 0e92 5a3e
00000080: 1594 123e b938 5a3d 8b81 cd3c ce34 f63c
00000090: 0bb5 d53d 7c55 343e 114f c83d bf0e a33d
000000a0: 4663 963f 838c 7a3e 75ec 533e 65eb 8a3e
000000b0: c7fe 833d 880c 2e3e ed23 5a3d 2865 b43d
000000c0: 5f58 f83c e1fc 103e f5eb b13d 7d28 3b3e
000000d0: 4495 443d f207 5f3f 3940 133f 02d8 823d
000000e0: 8700 be3c 5d04 cd3e b1f0 903e bdfd 2f3e
000000f0: a18f 993e ca49 2a3f f3f8 333e a271 143f
00000100: 5ea6 233e b9b0 a43c 4e97 d63c 6026 ab3e
00000110: b454 ee3d c4ae 923e 2a1f 6d3e 12eb 863d
00000120: 3e86 c63c 21e5 d53d 2d09 203e 0baf 043c
00000130: 2da8 003f 8428 c83d 9e49 e23d 16c0 b83e
00000140: 463e 0c3f 8fd4 343f b297 4e3f 0eae 3d3d
00000150: 0fb6 453e d504 ae3e 8122 973e eebe 3d3e
00000160: 0025 333f 1b64 f53d 2d28 b83e 0e6e 403d
00000170: eccb c03e 70b4 023d 2555 983e 9b69 4b3e
00000180: c6ac c83e 8e0f 943e 2d12 323c 49f3 f43c
00000190: 1ab4 ad3e e758 503e 7df7 b03e 5e2b 423e
000001a0: 99a3 2a3f 3ca8 013d 4503 433a 6f13 583e
000001b0: 44d0 083e 3fad b63e 079f 833e e939 c33d
000001c0: eea7 e63b bab7 a33e c475 893d 8017 293e
000001d0: 3108 d13e 649e 1a3e 0346 223f 7685 473e
000001e0: 59a4 443e 40dc bd3d fe89 863e e3e8 8e3d
000001f0: 79a8 de3d 7a32 1c3f 0f48 d93d e9b2 7f3e
00000200: 4ccd 9a3e cd6e 153f c8c9 913e c7eb bb3e
00000210: 73ec 883e d2a9 4f3e fab0 4d3e 366b 3d3e
00000220: cb8f d23c 07b8 b43d 186c f13d e8e1 003e
00000230: 88f9 183e fba3 0f3f f392 ea3d d250 0f3d
00000240: c57e 2c3f 8b54 043e 7871 433d 1ca7 a43e
00000250: 58db 6e3e 7661 3f3f 6ac5 4e3d af5a 853e
00000260: bb45 243e b62a dc3d 311f 953e e2b2 f63d
00000270: 9f39 323f f8a3 903e ffe9 f63d 5793 083f
00000280: 4b21 ba3e eb25 e23d 65fa 633e 8653 e13c
00000290: a656 793e 3eaf a23e a541 8a3e a256 093f
000002a0: 177c b13e e8a1 773d 7818 893e 0d06 383e
000002b0: 59a5 e23d 09ad 1c3d f69f 303d 09c4 003d
000002c0: c527 be3e 8295 503d a07c 4f3f 48f8 153d
000002d0: 8bc5 013e e1d3 563e dbeb ba3e 38d7 1d3f
000002e0: 5131 2c3e 43c5 a33e ac9e 433e 7cd5 b03e
000002f0: 0c9f 163f a6ed 483f 4520 cd3e 52e7 563e
00000300: 2699 2d3e e6f1 b63c c24b c03e dfa9 673d
00000310: fb13 1f3e 8430 813e 60a4 243f 0428 383d
00000320: 3e6f d23e 6e7d dd3e 8365 0c3f 68ad ca3e
00000330: f6e0 853e a02a 253f 9487 d23e 8e9c b03c
00000340: 1bae da3d ea92 cf3c 162e ab3e 21dd 2b3e
00000350: 738b 863c f6ad f53e fd61 b13e 01f1 4a3e
00000360: 9f13 dd3c ac6e 0a3f 464e cf3b 17c5 d23c
00000370: c024 ad3e cb92 ae3d f152 e43d 447a 053e
00000380: 4587 9f3d 3a50 603e 1e16 683f 1738 843e
00000390: b638 7b3e 3f48 dc3d 0e86 553d 6b4c 413e
000003a0: 22d4 523e 5fea 8d3d 6450 673e a36f 273e
000003b0: 24ac 383f ea1c 573e 6400 713d 16d4 303f
000003c0: ec1f bc3c 6ea7 5e3d b4f2 e13c 5753 2f3e
000003d0: 04e3 573d 39de 363f b2de 243e 37a0 173e
000003e0: a087 ac3e bf5f 963e 4845 123f d9b2 2b3f
000003f0: e149 1b3f c9e2 503e 4a5d 143f 0478 d03c
