Best_models/UCI_HAR_CNN_20210125_130254/CNN_UCI_HAR_Rep_5_Seed_391.pt (torch_old, 226695 bytes, 12 tensors)

weight f4 [64, 9, 3]
000000 9c 9a 8d 3e 0f c8 21 bd 7a d2 50 3e a0 11 be 3d
       0.2765702 -0.03949743 0.2039279 0.092807055
000010 c2 e4 3f 3d 92 9a e2 bc ee b9 1e be 18 f1 3c be
       0.04684902 -0.027661595 -0.15500614 -0.18451345
000020 97 07 a7 3d e8 9b 50 3e f4 58 2e 3e 35 51 c2 bc
       0.081557445 0.20371974 0.1702612 -0.023720363
000030 02 54 2f bd b6 90 77 bd 10 9b 14 be a9 c3 03 be
       -0.042804725 -0.06044074 -0.14512277 -0.12867607
000040 67 f4 10 3e 35 cf cb 3b 9a 3b 41 3d d8 6e 58 be
       0.14155732 0.0062197694 0.04717598 -0.21136034
000050 83 30 c9 bd 01 59 5e 3d d6 e0 b1 bd bb 61 40 be
       -0.09823706 0.0542841 -0.08685462 -0.18787281
000060 a9 2c d5 3c 2b 23 44 3e 09 7a 79 3d 0b b6 02 be
       0.026022272 0.1915404 0.060907397 -0.12764756
000070 99 f6 1b be 66 a1 a0 3d 09 89 02 bd 43 d8 91 bd
       -0.15230788 0.07843284 -0.03186897 -0.07121327
000080 1b 0a 49 be 08 7e 61 3e 45 98 2f 3e 67 94 60 3e
       -0.19632761 0.22020733 0.1714793 0.21931611
000090 ee 9f 74 3e 24 97 92 3d 89 aa c7 bd 5e 61 17 be
       0.23889133 0.07157734 -0.09749324 -0.14783236
0000a0 55 30 41 3d e0 da 06 3e 53 3d 4d 3e d8 23 bc bd
       0.047165234 0.13169432 0.20042925 -0.09186524
0000b0 07 f2 b9 3d 71 9b 87 be ec f0 28 be 5f 38 a7 bc
       0.09079366 -0.2648578 -0.16498154 -0.020412622
0000c0 b1 90 d9 bd 2d b9 17 3e c8 13 23 bd e4 5f a7 bd
       -0.10623301 0.14816733 -0.039813787 -0.081725866
0000d0 fa 80 50 be 84 59 05 3b 7a 33 16 3d da 39 61 3c
       -0.203617 0.0020347545 0.036670186 0.013746703
0000e0 35 e3 17 be 67 44 43 3e 27 95 2a 3e 39 bb d7 3d
       -0.14832766 0.19069062 0.1665846 0.10533757
0000f0 79 cd 33 be c6 87 63 bd 11 0c 4e be 2d 95 c6 bd
       -0.1755885 -0.055549406 -0.2012179 -0.09696422
000100 8e 19 42 be 61 be 10 3b 9d ad 12 be 80 54 64 be
       -0.18955061 0.002208613 -0.1432404 -0.22297859
000110 9f 2e ef bd 80 b6 5c bd 1d 46 85 be af 2e 87 be
       -0.11678814 -0.053884983 -0.26030055 -0.26402804
000120 b7 b1 81 bd bd e4 df 3b d1 20 00 be 26 70 70 bd
       -0.063327245 0.0068326876 -0.12512518 -0.058700703
000130 5c 36 c6 3c 8f 05 48 bc f8 9c d7 bc 94 aa b5 bd
       0.024195842 -0.0122083565 -0.026319966 -0.08870426
000140 da 36 31 3d 99 84 ba bd f0 dc 08 be 79 d0 28 be
       0.0432652 -0.09107322 -0.13365531 -0.16485776
000150 b7 86 80 bd b5 ef 84 be 02 44 a5 bd 06 f3 ee bd
       -0.06275695 -0.25964132 -0.08069612 -0.11667447
000160 0f 4e 88 bd 27 40 5c bd a6 2d bf bd ee 59 83 bd
       -0.066555135 -0.053772118 -0.093348786 -0.06413637
000170 98 d2 cd 3d e5 7e c5 3c 2f 75 d3 3d c4 5a c4 bd
       0.10049933 0.02410836 0.10325085 -0.09587625
000180 b5 a5 a3 be a5 8e cb bd ac 23 b8 3c 9d 3d 1d 3e
       -0.31962362 -0.09939317 0.022477947 0.15355535
000190 ae d3 56 bd 7b e0 30 be cb 13 a0 3d 7d d1 3a be
       -0.052447967 -0.17273133 0.07816275 -0.18243976
0001a0 62 61 4a be 14 e3 7f 3d ec 30 12 3d 4f 22 5e be
       -0.19763711 0.062472418 0.035691187 -0.21692775
0001b0 07 0e aa 3d 5a 07 3b 3c 31 c2 de be 64 ea 14 be
       0.08303457 0.011415327 -0.4350753 -0.14542538
0001c0 a2 3b fa 3c ae 6a 44 be 3c e7 c2 3d c7 58 44 be
       0.030546013 -0.1918132 0.09516761 -0.19174491
0001d0 ba 5b 66 be 79 52 10 3e 21 6d 2a 3d bb 85 05 be
       -0.22495928 0.14093961 0.04160798 -0.13039295
0001e0 46 05 2d 3e 25 1c 17 be 1c 8c 59 3d ff 54 ce 3d
       0.16896543 -0.1475683 0.053112134 0.100748055
0001f0 cf 6f 91 bd 1d 5e 20 3e 2c 75 e2 3d d9 78 95 bd
       -0.07101404 0.15660901 0.11057505 -0.072984405
000200 c1 84 61 be ed 70 14 be a0 0f a3 bd 4a 6d fd bd
       -0.22023298 -0.14496203 -0.079619646 -0.12374361
000210 3f a2 e2 bd 17 aa 42 3e 8d 4c a3 3d 33 64 bd 3d
       -0.11066102 0.19010197 0.07973585 0.09247627
000220 85 39 40 3e b8 45 d6 bc 41 d3 a6 bc fa 62 80 bd
       0.18771942 -0.026156291 -0.020364406 -0.06268878
000230 54 79 87 3e 00 63 c5 bd 6c 4b ce bc 5a 48 9c 3c
       0.26459754 -0.096380234 -0.025182448 0.019077469
000240 64 fa b4 3e 79 52 d4 3e 20 f2 ca 3e 83 61 3b 3e
       0.35347283 0.41469172 0.39637852 0.18298917
000250 33 27 a5 bc f4 a7 3b bc 6f fb 64 bd 48 47 63 be
       -0.020160293 -0.011453617 -0.05590385 -0.2219516
000260 08 a3 0f 3d 4a b8 fe 3a 3b c9 e5 3d 47 c9 45 3d
       0.035067588 0.0019433585 0.11220022 0.048287656
000270 a6 7f 9f 3b 1d 69 cf bd e1 85 e5 3d 8a f8 3f be
       0.004867512 -0.10127471 0.11207176 -0.18747154
000280 ad d3 e5 3d e4 e2 bc 3d 11 e7 5d 3d af aa 06 3e
       0.112220146 0.092229635 0.05417544 0.13151048
000290 ac 69 4e 3e a2 cd 2f 3d 40 48 ec bd 21 20 a1 3d
       0.20157498 0.042920716 -0.11537218 0.07867456
0002a0 eb f1 80 bd ba b4 c4 bd 0f e0 e8 3d 86 85 dc 3e
       -0.06296142 -0.09604783 0.11370861 0.4307062
0002b0 b1 fe ca 3e 62 26 aa 3e 8c 47 a4 3d cc fc 72 3d
       0.3964744 0.3323241 0.08021459 0.059323117
0002c0 14 fa bf bd 52 e6 2b 3d 16 c8 f2 bc c1 75 16 be
       -0.093738705 0.041967697 -0.029636424 -0.14693357
0002d0 5a f8 b7 3d f8 8c b3 bd 0c 22 3e bd 9d ae 8a 3b
       0.08982916 -0.08767122 -0.04641919 0.0042322413
0002e0 39 ef e1 bd 76 67 25 3e 3f 62 e6 bd dc 5d 14 3e
       -0.11031956 0.16152748 -0.11249208 0.1448893
0002f0 e3 b8 19 bd dc ba c6 3c f8 8e 42 be 67 32 00 bc
       -0.037529837 0.024259023 -0.18999851 -0.007824517
000300 1d 21 ff 3c 87 2d 75 3d 07 1c 81 bd 0f 34 6f be
       0.03114372 0.05985787 -0.06304174 -0.23359703
000310 1a b9 50 bd 61 26 4a bd f5 b5 fb 3d 13 7a b7 3d
       -0.050957777 -0.049353007 0.12290565 0.08958831
000320 25 85 17 3d 91 8d ec bd 3f 5d 52 3c a3 a8 a7 3d
       0.03699221 -0.11550439 0.012839614 0.08186462
000330 6c 0d 97 3d 0d 0c 26 be c7 9d 8c be 9d 7f 26 be
       0.07375607 -0.16215535 -0.27464125 -0.16259618
000340 6e 21 1b be cd 04 ae 3d 91 77 84 3d 32 cb 0b 3e
       -0.15149471 0.084970094 0.06468118 0.13651732
000350 16 bd 8a bd 9b 4a 17 3d e3 51 2e 3e d9 69 e0 bc
       -0.067743465 0.036936384 0.17023425 -0.027394222
000360 71 9f 7e be 22 60 62 be 7d e0 04 3d cd 76 54 be
       -0.2486551 -0.22106984 0.03244065 -0.20748444
000370 12 1d b7 bd 72 93 2d 3e b0 f0 ea 3c d3 96 bb bc
       -0.089410916 0.16950777 0.028679222 -0.022899067
000380 35 a1 cf 3a eb 89 02 be 52 57 22 be a5 32 d4 bb
       0.001584089 -0.12747924 -0.15853623 -0.006475764
000390 f2 e4 fa bd b9 45 29 be b5 c7 10 3e 7a ad 92 be
       -0.12250699 -0.16530503 0.14138682 -0.28647977
0003a0 6e 5c 93 be e5 8c 55 be 2a f4 4b bd 7b 6d df 3d
       -0.28781456 -0.20854528 -0.0497934 0.109095536
0003b0 8e d1 f8 bd 7b 3c 02 bd ad 5b 61 bd 8d bd 9b bd
       -0.121493444 -0.03179596 -0.05501907 -0.07604513
0003c0 a9 98 27 bd 7b bf b0 3d 71 24 17 be 5c 69 67 bd
       -0.040917072 0.08630272 -0.14759995 -0.056496963
0003d0 65 a3 e7 bc 54 f9 57 bd 61 f9 d5 3d 26 3c bc bd
       -0.028276155 -0.052728012 0.10447956 -0.0919116
0003e0 6b 29 46 be 56 8d d6 bd 44 51 e7 3d 31 f1 c7 3d
       -0.19351737 -0.104761764 0.11294797 0.097628005
0003f0 fe e6 69 3c 9b 89 55 3e 6f 73 08 be f2 3c 9f 3b
       0.014276264 0.20853274 -0.13325284 0.00485956

bias f4 [64]
000000 d9 ad 9b be 36 64 71 3d 84 c4 9a be ed 00 bc bd
       -0.30406073 0.05893346 -0.30228055 -0.09179864
000010 62 52 76 bd ae b4 c8 bd a0 c2 a4 3c 59 69 ca 3d
       -0.06013716 -0.09800087 0.020112336 0.09883375
000020 74 68 60 be 07 86 92 3c 0d 24 cb 3d f9 0e 6e 3b
       -0.21914846 0.017886175 0.099189855 0.0036324842
000030 dd 28 ef 3d 09 a0 c3 bd 4d a7 b2 bb d4 53 cf 3c
       0.11677716 -0.09552009 -0.0054520727 0.025308527
000040 26 d0 df bc 93 1a 84 be 5e 47 01 be 3d 19 df bd
       -0.027320933 -0.25801525 -0.1262488 -0.10893486
000050 6b 05 61 bd f0 09 52 bd 78 32 46 3e e7 47 f1 bd
       -0.054936808 -0.05127901 0.1935519 -0.117812924
000060 69 2e d8 bd fe 7b 27 bd 2a ed 3e be c8 ec 09 be
       -0.10555727 -0.040889733 -0.18645158 -0.13469231
000070 d9 58 60 3d 7e fc 7b bd 59 6e 0e bc 19 2b 9e ba
       0.05477223 -0.061520092 -0.008693301 -0.0012067287
000080 ba a6 a4 bd 1b 62 79 3d f1 88 cb bd cc c6 7c be
       -0.08039613 0.060884576 -0.09938229 -0.2468521
000090 b8 10 4a bd b8 40 5b bd ad dc 63 3c 6e ab e3 bd
       -0.04933235 -0.053528517 0.013907594 -0.11116682
0000a0 59 08 d5 bd 3a a1 0d 3e 9d c2 d5 bd 64 34 5b be
       -0.10401983 0.13831034 -0.1043751 -0.21406704
0000b0 21 2f 54 bd 41 7c dd bd 73 6b d9 bd d6 35 32 38
       -0.051802758 -0.10814715 -0.106161974 4.2488646e-05
0000c0 bd 9d 13 be 56 54 b9 bd 07 1c 4b be f7 05 e3 3c
       -0.14415641 -0.09049289 -0.1983491 0.027712805
0000d0 ec a3 b3 bd 57 e9 29 be e8 1d c4 bc 0f 34 43 3d
       -0.087715 -0.16592918 -0.023940042 0.04765707
0000e0 46 b2 91 bd da d3 38 be 95 2e 1b be f2 f5 7c bd
       -0.07114081 -0.18049565 -0.15154488 -0.06175799
0000f0 bd 3c d0 bd 1c 3e be bd 58 3d 8c bd 7c 2a 39 bd
       -0.10167835 -0.0928919 -0.06847638 -0.045206532

weight f4 [64, 64, 3]
000000 0b 1b 00 3d 46 80 da 3d a4 88 a7 bc 5c 6f 23 3e
       0.03127579 0.106689975 -0.020450898 0.15960449
000010 1e 7b b0 3d fc 33 aa bc 75 0b 8b bd 7b 62 bd 3c
       0.08617233 -0.020776741 -0.06789295 0.023118248
000020 f8 10 66 bd c9 73 19 3d 4d 2f ce 3b d9 d7 7a 3d
       -0.056168526 0.037463937 0.00629226 0.061241005
000030 85 4e 36 bd e4 fe 7f 3d 92 64 43 3d e7 13 36 3c
       -0.044508476 0.062498942 0.047703333 0.0111131435
000040 3f 75 3e bd 87 2e 9c bb 11 c9 ec bc 1f 7c 85 3d
       -0.046498533 -0.0047662887 -0.02890447 0.06517815
000050 cf fe 67 b8 ad fc aa 3d 89 3b 39 3c 3e 70 5a 3d
       -5.5312e-05 0.08348975 0.011305698 0.0533297
000060 22 8c 9d bd 42 29 e9 bb 41 7b dd bc 1f 76 0b 3c
       -0.07692744 -0.007115514 -0.027036311 0.008512049
000070 63 71 af 3c c8 a1 26 bd d8 9d 13 bd 6c 51 a4 bd
       0.021416372 -0.04068163 -0.036039203 -0.080233425
000080 73 41 3d bc f3 86 27 be 84 48 e1 bd 93 22 9f bd
       -0.011551249 -0.16360073 -0.110001594 -0.077702664
000090 9d 79 0e be 57 77 c2 bd b9 e8 97 bd bd fb 83 3d
       -0.1391358 -0.094954185 -0.07417435 0.064445
0000a0 17 f5 81 bb 9c 17 20 3d 39 13 a4 bd 6b 99 ea bd
       -0.0039659846 0.039085016 -0.08011479 -0.114550434
0000b0 1d 99 b2 bd 31 50 45 bd 6a b8 e8 bd c0 1c ed bd
       -0.0872061 -0.04817218 -0.11363299 -0.11577749
0000c0 40 61 a4 bd 49 f4 03 be c9 78 b3 bc 1c c6 82 3b
       -0.080263615 -0.12886156 -0.02190818 0.0039909016
0000d0 a1 32 b8 3c 52 5f ae 3d fe 37 a0 3d 19 ba cb 3d
       0.02248508 0.08514275 0.0782318 0.09947605
0000e0 9f f4 ae bb 42 85 bf 3d 9c cd 58 3c 56 25 10 3d
       -0.0053392197 0.09351589 0.013232615 0.035191856
0000f0 6a b5 aa bb 5d ad 8a 3d 69 34 b2 3d 8f ac 2e bd
       -0.0052096145 0.06771348 0.08701403 -0.042645033
000100 eb eb 83 bc 04 f0 1d 3d 0a 0c a8 3d 5e 42 38 bc
       -0.016103705 0.038558975 0.08205421 -0.011246292
000110 f2 82 7c 3d da ae 15 bd 20 d1 7b 3d d2 36 eb bc
       0.061648317 -0.036543705 0.061478734 -0.028712664
000120 a0 e0 bf 3d 5e c4 0d 3d 83 50 2d 3e 68 a9 06 bd
       0.09369016 0.0346111 0.16925244 -0.032876402
000130 b9 55 b4 3c aa 79 2b bd f2 7c 1f 3d 2c 01 9a bc
       0.022013532 -0.041864075 0.038937517 -0.018799387
000140 50 a6 90 3d 61 89 40 bd 25 1e dc bc 94 07 4d 3c
       0.070629716 -0.047006015 -0.026869843 0.012514014
000150 f5 68 4e 3d 08 17 82 3d 98 b8 36 3c dc 14 f1 bd
       0.050393064 0.06352049 0.011152409 -0.11771557
000160 b1 e9 0d bd 5b ca 32 be d1 94 e6 bd a1 bf 90 bd
       -0.034646694 -0.17460005 -0.11258853 -0.070678
000170 b6 f0 ca bd e9 97 02 be 58 25 14 bd bd 97 33 3c
       -0.09909193 -0.12753262 -0.036168426 0.01096147
000180 4e 95 b7 bc 10 f7 b8 bd fa 39 59 bd 98 95 4b bd
       -0.022410061 -0.090314984 -0.053033806 -0.04970321
000190 4d 1b a6 bd 12 1d d1 bc f4 50 dd bd fc aa 26 be
       -0.08110676 -0.025526557 -0.10806456 -0.16276163
0001a0 be d0 a4 bd dd f4 d7 3d 76 91 07 3d 1e ef d6 3d
       -0.08047627 0.10544751 0.033097707 0.10494827
0001b0 1b 2d 4b 3d b0 b3 9c 3d fa be 3c 3d 96 91 25 bd
       0.049603563 0.0765146 0.046080567 -0.040422045
0001c0 fb 13 7b bc 0f c3 e6 bc 7b 78 d8 3c d0 01 44 39
       -0.015324588 -0.028169183 0.026424637 0.00018692692
0001d0 9a 81 c9 bd 6a 5a 5e 3c bc 16 d6 3c 77 29 f7 bc
       -0.09839173 0.013571361 0.026133887 -0.03017114
0001e0 c3 5a ab bd f0 8b cb bd 2c d8 b4 3c b8 f4 76 bd
       -0.08366921 -0.099388 0.022075735 -0.060291976
0001f0 f1 e3 1f bd e0 bb f1 bc 2f b8 de 3c d7 c3 02 3d
       -0.03903574 -0.029508531 0.027187435 0.03192505
000200 ba 74 eb 3c 9d 1a b0 bc 48 4a 9f 3b 12 d9 1b 3c
       0.028742183 -0.021497065 0.00486115 0.009512203
000210 eb 0f 01 be 3e e5 bd bc fd cb f2 bc 3a ef ba 3b
       -0.12603728 -0.0231806 -0.029638285 0.0057047876
000220 f0 12 3b 3d 0c cb 10 bd 61 13 6e bd f4 40 a7 bc
       0.045672357 -0.03534989 -0.05812395 -0.020416714
000230 64 df f0 3c 32 ec 00 be 27 d6 2c b9 88 e3 54 3d
       0.029403396 -0.12590101 -0.00016482976 0.051974803
000240 45 cd 19 3c 97 ae a3 3d 02 d9 c3 3c eb 2f 07 3d
       0.009387319 0.07992285 0.023907188 0.033004683
000250 a9 21 6f 3c 85 4e e5 bb 16 96 d6 bd d9 92 99 bd
       0.014595428 -0.0069978856 -0.10477845 -0.07498712
000260 dd c4 a3 bd 54 a6 89 3d 9c 78 7c 3c cc 0d 28 bd
       -0.07996533 0.06721178 0.015409615 -0.041028783
000270 87 ed 09 3c d1 b3 6c bd 8a d8 f6 bb d6 a8 c1 3d
       0.008418447 -0.057788674 -0.0075331377 0.09456031
000280 79 3f 94 3d ab ac 1e bd 52 58 55 3c 5b b6 11 be
       0.07238669 -0.038738888 0.0130215455 -0.1422972
000290 e9 01 76 bd 05 39 d9 3b d2 c2 d9 bb c9 05 c3 3d
       -0.060060415 0.0066291117 -0.006645539 0.09522588
0002a0 50 e9 bc 3c ca 75 89 3d f4 2c e3 3d 99 9a 8d bd
       0.02306047 0.067119196 0.110925585 -0.06914253
0002b0 14 05 45 3b 4b 64 f6 bd 67 4a 6d 3d 8f 5b ba bd
       0.0030062841 -0.12030848 0.057932284 -0.09099495
0002c0 ce 3a b8 bd 3f 91 bf 3d bd 72 99 3d 01 9f 00 3e
       -0.08995591 0.09353875 0.07492588 0.12560655
0002d0 d3 28 e1 3d 8e 45 4a 3d 39 8b 34 3e e5 4a 6c 3d
       0.10994115 0.04938274 0.17631234 0.057688612
0002e0 b7 eb a0 3c 0d 5a 04 bd 82 b1 1f 3d ae 72 4f bd
       0.019643648 -0.03231244 0.038987644 -0.050646476
0002f0 70 6c 9e 3d e7 2e 97 bd b2 fe 69 bd 69 91 74 bc
       0.077355266 -0.07381993 -0.057127662 -0.014927247
000300 94 29 05 bd 6e ef 20 bd 8b f1 c6 bc 2c 00 1e be
       -0.032510355 -0.039290838 -0.024285099 -0.15429753
000310 92 e0 25 be bd 2a ac bb 74 94 a7 bc bb 2a a1 bd
       -0.16198948 -0.0052541182 -0.02045653 -0.07869478
000320 8e 82 ff bc ab 41 aa bd 80 62 0d bd 11 7c 05 3a
       -0.031190183 -0.083133064 -0.034517765 0.00050920347
000330 1f c7 2b 3b 4a 2b c3 3c 10 20 ca bd 29 b1 b9 bb
       0.0026211215 0.023824353 -0.09869397 -0.005666871
000340 ba 0e 98 3d 05 70 d3 3d f4 07 5d bd 84 b1 d9 3a
       0.07424684 0.103241004 -0.053962663 0.001660869
000350 70 01 b8 3d 1b e2 ae bd fa ac b7 bc cd b1 5d 3d
       0.08984649 -0.0853922 -0.022421349 0.054124642
000360 30 af b7 bd f3 ed b0 bd 85 6a 4a 3c e1 b2 f1 bd
       -0.08968961 -0.08639135 0.012354498 -0.118016966
000370 36 c3 9d 3c 41 b8 55 3c c0 89 01 be 00 bb c3 3c
       0.019258123 0.013044418 -0.12650204 0.02389288
000380 84 77 05 bd f6 fd 87 bd 34 a7 9f bd 2d f5 82 3c
       -0.032584682 -0.06640236 -0.07795563 0.01598605
000390 d3 d8 c7 bd 6e 09 f7 bc 6c a6 85 bd 7e 1d c1 3d
       -0.09758153 -0.030155864 -0.06525883 0.09429453
0003a0 f5 44 f2 3c de e7 1f bc b5 f7 a3 bc 5b 83 9f bd
       0.029573897 -0.009759871 -0.020015577 -0.07788726
0003b0 79 14 16 3e ec 49 be bd 9e 4a 06 bc fb 1c fc 3c
       0.14656247 -0.09291443 -0.008196501 0.030775538
0003c0 98 8f e8 3a 6a 97 93 3d d6 91 12 3d 80 ac 3f 3d
       0.001774299 0.07206614 0.03578361 0.04679537
0003d0 7a 36 60 3d 58 28 91 3c 83 86 5f be 02 af 22 be
       0.054739453 0.017719433 -0.21828656 -0.15887073
0003e0 11 7d a4 3c 2e 38 01 3e de 66 12 3d c7 3e a7 bd
       0.020079168 0.12619087 0.035742633 -0.08166271
0003f0 0e 65 c8 bc 81 61 47 bd 8d 9a fd bd ed 9e be 3d
       -0.02446225 -0.04867697 -0.12382994 0.093076564

bias f4 [64]
000000 6e 6b 2e be f3 c2 2d bd 00 f6 02 3d 92 a9 c9 bc
       -0.17033169 -0.042422246 0.031972885 -0.02461699
000010 9f 85 5c bd ad 51 a3 bd 8b 82 da bc 66 9f e3 bd
       -0.05383837 -0.07974563 -0.026673576 -0.11114387
000020 a7 bd 47 3d 60 f1 a9 bd 87 76 de bb c5 35 a9 bc
       0.04876485 -0.08297992 -0.006789032 -0.020655522
000030 af ba 84 bc c7 c0 35 bd cb d4 02 bc 07 85 c2 bd
       -0.016202299 -0.0443733 -0.007985304 -0.09498029
000040 85 ac df bc 1c f0 c0 bd c5 0b bd bd e6 e0 28 be
       -0.027303943 -0.09420797 -0.092307605 -0.16492042
000050 32 c6 4a bb a0 e0 89 bd a6 91 34 bc 7d 8c 6d ba
       -0.0030940888 -0.06732297 -0.011021053 -0.0009061767
000060 12 ee 36 be ec 50 42 3c 59 1b 44 3b 27 44 b1 bb
       -0.17864254 0.011860114 0.0029923527 -0.0054097357
000070 b8 0f 20 bd e4 a9 61 bd dc 81 e9 bc 91 61 c2 bd
       -0.03907749 -0.05509366 -0.028504305 -0.094912656
000080 1a ab dc bc 24 f1 cf bd ea 04 e6 3b a3 af 19 be
       -0.026937056 -0.10153416 0.007019629 -0.15008406
000090 6f 3e ea bd fb 07 30 bd 15 d6 ab bb a5 44 c0 3c
       -0.114376895 -0.04297636 -0.0052440264 0.023470232
0000a0 a2 be fa bd f5 f5 da bd 32 96 cd 3a d1 0e a2 bb
       -0.122433916 -0.10691444 0.001568502 -0.004945614
0000b0 3f 75 a8 3d fd ac 06 bd 52 dd a3 bd e0 04 c6 bd
       0.08225488 -0.03287982 -0.08001198 -0.096688986
0000c0 ff c5 83 bd 57 35 15 3c b5 25 d3 bd 03 8f 38 3d
       -0.06434249 0.0091069555 -0.103099264 0.04505826
0000d0 e6 a0 09 bd c2 b8 c0 bd 4c b8 be 3d 9a b6 c3 bd
       -0.03360071 -0.0941024 0.093124956 -0.09556313
0000e0 6e 24 23 bc d3 61 a2 bd 2e fd ec bc 4f 93 2f bd
       -0.009957416 -0.07928815 -0.02892932 -0.042865094
0000f0 29 03 ef bc 33 30 cd bc 37 65 1c bd 4b 3d 7b bd
       -0.029176312 -0.025047397 -0.038182463 -0.06133775

weight f4 [256, 128]
000000 b6 22 7f bc 61 8d 07 3d 35 e6 14 bb 29 c6 00 3d
       -0.015572241 0.033093814 -0.0022720222 0.03143898
000010 d2 2f cc 3d 87 aa da 3b b6 46 63 3d de 48 c2 3d
       0.099700585 0.0066731605 0.055487357 0.094865546
000020 4a cd 6f 3a 59 dd fb 3c 2a 69 3a 3d 45 ec 59 3d
       0.0009147717 0.030745195 0.04551045 0.05320384
000030 fc 46 c2 bb 0d 41 ea 3d b2 07 ac 3d 7d 39 c9 3d
       -0.005928872 0.11438189 0.08399905 0.09825418
000040 7a 1f 45 bd 76 0a 4f 3e 4f 8b 26 3e 61 c1 ce 3a
       -0.04812572 0.20218834 0.1626408 0.0015774184
000050 47 ee a5 3c dc 07 da bc 39 80 15 bd f3 3b 53 bd
       0.020255221 -0.026615076 -0.036499236 -0.051570844
000060 e7 c3 f5 3c 8e 9b dc 3a 94 c3 b3 3c b9 af 19 3d
       0.03000064 0.0016831027 0.021943845 0.037521098
000070 35 9d 14 3d fa 67 0f 3d 22 b3 1e bc 93 dc 47 3d
       0.036282737 0.03501127 -0.009686263 0.04879434
000080 00 43 8d 3d a7 c9 06 3d 44 dd b5 3c 1e 7c e0 3d
       0.06897545 0.032907154 0.022200234 0.109611735
000090 dc 47 87 bd 1d c8 47 3c 49 15 94 3c 13 fa 4c 3d
       -0.06605503 0.012193707 0.018076556 0.050043177
0000a0 7c 91 96 bd e5 0e b0 bd a9 81 e7 3c 24 9a 0f 3e
       -0.07351968 -0.08596591 0.028260069 0.14023644
0000b0 b9 11 01 3e c1 33 ee 3d 3e 50 8d bc 1b 38 f3 bc
       0.12604417 0.11630965 -0.017250177 -0.02968984
0000c0 65 2a 09 be 4e 21 f8 bd 57 df bc 3d 72 b1 32 3e
       -0.13395078 -0.12115727 0.09222286 0.17450503
0000d0 c9 6b c8 3b 86 b9 84 3d d4 4b 8a 3c e7 a9 d0 3d
       0.0061163646 0.06480698 0.01688186 0.10188656
0000e0 fa 59 73 bd 35 ad 40 bd a4 2a a9 3d ed ec b0 3d
       -0.05941198 -0.047040183 0.08260086 0.0863894
0000f0 d3 99 da bd 8d 4e 7f bd 2a e4 47 3d 80 dc 05 3e
       -0.10673871 -0.06233077 0.04880158 0.13072395
000100 58 2b fe 3d fd f7 62 3d 50 62 0e bc b3 56 c9 3d
       0.12410611 0.05541228 -0.008690432 0.0983099
000110 6d e9 03 bb 22 49 36 bd 30 ac 5b bd eb 2a 75 3d
       -0.0020128146 -0.04450334 -0.053631008 0.059855383
000120 dd db 86 3d f1 8d 7f bc d6 da 5c bd 85 de 97 3d
       0.06584904 -0.015597806 -0.053919636 0.07415489
000130 e4 94 f5 bc ab db e7 3b 9b b9 b6 3d d9 fb 93 bb
       -0.029978223 0.007075747 0.0892212 -0.0045161066
000140 d5 78 af 3d 0f ee 85 3d 35 1e b6 3d 22 04 f9 3d
       0.08567969 0.06539547 0.0889248 0.121589914
000150 16 c6 c0 bd e4 23 3c 3d b3 0e 09 bd 79 2a 0e 3d
       -0.09412782 0.045932665 -0.033461284 0.034708474
000160 d4 14 7b bb 66 ad 71 bd db d7 e9 bd ac 6f 1e bd
       -0.0038311975 -0.059003256 -0.11418124 -0.038680717
000170 44 c5 c8 bd e9 01 8d bd 01 28 34 bd a7 d0 d9 3d
       -0.098032504 -0.0688513 -0.043983463 0.106355004
000180 73 c6 3c 3b b1 4c 27 3d ad fe 7c 39 48 02 23 bd
       0.0028804808 0.040844623 0.00024127467 -0.039797097
000190 5d c0 b9 3c ff 4a 81 3d 23 41 ba bc 71 a9 99 bd
       0.022674734 0.063131325 -0.022736138 -0.075030215
0001a0 5b b3 79 bd 7e 83 0d bb ab 49 93 3d 59 3a 49 3d
       -0.060962062 -0.0021593268 0.071917854 0.04912791
0001b0 e3 40 f4 bd 5b 21 09 be 18 52 46 bd 79 68 b4 bd
       -0.11926439 -0.1339163 -0.048418134 -0.08808989
0001c0 46 58 e3 bc 9c 01 04 be eb b6 8e 3c c1 eb 55 3c
       -0.027752053 -0.12891239 0.017421206 0.013056696
0001d0 3c 81 da 3d 01 b1 99 3d 38 e2 74 3c d6 ed 91 3d
       0.10669181 0.07504464 0.014946513 0.07125442
0001e0 d2 42 9e bd 79 2f 65 bc 4c 37 eb 3c 09 d3 81 3c
       -0.07727589 -0.013988369 0.028712891 0.0158477
0001f0 31 38 8a 3c 78 20 ec 3c a7 73 7a 3c 82 a9 51 3c
       0.016872497 0.028824076 0.015286363 0.0127967615
000200 dc cb c8 bd 9f 95 1d bd 05 67 37 3d dc e4 55 bd
       -0.09804508 -0.038472768 0.04477598 -0.05222021
000210 9d 62 1a 3d 9a d7 59 bd ab cd 85 3c 3d b8 1d 3e
       0.0376917 -0.05318413 0.016333422 0.15402313
000220 c5 2f f7 bc 7e 8d 89 3d 6c 00 62 bd da ca fe bc
       -0.030174145 0.067164406 -0.055176184 -0.031102587
000230 9c e6 79 bc 33 21 32 3d 8b 8d 60 bd 40 6e 7f 3d
       -0.0152527355 0.043488692 -0.054822486 0.062361002
000240 f1 3e c4 3d d1 80 26 3d 8a 82 bc 3c fb 70 9a 3d
       0.095823176 0.040650193 0.023011465 0.075410806
000250 6b 21 0b 3d e3 49 e6 3d 87 6b 0e 3e 61 2d 35 3e
       0.033967417 0.112445615 0.13908206 0.17693092
000260 c6 22 1e bd bc 08 d4 bd fd c6 ed ba c6 2e 4e 3d
       -0.03860738 -0.103532284 -0.0018140968 0.050337575
000270 c7 ea 86 3c 5a b3 31 3d a3 67 7e 3d b1 70 7e 3d
       0.016469372 0.043383934 0.062110554 0.06211919
000280 9e 80 d7 3d 8d 35 51 3d d0 79 6c 3d 45 e8 33 3d
       0.10522579 0.05107646 0.057733357 0.04392268
000290 f0 10 a8 3c bb 50 b4 3c 02 e3 63 3d d2 57 55 3d
       0.020515889 0.022011152 0.055636413 0.052085705
0002a0 d7 8b 94 bc f3 4f 5b 3d 35 fa 9f 3d 9d 22 23 3d
       -0.018133087 0.053543042 0.07811395 0.03982793
0002b0 7a fa 4e 3d 1f 1a 22 bd 59 0b f1 3d 73 c9 b1 3c
       0.05053184 -0.039575692 0.117697425 0.021702504
0002c0 e5 39 0b bd 3c 55 fa bd e5 23 30 3c c3 0d 0c 3e
       -0.03399076 -0.122232884 0.010750745 0.13677125
0002d0 96 1f 38 bc 40 99 ec 3c ea 84 19 3e 5e c1 36 3c
       -0.011237999 0.028881669 0.14992109 0.011154501
0002e0 8b 9f a7 bd 9a ad b8 bb ad 59 8e 3d 67 27 ff bc
       -0.08184727 -0.0056359293 0.06950698 -0.031146718
0002f0 3a 51 07 bc 19 4b 5b 3d 47 11 32 bd e7 bb 80 3c
       -0.008259112 0.053538416 -0.04347351 0.015714599
000300 21 fd 7c 3d 0f 31 d4 3c 2d f5 b7 3b 11 b9 04 3e
       0.06176484 0.0259023 0.005613944 0.12961222
000310 da 17 c1 3b a8 e1 21 3d 19 0d 3b be 18 8d 15 be
       0.005892736 0.039521843 -0.18266715 -0.14604604
000320 6a 27 c1 3b 92 35 8c bd 8e 26 10 3d d8 c2 a4 bc
       0.005894591 -0.06846155 0.03519302 -0.02011244
000330 c4 3b 24 bb a0 52 e4 3b ae cf 7d 3d ee ef 19 3d
       -0.0025060037 0.0069678575 0.061965637 0.03758233
000340 f4 b3 7d 3d 8d 8b 9b 3d 9a 74 c5 3d 94 b3 c8 3d
       0.061939195 0.075949766 0.096413806 0.09799877
000350 99 7a 3f 3c 42 82 c7 3d ef c7 30 bc 57 c4 dc 3d
       0.011686944 0.097416416 -0.010789855 0.10779636
000360 16 3c 12 be b7 6f e0 3c d2 dc 86 bd c0 f9 dd bd
       -0.14280733 0.02739702 -0.06585087 -0.10838652
000370 b6 c0 7f bd d1 96 fb bc 78 f5 0c bd 96 c2 1a 3d
       -0.062439643 -0.030711563 -0.034413785 0.037783228
000380 dd 6a 03 3d 93 30 14 b9 3e 47 42 bc 04 c4 91 3c
       0.032084335 -0.00014132475 -0.011857806 0.017793663
000390 8e c2 45 bd f6 2f 9a 3d 9e 35 45 3d be 2e 38 bd
       -0.048281245 0.07528679 0.048146836 -0.04496645
0003a0 81 51 5e 3d 63 9a d9 3d 87 a9 03 3e d8 d0 8c 3d
       0.054276947 0.1062515 0.12857638 0.06875771
0003b0 72 fe 63 bd 12 9b f0 bc 3a 8f 02 bd b4 55 85 3c
       -0.05566258 -0.029370818 -0.031874873 0.016276218
0003c0 47 d1 81 bd 9f fb 39 bc 32 44 9d 3c 93 c6 3a 3d
       -0.063387446 -0.011351495 0.019197557 0.04559953
0003d0 3b 81 47 3b d0 91 a8 ba aa af 79 3d da 8e e0 3d
       0.0030442018 -0.0012860838 0.060958542 0.10964747
0003e0 17 5b dd 3c 04 67 9d 3d 30 4e 2f 3d 70 66 68 bd
       0.027020974 0.07685664 0.042799175 -0.056738317
0003f0 c1 0c de 3c d1 90 02 3d 3b 6c 25 3a 11 0a db 3c
       0.02710569 0.03187639 0.0006310378 0.026738198

bias f4 [256]
000000 3c 87 65 3c ed 09 2a bd a8 a6 eb 3c c1 fb 57 3c
       0.014009293 -0.041513372 0.028765991 0.013182581
000010 b1 f7 16 3e 10 9a 9e 3d 3c 3a 2b 3c 48 55 54 3d
       0.14742924 0.07744229 0.010450896 0.051839143
000020 b2 3f c4 3d cc ae 19 3c 4c bc 31 3d bc 83 2d 3d
       0.095824614 0.009380054 0.043392465 0.04236196
000030 23 a9 76 3b aa 9d 8a 3c fe 32 79 3d 38 86 c4 3c
       0.0037637434 0.016920883 0.060839646 0.023989782
000040 46 dd d1 bc 98 93 97 bd e6 48 fb bb 41 a6 fa 3d
       -0.025618207 -0.07401198 -0.0076686023 0.12238742
000050 e8 e0 28 bd e7 4d b8 b8 16 b1 36 3d b2 ec 11 3c
       -0.041230112 -8.788314e-05 0.044602476 0.00890653
000060 2b 29 e3 bb 69 65 39 bd e7 0f be 3c c9 44 b4 bc
       -0.006932398 -0.045262728 0.023200942 -0.022005456
000070 4f db c4 bc cd 4e 41 3c 62 0d 6c 3c 7f 29 4e 3d
       -0.024030356 0.011798573 0.014407488 0.050332543
000080 95 61 c1 3d dd 14 a8 3d 91 1a 38 3e 7f 81 27 3d
       0.094424404 0.08207104 0.17978884 0.04089498
000090 18 3f 79 bd ac 78 08 bd c3 8f d3 bb 51 80 1c 3d
       -0.060851187 -0.033318207 -0.0064563467 0.03820831
0000a0 9e ad 09 3d 2f 11 ef 3c 82 2a 99 bc ae 81 14 3d
       0.03361284 0.029182998 -0.018697027 0.036256485
0000b0 23 c0 82 bc d9 a6 9c 3c f2 cb 3d bc 6b 71 4d 3d
       -0.015960759 0.019122528 -0.011584269 0.050156992
0000c0 4b 64 44 3d d2 c4 3a bc 12 6a b9 3c 70 3d da bb
       0.04794721 -0.011399465 0.022633586 -0.006660156
0000d0 15 a7 34 3d 13 b4 06 3d 39 b1 03 bd 9c 48 ee bc
       0.044104654 0.032886576 -0.032151435 -0.029087357
0000e0 13 69 89 bc 74 56 37 3b 26 6e 69 3b 3b b3 27 3d
       -0.016773736 0.0027975114 0.0035618632 0.040942412
0000f0 bc 76 0e bd 8d 9f 98 3c 37 c5 fd 3c ff de 04 3e
       -0.034781203 0.018630767 0.030977828 0.12975691
000100 d8 77 f9 3d 20 12 24 bc 62 90 77 bd 2f 30 bc bb
       0.121810615 -0.010014087 -0.06044043 -0.0057430486
000110 56 5b e1 3c 07 20 91 bb fa 1b 63 3d 89 7a a0 bc
       0.027509373 -0.004428867 0.055446602 -0.01958968
000120 5f da a2 bc a6 00 a2 3d c8 51 85 3d 72 46 79 bd
       -0.019879518 0.0791028 0.06509739 -0.060858198
000130 35 68 4f 3d 0e 1a 35 3c 38 b5 51 3c 1b 46 78 bd
       0.05063649 0.011053575 0.012799554 -0.060613733
000140 f6 7a 4f bd 1b 86 46 3d 5f 7f 14 3c e3 e7 fc 3c
       -0.050654374 0.048467737 0.009063571 0.030872291
000150 c6 14 9b bc dc 1b 0c 3d 88 54 79 3d 6a 79 8b bd
       -0.018930804 0.034206256 0.06087163 -0.06810267
000160 6b cd 91 bb 46 ec 87 3b 32 e1 ad bd 06 6d 43 3d
       -0.0044495366 0.004148039 -0.08490218 0.047711395
000170 d8 f0 12 bd df 61 4f 3c 23 dd 63 3d 14 f1 9c bc
       -0.035874218 0.012657612 0.055630814 -0.019157924
000180 4d 42 51 bc 6d a5 6b 3b 2c f3 07 3d 87 f5 17 3d
       -0.012772155 0.0035956756 0.03319089 0.037099387
000190 9e 3b 19 bc d9 67 15 3d e7 89 03 bb e9 2f e2 3c
       -0.009352593 0.03647599 -0.002007121 0.027610736
0001a0 23 15 e5 3c 1a 78 e7 bc 49 8a 34 3d 7c c6 fd 3d
       0.02796418 -0.028255511 0.04407719 0.123913735
0001b0 8e cb f7 3c bb cf ed 3c 6b 69 91 bb 72 16 8a 3c
       0.03024843 0.029029718 -0.0044376156 0.016856406
0001c0 71 05 fe 3b d1 54 fa bb 9a 43 8c 3d 08 fc 23 bd
       0.0077521135 -0.0076395054 0.068488315 -0.040035278
0001d0 9b 83 19 3e d7 ce 87 3d d3 10 81 3c 92 85 dc 3d
       0.1499161 0.066312484 0.015755093 0.10767664
0001e0 93 a8 b3 bc 62 c3 33 3d ab de 3c 3c 5b b0 65 3d
       -0.021930968 0.043887503 0.011527698 0.05607639
0001f0 a9 14 82 bd d5 cf 93 3d 24 6b c4 bc 3d d5 18 bd
       -0.06351597 0.07217375 -0.02397687 -0.037312735
000200 ee ae 22 3d e0 d5 43 3d c8 22 0b 3e 90 20 0e b9
       0.039717607 0.04781139 0.13587487 -0.00013554306
000210 76 8c 9e 3d 10 1b 21 3d 72 be 77 bb 2a af 77 3d
       0.077416345 0.03933245 -0.0037802723 0.060469784
000220 32 86 1d 3d 58 62 4d 3d 09 9e 2d bc c9 e2 81 3d
       0.038458057 0.050142616 -0.010596761 0.06342084
000230 de 1d a1 3c e1 e0 36 3d 52 15 52 3d bd 0c 27 3d
       0.019667562 0.044648055 0.051289864 0.040783633
000240 9a fa 33 bd 58 75 7c 3d ac ca 9c bb d1 b6 43 3d
       -0.043940164 0.061635345 -0.0047849026 0.04778177
000250 df 41 4a bd 47 5c 8d 3c ff 11 50 bd 16 bf 33 3d
       -0.049379226 0.017255915 -0.050798412 0.043883406
000260 d6 fb 50 bd 2d 2f ad 3c d2 bc 7f 3c a8 2c 3c 3d
       -0.05102142 0.02114066 0.015608983 0.045941025
000270 6f 29 85 3c b9 26 15 bc ea 9b 97 bc a8 04 16 3e
       0.016255109 -0.0091034705 -0.018506963 0.14650214
000280 83 ac 7d bd 8d 1e 6d bd be e5 16 bd 7c 78 6a 3c
       -0.061932098 -0.057890464 -0.036840193 0.014310952
000290 3e 71 60 bd 0e a5 38 3d 7e cc 55 bd a8 0c 45 3d
       -0.054795496 0.045079283 -0.052196972 0.048107773
0002a0 bf 7d b6 3d e2 50 23 3e ad ff e1 3d f5 d0 eb 3c
       0.08910703 0.15948823 0.110350944 0.028786162
0002b0 a6 ed 28 bd a3 a5 0b 3e 35 ef 09 bd 66 a9 8c 3d
       -0.041242264 0.13637404 -0.03367539 0.06868248
0002c0 fa 98 ae 3c 76 ab 0e 3d 03 b4 81 bd e1 03 1c 3d
       0.02131318 0.034831487 -0.06333163 0.038089637
0002d0 52 8c 1c bd 61 62 9e 3c 94 25 18 3d 33 66 c2 3c
       -0.038219757 0.01933402 0.037145212 0.023730373
0002e0 d9 d6 01 bd 58 8d 64 3c 9e aa 47 bb 5f ae 8f bb
       -0.031699035 0.013949715 -0.0030466686 -0.0043848003
0002f0 77 da 6b bd 75 dd cb 3d 83 58 10 3d ef 6c 23 bc
       -0.05758139 0.09954349 0.03524066 -0.009974702
000300 fc e6 3a 3c 86 28 86 3d 8a 23 83 3d 93 80 31 3e
       0.01140761 0.06550698 0.06403263 0.17334203
000310 4a 56 14 3d 50 0a 8d bc 88 13 0b bd 36 5e 27 3e
       0.036215104 -0.017216831 -0.033954173 0.16344532
000320 08 49 42 bd 63 bd c5 3c 01 38 53 3d e4 ed 0a be
       -0.04743293 0.024138158 0.05156708 -0.1356731
000330 e6 3a 1b 3c b2 22 92 bd d0 d3 33 bd 70 94 df 3c
       0.009474492 -0.07135524 -0.043903172 0.02729246
000340 7a 68 3d 3b e3 91 b4 3b 7c 58 38 3d 8d 5a 85 bc
       0.0028901384 0.005510555 0.04500626 -0.01627853
000350 d9 96 83 3c fd 1f 8e 3d 45 c2 f6 bc 94 94 fc bb
       0.01606314 0.06939695 -0.030121932 -0.0077081416
000360 b1 6d 06 3d 2a cd c3 3d d1 45 d6 bc 65 49 39 3d
       0.032819454 0.09560616 -0.026156338 0.04523601
000370 25 dd 46 bd c2 81 b9 3c 84 bd c7 3c ee 13 a4 3c
       -0.048550744 0.022644881 0.02438236 0.020029034
000380 c3 a5 8c 3d e0 90 2b 3d 63 7b ee bc 3b 56 a8 bd
       0.06867554 0.04188621 -0.02911157 -0.08219572
000390 32 73 08 3d a9 de 89 3c dc 4a 5a bd a0 26 91 3d
       0.033312984 0.016829805 -0.053294048 0.07087445
0003a0 5f c7 de bc 4b 27 33 3c ca 8e 6c 3d 31 44 81 bb
       -0.027194677 0.010934661 0.05775336 -0.0039448966
0003b0 40 51 c8 3c 5b ff 1b bd e2 db ba 3c 6e a3 c3 bc
       0.024452806 -0.038085323 0.022809926 -0.02388164
0003c0 ea 89 b6 3d 4b 47 43 3d 3b 13 e4 3d 3d 26 cb bb
       0.08913024 0.047675412 0.111364804 -0.0061996267
0003d0 bd 52 e0 bb a9 62 74 bc 69 76 bb 3c e5 02 f6 bc
       -0.0068458007 -0.014916101 0.02288361 -0.030030677
0003e0 c5 d3 b8 bd 55 e8 d1 3c 35 c8 32 3d af 1f 34 3d
       -0.09024767 0.02562348 0.043647964 0.04397553
0003f0 14 b4 4a 3d 7c 2b a0 bd 89 68 58 bd 7e 15 f5 3d
       0.049488142 -0.07820794 -0.052834067 0.1196699

weight f4 [256]
000000 29 a4 90 3f be cd 8c 3f b7 2c 99 3f cb 07 91 3f
       1.1300098 1.1000288 1.1966771 1.1330503
000010 de dc 9f 3f 3a 4d a1 3f 74 36 9c 3f a5 2a 86 3f
       1.2489278 1.2601693 1.2204118 1.0481764
000020 99 f6 97 3f 35 99 91 3f 92 8e 97 3f 07 f2 87 3f
       1.1872131 1.137488 1.1840384 1.0620736
000030 52 1a 92 3f 77 4f 8d 3f aa 9d 88 3f 16 68 89 3f
       1.1414282 1.1039876 1.0673115 1.073489
000040 26 93 90 3f ba 88 8f 3f ea 23 7e 3f 02 af 97 3f
       1.1294906 1.1213601 0.9927355 1.1850283
000050 0d 95 87 3f f8 f4 8d 3f 01 9f 85 3f b2 97 9f 3f
       1.0592362 1.1090384 1.0439149 1.2468169
000060 be 9d 91 3f 9f f5 8c 3f c1 ab 96 3f c7 4f 8c 3f
       1.1376264 1.1012458 1.1771165 1.0961846
000070 54 b2 87 3f 65 aa 87 3f 01 c1 9a 3f 41 7e 96 3f
       1.0601296 1.0598875 1.209015 1.175728
000080 65 89 95 3f 31 1b 88 3f 13 1a 8b 3f 77 16 98 3f
       1.1682554 1.0633298 1.0867332 1.1881856
000090 57 d6 99 3f 9d 4c 92 3f ee 03 96 3f f4 0e 8d 3f
       1.2018536 1.142963 1.1719949 1.1020188
0000a0 e6 cd 94 3f 1e 53 86 3f e0 0a 92 3f 53 e6 81 3f
       1.1625335 1.0494115 1.1409569 1.0148414
0000b0 c2 1a 98 3f 9a 7b 88 3f b5 76 85 3f 39 1e 8f 3f
       1.1883166 1.066272 1.0426852 1.1181098
0000c0 1c b6 9a 3f 51 61 8d 3f a3 9a 99 3f b0 fe 8c 3f
       1.2086825 1.1045324 1.2000316 1.1015224
0000d0 98 4e 90 3f b7 f9 8a 3f 3c 55 8f 3f 65 ef 9f 3f
       1.1273985 1.0857457 1.1197886 1.2494932
0000e0 1e ce 94 3f c9 3d 89 3f 51 45 90 3f f8 cb 92 3f
       1.1625402 1.072198 1.1271154 1.1468496
0000f0 b6 63 82 3f ce 8f 8b 3f de 78 8e 3f 61 9a 92 3f
       1.0186679 1.0903261 1.1130636 1.1453363
000100 a2 a4 87 3f 25 51 7e 3f f1 07 8f 3f a5 b8 8c 3f
       1.0597117 0.99342567 1.1174299 1.0993849
000110 cb 18 9d 3f 7d 81 8b 3f 05 f2 8c 3f d0 48 99 3f
       1.2273191 1.0898892 1.1011358 1.1975346
000120 c7 20 79 3f c4 fd 93 3f c0 e9 8d 3f 1b 92 79 3f
       0.9731564 1.1561818 1.108696 0.97488564
000130 1d bf 97 3f 82 42 8f 3f 3c 55 83 3f f4 50 94 3f
       1.1855198 1.1192172 1.0260386 1.1587205
000140 16 b2 90 3f e8 b4 93 3f 51 a0 91 3f ce 9d 89 3f
       1.1304348 1.1539583 1.137705 1.0751283
000150 df 7c 8e 3f 96 c8 7e 3f a6 fd 85 3f d1 3f 74 3f
       1.1131858 0.9952482 1.0468032 0.95409876
000160 87 d6 84 3f 88 f5 90 3f 78 f7 76 3f bf c7 8f 3f
       1.0377969 1.132493 0.9647136 1.1232833
000170 70 8e 88 3f e6 4e 8f 3f a3 59 99 3f fb 44 9b 3f
       1.0668468 1.1195953 1.198048 1.2130426
000180 a8 11 8c 3f 89 3b 96 3f 7e f9 80 3f 91 2d 96 3f
       1.0942888 1.1736919 1.0076139 1.1732656
000190 12 f7 9c 3f 0d 91 88 3f 0d fb 85 3f 53 99 85 3f
       1.22629 1.0669266 1.046724 1.0437416
0001a0 ec f6 9d 3f 66 70 8f 3f 55 a5 8a 3f d8 df 8e 3f
       1.234098 1.1206176 1.0831705 1.1162062
0001b0 7c 11 83 3f 0f 1e 8d 3f 50 f0 8d 3f 9f ba 8f 3f
       1.0239711 1.1024798 1.1088963 1.1228827
0001c0 3e 97 92 3f be 27 8e 3f 7b a3 95 3f 80 e0 82 3f
       1.1452405 1.1105878 1.1690515 1.0224762
0001d0 8a b8 8c 3f 2d f5 88 3f b5 e1 75 3f a4 2e 85 3f
       1.0993817 1.0699822 0.96047527 1.0404859
0001e0 73 ba 83 3f fc 23 89 3f 33 0b 8f 3f e1 a5 81 3f
       1.0291275 1.0714107 1.1175293 1.0128747
0001f0 db fe 8b 3f 57 46 9c 3f 56 2a 8e 3f 15 9c 93 3f
       1.0937151 1.2208966 1.110667 1.1532007
000200 33 9c 88 3f 7a 73 95 3f 1e 58 86 3f 6d 02 92 3f
       1.0672668 1.1675866 1.0495641 1.140699
000210 b8 36 87 3f 3c 3a 90 3f ec ad 8c 3f 61 b1 93 3f
       1.0563574 1.1267772 1.0990577 1.1538507
000220 b2 10 9a 3f 2c 99 96 3f 97 9d 8e 3f c7 56 8c 3f
       1.2036345 1.1765494 1.1141843 1.0963982
000230 82 7b 99 3f e0 96 92 3f 84 10 84 3f d9 42 8f 3f
       1.1990817 1.1452293 1.031754 1.1192275
000240 d7 13 7a 3f 29 de 8a 3f b8 ed 94 3f e8 61 91 3f
       0.97686523 1.0849048 1.1635046 1.1358004
000250 e5 18 93 3f 90 35 92 3f 69 42 8c 3f 94 15 93 3f
       1.1491972 1.1422596 1.0957767 1.149096
000260 e9 97 80 3f 92 50 7f 3f 5b a2 93 3f a9 23 89 3f
       1.0046359 0.99732316 1.1533922 1.0714008
000270 84 10 97 3f 9e 55 78 3f ac c7 94 3f 9b 0b b5 3f
       1.1801915 0.9700564 1.1623435 1.4144167
000280 cb 17 90 3f 52 dc 7f 3f 83 cd 8d 3f 87 ff 95 3f
       1.1257261 0.9994556 1.1078342 1.1718606
000290 6d 93 89 3f ad ba 95 3f 65 89 90 3f 95 13 7e 3f
       1.0748116 1.1697594 1.129193 0.9924863
0002a0 4c 28 94 3f 41 39 93 3f 55 a9 97 3f d6 2e a0 3f
       1.1574798 1.1501848 1.1848551 1.2514293
0002b0 61 2b 8c 3f da c1 89 3f dd 53 91 3f 05 f1 98 3f
       1.0950738 1.0762284 1.1353718 1.1948553
0002c0 3e a4 85 3f e1 91 96 3f 2f 5e 8f 3f 82 89 9e 3f
       1.0440748 1.1763269 1.1200618 1.2385714
0002d0 83 30 99 3f 90 a5 89 3f d2 34 8d 3f 3d f1 81 3f
       1.196793 1.0753651 1.1031744 1.0151745
0002e0 b8 c9 8d 3f 44 d9 9c 3f 1c 05 90 3f fa 37 88 3f
       1.1077185 1.2253804 1.1251559 1.0642083
0002f0 66 e3 83 3f 50 ad 8e 3f f8 a0 a5 3f c3 22 9d 3f
       1.0303771 1.1146641 1.2939749 1.2276233
000300 69 36 8c 3f 50 d7 93 3f 9f ae 90 3f c5 82 b1 3f
       1.0954105 1.1550083 1.130329 1.3868033
000310 8c db 94 3f 48 d3 7c 3f ec 4c 9d 3f 72 5c 98 3f
       1.16295 0.9875989 1.22891 1.1903212
000320 8c 88 82 3f 43 29 85 3f 13 37 86 3f b9 84 73 3f
       1.0197921 1.0403217 1.0485557 0.95124394
000330 a5 66 8c 3f 66 11 74 3f 6e 64 7e 3f fb bb 95 3f
       1.0968825 0.9533905 0.99371994 1.1697992
000340 1c a0 80 3f 35 a7 95 3f 65 7b 8b 3f d5 a2 91 3f
       1.0048862 1.1691653 1.0897032 1.1377817
000350 5d 03 8f 3f 92 46 9d 3f 5e 7f 8f 3f ae 45 8d 3f
       1.1172901 1.2287161 1.1210744 1.103689
000360 eb 3b 8b 3f 95 90 86 3f 10 43 92 3f 43 8a 80 3f
       1.087766 1.0512873 1.1426716 1.0042194
000370 51 cc 92 3f 61 71 86 3f b9 fd 89 3f 5f 39 87 3f
       1.1468602 1.050335 1.0780555 1.0564383
000380 fc 19 95 3f bd 83 9e 3f 46 e2 80 3f c9 fc 73 3f
       1.1648555 1.2383953 1.0069053 0.95307595
000390 85 7a 8d 3f 81 ae 98 3f 94 0e 88 3f 5c 6e 9c 3f
       1.1053015 1.1928254 1.0629449 1.2221179
0003a0 c8 99 92 3f cf 45 87 3f 9f b0 8f 3f 23 7b 92 3f
       1.145318 1.0568179 1.1225775 1.1443828
0003b0 38 29 8c 3f 20 41 8d 3f 8f 8c 91 3f 94 a4 7c 3f
       1.0950079 1.10355 1.137102 0.98688626
0003c0 c3 e2 8a 3f 43 97 88 3f 87 b6 95 3f 2e 0b 91 3f
       1.0850452 1.0671161 1.1696328 1.1331537
0003d0 fb e5 98 3f 47 d5 92 3f 53 48 93 3f ff c1 92 3f
       1.1945184 1.1471337 1.1506447 1.1465453
0003e0 ba f5 90 3f ca 7d 8d 3f 60 54 7f 3f 6c 3d 8c 3f
       1.132499 1.1054013 0.9973812 1.0956244
0003f0 62 8f 8f 3f b1 ff 91 3f 2a 51 81 3f b9 36 8f 3f
       1.1215632 1.1406156 1.0102894 1.1188575

bias f4 [256]
000000 a6 fe 87 3d 13 e6 b2 3d 06 ba 0b 3d 23 31 e1 3d
       0.06640367 0.087352894 0.034112953 0.109957
000010 f7 bc 8e bc e0 51 42 3d 49 c1 a2 bc 92 01 ad 3d
       -0.01742409 0.047441363 -0.019867556 0.08447565
000020 47 e9 fa bc d8 61 c0 3c 91 be 93 3d 60 8a 13 3e
       -0.030628813 0.023484156 0.07214082 0.14408255
000030 aa c0 ae 3d da 2a df 3d 41 e7 50 3c 0a 7e e6 3d
       0.085328415 0.10896845 0.012750448 0.11254509
000040 f5 27 10 3e 27 ce 1f 3e f4 78 d6 bc fb 50 2c 3c
       0.14077742 0.15605985 -0.026180722 0.010517354
000050 81 60 9c 3d ab b1 95 3d 2b 65 dd 3d 52 0a 1f 3d
       0.07635594 0.07309278 0.10810312 0.0388282
000060 fc ef a2 3d 4f 9a 28 3e fa 5e 29 bc 22 42 2f 3e
       0.0795593 0.16465114 -0.010337586 0.17115071
000070 a0 35 78 3d 0d 5c 1c 3d f3 da ac 3d 00 43 1f bc
       0.060598016 0.038173724 0.08440199 -0.009720564
000080 27 05 8e bd 04 11 63 3d 6e 9c ea 3a e4 de 76 3d
       -0.069345765 0.05543615 0.0017899403 0.06027116
000090 d6 b3 a1 3d a8 d7 eb 3d 6f ba 12 3e 1d bf 1b 3e
       0.07895629 0.115157425 0.14328931 0.15209623
0000a0 d0 88 86 3c c4 93 39 3d 40 73 e5 3d d1 84 de bb
       0.01642266 0.045306936 0.11203623 -0.0067907353
0000b0 6c 51 9a 3d af aa 2d bc a9 89 13 3c 97 cd 90 3d
       0.07535061 -0.010599776 0.009004989 0.07070463
0000c0 bf a4 ad bc 6b b8 c2 3d 56 ba da b9 68 89 92 3d
       -0.021196721 0.09507831 -0.0004171903 0.071551144
0000d0 35 93 cb 3d 92 9d 08 3e 1a 59 d6 3d c0 03 9f 3d
       0.09940187 0.13341358 0.104662135 0.07764387
0000e0 12 75 ab 3c d3 6f 12 3e 66 81 ac 3d cc 07 fc 3d
       0.020929847 0.1430047 0.08423118 0.12306175
0000f0 de e1 48 3d 5a e3 3e 3e 0a 70 ec 3c 45 76 62 bd
       0.04904353 0.18641415 0.028862018 -0.055288572
000100 b5 5a d2 3d 7a 71 7a 3d ff a9 9c 3d fc 79 ab 3d
       0.10271207 0.061143376 0.07649612 0.08372876
000110 71 6d 02 3d e2 93 ba 3d 92 70 40 3d ec de 2c 3e
       0.031842653 0.09110238 0.046982355 0.16881913
000120 a7 2b b0 3d 2f 82 18 bd 69 cd 85 3d e3 3c e1 3d
       0.08602076 -0.037233528 0.065333195 0.10997941
000130 64 24 cf 3d a1 23 87 3d d7 20 c4 3d fc 47 17 3d
       0.10114363 0.065985925 0.09576576 0.036933884
000140 b6 42 ed 3d 05 45 af bd b8 8b 1e 3e 51 70 e6 3d
       0.1158499 -0.08558086 0.15482986 0.112518914
000150 cb 02 fc 3d bf 84 a7 bc d0 bf ae 3d c9 eb 9f 3d
       0.1230522 -0.02044904 0.08532679 0.07808644
000160 bb 57 4a 3d 67 f5 44 3d 51 8b 47 3c 6d 6b 1f 3e
       0.049400073 0.048085596 0.012179212 0.15568323
000170 fd 83 4a 3d 74 5a 04 3e 0f 9a 12 bc 30 0d 2c 3d
       0.04944228 0.1292513 -0.008947863 0.042004764
000180 f9 57 0c 3e 11 ec 51 3d c5 f3 ac 3d 80 db 0d 3e
       0.13705434 0.05125052 0.08444933 0.13853264
000190 98 fc e6 3d a1 20 bc 3d b0 08 76 3c 64 6c d9 3d
       0.11278647 0.09185911 0.01501672 0.10616377
0001a0 f8 38 d6 3c bf 16 70 3d 8f ac 99 3d fc 46 a6 3d
       0.026150212 0.058615442 0.07503616 0.08119008
0001b0 48 8c 89 3d de b7 c1 3d 4a 83 95 3d fc d2 41 3c
       0.0671621 0.09458898 0.07300432 0.011830088
0001c0 7e 2d fc 3d f7 65 6d 3d cc d8 5f 3d ea 3e b2 3d
       0.123133644 0.05795857 0.054650113 0.08703406
0001d0 bb 9a 02 be e9 f3 84 3d 6c f3 48 3d 39 f4 b1 bd
       -0.12754337 0.06491835 0.04906027 -0.0868916
0001e0 fe 8f f4 3b d1 f5 f5 3c fd dd a9 3d fc c0 f7 3c
       0.0074634543 0.030024441 0.08294294 0.03024339
0001f0 a9 87 16 3e f3 86 6f bd fb 3c d1 3d 24 1b b7 3d
       0.14700188 -0.058478307 0.10216709 0.089407235
000200 68 c4 52 3d 8a 61 d0 3d 26 cb 52 bc d4 35 b4 3d
       0.05145684 0.10174854 -0.012865817 0.087993294
000210 d5 6b 21 3d c1 69 d3 3d 0d 49 b2 3d 0b 37 4a 3c
       0.039409477 0.10322905 0.087053396 0.012342225
000220 f8 02 4b 3d 82 f8 8c 3d 0e ac e9 3d a7 57 51 3e
       0.049563378 0.068833366 0.1140977 0.20443593
000230 6e 68 b3 3d 2c e7 bd 3d da 6b 20 3d 74 56 28 3e
       0.08760153 0.09272608 0.039165355 0.16439229
000240 b1 21 62 3d 4c 03 51 3d a5 b6 ab 3d d1 e5 fc 3d
       0.055207912 0.051028535 0.08384446 0.123485215
000250 b8 de 4a 3e d7 1d 93 3c 90 ce 0e 3e 6e 56 b6 3d
       0.19811523 0.017958565 0.13945985 0.08903204
000260 81 36 28 3d 81 aa 46 3d ba a6 48 3d cb 27 04 3e
       0.041067604 0.04850245 0.048987128 0.12905805
000270 e3 4a fd 3d 37 11 97 3d 0c 46 df 3d 51 5b b6 bd
       0.12367799 0.0737633 0.10902032 -0.08904136
000280 f0 a8 ba 3d ac 57 18 3e 9d 65 de 3d 31 d1 72 3d
       0.091142535 0.14877194 0.10859225 0.05928153
000290 a7 66 14 3c 8c 68 ae bc 5a fe ff 3d 5c a4 36 3d
       0.009057677 -0.021290086 0.124996856 0.04459034
0002a0 cb 0c ba 3d 00 45 6f bd 2d 71 59 bd ff f6 3a bc
       0.09084471 -0.058415413 -0.05308645 -0.0114114275
0002b0 a8 bc ea 3d 68 c5 aa 3d 8d 83 ee 3d 10 15 22 bc
       0.114617646 0.083384335 0.11646185 -0.009892717
0002c0 f5 ec 00 3e 66 9f 1b 3d 60 a4 82 3d 83 f4 b2 bd
       0.12590392 0.03799381 0.06379008 -0.08738043
0002d0 9a 21 00 3e be ed ef 3d b1 e2 98 3d f2 68 c7 3d
       0.12512818 0.117152676 0.07465113 0.097368136
0002e0 5e 5c 8d 3d c4 b7 0a bc c3 da ee 3d ea 6e 9f 3d
       0.06902383 -0.008466665 0.11662819 0.07784827
0002f0 e2 69 ae ba 54 33 78 ba 75 9e 01 bd af 34 6a 3d
       -0.0013306702 -0.00094680977 -0.031645257 0.05717915
000300 6e ef ed 3d c0 6a 6d bb f1 61 4e 3e 8c 9f f2 bd
       0.11617933 -0.0036226958 0.20154549 -0.118468374
000310 d5 23 b2 3b b3 2b 78 3c 85 bb 54 3d 9b 54 ba bd
       0.0054364004 0.015147137 0.051936645 -0.090981685
000320 00 6d 1b 3d d5 1f 9d 3d 37 09 92 3d db a5 55 3d
       0.037945747 0.07672087 0.07130664 0.052160125
000330 bb 01 e7 3d 68 03 30 3b f4 48 ab 3d 04 b4 0f 3e
       0.11279627 0.00268575 0.08363524 0.14033514
000340 b7 9c 5d 3d 60 d1 da 3d 78 eb a6 3c a8 1a 28 3e
       0.054104533 0.10684466 0.020375952 0.16416419
000350 1a 09 a9 3d 02 9a ae 3d c2 1c ec 3d 7c bb 39 3d
       0.08253689 0.085254684 0.115289226 0.045344815
000360 c6 b9 f9 3c 4e ce 25 3d f1 d8 26 3d 4b 9c b4 3b
       0.030484091 0.04047995 0.040734235 0.0055117956
000370 9b 4b 9b 3c ad 8a 9d bb ec 78 1b 3d 75 59 c6 3c
       0.01895695 -0.004807791 0.037957117 0.024212578
000380 75 86 d6 3d 55 ab 68 3d 35 bb 7f 3d ae f1 0b 3d
       0.104748644 0.05680402 0.062434394 0.03416603
000390 19 71 00 3e 9c ed b6 bb 4c b9 0b 3e 6d 6a a7 3c
       0.12543143 -0.0055825245 0.13644904 0.02043649
0003a0 76 00 98 3d 30 2e 8b 3d 32 5c a7 3b c7 6c 0d 3e
       0.07421963 0.06795919 0.005107426 0.13811027
0003b0 f1 fc 33 3e 7c 97 f0 3d 88 76 8c 3d 48 78 f6 3c
       0.17576958 0.11747643 0.068585455 0.030086651
0003c0 4a bc d3 3c e1 d8 21 3b e9 92 08 3e 5d a0 27 3d
       0.02584662 0.002469592 0.13337292 0.04092442
0003d0 59 75 0b 3d 81 78 3a 3e 22 e3 b3 3d aa bd bd 3d
       0.03404746 0.18210031 0.087835565 0.09264691
0003e0 11 87 ee 3d c1 f5 d5 3d d5 1b 1c 3d 83 65 1e 3c
       0.116468556 0.104472645 0.03811248 0.009667757
0003f0 88 51 30 3c 80 f4 dd 3d 33 93 d1 3d 10 cf 1b bb
       0.010761626 0.1083765 0.10233154 -0.0023774542
