Best_models/UCI_HAR_CNN_20210125_130254/CNN_UCI_HAR_Rep_3_Seed_131.pt (torch_old, 226695 bytes, 12 tensors)

weight f4 [64, 9, 3]
0	0xbdc8c41c	-0.0980303
1	0xbe8e6ffc	-0.27819812
2	0xbd952a7d	-0.072834946
3	0x3ecb750d	0.3973774
4	0xbe68fa66	-0.2275177
5	0xbf1f1f33	-0.6215698
6	0xbee3a987	-0.44465277
7	0xbe391439	-0.1807412
8	0x3e2e92fd	0.17048259
9	0xbc8324e1	-0.016008796
10	0xbc595f8e	-0.013267411
11	0xbe51dc6b	-0.20494239
12	0xbe183649	-0.14864458
13	0xbe98bb45	-0.29830375
14	0xbed36a7a	-0.41292173
15	0xbe11b4d8	-0.14229143
16	0xbe9f5100	-0.31116486
17	0xbecd03b0	-0.40041876
18	0x3dced198	0.100985706
19	0x3e1ee43c	0.15516752
20	0x3daf089f	0.08546566
21	0xbbf36a64	-0.0074284542
22	0x3d935a7d	0.07194994
23	0x3d1f21f1	0.03885073
24	0x3ea8481c	0.32867515
25	0x3e9b5954	0.3034159
26	0x3e67940a	0.22615066
27	0xbecdf7f0	-0.40228224
28	0x3d4569ff	0.04819679
29	0x3e7b88eb	0.24563949
30	0xbea0f795	-0.3143889
31	0xbdc90a05	-0.09816364
32	0xbe851eab	-0.2599996
33	0xbe9aada0	-0.3021059
34	0xbe90c64e	-0.28276294
35	0xbe9cc2d7	-0.306174
36	0x3d820011	0.06347669
37	0x3e447412	0.19184902
38	0x3e3a6118	0.18201101
39	0x3f46838f	0.7754449
40	0x3edcb16e	0.43104118
41	0x3e3537f4	0.17697126
42	0x3e3fc0e8	0.18725932
43	0xbd8cb875	-0.0687112
44	0xbd8a76c1	-0.06760932
45	0x3e282973	0.16422062
46	0x3dc36ccc	0.09542236
47	0x3e7d8bb1	0.2476032
48	0x3ed744fc	0.42044818
49	0x3e8b326a	0.271869
50	0x3d8e820c	0.06958398
51	0x3d51d8c5	0.05123212
52	0x3c3813fb	0.011235232
53	0x3d8f8bfc	0.07009122
54	0x3e4df00c	0.20111102
55	0x3ded2c2f	0.11580693
56	0xbed5c9a6	-0.41755408
57	0x3e7587d0	0.2397759
58	0x3d17de80	0.037077427
59	0xbd740475	-0.059574563
60	0x3df9072b	0.1215957
61	0x3dfc9fb5	0.12335149
62	0xbe2f7a95	-0.17136605
63	0xbda0503a	-0.07827802
64	0x3eb9fc68	0.36325383
65	0x3e9abffa	0.30224591
66	0x3bc96b4e	0.006146825
67	0x3e09c92a	0.13455644
68	0x3eac383b	0.3363665
69	0xbdd15561	-0.10221363
70	0xbdc4c8f0	-0.09608638
71	0xbd94f6c6	-0.07273631
72	0x3e5ccfaa	0.21563593
73	0x3e3a4e16	0.1819385
74	0x3e84b0ee	0.25916237
75	0x3ea1c5ed	0.31596318
76	0x3e10a1cc	0.1412422
77	0x3ec4e6c5	0.38457313
78	0xbd7ab6cb	-0.06120948
79	0x3c14f823	0.0090923635
80	0x3d32d70b	0.043662112
81	0x3e7eae96	0.24871287
82	0xbdd7e85a	-0.105423644
83	0xbea1653f	-0.31522557
84	0xbe48c5ac	-0.19606656
85	0xbe625cfb	-0.22105782
86	0xbe610b4b	-0.21976964
87	0xbda739ee	-0.08165346
88	0x3d7feb3f	0.062480208
89	0xbdb6a124	-0.08917454
90	0xbe731837	-0.23739706
91	0xbec007d2	-0.37505966
92	0xbf06507c	-0.5246656
93	0xbe833402	-0.25625616
94	0xbe66d9f9	-0.22544087
95	0xbeb34687	-0.35014746
96	0x3daf3df8	0.085567415
97	0x3e0f998c	0.14023417
98	0x3d6c747e	0.057728283
99	0x3ea2dab6	0.31807488
100	0x3dd42662	0.103588834
101	0x3e18b5ef	0.14913152
102	0x3ef13316	0.47109288
103	0x3ee5881d	0.4483041
104	0x3f05a9c9	0.52212197
105	0xbd9365aa	-0.07197125
106	0x3e22541c	0.15852398
107	0xbe048ca0	-0.12944269
108	0x3e263ca8	0.16234076
109	0x3cc7bf40	0.024383187
110	0x3de02335	0.10944215
111	0x3da19d5f	0.07891344
112	0x3d1c80c6	0.038208745
113	0x3e8b290a	0.27179748
114	0xbd84889f	-0.06471371
115	0xbbe2154c	-0.0068995114
116	0xbd89140b	-0.06693276
117	0x3f01f02b	0.5075709
118	0x3f503a06	0.81338537
119	0x3f49f073	0.7888252
120	0x3e470685	0.19436081
121	0xbd2c7883	-0.042107116
122	0x3cc64b8d	0.024205947
123	0xbe0a46a3	-0.13503508
124	0xbe9091d7	-0.28236267
125	0xbe2a5505	-0.16633995
126	0x3ba4002f	0.0050049047
127	0x3caf2db5	0.0213841
128	0x3e1f0861	0.1553054
129	0xbd4667e5	-0.048438925
130	0x3e076781	0.13223077
131	0xbd5b0eb3	-0.053480815
132	0xbdbb0c5a	-0.09133215
133	0xbd14c123	-0.036317002
134	0x3e0322ab	0.12806194
135	0xbe5ec0e9	-0.21753277
136	0xbde48d33	-0.11159744
137	0xbe366311	-0.17811228
138	0xbd9e2e4f	-0.077236764
139	0xbe95592f	-0.29169604
140	0xbe08f861	-0.13375999
141	0x3dfdd5b5	0.12394277
142	0x3e15b965	0.14621504
143	0xbdb2126f	-0.08694922
144	0xbe5b16e8	-0.21395457
145	0xbdcba92f	-0.099443786
146	0x3df7c569	0.120982
147	0x3cbe2d82	0.02321506
148	0x3e366094	0.17810279
149	0x3ea9445f	0.33059976
150	0xbe9c3d2e	-0.30515426
151	0xbcec3c40	-0.028837323
152	0xbe31d1c7	-0.1736518
153	0xbe004a32	-0.12528303
154	0xbe4f27b9	-0.20229997
155	0xbe5f8b20	-0.21830416
156	0x3f0ae8e9	0.5426164
157	0x3ebf2166	0.37330168
158	0x3ef4a4fb	0.4778212
159	0xbdf4c3e9	-0.119514294
160	0xbe76bae7	-0.24094735
161	0xbdc93cb9	-0.09826035
162	0x3eca689d	0.3953294
163	0x3e9a3985	0.3012201
164	0xbe9ba0f3	-0.30396232
165	0x3e47947e	0.19490239
166	0x3e9b9675	0.30388227
167	0x3e5c4523	0.21510749
168	0xbe90295a	-0.2815655
169	0xbdd63812	-0.10459913
170	0x3e3e6486	0.18593034
171	0x3d809402	0.0627823
172	0x3ecd31d7	0.40077087
173	0x3f030938	0.5118594
174	0xbe96b2b2	-0.2943321
175	0xbebd6de2	-0.36997896
176	0xbed633b5	-0.41836324
177	0x3f166fed	0.58764535
178	0x3f0b6627	0.5445275
179	0x3f0c62d8	0.54838324
180	0x3e3b97e0	0.18319654
181	0x3e69975f	0.2281165
182	0xbdaa6665	-0.083203115
183	0x3e1ac373	0.1511362
184	0x3dae0d33	0.08498611
185	0x3e9054c2	0.28189665
186	0xbd404cd1	-0.046948258
187	0xbe88e7ef	-0.2673945
188	0x3d874ef3	0.06606855
189	0xbebe0b8e	-0.3711819
190	0x3db021cb	0.086001955
191	0x3e2bc370	0.16773772
192	0x3e2d276e	0.16909572
193	0x3e25d959	0.16196193
194	0x3ccd85f2	0.025088284
195	0x3e6c0362	0.23048165
196	0x3de223b0	0.11041963
197	0x3dea40a7	0.11438113
198	0x3e6ea1de	0.23303935
199	0x3c63419c	0.013870623
200	0x3d52a620	0.05142796
201	0x3e90fd1b	0.28318104
202	0x3e7d5787	0.2474042
203	0x3eca5716	0.39519566
204	0xbe4fa839	-0.20279016
205	0xbd52147b	-0.051289063
206	0x3e5f664e	0.2181637
207	0xbed05219	-0.40687636
208	0xbecb673a	-0.39727193
209	0xbe7246c7	-0.23659812
210	0xbe374422	-0.17897084
211	0xbdf3a7c3	-0.118972324
212	0xbe3ee6a3	-0.18642668
213	0x3e466fc2	0.1937857
214	0x3e51ead0	0.2049973
215	0x3e917da0	0.28416157
216	0xbe331ed8	-0.17492235
217	0xbeb7ed38	-0.3592317
218	0xbe0cb835	-0.13742144
219	0xbd020f40	-0.031752825
220	0xbdde57a8	-0.10856563
221	0xbea5b52d	-0.3236479
222	0x3ceabb9f	0.028653918
223	0xbe720225	-0.2363363
224	0xbe8dedf4	-0.27720606
225	0x3d581c7f	0.05276155
226	0x3d1ae416	0.037815176
227	0xbd818751	-0.06324638
228	0xbe35afc1	-0.17742826
229	0x3f1add1f	0.60493654
230	0x3f381b8e	0.71917045
231	0x3e4ba0fc	0.1988563
232	0xbe3afe0f	-0.18260978
233	0xbebf5ae8	-0.37374043
234	0x3cec4990	0.028843671
235	0x3df31d4d	0.11870823
236	0x3d7c544b	0.061603826
237	0x3c144e0a	0.009051809
238	0x3c994cdf	0.018713413
239	0xbdba07b5	-0.09083501
240	0x3e1f01a7	0.15527974
241	0x3defd8f7	0.11711305
242	0xbcdf86bc	-0.027285926
243	0x3ce7eb58	0.028310463
244	0x3cb2a947	0.021809233
245	0x3dcec249	0.10095651
246	0xbe45c7ee	-0.19314548
247	0x3bdd2089	0.0067482633
248	0xbd40c02c	-0.04705827
249	0x3e6e774a	0.23287693
250	0x3de67877	0.112534456
251	0x3d5d5a49	0.05404118
252	0xbebda290	-0.37038088
253	0xbe65eca5	-0.22453554
254	0xbecd18bf	-0.40057942
255	0x3e43c883	0.19119458

bias f4 [64]
0	0xbebf8e5f	-0.37413308
1	0xbe90883d	-0.28228942
2	0xbde4c421	-0.11170221
3	0xbde14ee9	-0.11001379
4	0xbe0344ae	-0.12819168
5	0x3ea8deb6	0.32982415
6	0xbe27f226	-0.16400966
7	0xbeefc7f7	-0.4683225
8	0x3d36d4fc	0.04463671
9	0xbe044351	-0.12916304
10	0xbd24091a	-0.040047742
11	0x3dfc019c	0.123049945
12	0xbebe09ae	-0.3711676
13	0xbd8b8053	-0.06811585
14	0x3bee25fd	0.007267712
15	0x3d9967e9	0.074905224
16	0x3cafee1f	0.02147585
17	0xbe879ba0	-0.2648592
18	0xbf072c98	-0.5280242
19	0xbefba286	-0.49147433
20	0xbe7a9b19	-0.24473228
21	0xbe4ae276	-0.1981295
22	0xbd6ca9cb	-0.057779115
23	0x3e54f095	0.207949
24	0xbd80d8d9	-0.062913604
25	0xbd9f8f70	-0.077910304
26	0xbe2420ee	-0.16028187
27	0xbe339c76	-0.17540154
28	0xbe30fa0c	-0.17282885
29	0xbd9f2f79	-0.077727266
30	0x39e520e5	0.00043702792
31	0xbd33060e	-0.043706946
32	0xbe5c801d	-0.21533246
33	0x3c5c4fd0	0.013446763
34	0xbe87b9ca	-0.26508933
35	0x3d4f63d2	0.050632305
36	0xbd8c97c4	-0.068648845
37	0xbdc0448d	-0.09388075
38	0xbd52304c	-0.05131559
39	0xbc88751d	-0.016657406
40	0xbdc9646f	-0.09833609
41	0xbe7011a1	-0.23444225
42	0xbe9aff57	-0.30272934
43	0xbe239774	-0.15975744
44	0xbe0f5c50	-0.14000058
45	0xbdbad7d6	-0.09123199
46	0xbeea682c	-0.45782602
47	0xbe7839eb	-0.24240844
48	0xbce8ecc6	-0.028433215
49	0xbf29bfa8	-0.6630807
50	0xbe9a4e94	-0.30138075
51	0xbdc08eba	-0.09402223
52	0x3d9472f6	0.072484896
53	0x3c2e0415	0.01062109
54	0xbeb687b0	-0.35650396
55	0xbe32d673	-0.17464618
56	0xbdb0bdc9	-0.08629949
57	0xbe965f45	-0.2936956
58	0xbc966721	-0.018359723
59	0xbf1b5b16	-0.6068586
60	0xbe81eb6f	-0.25374934
61	0xbe97ee12	-0.2967382
62	0xbd72f956	-0.059319817
63	0xbe98dd8d	-0.2985653

weight f4 [64, 64, 3]
0	0x3ea06cbf	0.31332967
1	0x3def03ff	0.11670684
2	0x3de743ee	0.112922534
3	0x3e48c3b3	0.19605903
4	0xbdca32e7	-0.0987299
5	0x3c6bab80	0.0143841505
6	0xbe58b32a	-0.21162096
7	0xbe119aef	-0.14219259
8	0xbdd9eb99	-0.1064064
9	0xbd86a9e5	-0.065753736
10	0xbb031141	-0.0019999298
11	0x3da17733	0.078840636
12	0xbd2c2435	-0.042026717
13	0xbc883997	-0.016629023
14	0xbde265e7	-0.110545926
15	0xbdc3c4d0	-0.095590234
16	0x3d4c06c2	0.049811132
17	0xbcd59f00	-0.026076794
18	0x3d895c47	0.06707054
19	0x3d867510	0.06565297
20	0x3d900c6b	0.070336185
21	0xbe45c35d	-0.19312806
22	0xbd85722c	-0.06515917
23	0x3df13452	0.117775574
24	0x3d7d87db	0.06189714
25	0x3cb12790	0.02162531
26	0xbd4febc2	-0.050761946
27	0x3da0f8e9	0.07859976
28	0xbd215ea1	-0.039396886
29	0xbbed8874	-0.0072489325
30	0xbd3fcf3d	-0.046828497
31	0xbd206687	-0.039160278
32	0xbd45e9c6	-0.048318647
33	0xbe35e75f	-0.17764042
34	0xbe0311fc	-0.12799829
35	0xbe17e265	-0.14832456
36	0xbe18278a	-0.14858833
37	0xbd52e4ff	-0.05148792
38	0xbc50b34e	-0.012738062
39	0xbe5d0d92	-0.21587208
40	0xbdaed899	-0.085374065
41	0xbc171401	-0.009221078
42	0xbba21c0e	-0.004947192
43	0xbe08c3c0	-0.13355923
44	0xbde7bae1	-0.11314941
45	0xbe196952	-0.14981583
46	0xbb9d9b8a	-0.0048098015
47	0xbdcd0c11	-0.10012067
48	0xbcbc3fd2	-0.02297965
49	0xbcc49257	-0.023995562
50	0x3d51a88d	0.051186133
51	0xbd802390	-0.06256783
52	0x3b0e094c	0.0021673022
53	0x3de9b888	0.1141215
54	0xbe138b5e	-0.14408633
55	0xbda020ef	-0.078187816
56	0xbd8176df	-0.06321501
57	0x3c03b973	0.00803982
58	0xbe54ec42	-0.2079325
59	0xbeac18a4	-0.3361255
60	0x3da03408	0.07822424
61	0x3c7ca955	0.015421231
62	0xbe26841d	-0.16261335
63	0x3d6b627f	0.05746698
64	0x3d818378	0.06323904
65	0x3df11eb7	0.117734365
66	0x3e85dc15	0.26144472
67	0x3de0476f	0.10951125
68	0x3c10023b	0.008789594
69	0x3eb480d1	0.3525453
70	0x3e741316	0.23835406
71	0x3e5d6e8d	0.21624203
72	0xbdcd9776	-0.100386545
73	0xbe105072	-0.14093187
74	0xbe2a394a	-0.16623417
75	0xbdbe47aa	-0.092910126
76	0xbde47166	-0.111544415
77	0xbe03791f	-0.12839173
78	0xbd081eb5	-0.03323241
79	0xbc9d0a54	-0.019169964
80	0x3cee7b90	0.029111654
81	0x3d507843	0.05089594
82	0x3dbb9127	0.09158545
83	0x3e223410	0.15840173
84	0x3e72c99b	0.23709719
85	0x3e3cf07e	0.18451115
86	0x3e8316cc	0.2560333
87	0xbe6f1b0b	-0.2335016
88	0xbe5ff41d	-0.21870466
89	0xbce33216	-0.027733844
90	0x3ca0a3dc	0.019609384
91	0xbdb9a961	-0.090655096
92	0xbe3d5ca5	-0.18492372
93	0x3c597ec1	0.013274849
94	0xbb85e4d7	-0.0040861177
95	0x3cca16f6	0.024669152
96	0xbecbb109	-0.39783505
97	0xbe3d1129	-0.18463577
98	0xbe30a06e	-0.17248699
99	0x3db26082	0.08709814
100	0xbd511c07	-0.05105212
101	0xbc878e76	-0.016547423
102	0xbe03c07b	-0.12866394
103	0xbe3a4a70	-0.18192458
104	0xbea4fa1d	-0.3222207
105	0xbe4e520b	-0.20148484
106	0xbe89cafe	-0.26912683
107	0xbe2f0e77	-0.17095362
108	0x3e0be959	0.13663234
109	0x3e118184	0.14209563
110	0x3ddd47dd	0.108047225
111	0x3d90a9a0	0.070636034
112	0x3d620965	0.05518474
113	0x3e150e93	0.14556341
114	0xbd3b1110	-0.04567057
115	0x3d343427	0.04399505
116	0xbdbfdfc9	-0.093688555
117	0xbdf0235f	-0.117254965
118	0xbea22fb1	-0.3167701
119	0xbe8a0835	-0.26959386
120	0xbe899fdd	-0.26879779
121	0xbe4b9612	-0.19881466
122	0xbd1a3a19	-0.037653062
123	0x3e452bbc	0.19254965
124	0x3c0f0269	0.008728602
125	0xbe1debf9	-0.15422048
126	0x3ce1bd29	0.027556019
127	0xbd6a2f64	-0.0571741
128	0xbe3109c0	-0.17288876
129	0x3bd2d2a8	0.0064338036
130	0xbd6ab496	-0.057301126
131	0xbde4997b	-0.111620866
132	0xbde74247	-0.11291938
133	0xbe6e0466	-0.23243865
134	0xbe1d4657	-0.15358864
135	0xbe1f1669	-0.15535893
136	0xbedb4f2e	-0.42833847
137	0xbf127ea9	-0.5722452
138	0x3dd41ed7	0.10357445
139	0xbe6eaf96	-0.23309168
140	0xbe922bd0	-0.2854905
141	0x3e5e84d6	0.2173036
142	0x3e5ce355	0.21571095
143	0x3e20fa37	0.1572045
144	0xbcaa3d9a	-0.020781327
145	0x3cf89e22	0.030348841
146	0x3bd63f2c	0.0065382924
147	0x3ec67942	0.38764387
148	0x3e085a9e	0.13315818
149	0xbd592af7	-0.05301949
150	0xbdfe073d	-0.12403724
151	0xbd99da59	-0.0751235
152	0xbade9d75	-0.0016984182
153	0xbe2d0b72	-0.16898897
154	0xbe19b623	-0.15010886
155	0xbe854c53	-0.26034793
156	0x3dc7bd5a	0.09752913
157	0xbd891236	-0.066929266
158	0xbd4c6e55	-0.04990991
159	0xbdaf6deb	-0.08565887
160	0x3b96fe0c	0.0046079215
161	0xbd9266a4	-0.071484834
162	0xbd90d673	-0.07072153
163	0xbd5c4a2e	-0.05378168
164	0xbbb6ae2a	-0.005574961
165	0xbe0775eb	-0.13228576
166	0xbd594075	-0.053039987
167	0xbd9c8b17	-0.07643717
168	0x3df6fd9e	0.120600924
169	0xbd564578	-0.052312344
170	0xb921289b	-0.00015369283
171	0x3e0ec7b4	0.13943368
172	0x3d6ee16b	0.058320444
173	0x3e43458c	0.19069499
174	0xbe5c3d38	-0.21507728
175	0xbdcb057e	-0.09913157
176	0xbe6de0e1	-0.23230316
177	0x3e502c4b	0.20329396
178	0x3e69e193	0.22839956
179	0x3e6fcd75	0.2341822
180	0xbe39b410	-0.18135095
181	0xbe50a839	-0.20376672
182	0xbda46c81	-0.08028508
183	0xbec18d58	-0.3780315
184	0xbe537fa3	-0.20654158
185	0xbde95603	-0.113933586
186	0x3d65604c	0.05600004
187	0xbbe6b4c1	-0.0070405905
188	0x3daf22fb	0.08551594
189	0xbdc98dfc	-0.098415345
190	0xbea07bf0	-0.31344557
191	0xbe8f4f53	-0.27990207
192	0xbd1c4a41	-0.03815675
193	0x3c3dde5f	0.011588662
194	0x3c9e3bc1	0.019315602
195	0xbd91a3cb	-0.07111319
196	0x3c392e36	0.011302521
197	0xbdacd703	-0.08439448
198	0x3b75abc7	0.003748642
199	0xbd4d57bd	-0.050132502
200	0xbdb3f569	-0.08787043
201	0x3c8a7d29	0.016905384
202	0x3ca25f4d	0.019820834
203	0x3cfd4ec5	0.03092135
204	0xbd56a4ef	-0.052403387
205	0xbdb708b9	-0.089372106
206	0xbcf5712e	-0.029961195
207	0x3caf3939	0.02138959
208	0xbccf6d55	-0.025320688
209	0xbd13605b	-0.035980564
210	0xbd7057ac	-0.05867736
211	0xbc7920bd	-0.015205559
212	0xbd1da6d2	-0.03848917
213	0xbda141c2	-0.078738704
214	0xbd8d809b	-0.06909295
215	0xbd3cf119	-0.046128366
216	0x3cc19ef8	0.023635373
217	0x3d177e4b	0.036985677
218	0x37fb4880	2.9955292e-05
219	0xbd26b97e	-0.040704243
220	0xbd0814d1	-0.033222977
221	0x3c96cddf	0.018408714
222	0x3c06e39f	0.00823298
223	0xbd5c00d7	-0.05371174
224	0xbcc297b0	-0.02375397
225	0x3cf26e8c	0.029593728
226	0x3c88ce28	0.016699865
227	0xbcf0d28a	-0.029397268
228	0xbd8ac3cd	-0.06775627
229	0xbd919cb8	-0.0710997
230	0xbd92e5c8	-0.071727335
231	0xbd2ce6b7	-0.042212214
232	0xbc4a0f92	-0.012332814
233	0xbd037bb7	-0.032100406
234	0xbdaf08b1	-0.0854658
235	0xbda74c18	-0.081688106
236	0xbd4feb30	-0.0507614
237	0xbdc863e1	-0.097846754
238	0xbd1af855	-0.037834484
239	0xbd55ad74	-0.05216737
240	0xbb07b1f8	-0.0020705443
241	0xbd4c04fb	-0.049809437
242	0xbd61de84	-0.055143848
243	0x3c39ece4	0.011347983
244	0xbdcb363c	-0.09922454
245	0xbcead051	-0.028663786
246	0xbd4a43bf	-0.049381014
247	0x3d302f1a	0.04301367
248	0xbd303b18	-0.043025106
249	0xbdb4c43b	-0.088264905
250	0xbafb73a2	-0.0019184242
251	0xbd676d5c	-0.056500778
252	0xbd99cfe6	-0.075103566
253	0xbd8b8af9	-0.06813616
254	0x3c686c9a	0.014186049
255	0xbd2f8f9a	-0.04286156

bias f4 [64]
0	0xbdf1b327	-0.11801749
1	0xbdc845ee	-0.09778963
2	0xbe9f3231	-0.3109298
3	0xbe41c1a4	-0.18921524
4	0x3dd1b12d	0.10238872
5	0xbc9d685e	-0.019214805
6	0xbda07704	-0.078352004
7	0xbe943173	-0.28943977
8	0xbd35e974	-0.04441209
9	0xbe418b8f	-0.18900894
10	0xbe524637	-0.20534597
11	0xbe945075	-0.28967634
12	0xbca7caa1	-0.020482363
13	0xbcceec08	-0.025259033
14	0xbd47dcaf	-0.048794445
15	0xbd767f7a	-0.060180165
16	0x3d25ca96	0.040476404
17	0xbdc2f4de	-0.09519361
18	0x3da88090	0.08227646
19	0x3e4815f8	0.1953963
20	0xbe8992bd	-0.26869765
21	0xbda4a150	-0.080385804
22	0xbe3f2277	-0.18665491
23	0xbde18a70	-0.11012733
24	0xbbb74afc	-0.0055936556
25	0xbdbfee46	-0.09371619
26	0xbdac1b6d	-0.084036686
27	0xbe96277d	-0.29327002
28	0xbdb074fd	-0.08616064
29	0xbdfd7265	-0.12375335
30	0xbc76bdf8	-0.0150599405
31	0xbe33db66	-0.17564163
32	0xbc8df93c	-0.017330758
33	0xbe23a8d3	-0.1598237
34	0xbde670f9	-0.112520166
35	0x3d20c981	0.03925467
36	0xbe048f92	-0.12945393
37	0xbdcd7cb6	-0.10033552
38	0xbe18b3e2	-0.1491237
39	0xbe27a7c5	-0.16372593
40	0xbe0d8b33	-0.13822632
41	0xbe3efc04	-0.18650824
42	0xbcc5c7a9	-0.024143057
43	0xbe2fc93e	-0.17166612
44	0xbda68925	-0.08131627
45	0x3c9cd836	0.019146066
46	0xbe3cec6e	-0.18449566
47	0xbe1d0124	-0.15332466
48	0x3d83337c	0.06406304
49	0xbe34b26e	-0.1764619
50	0xbe39e341	-0.18153097
51	0xbead1ebf	-0.3381252
52	0xbe181b95	-0.14854272
53	0x3d836d1d	0.06417296
54	0xbdac1fc7	-0.084044985
55	0xbe1e094d	-0.15433235
56	0xbde8c151	-0.11364997
57	0xbde578ee	-0.11204706
58	0xbe0a65be	-0.13515374
59	0xbe7312b0	-0.23737597
60	0xbe1d1dc8	-0.15343392
61	0xbc86c2f7	-0.016450388
62	0xbd58dcb0	-0.05294484
63	0xbd020f94	-0.031753138

weight f4 [256, 128]
0	0xbd216bc7	-0.039409425
1	0xbe2e48ed	-0.17020006
2	0x3afd5503	0.0019327704
3	0xbd8a6dd0	-0.06759226
4	0xbc9fd0f1	-0.01950881
5	0xbd862947	-0.06550842
6	0x3e3da4e4	0.18519932
7	0x3e5ab700	0.21358871
8	0x3c632c5c	0.013865557
9	0x3d89d10f	0.06729328
10	0xbd01c0f4	-0.031678155
11	0x3d5b41a8	0.05352941
12	0x3c93b259	0.018029379
13	0x3cb10500	0.02160883
14	0x3c924948	0.017857209
15	0x3d1ce212	0.038301535
16	0xbdbd3358	-0.09238309
17	0xbdb72aa4	-0.0894368
18	0x3c8ca2db	0.0171675
19	0xbdd21e3a	-0.102596715
20	0x3dac836c	0.08423504
21	0x3c1aaafb	0.009440179
22	0x3dc04727	0.09388571
23	0xbdd82268	-0.105534375
24	0xbd866d48	-0.065638125
25	0xbdcc64ea	-0.09980185
26	0xbe3e9cf6	-0.18614563
27	0xbde57f8d	-0.11205969
28	0xbb6619c9	-0.0035110584
29	0xbd1a9045	-0.037735242
30	0x3de842ea	0.11340888
31	0x3df6b79b	0.12046739
32	0x3e0e0424	0.13868767
33	0x3df2b01b	0.11849996
34	0x3d295973	0.04134507
35	0x3dcea917	0.10090845
36	0x3ce19e02	0.027541164
37	0x3e18d561	0.14925148
38	0x3d12c6f0	0.035834253
39	0x3ced57c0	0.028972507
40	0xbdc3ad9a	-0.09554596
41	0xbdb12f12	-0.08651556
42	0x3e309eb8	0.17248046
43	0x3e13687a	0.14395323
44	0x3ac1a8f4	0.0014775083
45	0xbe02f44c	-0.12788504
46	0x3e321699	0.17391433
47	0x3dd881e4	0.1057165
48	0x3de453e0	0.111488104
49	0x3e3349d5	0.17508633
50	0xbc1412bd	-0.009037671
51	0x3c846072	0.01615927
52	0x3e106b94	0.14103538
53	0x3d9a95fb	0.07548138
54	0xbd3ed48a	-0.04658941
55	0xbe6f7886	-0.2338582
56	0x3e240895	0.16018899
57	0x3df9399b	0.121691905
58	0x3db9babd	0.090688206
59	0x3d6b37b7	0.05742618
60	0x3e061c5e	0.13096759
61	0x3e84706b	0.25867018
62	0x3e60d3f5	0.21955855
63	0x3e3c2bf4	0.18376142
64	0xbd46b90a	-0.04851631
65	0xbdb98801	-0.09059144
66	0x3d6271d8	0.05528435
67	0x3cb4b5a3	0.022059267
68	0xbdd85b8c	-0.10564336
69	0xbd3086fe	-0.04309749
70	0xbd8c024c	-0.068363756
71	0xbafb2109	-0.0019159626
72	0xbddcd289	-0.10782344
73	0xbe00c64e	-0.12575647
74	0x3df8516f	0.12124907
75	0x3e3a7228	0.1820761
76	0xbd815a22	-0.063160196
77	0xbd2471f2	-0.04014773
78	0x3e4627ca	0.19351116
79	0xbc392dae	-0.011302395
80	0x3da9684e	0.08271848
81	0x3d865de0	0.06560874
82	0xbdf78015	-0.120849766
83	0xbde899ba	-0.11357446
84	0x3b939e25	0.0045049363
85	0xbda9acc4	-0.082849056
86	0x3de615c1	0.11234618
87	0x39fad191	0.00047839855
88	0x3e191601	0.149498
89	0xbc47f4aa	-0.012204329
90	0xbe28e91e	-0.16495177
91	0xbde29783	-0.11064055
92	0xbd8d7717	-0.0690748
93	0xbe0ba090	-0.13635468
94	0x3d0c4fba	0.03425572
95	0x3d5534e9	0.052052412
96	0x3e130d0e	0.14360449
97	0x3e0f0a6b	0.13968818
98	0x3d116f1c	0.035506353
99	0x3d87c2f1	0.06628979
100	0x3df9d68c	0.12199125
101	0x3c1bcc69	0.009509184
102	0x3e2ab94d	0.16672249
103	0xbc88e3a8	-0.016710117
104	0x3c50c370	0.012741908
105	0xbe0db917	-0.13840137
106	0x3db00995	0.085955776
107	0xbd06de5d	-0.032926906
108	0xbd0c450b	-0.034245532
109	0x3d80259c	0.062571734
110	0xbb845098	-0.004037928
111	0x3da64797	0.081191234
112	0x3d1138af	0.03545445
113	0x3df8dd8a	0.1215163
114	0xbd8f4b58	-0.069967926
115	0x3a1821f7	0.0005803401
116	0xbe1d1a38	-0.15342033
117	0xbe3976d6	-0.18111739
118	0x3c08b4d8	0.008343898
119	0xbe05e206	-0.13074502
120	0x3d6f8a98	0.058481783
121	0xbda71220	-0.08157754
122	0x3c23eeba	0.010005647
123	0xbc5ad00a	-0.013355264
124	0x3dedbeed	0.11608682
125	0x3df2f0d0	0.118623376
126	0xbc629b2b	-0.01383094
127	0x3d9f51b7	0.07779258
128	0x3c8511ff	0.016243933
129	0xbd7a7be4	-0.061153308
130	0x3d1163fa	0.035495736
131	0x3d46b5b7	0.04851314
132	0xbdaf474e	-0.08558522
133	0xbda0e7a9	-0.07856686
134	0xbcefc1ed	-0.029267276
135	0x3e3aee53	0.18254976
136	0x3d40f938	0.047112674
137	0xbd3bd1bf	-0.045854326
138	0x3cf63479	0.030054318
139	0xbd06f4fd	-0.032948483
140	0x3de73e15	0.11291138
141	0x3e29fd49	0.16600527
142	0xbe371378	-0.1787852
143	0xbe18b2db	-0.14911978
144	0xbe02827b	-0.12745087
145	0xbdda0ea9	-0.106473275
146	0xbdc52dd3	-0.09627881
147	0xbdb5213b	-0.08844229
148	0x3c8fecba	0.017568935
149	0xbca3eeb5	-0.020011285
150	0x3da7fe38	0.08202785
151	0x3daa9a7f	0.08330249
152	0x3bdda31c	0.006763829
153	0x3c853b0e	0.016263511
154	0x3e15101e	0.1455693
155	0x3e5c1afc	0.21494669
156	0xbc8d4243	-0.01724351
157	0xbc88b90f	-0.016689805
158	0x39cdaef7	0.00039231006
159	0xbd40149d	-0.04689466
160	0x3df837aa	0.12119992
161	0x3d87e4a9	0.0663541
162	0xbdd1c6d7	-0.10243004
163	0xbdc0f43a	-0.094215825
164	0x3d0c48f1	0.03424925
165	0x3d23fb7f	0.040034767
166	0xbd3d1c60	-0.04616964
167	0xbd0424da	-0.032261707
168	0xbda7e094	-0.08197132
169	0x3ce29207	0.027657522
170	0x3d3754ae	0.04475849
171	0x3dfa7ad2	0.12230457
172	0xbd86fe10	-0.06591427
173	0xbe0af483	-0.13569836
174	0x3df39af6	0.11894791
175	0x3e83a532	0.25711972
176	0x3dcad1da	0.09903307
177	0x3e214064	0.1574722
178	0xbd03b8c3	-0.032158624
179	0xb92fb48f	-0.00016756564
180	0x3d1266f6	0.035742722
181	0x3dc69256	0.0969588
182	0xbc132cdf	-0.008982866
183	0x3d9a8eb0	0.07546747
184	0xbd64670d	-0.05576234
185	0xbdac6596	-0.084178135
186	0x3de079a9	0.10960705
187	0x3bfc7dd3	0.007705429
188	0x3e4e5f6c	0.20153588
189	0x3e8888e7	0.26666948
190	0xbdd38858	-0.1032874
191	0xbe4f1216	-0.20221743
192	0xbc31eb3b	-0.010859306
193	0xbcbf288f	-0.02333477
194	0xbdc36090	-0.09539902
195	0xbdae1e6d	-0.08501897
196	0xbd73b0ca	-0.05949477
197	0xbe41d053	-0.18927126
198	0x3d9b1609	0.07572562
199	0xbd373c47	-0.04473522
200	0xbdd5d35e	-0.10440706
201	0xbdad780f	-0.08470165
202	0x3e0be789	0.13662542
203	0x3e2a3039	0.16619958
204	0xbdb70de3	-0.089381956
205	0xbd253a32	-0.040338702
206	0xbe140d83	-0.1445828
207	0xbe4c7646	-0.19966993
208	0x3d8a8e68	0.06765443
209	0xbb243cb2	-0.0025060591
210	0xbd51bfc1	-0.05120826
211	0x3ddcfe7f	0.10790729
212	0x3e9d1048	0.30676484
213	0x3e9ad046	0.30237025
214	0x3a438a8c	0.0007459305
215	0x3c96500e	0.01834872
216	0x3d76bd82	0.060239322
217	0x3e2385a3	0.15968947
218	0xbc3bfae5	-0.011473392
219	0x3cce967c	0.02521824
220	0xbd71c541	-0.059026007
221	0xbe5a814d	-0.21338387
222	0xbda94bf1	-0.08266438
223	0xbd93dcb3	-0.072198294
224	0xbcf73dc1	-0.030180814
225	0xbd9defb6	-0.07711737
226	0xbdb6af58	-0.08920163
227	0xbbaa651e	-0.0052000424
228	0x3d7a71f0	0.061143816
229	0xbb7ed7b0	-0.0038885884
230	0x3d5bc790	0.053657115
231	0x3bf756e5	0.0075482004
232	0x3e038ee5	0.12847479
233	0x3e665758	0.22494256
234	0xbbc55066	-0.006021547
235	0x3dc932d7	0.0982415
236	0xbda9bd0f	-0.08288013
237	0x3d364d19	0.04450712
238	0x3d83af81	0.06429959
239	0x3cd1c7a6	0.025607895
240	0xbcb70573	-0.022341466
241	0x3c3ed29a	0.011646891
242	0xbd89db8a	-0.06731327
243	0xbde39c77	-0.11113828
244	0x3d8da662	0.06916501
245	0x3d007547	0.031361844
246	0xbe37c198	-0.17944944
247	0xbe44348b	-0.19160669
248	0xbdb85a44	-0.09001592
249	0x3ddd8898	0.10817069
250	0x3cf91574	0.030405737
251	0x3da1dc2b	0.07903322
252	0x3de5c920	0.11220002
253	0x3dea89cf	0.11452066
254	0x3ded4b35	0.1158661
255	0x3d742452	0.05960495

bias f4 [256]
0	0x3cd0a232	0.025467966
1	0x3d7d0097	0.06176814
2	0x3d28dcc8	0.04122618
3	0xbc0f6293	-0.008751529
4	0x3d2fb5ad	0.04289787
5	0x3ca7a349	0.020463603
6	0xbd3ec1ef	-0.04657167
7	0xbdd0088e	-0.10157882
8	0xbd3ddb45	-0.04635169
9	0x3a175f26	0.0005774371
10	0xbb2309af	-0.0024877598
11	0x3d6616bb	0.05617402
12	0x3ce5597a	0.027996767
13	0xbd46a4aa	-0.04849688
14	0x3d3a8cbc	0.04554437
15	0x3d6003d0	0.054691136
16	0x3d50f4a4	0.051014557
17	0x3d0f65f2	0.035009332
18	0xbdef5f7c	-0.11688134
19	0x3dd84b5a	0.10561247
20	0x3d30cc05	0.04316332
21	0xbd3b3a80	-0.045710087
22	0x3cade413	0.021226918
23	0xbd6efed6	-0.0583485
24	0x3d7af587	0.06126931
25	0x3cb434be	0.021997806
26	0xbd716f39	-0.05894396
27	0x3d1348ce	0.035958104
28	0x3d271930	0.040795505
29	0x3e301ddc	0.1719889
30	0x3cd00ca1	0.025396647
31	0xbbf2ded0	-0.007411815
32	0x3d676ecd	0.056502152
33	0xbb829e12	-0.0039861286
34	0xbcff44c9	-0.031160729
35	0x3d40ad2f	0.04704016
36	0x3d8f7120	0.07003999
37	0x3e6df3aa	0.23237482
38	0x3d42ea85	0.047586937
39	0xbb81d939	-0.0039626625
40	0x3d761b4c	0.060084626
41	0x3dc42ed7	0.095792465
42	0x3ec07379	0.375881
43	0x3d5228dd	0.0513085
44	0x3d0fbfaf	0.035094913
45	0xbda5b308	-0.08090788
46	0xbc101d34	-0.008796025
47	0x3da6a798	0.08137435
48	0x3dd5b529	0.10434944
49	0x3db81a18	0.08989352
50	0xbcb7fa91	-0.022458347
51	0x3d930578	0.071787775
52	0x3ea011ff	0.3126373
53	0x3d357eb0	0.04431027
54	0xbda981a4	-0.0827668
55	0x3d55424e	0.052065186
56	0x3d063ce1	0.032772902
57	0x3d5aefc0	0.0534513
58	0xbc7f1114	-0.015568037
59	0xbd83505a	-0.0641181
60	0xbd9a1190	-0.07522881
61	0x3ea710d5	0.3263003
62	0x3d22f8bd	0.039787997
63	0x3da395b2	0.079875365
64	0xbc3773ce	-0.011197044
65	0x3d261a57	0.040552463
66	0x3dce14b7	0.10062545
67	0x3da8378e	0.08213721
68	0x3d74b79c	0.059745416
69	0x3c45eed5	0.012080868
70	0x3cc5c534	0.024141885
71	0xbd99d3f4	-0.0751113
72	0x3efd7e96	0.4951064
73	0x3c4c684a	0.012476036
74	0xbcd670b3	-0.026176786
75	0xbda91f40	-0.082579136
76	0x3a7c909c	0.00096345856
77	0x3d03e0b8	0.03219673
78	0x3e0d010b	0.13769929
79	0x3d878567	0.06617241
80	0x3bc8c744	0.00612727
81	0xbca87b2a	-0.020566542
82	0x3d8f2693	0.06989779
83	0xbccee41f	-0.025255261
84	0xbcf5be08	-0.02999784
85	0x3ebdfffd	0.37109366
86	0x3d259601	0.040426258
87	0x3d9eb1e9	0.077487774
88	0x3d3063c9	0.043063913
89	0x3db5a62f	0.08869588
90	0x3d8c6c50	0.068565965
91	0xbcf37b73	-0.029721951
92	0x3cbb3e1f	0.02285677
93	0x3d9aac51	0.07552398
94	0xbceeb8e4	-0.029140897
95	0x3cff7c00	0.031187057
96	0x3cd8c8da	0.026462961
97	0xbcf3f2a1	-0.02977878
98	0x3e1802aa	0.14844766
99	0x3d9daa20	0.076984644
100	0x3d83e89d	0.06440852
101	0x3c15a389	0.009133228
102	0x3c190760	0.009340137
103	0x3b90016a	0.0043947
104	0x3db24af8	0.087057054
105	0x3d64b857	0.055839863
106	0x3d04ff15	0.032469828
107	0x3d36e4ee	0.044651918
108	0x3dd85822	0.10563685
109	0x3cdbf6ff	0.026851175
110	0x3d40fbb4	0.047115043
111	0x3d001c9f	0.031277295
112	0x3d3ce58b	0.046117347
113	0x3d14f3c4	0.036365286
114	0xbbc96e92	-0.006147214
115	0x3de6406e	0.11242758
116	0x3e2be16e	0.16785213
117	0x3d58f9b8	0.052972525
118	0x3bbacacf	0.005700446
119	0xbe07fe08	-0.13280499
120	0xbdb70e96	-0.08938329
121	0x3d293410	0.041309416
122	0xbc6b1495	-0.014348169
123	0x3d3bae51	0.045820538
124	0x3b92d32b	0.0044807396
125	0x3bcbb78d	0.0062169493
126	0xbdb25059	-0.08706731
127	0xbdc7d8b1	-0.097581275
128	0x3cbffe72	0.023436759
129	0x3cf6e377	0.03013776
130	0xbcc0cddf	-0.023535667
131	0x3d34da01	0.044153217
132	0x3ddbb27d	0.10727403
133	0xba25c2a7	-0.0006323256
134	0x3d70d8a7	0.058800366
135	0x3ebfcf2b	0.37462744
136	0x3c71624c	0.014732908
137	0x3aabdf6e	0.0013112852
138	0x3c7454a8	0.014912762
139	0x3aebf8bc	0.0018003206
140	0xbd818e65	-0.06325988
141	0xbbb3894d	-0.005479014
142	0x3dcd4fc5	0.100249805
143	0xbd9a7396	-0.075415775
144	0x3d255eed	0.04037373
145	0x3cec60ba	0.028854717
146	0x3cb41048	0.02198042
147	0xbb2eef3c	-0.0026692888
148	0xbd9a72fd	-0.075414635
149	0xbb20325f	-0.0024444086
150	0x3d8e02bb	0.069341145
151	0x3d7cc410	0.061710417
152	0x3d109dc6	0.035306714
153	0x3c57f32c	0.013180535
154	0xbd1300fc	-0.03588961
155	0xbd0d000f	-0.034423884
156	0x3e046ed6	0.12932906
157	0x3ecfe891	0.40607122
158	0xbd7c2585	-0.06155922
159	0x3d345934	0.044030383
160	0xbdbb12fa	-0.09134479
161	0x3d5b8b54	0.05359967
162	0x3d334e8b	0.043776076
163	0x3d462fd7	0.048385467
164	0x3c8e92b9	0.017403947
165	0x3c5da248	0.01352746
166	0xbc84dd91	-0.016218932
167	0xbc8de4de	-0.017321046
168	0x3d4965f5	0.0491695
169	0x3d7c1ba0	0.061549783
170	0xbc9e4009	-0.019317644
171	0xbc003beb	-0.007826786
172	0x3cd73b0e	0.026273277
173	0x3d874e4b	0.0660673
174	0xbd116a48	-0.03550175
175	0x3e55910d	0.20856114
176	0x3c95c185	0.018280754
177	0x3d26ee8c	0.04075484
178	0x3de75fed	0.11297593
179	0x3d15655e	0.036473624
180	0x3e3d0aa9	0.18461098
181	0xbbe51d31	-0.0069920053
182	0x3da9290f	0.082597844
183	0x3d815874	0.06315699
184	0x3e145df8	0.14488971
185	0x3daba966	0.083819196
186	0x3dab9acb	0.08379134
187	0x3ce090e2	0.027412836
188	0xbd62f6e0	-0.05541122
189	0x3b74745f	0.0037300808
190	0x3ccd2583	0.025042301
191	0x3e450fb0	0.19244266
192	0x3ce8b6a9	0.028407412
193	0xbcfe7cfe	-0.03106546
194	0x3d40d6b7	0.047079768
195	0x3d08085f	0.03321111
196	0x3d065140	0.03279233
197	0xbc169a60	-0.009192079
198	0x3d0349c4	0.03205277
199	0x3dd143f0	0.10218036
200	0x3cb6b84c	0.022304676
201	0x3de3144f	0.11087858
202	0x3cc88b3e	0.024480458
203	0xbd0d1886	-0.034447215
204	0x3d1232f2	0.035693116
205	0x3c8725bb	0.016497483
206	0xbd631bc8	-0.055446416
207	0x3da9986e	0.08281027
208	0x3cce2ada	0.025166918
209	0x3d994850	0.07484496
210	0x3d92de29	0.0717128
211	0x3ec453b3	0.38345107
212	0x3d0c0850	0.034187615
213	0x3c8633b3	0.016382074
214	0x3d00bbfa	0.03142927
215	0x3d300c65	0.04298057
216	0x3d906cbc	0.070519894
217	0x3dcdb783	0.10044768
218	0x3cc68f72	0.024238322
219	0x3d2e50ab	0.0425574
220	0x3d04eff0	0.032455385
221	0x3ed0b2fe	0.4076156
222	0x3e21b4da	0.15791646
223	0x3cc09e79	0.023513066
224	0xbcb81e54	-0.0224754
225	0x3b22c865	0.0024838683
226	0x3c8081f3	0.015686965
227	0x3d90aa94	0.07063785
228	0x3eaa2f73	0.33239326
229	0xbd5d7b63	-0.05407275
230	0x3df31da6	0.11870889
231	0xbd9066bb	-0.07050844
232	0x3cab1780	0.02088523
233	0xbd1a53dd	-0.037677635
234	0x3d02c375	0.031924684
235	0xbd73ad8d	-0.059491683
236	0x3d837f56	0.06420772
237	0xbcb86032	-0.022506807
238	0xbdd7b276	-0.105320856
239	0x3c9ad238	0.018899068
240	0xbce0f842	-0.027462129
241	0x3d022749	0.031775746
242	0x3e215590	0.15755296
243	0x3d2127f7	0.039344754
244	0x3d43df04	0.047820106
245	0xbc3a2587	-0.011361486
246	0x3d89b9d5	0.06724898
247	0x3d8e0daa	0.069362
248	0x3d071266	0.03297653
249	0x3dc5c8e5	0.09657458
250	0x3d0bac48	0.034099847
251	0x3d411f7c	0.047149166
252	0x3d65e871	0.056129877
253	0x3d4c0e1e	0.04981815
254	0x3d8b6a96	0.06807439
255	0xbcdc5caa	-0.026899654

weight f4 [256]
0	0x3f8f129a	1.1177552
1	0x3f8f8329	1.1211902
2	0x3f99e7e3	1.2023891
3	0x3f6f667f	0.9351577
4	0x3fafad43	1.372475
5	0x3fbbc0d4	1.4668221
6	0x3f9b6c40	1.214241
7	0x3f73f29c	0.9529207
8	0x3f6e9a84	0.9320452
9	0x3fb9bc86	1.4510658
10	0x3fa0c68a	1.2560589
11	0x3fa9c1b2	1.3262236
12	0x3f96a384	1.1768651
13	0x3f9215d9	1.1412917
14	0x3fb6f586	1.4293678
15	0x3f9e7588	1.2379618
16	0x3fadfd89	1.3592998
17	0x3f98ce68	1.193799
18	0x3f98cc6b	1.1937383
19	0x3f8b4cf8	1.0882864
20	0x3f9ef646	1.2418907
21	0x3f9786e5	1.1838042
22	0x3fbe3667	1.4860352
23	0x3f8b0a33	1.0862488
24	0x3f8f4e3e	1.1195753
25	0x3fb39f88	1.403306
26	0x3f99b511	1.2008382
27	0x3f97c369	1.185651
28	0x3fbf37bf	1.4938887
29	0x3fb02938	1.3762579
30	0x3fa03dff	1.251892
31	0x3f98c508	1.1935129
32	0x3fc3ac89	1.5287029
33	0x3fa2fada	1.2732804
34	0x3f959f41	1.1689225
35	0x3f98534b	1.1900419
36	0x3f9dc8cb	1.2326902
37	0x3faac9dd	1.3342854
38	0x3f95bef1	1.1698896
39	0x3f95b328	1.1695299
40	0x3fa3f1f4	1.2808213
41	0x3faa2ac5	1.3294302
42	0x3f9dc461	1.2325555
43	0x3f8d64e5	1.1046416
44	0x3fa7858a	1.3087628
45	0x3f984fa8	1.1899309
46	0x3fa19516	1.2623622
47	0x3f9fa01d	1.2470738
48	0x3f9477ad	1.1599022
49	0x3f9d3f74	1.2284989
50	0x3f9b5da7	1.2137955
51	0x3f87ce70	1.0609875
52	0x3fa59842	1.293709
53	0x3fa90334	1.3204103
54	0x3fa4d841	1.2878495
55	0x3fa110a9	1.2583209
56	0x3f8f9ae6	1.1219146
57	0x3fa50e0c	1.2894912
58	0x3fa22e4d	1.267038
59	0x3f8570da	1.0425065
60	0x3f9aae38	1.2084417
61	0x3fac49a1	1.345997
62	0x3fa7682f	1.3078669
63	0x3fa65436	1.2994449
64	0x3f979c74	1.1844621
65	0x3fc6be37	1.5526799
66	0x3f90c9b2	1.1311553
67	0x3f9dfcce	1.2342775
68	0x3f9e2cbb	1.2357401
69	0x3fadf832	1.3591368
70	0x3faecba3	1.3655895
71	0x3fa3ea29	1.2805835
72	0x3fe9224c	1.8213592
73	0x3fc1acbf	1.5130843
74	0x3f95f7bb	1.1716226
75	0x3fa361d5	1.2764231
76	0x3fa7e522	1.3116801
77	0x3fc196ec	1.5124183
78	0x3f8d1eb3	1.1024994
79	0x3fbee255	1.4912821
80	0x3f8c1818	1.0944853
81	0x3fa4be85	1.2870642
82	0x3fa98636	1.3244083
83	0x3fb21437	1.3912419
84	0x3fc3653c	1.5265269
85	0x3faae220	1.3350258
86	0x3f92566e	1.1432626
87	0x3fb1c043	1.3886799
88	0x3f8a0222	1.0781901
89	0x3fa1121a	1.2583649
90	0x3fa5ad23	1.2943462
91	0x3f85d1cb	1.0454649
92	0x3f9b6f63	1.2143368
93	0x3fa0834d	1.254007
94	0x3f8ead03	1.1146549
95	0x3fab03d9	1.3360549
96	0x3f991c12	1.1961691
97	0x3faa76b9	1.3317481
98	0x3fa89f23	1.3173565
99	0x3f8c781c	1.0974154
100	0x3fa5ab50	1.2942905
101	0x3fa4d4dd	1.2877461
102	0x3f9b1e47	1.2118615
103	0x3fba72ef	1.4566325
104	0x3fae16a2	1.3600657
105	0x3f976ab4	1.1829438
106	0x3fb0c502	1.3810122
107	0x3f93698a	1.1516583
108	0x3fb04668	1.3771486
109	0x3fb76cdf	1.43301
110	0x3f9faa88	1.2473917
111	0x3f97a1eb	1.1846288
112	0x3faa4442	1.3302081
113	0x3f8f0d15	1.1175867
114	0x3f97ef12	1.1869833
115	0x3fa614cb	1.2975096
116	0x3f8524e2	1.0401881
117	0x3f93c549	1.1544582
118	0x3f9ada09	1.2097789
119	0x3f4d15e2	0.80111516
120	0x3f8aaef9	1.0834647
121	0x3f96e1fe	1.1787717
122	0x3fa80bda	1.3128617
123	0x3f998c53	1.1995949
124	0x3f978dc7	1.1840142
125	0x3fa174ec	1.2613807
126	0x3f74e25a	0.95657885
127	0x3f8cd596	1.1002681
128	0x3fb1b116	1.3882167
129	0x3fb3573d	1.4010998
130	0x3fa5e320	1.2959938
131	0x3fa213b2	1.266226
132	0x3faf3ec0	1.3691025
133	0x3fa37390	1.2769642
134	0x3fabd33a	1.3423836
135	0x3fbaf4b4	1.4605927
136	0x3f9421d7	1.1572827
137	0x3f863bcc	1.0486999
138	0x3f8fc643	1.123238
139	0x3faa8ffc	1.332519
140	0x3f7fb338	0.9988284
141	0x3f98234d	1.1885773
142	0x3fa3904a	1.2778409
143	0x3faf9e66	1.3720214
144	0x3f8ff27c	1.1245875
145	0x3f9c1d54	1.219645
146	0x3fb9f2a2	1.4527171
147	0x3f91697f	1.136032
148	0x3fa39037	1.2778386
149	0x3f95ad9a	1.1693604
150	0x3fa87bc9	1.3162776
151	0x3f9f8954	1.2463784
152	0x3f9c6075	1.2216936
153	0x3fb16667	1.3859376
154	0x3fa105b6	1.2579868
155	0x3f86c814	1.0529809
156	0x3f97088f	1.1799487
157	0x3fd4c785	1.6623389
158	0x3f9005a7	1.1251725
159	0x3fa37d62	1.2772639
160	0x3fa422c4	1.282311
161	0x3f98cb82	1.1937106
162	0x3f9607ae	1.1721094
163	0x3f98d550	1.1940098
164	0x3f93b627	1.1539963
165	0x3f92d8b9	1.1472389
166	0x3fb718e1	1.4304467
167	0x3f96c9e9	1.1780368
168	0x3fa62f65	1.2983214
169	0x3fc12248	1.5088587
170	0x3fa785eb	1.3087744
171	0x3f879f85	1.0595556
172	0x3fccfaaa	1.6013997
173	0x3fa11924	1.2585797
174	0x3fa691f1	1.3013288
175	0x3f8ec1e4	1.1152921
176	0x3f9896d8	1.1921034
177	0x3fa0cb12	1.2561972
178	0x3f8af80a	1.0856946
179	0x3fb0ca4a	1.3811734
180	0x3f9db217	1.2319974
181	0x3f9e950d	1.2389237
182	0x3f93b106	1.1538398
183	0x3f92c021	1.1464883
184	0x3fadb7fe	1.3571775
185	0x3fb383d6	1.4024608
186	0x3f9e2898	1.2356138
187	0x3fbc6766	1.4719055
188	0x3f991a68	1.1961184
189	0x3f9ef4d2	1.2418463
190	0x3fba0292	1.4532034
191	0x3f95a111	1.1689779
192	0x3fb7c252	1.4356177
193	0x3f9445fc	1.1583858
194	0x3fac7b63	1.3475155
195	0x3fb194d1	1.387354
196	0x3fb83a80	1.4392853
197	0x3f9747d2	1.1818793
198	0x3fa0977c	1.2546229
199	0x3f9631de	1.1733968
200	0x3fabd877	1.3425435
201	0x3f925bb0	1.1434231
202	0x3fa9be97	1.3261288
203	0x3f7f6182	0.9975816
204	0x3fabcee4	1.3422513
205	0x3fa60239	1.2969428
206	0x3f92a914	1.1457849
207	0x3fabce2a	1.3422291
208	0x3f9285f2	1.1447127
209	0x3f8e8e10	1.1137104
210	0x3f931238	1.1489935
211	0x3fcde6f2	1.6086104
212	0x3faaf62b	1.3356375
213	0x3fa2b583	1.2711643
214	0x3faebc12	1.3651145
215	0x3fc1805c	1.5117297
216	0x3fa48bf7	1.2855214
217	0x3f99f9cd	1.2029358
218	0x3f8407de	1.0314901
219	0x3f8e2987	1.1106423
220	0x3f995c85	1.198136
221	0x3fb1bb8e	1.3885362
222	0x3f98ded8	1.1943007
223	0x3fb3584a	1.4011319
224	0x3f9639d4	1.1736398
225	0x3fa3d124	1.27982
226	0x3fb5ee62	1.4213374
227	0x3f99f280	1.202713
228	0x3fddd24b	1.7329801
229	0x3faaa1f4	1.3330674
230	0x3f9576c5	1.167687
231	0x3fa1a4cc	1.2628417
232	0x3f9db3ba	1.2320473
233	0x3fa39518	1.2779875
234	0x3f93e33a	1.1553719
235	0x3f93910d	1.1528641
236	0x3faff285	1.3745886
237	0x3f993b5b	1.1971239
238	0x3f768c54	0.96307874
239	0x3fa3dd1f	1.2801856
240	0x3fb4df7e	1.4130704
241	0x3f9a1762	1.2038386
242	0x3fa47125	1.2847029
243	0x3fbbf7c8	1.4684992
244	0x3fa32a1c	1.2747226
245	0x3f8f0227	1.1172532
246	0x3f923897	1.142352
247	0x3f9f8047	1.2461022
248	0x3fb85cca	1.4403317
249	0x3f9f2cac	1.2435508
250	0x3f8a0dcb	1.0785459
251	0x3f953abc	1.1658549
252	0x3f9acbbf	1.2093428
253	0x3f870cf2	1.0550826
254	0x3fb36224	1.4014325
255	0x3fad42d1	1.3536016

bias f4 [256]
0	0x3e02710b	0.12738435
1	0x3e0d693a	0.13809672
2	0x3e145d19	0.14488639
3	0x3e595d2d	0.2122695
4	0x3da788c0	0.0818038
5	0x3eba5109	0.3638995
6	0x3db18936	0.08668749
7	0x3d96a049	0.07354791
8	0x3e50292e	0.20328209
9	0x3e9c2509	0.30497006
10	0x3bafcdc0	0.0053651035
11	0x3e63e6dc	0.22256035
12	0x3e268277	0.16260706
13	0x3e73f8b3	0.2382534
14	0xbd196ab6	-0.037455283
15	0x3dea47d6	0.11439483
16	0x3e3bfa51	0.18357207
17	0x3e50923d	0.20368285
18	0x3dd7da37	0.10539668
19	0x3dd45d7c	0.10369393
20	0x3dd17cd6	0.10228889
21	0x3e498d35	0.19682772
22	0xbbc8d6ff	-0.006129145
23	0x3e52e205	0.20594032
24	0x3deffbca	0.11717947
25	0x3d71535d	0.058917392
26	0x3dda7b86	0.106680915
27	0x3e0640d8	0.13110673
28	0x3e887298	0.26649928
29	0x3e97c7f6	0.29644746
30	0x3d57af93	0.052657675
31	0x3e957d66	0.29197234
32	0x3c24fc92	0.010069983
33	0x3ecb6832	0.39727932
34	0x3e89a911	0.268868
35	0x3e0990c6	0.13434133
36	0x3e965127	0.2935879
37	0x3e4ba491	0.19886996
38	0x3e00bff5	0.12573226
39	0x3e8e01e0	0.27735806
40	0x3e04dc8c	0.12974757
41	0x3e8b37af	0.2719092
42	0xbe91341d	-0.28360072
43	0x3e1b7248	0.15180314
44	0x3d5e49a7	0.05426946
45	0x3e00bb6c	0.12571496
46	0x3dbc23a4	0.091864854
47	0x3e513fcb	0.20434491
48	0x3e0ed337	0.1394776
49	0x3e56dfed	0.20983858
50	0x3e97d4d5	0.29654565
51	0x3e306f97	0.17230068
52	0x3dc932ed	0.098241664
53	0x3e89dd9f	0.26926896
54	0x3e62a454	0.22132999
55	0x3e068cbc	0.13139623
56	0x3d9880a1	0.07446409
57	0x3e034f8b	0.12823312
58	0x3e509857	0.20370613
59	0x3e23ccdc	0.15996116
60	0x3e232708	0.15932858
61	0x3d524723	0.051337373
62	0x3b1e7a5a	0.0024181814
63	0x3dd6ec3d	0.104942776
64	0x3e86b6b9	0.2631128
65	0x3e6ab58d	0.22920819
66	0x3decee22	0.11568858
67	0x3d96a103	0.07354929
68	0x3e99aa3d	0.30012694
69	0x3cf6e35f	0.030137716
70	0x3e822a93	0.25423107
71	0x3ea145b3	0.3149849
72	0xbeca551b	-0.39518055
73	0xbd1bb2ee	-0.038012438
74	0x3e924bd3	0.28573474
75	0x3e73d63f	0.23812197
76	0x3e426de0	0.18987226
77	0xbd8422cd	-0.0645195
78	0x3e1c1493	0.15242223
79	0x3e256b39	0.16154183
80	0x3ca478c9	0.020077126
81	0x3e72cc66	0.23710784
82	0x3e65088c	0.22366542
83	0x3eafffec	0.3437494
84	0x3eac85bf	0.3369579
85	0xbe2d7c3e	-0.16941926
86	0x3e8685d1	0.2627397
87	0x3defeaca	0.11714704
88	0x3de66218	0.11249179
89	0x3e86ea37	0.26350567
90	0x3df6878b	0.120375715
91	0x3ea5da99	0.3239334
92	0x3ddd6749	0.10810716
93	0x3e37382f	0.17892526
94	0x3e5165d6	0.20449004
95	0x3df988ff	0.12184333
96	0x3e23877b	0.1596965
97	0x3ea1463a	0.3149889
98	0x3e355b81	0.17710687
99	0x3e18454c	0.14870185
100	0x3e0a1d76	0.13487801
101	0x3e9bf34c	0.30459058
102	0x3e2e5b2f	0.17026971
103	0x3eb1d6a4	0.3473407
104	0x3e46fe93	0.1943305
105	0x3e5566f9	0.20840062
106	0xbbdf287a	-0.006810245
107	0x3cf47acd	0.029843712
108	0x3e8ad1de	0.2711324
109	0x3cc6e021	0.024276795
110	0x3e352484	0.17689711
111	0x3e78269b	0.24233477
112	0x3d66028e	0.05615478
113	0x3deac166	0.11462669
114	0x3e9af262	0.30263048
115	0x3d84e251	0.06488479
116	0x3df58e1c	0.11989996
117	0x3e2a7c48	0.16648972
118	0x3e59d3df	0.21272229
119	0xbc2fce37	-0.010730318
120	0x3e4c0015	0.19921906
121	0x3d7965ce	0.060888104
122	0x3e78d252	0.24298981
123	0x3e4dcbfa	0.20097342
124	0x3e9def17	0.30846474
125	0x3ddbf743	0.10740521
126	0x3e0201c9	0.12695993
127	0x3e6ca333	0.2310913
128	0xbcd2f761	-0.025752725
129	0x3d85bdc9	0.06530339
130	0x3e8f701b	0.28015217
131	0x3e1c0a0b	0.15238206
132	0x3e8188cb	0.25299677
133	0x3e6d0565	0.23146589
134	0x3dc02532	0.093820944
135	0xbddda538	-0.108225286
136	0x3e41fbf8	0.18943775
137	0x3e0c420a	0.13697067
138	0x3e6aec57	0.22941719
139	0x3e4d747d	0.20063968
140	0x3e702106	0.23450097
141	0x3e992b3d	0.299158
142	0x3e42f1e0	0.1903758
143	0x3ead43de	0.3384084
144	0x3e190714	0.14944106
145	0x3e1f8c60	0.15580893
146	0x3dc92218	0.09820956
147	0x3e11e50e	0.14247534
148	0x3e387653	0.18013887
149	0x3e98fd8b	0.29880938
150	0x3dbc77a0	0.09202504
151	0x3e8fccd0	0.28085947
152	0x3e12d285	0.1433812
153	0x3e343671	0.17598893
154	0x3e3befc3	0.1835318
155	0x3e648871	0.22317673
156	0x3d44b494	0.048023775
157	0xbe7a45a8	-0.24440634
158	0x3e40afb2	0.18817022
159	0x3e48de28	0.19615996
160	0x3e782eb4	0.24236566
161	0x3e8a1ac0	0.26973534
162	0x3e349e69	0.17638554
163	0x3e2267f4	0.15859967
164	0x3e69be18	0.22826421
165	0x3e6f8fec	0.23394746
166	0x3e807567	0.2508957
167	0x3e69143c	0.22761625
168	0x3dd1144b	0.10208949
169	0xbbed0975	-0.0072337934
170	0x3e9407e1	0.2891226
171	0x3e3ee3b9	0.18641557
172	0x3d4d8a95	0.05018099
173	0x3df318d4	0.1186997
174	0x3e920bcd	0.28524628
175	0x3e2e4a23	0.17020468
176	0x3e3e2964	0.18570477
177	0x3e5e1fb1	0.21691777
178	0x3e19ee6a	0.15032354
179	0xbd93275a	-0.0718524
180	0x3d5f6331	0.054537956
181	0x3e40b4b0	0.18818927
182	0x3da2aa52	0.07942642
183	0x3e4928b1	0.19644429
184	0x3dd1888d	0.10231123
185	0x3e1d886a	0.15384069
186	0x3e50b456	0.20381293
187	0x3eb62ae8	0.3557961
188	0x3df084f4	0.11744109
189	0x3e7340f2	0.23755243
190	0x3c956bd7	0.018239899
191	0xbc648516	-0.013947746
192	0x3da67095	0.08126942
193	0x3ea399b9	0.3195322
194	0x3e49bab3	0.19700126
195	0x3ea8a31f	0.32936952
196	0x3c0dbbb2	0.008650707
197	0x3e3da17d	0.18518634
198	0x3e8c6887	0.27423498
199	0x3e0d8820	0.13821459
200	0xbd8f17bf	-0.06986951
201	0x3e1febac	0.15617245
202	0xbde50e34	-0.1118435
203	0x3e1227a8	0.1427294
204	0xbd46e0cc	-0.048554227
205	0x3ea34ddf	0.31895348
206	0x3e74311b	0.23846857
207	0x3dd74713	0.10511603
208	0x3e471095	0.1943992
209	0x3e2f8c9e	0.17143485
210	0x3e0e6b69	0.13908161
211	0xbe9959d3	-0.29951343
212	0x3e6d6b6a	0.23185506
213	0x3ea2d385	0.31802002
214	0x3d6684d0	0.056279004
215	0x3daee364	0.08539465
216	0x3e07a729	0.1324736
217	0x3e2ec733	0.17068176
218	0x3e320360	0.173841
219	0x3e446bb3	0.19181709
220	0x3e90fb0c	0.28316534
221	0xbd812dd4	-0.06307569
222	0x3e9888b6	0.29791802
223	0x3d8b5519	0.068033405
224	0x3e9fc623	0.31205854
225	0x3e8fde0b	0.28099093
226	0x3d84227c	0.0645189
227	0x3d3137e8	0.043266207
228	0x3e06ebb5	0.13175853
229	0x3eb76637	0.3582017
230	0x3e4ef95c	0.2021231
231	0x3e7c1976	0.24619088
232	0x3e0a71f8	0.13520038
233	0x3e9c6672	0.3054691
234	0x3df43cfd	0.11925695
235	0x3e680a1b	0.22660105
236	0x3e9a187c	0.30096805
237	0x3e065dc5	0.13121708
238	0x3cb02602	0.021502499
239	0x3e2d5fe9	0.16931118
240	0x3e933b92	0.28756386
241	0x3e686412	0.22694424
242	0x3e0c6176	0.13709053
243	0xbd75f632	-0.060049243
244	0x3d5e3858	0.054252952
245	0x3e6db6d9	0.23214282
246	0x3de57caf	0.11205422
247	0x3e11de43	0.14244942
248	0x3cd8c98e	0.026463296
249	0x3e10fa2f	0.14157937
250	0x3dd713ca	0.10501821
251	0x3e34f282	0.17670634
252	0xbd61b84d	-0.055107404
253	0x3dfb7d60	0.12279773
254	0x3e7ee455	0.2489179
255	0x3e1dc59f	0.15407418

running_mean f4 [256]
0	0x3ebae2d2	0.36501175
1	0x3e449ffb	0.19201653
2	0x3f5d5c98	0.8646941
3	0x3f1c29a5	0.61001045
4	0x3e4bb9a1	0.1989503
5	0x3fdaf184	1.7104955
6	0x3feaac38	1.8333807
7	0x3b7eec70	0.0038898252
8	0x3e061e32	0.13097456
9	0x3f271e05	0.6528018
10	0x3b8df4ed	0.004332176
11	0x3f18223d	0.59427243
12	0x3f583195	0.84450656
13	0x3f595570	0.8489599
14	0x3d56c71d	0.052435983
15	0x3e5b22cf	0.21399997
16	0x3f04e1a9	0.5190683
17	0x3fe0fcf1	1.7577192
18	0x3ea7b1ab	0.32752737
19	0x3e710e34	0.23540574
20	0x3e3b1dd4	0.18273097
21	0x3efe34e7	0.49649736
22	0x3d84434a	0.06458147
23	0x3dbe4373	0.09290209
24	0x3eaaa614	0.33329833
25	0x3d1c642f	0.03818148
26	0x3f95c230	1.1699886
27	0x3f07f57b	0.5310895
28	0x3e7c8fbc	0.24664205
29	0x3f448154	0.7675984
30	0x3d9a9425	0.075477876
31	0x3f757183	0.9587633
32	0x3d8c5295	0.06851689
33	0x3f7ed350	0.9954119
34	0x3f40afd0	0.7526827
35	0x3ee6bc47	0.4506552
36	0x3fa3597c	1.2761683
37	0x3f616611	0.88046366
38	0x3eb7e8e8	0.3591988
39	0x3edef13d	0.43543425
40	0x3e522df3	0.2052534
41	0x3f3b8bf4	0.73260427
42	0x3d9a34a5	0.075295724
43	0x3edbbb5b	0.42916378
44	0x3dac9f58	0.0842883
45	0x3f2804ce	0.6563233
46	0x3f323fee	0.696288
47	0x3eca1cff	0.39475247
48	0x3eb9b1a0	0.3626833
49	0x3f671671	0.9026862
50	0x3f1427f9	0.57873493
51	0x3eaacff7	0.3336179
52	0x3f1050d8	0.5637336
53	0x3f27c2bc	0.65531516
54	0x3e2af007	0.16693126
55	0x3eff96bd	0.49919692
56	0x3d967e5b	0.07348319
57	0x3f0d72d0	0.55253315
58	0x3f704980	0.9386215
59	0x3f179fe5	0.59228355
60	0x3e360706	0.17776117
61	0x3ef4d00f	0.47814986
62	0x3d9bc39b	0.07605668
63	0x3eab4d69	0.33457497
64	0x3f1be63e	0.60898197
65	0x3eeb972d	0.46013775
66	0x3f05672d	0.5211056
67	0x3e9b9489	0.3038676
68	0x3fbd9680	1.4811554
69	0x3d309e4e	0.04311972
70	0x3f407167	0.7517304
71	0x3ec9c6fb	0.39409623
72	0x3e187811	0.14889552
73	0x3db304dd	0.08741162
74	0x3f63c545	0.88972884
75	0x3efea306	0.49733752
76	0x3f015b7b	0.50530213
77	0x3daf4d2d	0.08559642
78	0x3f0a93fe	0.5413207
79	0x3ec26d1a	0.37973863
80	0x3c3be021	0.011467011
81	0x3f1f0804	0.62121606
82	0x3f9cf935	1.2263552
83	0x3fb43c3b	1.4080881
84	0x40028518	2.0393734
85	0x3e07a5ad	0.13246794
86	0x3f6d36d4	0.92661786
87	0x3ecfe7c8	0.40606523
88	0x3f2decef	0.67939657
89	0x3f815c63	1.0106319
90	0x3d9ca124	0.07647923
91	0x3f61a954	0.88149
92	0x3e986a0e	0.29768413
93	0x3e9ec6ef	0.3101115
94	0x3f6b58ea	0.9193255
95	0x3e8949f2	0.26814228
96	0x3f03cf7b	0.51488465
97	0x3f268958	0.6505332
98	0x3f385238	0.72000456
99	0x3f1fa524	0.6236136
100	0x3f8a93f1	1.0826398
101	0x3f8d291c	1.102817
102	0x3f373e73	0.71579665
103	0x3f377b03	0.71672076
104	0x3f06fdd3	0.52731055
105	0x3f6e0d7e	0.9298934
106	0x3dafea26	0.08589582
107	0x3d35b440	0.044361353
108	0x3f80a111	1.0049154
109	0x3d0e341d	0.034717668
110	0x3f217013	0.63061637
111	0x3f886ac0	1.0657578
112	0x3d5c6098	0.053803056
113	0x3f135d75	0.5756448
114	0x3f76a1d1	0.9634066
115	0x3ea6fa17	0.32612678
116	0x3e78b4f5	0.2428778
117	0x3f4e46ba	0.8057667
118	0x3f83794c	1.0271392
119	0x2a020035	1.1546391e-13
120	0x3f281c16	0.65667856
121	0x3d55f220	0.05223286
122	0x3f3c2085	0.7348712
123	0x3fb362a1	1.4014474
124	0x3f90e889	1.1320964
125	0x3ebebb0d	0.37252083
126	0x3e4412d7	0.19147812
127	0x3eec1b2f	0.4611449
128	0x3d105a92	0.035242625
129	0x3dae776b	0.08518871
130	0x3f4df0ab	0.80445355
131	0x3faf856a	1.371259
132	0x3f35e622	0.7105428
133	0x3f565ed5	0.8373845
134	0x3e9f474b	0.3110908
135	0x3e2f51c6	0.17121038
136	0x3f905807	1.1276864
137	0x3eb7ca71	0.35896638
138	0x3ef994db	0.4874638
139	0x3ec5c4e9	0.38626793
140	0x3ef40133	0.47657165
141	0x3f632cf1	0.8874045
142	0x3f4b9e58	0.7953849
143	0x3ebb2550	0.36551905
144	0x3f59435a	0.84868395
145	0x3f5d255a	0.8638512
146	0x3dcc828a	0.09985836
147	0x3ece07dd	0.40240374
148	0x3e1a9929	0.15097488
149	0x3fdf58cd	1.7448975
150	0x3ea083e1	0.31350616
151	0x3f515b53	0.81779975
152	0x3e9fa8d4	0.31183493
153	0x3e84258f	0.25809905
154	0x3f9063a3	1.1280407
155	0x3ebad092	0.36487252
156	0x3e8c053e	0.2734775
157	0x3e445c77	0.19175898
158	0x3f033881	0.51258093
159	0x3f5bed5f	0.85909075
160	0x3efd5238	0.4947679
161	0x3f138b7a	0.576347
162	0x3f21cd72	0.6320411
163	0x3f2fd37c	0.68682075
164	0x3f81154c	1.0084624
165	0x3ee19806	0.44061297
166	0x3f55d4e5	0.83527976
167	0x3eede7e5	0.46465984
168	0x3d97085c	0.07374641
169	0x3dbc1f31	0.09185637
170	0x3f51c439	0.81940037
171	0x3f36a565	0.7134612
172	0x3db65e8c	0.08904752
173	0x3f4227bb	0.75841874
174	0x3f21f5f9	0.6326595
175	0x3f37acf3	0.71748275
176	0x3fca0476	1.5782611
177	0x3f60b409	0.8777471
178	0x3f36f581	0.7146836
179	0x3e17b69b	0.14815752
180	0x3ed42961	0.4143782
181	0x3f0c43e9	0.5479112
182	0x3ed8a0b8	0.4231012
183	0x3f594f97	0.8488707
184	0x3eaa5ec3	0.33275422
185	0x3f5f9241	0.8733254
186	0x3ef6e940	0.4822483
187	0x3f8ef060	1.1167107
188	0x3f9146c4	1.1349721
189	0x400484e7	2.0706117
190	0x3d791449	0.06081036
191	0x3e3acca2	0.18242124
192	0x3d962371	0.07330979
193	0x3f362694	0.71152616
194	0x3f23cf91	0.63988596
195	0x3fd1be6a	1.6386235
196	0x3d8e60aa	0.06952031
197	0x3ed8ecbc	0.42368114
198	0x3f71f9c6	0.9452175
199	0x3f5b8b42	0.85759366
200	0x3dabc138	0.08386463
201	0x3f9cb25e	1.2241933
202	0x3ce92cc1	0.028463723
203	0x3da7e72c	0.081983894
204	0x3d20e65a	0.03928218
205	0x3f899c79	1.0750877
206	0x3f13d192	0.57741654
207	0x3f25f0db	0.6482064
208	0x3f079a5b	0.529699
209	0x3eb9ffab	0.36327872
210	0x3ed827ee	0.42217964
211	0x3ddd3b55	0.10802332
212	0x3e985a71	0.297565
213	0x3f8f2e51	1.118601
214	0x3dc71158	0.09720105
215	0x3da0cbae	0.07851349
216	0x3eac6be0	0.33676052
217	0x3f69e98d	0.91371995
218	0x3f417b82	0.7557908
219	0x3f8805c5	1.0626761
220	0x3f83a249	1.02839
221	0x3e5f9b2d	0.21836539
222	0x3f94ab39	1.1614753
223	0x3d8124d4	0.063058525
224	0x3f4ca999	0.79946285
225	0x3f9385f7	1.1525258
226	0x3d2ac90c	0.04169564
227	0x3e9f1c2b	0.31076178
228	0x3e297381	0.16547967
229	0x3f546ca6	0.82978284
230	0x3f97e985	1.186814
231	0x3edf7dbf	0.43650624
232	0x3e8ed770	0.2789874
233	0x3f7d8851	0.9903613
234	0x3e5351c2	0.20636657
235	0x3eb149b3	0.3462654
236	0x3f576860	0.8414364
237	0x3f3ef8a0	0.7459812
238	0x3097027d	1.0987403e-09
239	0x3ef93439	0.48672655
240	0x3efd4a4f	0.49470755
241	0x3f336fa3	0.7009222
242	0x3f08678a	0.5328299
243	0x3d169671	0.036764566
244	0x3dfda41f	0.12384819
245	0x3f163d21	0.58687025
246	0x3ffc3122	1.9702494
247	0x3e9c4047	0.3051779
248	0x3d6470f2	0.055771776
249	0x3ebe1fe8	0.37133718
250	0x3e4338a3	0.19064574
251	0x3f381646	0.71908987
252	0x3d46c5e4	0.048528567
253	0x3d87714f	0.06613409
254	0x3f829169	1.0200626
255	0x3dec1a5f	0.115284674
