Best_models/UCI_HAR_CNN_20210125_130254/CNN_UCI_HAR_Rep_4_Seed_76.pt (torch_old, 226695 bytes, 12 tensors)

weight f4 [64, 9, 3]
000000 f0 ab 7c 3d bc 2d 00 3d c3 15 03 bd 67 27 00 3e
       0.06168741 0.031293616 -0.032003175 0.12515031
000010 8d 35 82 bc 42 19 9f be 55 87 ef 3d d7 74 6a 3e
       -0.015894676 -0.31073958 0.116957344 0.22896133
000020 68 67 92 bd 2c e2 08 be 81 e4 ce bd e9 f8 35 bc
       -0.071486294 -0.13367528 -0.101021774 -0.011106708
000030 83 c1 8d 3d be 4f 44 3e 44 90 b4 3c 81 a1 ae bd
       0.06921675 0.19171044 0.022041447 -0.08526898
000040 bf 82 d8 3c dd a1 ef 3d ee 1d fe 3c 1d 09 50 be
       0.026429532 0.11700795 0.031020131 -0.20315976
000050 1b e4 5a be 36 0e 79 3e 78 81 78 3b 70 d0 81 3d
       -0.21376078 0.24321827 0.0037918966 0.063385844
000060 27 b5 60 be 86 e0 dc bd fb eb 2e bc 65 7b c7 bd
       -0.21944104 -0.10785012 -0.010676379 -0.097403325
000070 83 8b 85 be 52 e5 49 be fd db 37 be 9c 6e aa bd
       -0.26083001 -0.19716385 -0.17955013 -0.08321878
000080 e0 d1 17 3e 2a 9c 65 be 76 7f 6b be 1a cf 42 be
       0.14826155 -0.22422853 -0.22997841 -0.19024315
000090 61 87 8d bd 92 8e d9 3c d2 9c 16 3e 39 87 2f 3d
       -0.06910587 0.02655724 0.1470826 0.042853568
0000a0 c1 78 2f be 22 38 3f be 7f 18 90 be 9a f4 1e be
       -0.17135908 -0.18673757 -0.2814369 -0.15522996
0000b0 d2 20 f4 bc 00 ab 5d 3d 12 31 b5 bd 07 db 18 be
       -0.029800806 0.054118156 -0.0884725 -0.14927302
0000c0 75 75 e1 3d c0 a9 49 3d e7 38 2f be e7 9a 3c 3e
       0.11008731 0.04923415 -0.1711155 0.18418466
0000d0 56 cd 15 bd 25 22 d2 bd 84 de 4d 3e d7 24 c2 3c
       -0.036572777 -0.10260419 0.20104414 0.023699207
0000e0 f1 75 8a be b7 cd 6b be a3 22 b2 3d b3 09 3a 3e
       -0.27043107 -0.23027693 0.08698013 0.18167762
0000f0 f3 af 0a bc 3e 2c 82 3d 0e a6 78 3e 60 87 4a bd
       -0.008464801 0.06356095 0.24282095 -0.04944551
000100 5e 9f 3e 3e 46 bf 8b bd 3b 03 1c 3e fa 74 18 3e
       0.18615481 -0.06823592 0.15235607 0.14888373
000110 b9 26 88 bc 46 93 16 be 8f 03 a6 3d 8a 78 c2 3d
       -0.016620027 -0.14704618 0.081061475 0.09495647
000120 ff 12 8f 3e 30 9b a8 3d c1 3c fc 3d 13 0d 61 3e
       0.2794418 0.08232725 0.123162754 0.21977644
000130 e8 72 81 3d 02 9f b4 3e 6d 87 ef bd 29 16 e9 38
       0.06320745 0.35277563 -0.11695752 0.000111144334
000140 80 1e e7 3d da 10 43 3e c2 bf be bd 45 f3 6c be
       0.11285114 0.19049397 -0.09313919 -0.23139675
000150 ec 74 11 3e e8 3a b8 bd f3 d9 8e 3e d4 60 0b bd
       0.14204758 -0.089956105 0.27900657 -0.03402789
000160 34 1a d3 3d 68 7b 04 3e 79 c2 ec 3d 35 00 17 be
       0.10307732 0.12937701 0.1156053 -0.14746173
000170 93 f5 3b be 8a e4 02 be 96 e0 0d 3e 4d 3a 81 be
       -0.18355398 -0.12782493 0.13855204 -0.25239792
000180 18 a3 53 3e 8b 8d a9 3d 9a e9 60 3d d1 50 46 bc
       0.20667684 0.0827895 0.05491028 -0.012104229
000190 fe 82 1c bc d1 10 33 bd ed d9 04 3e b8 40 20 3e
       -0.009552715 -0.04371721 0.12973757 0.15649688
0001a0 31 79 4a bd 5d 07 31 3d ac 4b 33 be a9 da f2 3d
       -0.049431983 0.043219913 -0.17509335 0.11858112
0001b0 84 7b 6c be 62 a2 0a be d6 02 63 be 7a 22 03 be
       -0.23093992 -0.13538507 -0.2216905 -0.1280612
0001c0 30 79 2c bd c6 f8 32 bd fe a9 71 3d f2 6f b0 bd
       -0.04210776 -0.04369428 0.059000008 -0.08615102
0001d0 f7 f7 30 3e da 84 24 be 55 4d 8c 3c 62 d7 77 be
       0.17282091 -0.16066304 0.017126719 -0.24203256
0001e0 85 f2 92 3e 88 c6 20 3e a9 1a 86 38 52 28 0c be
       0.28700653 0.15700734 6.394584e-05 -0.13687256
0001f0 f3 30 83 be 5b 3a 07 be 30 8f 82 3d 00 95 ad 3d
       -0.25623283 -0.13205855 0.06374967 0.08475685
000200 a7 27 3e bd 60 9f 27 be 96 6a b8 3a bf 91 3a 3c
       -0.046424534 -0.1636939 0.0014069851 0.011387288
000210 7f 15 c7 bd a6 47 f7 bd 64 49 0e 3e e2 92 0e 3e
       -0.09720897 -0.12074213 0.13895184 0.13923219
000220 3a da 20 be ff ca 24 3c 38 9c 55 3e 11 97 b1 bc
       -0.15708247 0.010058164 0.20860374 -0.02167848
000230 a6 8f 3e be 09 6d 90 3e ba 37 30 3d 4f 6b f7 3b
       -0.18609485 0.28208187 0.043021895 0.007550634
000240 7b 01 7f bd 8d 99 18 3e 1a fa 0e be 40 3e 2e 3e
       -0.06225727 0.14902325 -0.13962594 0.17015934
000250 8d 0a be 3d 1d f6 91 3e 60 76 25 3e 1d 6c 83 3d
       0.09279356 0.28508082 0.16158438 0.06417105
000260 b1 41 83 3e 78 da 61 3c 36 b3 38 3e f0 98 92 3c
       0.25636056 0.013784997 0.18037114 0.017895192
000270 b9 d9 14 3e 56 34 0f 3e 60 3e bb bd a8 08 de 3d
       0.1453618 0.13984808 -0.091427565 0.10841495
000280 95 81 2e 3d 0e 1d b3 3d ae 98 11 be 51 d3 03 ba
       0.042604048 0.08745776 -0.14218399 -0.0005028742
000290 fe 59 1f be 39 91 bd 3d a6 07 62 bd 82 ff 06 be
       -0.15561673 0.09256215 -0.055183075 -0.13183406
0002a0 c5 53 a4 ba 7d c9 3a be 23 d8 77 bd 2b f1 ef 3d
       -0.0012537172 -0.18240924 -0.06050886 0.11715921
0002b0 7e 69 a8 bd ad b5 98 3d f0 63 fd 3b 01 c6 cf bd
       -0.08223246 0.07456527 0.0077328607 -0.10145188
0002c0 29 8b 91 bc fa d9 61 3e f8 e2 2b 3e 8a dc 3e be
       -0.017766552 0.22055808 0.167858 -0.18638816
0002d0 31 05 07 3e 92 e7 15 be 99 b2 1f 3e d6 8c 98 3d
       0.13185574 -0.14639118 0.15595473 0.07448737
0002e0 5b 02 29 3e ab 39 5d bd 7c a1 b2 3d 89 e3 59 3d
       0.16504805 -0.054010075 0.08722207 0.05319551
0002f0 ee d3 b1 bd 4d 69 03 3e 51 69 a0 bc 74 e7 77 be
       -0.086830005 0.12833138 -0.019581469 -0.24209386
000300 b9 27 32 be e5 39 84 be 6e 54 5a be 4f c7 22 3d
       -0.17397965 -0.2582542 -0.2132127 0.039740857
000310 84 1c 52 3e 5a 61 bf bd 2a 8d 8a 3e dc 74 54 3d
       0.2051869 -0.0934474 0.27060825 0.05186926
000320 10 e4 68 3e 47 fb 03 bd 1d 91 c2 3d 2e c1 09 be
       0.22743249 -0.03222206 0.095003344 -0.13452598
000330 03 74 83 3e cb ae a9 3e ca 70 4a 3d 46 71 dd 3a
       0.25674447 0.3314117 0.04942397 0.001689472
000340 32 b9 90 bd 6f 17 9b 3d cf 74 5f bc ef 31 aa bd
       -0.07066573 0.07572829 -0.013638689 -0.08310305
000350 e0 47 e4 3d 61 6a 8d bb ba 96 77 bc 4b 07 41 3e
       0.111465216 -0.00431566 -0.01511162 0.18850438
000360 1d 5c 72 bc c6 2f 9d bd 75 4a 67 be 97 06 23 3d
       -0.014792469 -0.07675128 -0.22586997 0.039801206
000370 c0 e7 d4 bd 55 4b 73 bc 37 6b a2 3d 95 ac 0c bd
       -0.10395765 -0.0148495035 0.07930606 -0.034344275
000380 df 77 99 3d 79 f5 16 3d 13 c7 33 3e 3d e1 ef bc
       0.07493567 0.036855195 0.1755641 -0.029282207
000390 80 d5 ad be d9 ba 83 bd 69 58 4e be e3 78 28 3e
       -0.3395195 -0.06432123 -0.20150913 0.16452365
0003a0 32 8e 0f 3d 7e 59 4f 3e ae 90 da 3b 65 9f 14 3e
       0.035047717 0.20248982 0.006670079 0.14513929
0003b0 de d4 54 be 6c b6 13 3e 6b e7 91 3e 08 01 67 3e
       -0.20784327 0.14425057 0.2849687 0.22558987
0003c0 2c 29 3c 3c 8f 1e 5f be 7f 22 3f bd 8e 10 7a be
       0.0114844255 -0.21789001 -0.046663757 -0.24420378
0003d0 6d 3e c7 bb a5 70 86 be 7b ec 59 3d 52 73 2f 3e
       -0.00608044 -0.26257816 0.05320404 0.17133835
0003e0 fb 27 58 3c 25 e9 02 3d be a2 c2 bd ea d7 2b bd
       0.013193126 0.031960625 -0.09503697 -0.04195396
0003f0 b9 64 ff bc c3 2b b5 bd d1 9f 73 3c f1 5d d6 3d
       -0.031175958 -0.088462375 0.014869646 0.10467137

bias f4 [64]
000000 d8 17 09 be b1 32 54 be 21 b0 14 be 37 5e 3c be
       -0.13388002 -0.20722462 -0.14520313 -0.18395315
000010 3c 80 33 be 0c 8c b1 bd d4 5f 03 be 5a 79 1f bd
       -0.17529386 -0.0866929 -0.12829524 -0.03893409
000020 a2 96 5a 3c ed d9 57 be 82 a8 eb 3d 08 50 57 be
       0.013341578 -0.21079226 0.1150675 -0.21026623
000030 70 01 4a be a4 7b 35 be fb cd 3f be 3e 17 67 bd
       -0.19727111 -0.17722946 -0.18730919 -0.05641865
000040 9b b4 1a be e7 10 5d be 8e 01 6c bd 42 5a 1d be
       -0.15107958 -0.21588479 -0.05761867 -0.15366462
000050 f3 2d 20 be d7 72 fb bd 86 6a 63 3d 3a eb cd 3d
       -0.15642528 -0.12277763 0.05552151 0.100546315
000060 31 66 8f be ec 2b 3b 3d 34 78 9d bb 88 09 aa bd
       -0.28007653 0.045696184 -0.004805589 -0.08302599
000070 d0 0c f0 bd 53 ca f9 3c 2d be a7 3c a6 91 38 3c
       -0.11721194 0.030491984 0.020476425 0.011265194
000080 89 fb 8a bc ea 64 48 bd 1b 09 c2 bd 88 63 01 be
       -0.016965644 -0.048924364 -0.09474393 -0.12635624
000090 25 8e 17 be 52 e3 64 be d8 34 5b be db e1 8d be
       -0.14800318 -0.22352341 -0.21406877 -0.27711377
0000a0 3f 3a 76 be bb 64 cc bb 02 b1 5f bd 79 09 5c be
       -0.24045657 -0.006237594 -0.054612167 -0.21487989
0000b0 5e 35 ca bd 61 0c 58 be 51 b2 51 be e6 6d 9c be
       -0.0987346 -0.21098472 -0.20478179 -0.30552596
0000c0 6a 7b a1 bd 24 72 89 be 95 49 f1 bd ea 91 61 3d
       -0.078848675 -0.26844895 -0.11781613 0.055070795
0000d0 29 9f 58 be 7b ae 43 bd 2e 96 e3 bd bf 6b 60 bd
       -0.21154465 -0.04777382 -0.11112629 -0.054790255
0000e0 a7 37 45 be a1 cb 37 be c0 c1 11 bd 62 cb 0c be
       -0.19259511 -0.17948772 -0.035585165 -0.1374946
0000f0 f1 e9 95 3e 33 33 a4 be 53 71 49 be 86 7f a2 bd
       0.29280046 -0.32070312 -0.19672136 -0.079344794

weight f4 [64, 64, 3]
000000 e0 2b f8 bd 95 26 06 be 39 3a f8 bd b1 0d 64 be
       -0.121177435 -0.13100655 -0.1212048 -0.22270848
000010 23 17 df bd d5 13 09 be 23 33 a8 bd d4 a2 c7 bd
       -0.10893085 -0.13386472 -0.082128786 -0.09747854
000020 ea 5e 4a bd fe fc 85 bd b6 b5 02 bd 56 f1 73 bd
       -0.049406923 -0.06542395 -0.031911574 -0.059556328
000030 2f e4 bb bd 2a 8b 92 bc 1d ea 5e 3b 11 f2 22 3e
       -0.09174382 -0.017888624 0.0034014054 0.15912654
000040 1b e3 b1 3d 0e 84 74 3e 0e 7d 80 3b c5 ba ec bc
       0.08685895 0.238785 0.0039211577 -0.028897652
000050 d6 21 67 bc bc 15 a5 3d a0 80 c9 3d 2d 7a ad 3d
       -0.014107188 0.08060786 0.098389864 0.08470569
000060 3c 87 e2 bd 16 62 24 bd 85 00 01 bd d4 30 19 bd
       -0.1106095 -0.040132605 -0.031494636 -0.03740008
000070 d2 27 6e bd 1a 37 a9 bd 86 be 5c bd f2 c0 28 bc
       -0.058143444 -0.08262463 -0.053892635 -0.010299908
000080 ff 89 eb bd 2b 6e 5b 3d 13 6b 4b 3d 99 8f d5 3d
       -0.1150093 0.05357186 0.04966266 0.1042778
000090 4e 24 f5 bd 41 22 e5 bd 48 a3 77 bc cd 7a 80 bd
       -0.11969815 -0.11188174 -0.015114613 -0.062734224
0000a0 c1 4c a3 bb 68 04 da 3c e7 fe fd bd 9f f0 5e bd
       -0.004983515 0.02661343 -0.124021344 -0.054428693
0000b0 57 78 df bd 6d cd 1f 3c 7a 02 d1 bc 7d b6 43 3c
       -0.10911625 0.009753567 -0.025513876 0.011945364
0000c0 da a3 aa bd 5a 0f 6a 39 08 93 14 bd a5 1a 22 be
       -0.083320335 0.00022321698 -0.036273032 -0.15830477
0000d0 35 6f ef bd 8b fb 2c be f2 66 23 3c da 71 87 3d
       -0.11691133 -0.16892831 0.009973275 0.06613512
0000e0 f4 49 96 3d 24 66 67 bd 66 ee ad bd 26 52 bd bc
       0.07338324 -0.056493893 -0.084927365 -0.02311046
0000f0 1f 46 e0 3d e1 66 41 3d ca e6 c4 3d d9 0d 35 bc
       0.109508745 0.047217254 0.09614332 -0.011050665
000100 32 87 0c 3d c9 b3 b6 3b 6b 4b d0 bc c6 29 12 bd
       0.03430862 0.0055756313 -0.025426587 -0.03568437
000110 46 37 77 3d 92 0b 00 bc 3a 29 50 bd 02 62 35 3d
       0.060355447 -0.007815259 -0.050820567 0.04428292
000120 61 3d 7c be 2a 29 61 be 82 f5 30 be bf 22 96 bd
       -0.24632789 -0.21988359 -0.17281154 -0.07330846
000130 68 4f 32 bd 78 10 e0 3c 1e bf cf bc 49 08 49 3d
       -0.04353276 0.027351603 -0.025359686 0.049080167
000140 3d 6a a6 3d c7 60 02 3e 7e 41 be 3d 97 7f bd 3d
       0.08125732 0.1273223 0.092898354 0.092528515
000150 e3 b9 17 bd 6f c5 af bc fa 0c 1f 3b a2 d9 88 bd
       -0.03704251 -0.021456448 0.002426921 -0.06682135
000160 20 a8 96 bd e6 98 02 bc c6 23 68 bd 1d f3 a1 bd
       -0.07356286 -0.007971024 -0.05667474 -0.07907698
000170 5d 8f 49 3d cd 1e b0 bd 88 12 5f bd fc 9c fa 3c
       0.049208988 -0.08599625 -0.054461032 0.030592434
000180 53 51 3a 3e 30 e5 f5 3d 07 62 3f 3e e0 eb b7 bd
       0.18195085 0.12006605 0.18689738 -0.089805365
000190 8b b9 66 bc 20 ca d4 bc 43 8e 0f be ff c2 ce bd
       -0.014082323 -0.025975287 -0.14019112 -0.10095786
0001a0 f5 83 8f bd 13 e8 0e bd 08 11 ee bd 7d 35 16 be
       -0.07007591 -0.034889292 -0.11624342 -0.14668842
0001b0 55 32 76 bd 41 a2 35 be 85 35 91 bd 42 9c 51 3c
       -0.060106594 -0.17737676 -0.07090286 0.012793602
0001c0 1a a6 b6 b9 8b bd c7 3c b9 29 da bd 7e 46 c6 bd
       -0.000348375 0.024382373 -0.10652489 -0.09681414
0001d0 95 b5 1d be d1 72 02 bd 49 6d a9 bd 93 f5 12 3d
       -0.154013 -0.03184778 -0.082727976 0.03587873
0001e0 2c 5a 1d be 93 a2 c3 bd 1b ac 09 bd 11 6c 3a 3d
       -0.15366429 -0.09552493 -0.0336114 0.045513216
0001f0 ac e2 18 3d d1 aa 03 3d 03 4e 07 3a 30 e3 32 3c
       0.037325546 0.032145325 0.0005161466 0.0109184235
000200 e2 5a 27 bc f1 60 f2 bd fd f0 19 be 4e a5 a6 bd
       -0.010214539 -0.11834896 -0.15033336 -0.08136998
000210 9c 40 b7 3c 95 28 a3 bc 5e 43 5d bd ea 83 00 be
       0.022369675 -0.019916812 -0.054019324 -0.12550321
000220 7c fa 87 be c1 8b 27 be 94 2e 89 3a b5 c4 74 bd
       -0.26558292 -0.16361906 0.0010466152 -0.059757907
000230 e4 f8 20 3d 02 f4 e7 bd cb f7 3a be c2 8a dc bd
       0.03929986 -0.11325838 -0.18258588 -0.107686535
000240 58 43 89 bd 4f d7 cb bc 70 70 82 bc a6 5f 4c bd
       -0.06702298 -0.02488294 -0.015922755 -0.049895905
000250 99 87 64 3c b7 03 67 3d 6d 35 27 bc 7c 60 a6 ba
       0.013948345 0.056400027 -0.010205609 -0.001269355
000260 95 4a 0a 3d b0 21 96 bd 2d 85 17 bd 64 11 a3 bd
       0.033762533 -0.07330644 -0.03699224 -0.079623014
000270 24 11 7e 3c 80 e2 0a 3d de 42 b4 bc 8b 12 fc bd
       0.015507016 0.033907413 -0.022004541 -0.12308224
000280 97 81 28 bc dd 1c b0 bc 8b a0 75 be 7b f6 5c be
       -0.010284803 -0.021498138 -0.23987024 -0.215784
000290 9b 54 49 be cb d9 b0 3c 1f 7a cb 3d c6 fc fe 3d
       -0.1966118 0.021588227 0.09935402 0.124505565
0002a0 88 94 19 be cf 5a 7a bd 36 c5 f5 bc a5 6f 63 3c
       -0.14998066 -0.061121758 -0.030001264 0.013881599
0002b0 04 22 95 3c 58 4b 05 bd 53 39 da 3d 45 96 39 3c
       0.018204696 -0.032542557 0.10655465 0.011327331
0002c0 00 5d 98 bd 99 6c b5 3c 07 5e d2 bb e6 f5 4c bd
       -0.07439613 0.02214651 -0.0064199003 -0.050039195
0002d0 69 4a b6 3c 2c 13 a5 3c 36 1c ae bd 8a 7d 54 be
       0.022252278 0.020150743 -0.085014746 -0.20751014
0002e0 0b f1 a2 bd fe 64 08 bd c0 dd 59 bd bc e1 9e b5
       -0.079561315 -0.03329944 -0.053189993 -1.1837615e-06
0002f0 2a 45 cb bb 2e 20 1c 3c 27 7e 6e 3d cb 12 95 3d
       -0.0062033134 0.009529157 0.058225777 0.07278975
000300 b9 49 04 be cd 5a bc bc a8 5e a4 3d 41 bf e3 bd
       -0.12918748 -0.022992516 0.08025867 -0.11120463
000310 d8 4a 6a bd b1 75 06 3d 4d 48 bc bd 1f e0 c3 bb
       -0.057200283 0.032827083 -0.09193478 -0.005977645
000320 56 cc ef 3d 6e e4 aa bd de d8 b4 bd 03 2d 9e 3d
       0.11708896 -0.08344351 -0.08830427 0.07723429
000330 dd ed 44 bd e0 31 b5 bd bc 54 a7 3d 64 72 dd bd
       -0.048078407 -0.088474035 0.08170459 -0.10812834
000340 dd c5 04 bc 13 7d 13 bc 97 8c 87 3d 3f 36 5e 3d
       -0.008103815 -0.009001988 0.06618612 0.05425095
000350 a6 b1 0c 3d 5a 7a b2 bc e3 80 34 bd d4 15 b4 bd
       0.034349106 -0.021786857 -0.04406823 -0.08793226
000360 3d 68 d2 3c 1e 18 c6 bd 75 df 95 bd f6 66 ef 3d
       0.02568447 -0.09672569 -0.07318012 0.1168956
000370 57 dd c2 3d 55 a0 c7 bb 34 d2 aa 3c 83 34 f0 bd
       0.095148735 -0.006092111 0.020852186 -0.11728766
000380 60 eb bc bd ad 5c b8 3d 67 89 e8 3c 39 57 55 bd
       -0.09224582 0.090020515 0.028385831 -0.052085135
000390 91 d3 91 bd fe 27 60 3d bf 16 c2 bd 33 fc b1 3d
       -0.07120431 0.05472564 -0.09476995 0.08690681
0003a0 9b 86 97 b7 95 03 48 3d ca ba a1 bc 06 c7 fc 3d
       -1.8063283e-05 0.04883154 -0.019742388 0.12342648
0003b0 9a 23 2b 3d fa a7 48 bc 5c aa 08 be 8c 26 18 3d
       0.041782 -0.01224708 -0.13346237 0.037146136
0003c0 0f 3a 0c 3e 85 14 86 3d fc 23 cd bc 45 8c 91 bc
       0.13694023 0.065468825 -0.025041573 -0.017767081
0003d0 f8 b9 ef bd 96 53 7f bd 11 69 3d be 4d 1c 2f be
       -0.117053926 -0.062335573 -0.18497111 -0.1710064
0003e0 23 6f 62 bd e3 ac 87 bd 9b 5c e7 bd f3 72 3a bc
       -0.05528177 -0.066247724 -0.1129696 -0.011379945
0003f0 3a 63 27 3c 5e 25 ca bd 38 3e 3c bd 38 fc f3 3d
       0.010216529 -0.098704085 -0.045957774 0.11913341

bias f4 [64]
000000 6d 17 af bc 83 a8 46 bd 99 9a 0e bc 31 08 1b 3c
       -0.021373475 -0.04850055 -0.008703851 0.009462402
000010 72 93 c6 3c 8e dc 93 bd bb 05 13 bd ef 48 c5 bd
       0.02424023 -0.07219802 -0.035894137 -0.096330516
000020 ea c6 4e 3d b4 ba 90 bd c2 5e 72 3d c5 35 0f be
       0.050482668 -0.07066861 0.0591724 -0.13985355
000030 11 a5 fb bd 31 b3 48 bd 17 eb 1d 3c 88 3f 3f bd
       -0.12287343 -0.048999015 0.009638569 -0.046691447
000040 2d fb 6f bd 4e 35 0e 3d c6 db cd bd 43 d6 fe 3c
       -0.05858915 0.034718804 -0.10051684 0.031108027
000050 d6 b2 80 bc a5 7f 55 bc dd 64 0a bd a0 b9 35 bd
       -0.015710276 -0.013030921 -0.033787597 -0.04436648
000060 5b 09 27 bc 18 9e a8 bc 26 e7 84 bd df ee 0c be
       -0.010195102 -0.020583197 -0.064894006 -0.13762997
000070 09 38 3a 3d 2b 6a ca bd a2 bd 80 bd 9f f9 4e bc
       0.045463596 -0.09883531 -0.062861696 -0.0126327565
000080 d7 a2 eb bc 2f fd fa bd ab 73 04 3d 04 7c 65 bd
       -0.028764172 -0.12255322 0.032336872 -0.056026474
000090 50 f4 8d bc e7 43 0a bd 77 be 08 be ef 4b 16 be
       -0.017328411 -0.033756163 -0.13353907 -0.14677404
0000a0 50 2a 38 bd 79 79 0c be 41 88 38 3b 0a 6d 90 bc
       -0.044962227 -0.13718213 0.0028157386 -0.017630119
0000b0 71 a5 61 3d 70 b0 68 bd 42 bb f8 bc ea 84 fa bd
       0.055089418 -0.05680889 -0.030362729 -0.122323826
0000c0 bd 0e 22 bd 03 99 ea bc 4c 97 b0 bc b5 90 35 be
       -0.039564837 -0.028637415 -0.021556519 -0.17730983
0000d0 45 a5 fb bc 2d 0f 62 bd 50 2c 19 3c 79 b3 23 3c
       -0.030718455 -0.055190254 0.009348944 0.00999152
0000e0 07 6e 1a bd f7 2a df bd 04 49 60 bd 10 f0 c1 bd
       -0.037702587 -0.10896867 -0.054757133 -0.094696164
0000f0 24 15 7e bd bd d1 d6 bd dd d9 ee bd 63 ee e7 bd
       -0.06203188 -0.10489223 -0.11662648 -0.113247655

weight f4 [256, 128]
000000 89 0a 3c 3d 90 13 3c bd 49 91 60 3d c5 3f 9b 3d
       0.045908485 -0.045917094 0.054826055 0.075805224
000010 d3 2c 94 3d a3 e5 24 bc 17 fe 0d bd c8 28 2a bd
       0.07235112 -0.010064515 -0.034666147 -0.0415428
000020 f5 36 76 3d 82 9b fc bc 5c 9b 17 b9 87 b0 22 3d
       0.060111005 -0.03083587 -0.00014458358 0.03971913
000030 ef 21 0d bd 60 27 d0 bc 55 73 c6 3d 33 9c bd 3d
       -0.03445619 -0.0254094 0.096899666 0.09258308
000040 80 88 18 be c8 c3 54 3d e3 12 91 bc c0 e9 97 bb
       -0.1489582 0.051944524 -0.017709201 -0.0046360195
000050 b1 0f 0a be e0 8c f7 bd 8f 64 10 3b f0 63 4f bb
       -0.13482548 -0.12087417 0.0022032594 -0.003164526
000060 76 4b b1 3d 14 3e d5 3c 9d 6c 84 bc 61 f6 ab 3b
       0.08656971 0.026030578 -0.016165072 0.0052478765
000070 d1 d7 80 3d 0f af 20 bd 41 e7 08 bd 8c f5 ae 3c
       0.06291164 -0.03922945 -0.033423666 0.02135732
000080 0e 96 10 3e ca 8d 4b 3d 24 f1 38 3d 5a b6 94 3d
       0.14119741 0.049695767 0.045151845 0.07261343
000090 19 34 4b bd 0f db 8c ba 86 1e c1 bd 55 a8 47 bc
       -0.04961023 -0.0010746437 -0.0942965 -0.01218613
0000a0 07 9b 83 3d b9 f4 48 bd d9 27 14 3e 05 86 07 3d
       0.064260535 -0.04906151 0.14468326 0.033086795
0000b0 60 33 39 3c 1d 05 d5 3d ac 23 85 3c 34 12 3f bd
       0.011303753 0.10401366 0.016252361 -0.04664822
0000c0 b6 f6 b7 3c 3f c8 b4 3c cb db c9 3d a2 5b 96 3d
       0.022456508 0.022068141 0.09856375 0.07341696
0000d0 87 fe ca 3d 75 3b f6 3d 8b 3c 2a 3c 6c e4 90 3c
       0.099118285 0.12023059 0.010390411 0.017687045
0000e0 50 e7 6d 3c 6f e5 c2 3d 81 94 a2 bb ea 0a cc bc
       0.014520481 0.09516417 -0.0049615507 -0.024907548
0000f0 2c 83 86 3d 80 3a ba bb 54 01 94 bd 10 71 a7 bd
       0.06567988 -0.0056832433 -0.07226816 -0.08175862
000100 34 eb 46 3d 76 4d de 3d ad 6c 82 bc c4 63 50 3c
       0.04856415 0.10854618 -0.015920961 0.0127190985
000110 67 a0 5e 3d 52 74 0f 3e f9 35 59 bd 0a f3 39 3d
       0.05435219 0.14009216 -0.053029988 0.045397796
000120 6b a5 af bd a5 1f 38 bd c8 3e 20 be 34 f0 85 bd
       -0.08576473 -0.044952054 -0.15648949 -0.06539956
000130 76 7d 9f bc 39 1b fd 3d b4 bd b6 3d bc 64 ad 3d
       -0.019469004 0.12358708 0.08922902 0.08466479
000140 33 cb c0 3d 46 cc 93 3d 7b f2 6d 3c 9a 70 2d 3d
       0.09413757 0.072166964 0.014523144 0.042343713
000150 b7 c0 71 3c ae 0f 14 3e 09 38 45 bd fd 4a 46 bd
       0.014755419 0.14459106 -0.048149142 -0.04841136
000160 e5 96 07 bc 36 01 72 bc 00 17 30 bd a0 ff 52 3d
       -0.008275722 -0.0147707965 -0.042990685 0.051513314
000170 8f 1c ae bc 34 9c cb bd 05 98 b9 bd 8c 43 b5 3c
       -0.021253852 -0.09941903 -0.090621985 0.022126935
000180 fb 93 69 3c 4f 24 9d bc a6 60 9e bd 37 c6 8d 3b
       0.014256473 -0.019182352 -0.07733278 0.0043266076
000190 50 48 45 bd 4a d6 94 bc d4 46 92 3d a5 23 bf 3d
       -0.048164666 -0.018168587 0.07142416 0.093329705
0001a0 f9 86 12 3a f8 b7 e6 3d 9d 68 c1 bc 6c ad fc 3d
       0.00055895705 0.11265558 -0.023609454 0.12337765
0001b0 2b 34 bb bd 66 00 94 bc c1 f2 34 bc a4 08 20 3d
       -0.091408096 -0.018066596 -0.011044205 0.03907074
0001c0 37 3e f5 3c 07 cd 17 bd 72 b4 6b 3c 39 2d 0d 3d
       0.029936893 -0.037060764 0.014386283 0.034466956
0001d0 23 54 63 bc dc 08 d7 3c 40 da b9 3c e9 59 08 3d
       -0.01387504 0.026249342 0.022687078 0.03328887
0001e0 c4 40 ab 3d ff d3 6c bb bb 76 d4 bd c2 9c a5 3b
       0.083619624 -0.0036137102 -0.103742085 0.0050540874
0001f0 f3 e5 4c 3d f2 05 0c bd 8e ef d8 3d 62 04 ee 3d
       0.050023984 -0.034185357 0.105925664 0.1162193
000200 ec 66 75 3d 61 3e b1 bd cd 2a b0 bd 2d 23 dc bd
       0.059912607 -0.08654476 -0.086019136 -0.10748897
000210 e4 a1 eb bd db f6 65 bd 4d d5 5b bd 21 e5 e5 3c
       -0.115054876 -0.056143623 -0.053670216 0.028063359
000220 b7 86 94 bd 03 00 39 3d 8c e2 06 3c f1 d6 8e 3b
       -0.07252257 0.045166027 0.008232724 0.004359119
000230 b6 fa 00 3d a6 cc 06 3d 9a 45 1e 3c 77 01 94 bd
       0.031489097 0.03291001 0.009660149 -0.07226842
000240 0f be 2b 3d 4b ee 29 3d ae 63 d4 bd a6 1f cf bd
       0.0419293 0.04148702 -0.10370575 -0.10113458
000250 53 41 88 3b ff bc b3 3c ee ce 1e 3d 39 d3 cf bd
       0.004158178 0.021940706 0.038771562 -0.101477094
000260 bf 50 9d 3a 04 aa 86 bc 31 c6 29 bd 0b 08 06 be
       0.0012002214 -0.016438492 -0.041448776 -0.13089006
000270 37 2e d8 bd 15 2c 0b bc 2b 66 b8 bc 38 39 69 bc
       -0.1055569 -0.008494397 -0.022509655 -0.014234833
000280 c8 cc 97 bd c7 aa 3a bd d1 ee 15 be 6c b9 a9 3c
       -0.07412106 -0.045573022 -0.14641882 0.020718299
000290 2a 44 a4 bd e4 1e 4c 3c 57 db 2f 3a f8 b8 a4 bc
       -0.08020814 0.012458537 0.00067084044 -0.020107731
0002a0 92 6f 57 bd a5 5c c0 bd 29 b8 cc bb 6d fb 36 bd
       -0.052596636 -0.093926705 -0.0062475395 -0.044673372
0002b0 10 0a 0d 3d 6d d9 81 b9 68 00 b3 3c 37 92 0f bc
       0.034433424 -0.00024766792 0.02185078 -0.008762888
0002c0 fb 7e 5a bd 80 15 1d 3c 67 35 19 bd fa 35 9d bd
       -0.053343754 0.0095876455 -0.037404444 -0.07676311
0002d0 12 ce 81 bd 20 df e1 bd f7 f8 50 bd 58 c2 97 bd
       -0.06338133 -0.11028886 -0.05101868 -0.07410115
0002e0 10 2e d0 bc f0 7c f7 3d 14 c7 50 bd 10 a4 1b be
       -0.02541259 0.12084377 -0.050971106 -0.15199304
0002f0 4e 00 ae 3c 48 c6 14 bd 78 ca 79 3c 67 19 f1 3d
       0.02124038 -0.03632191 0.015246026 0.11772423
000300 65 e8 dd bd f5 67 01 be ce 3a f3 3c 88 bb 35 bc
       -0.10835341 -0.12637313 0.029691126 -0.011092074
000310 c1 6d be bd 8e 67 05 be eb bb cc bd 94 65 e0 bd
       -0.09298278 -0.13027784 -0.0999678 -0.109568745
000320 42 ed 45 3b d2 17 c0 3c 66 a3 48 bd e5 59 85 bd
       0.003020123 0.023448858 -0.048983954 -0.06511287
000330 5d c4 c5 bd 51 1f 39 be 23 07 8f bb ba 47 0f bd
       -0.09656594 -0.18078353 -0.0043648644 -0.034980513
000340 e3 0a 51 bd 04 da c6 3c 7c 46 4c bc 74 27 55 bd
       -0.051035773 0.02427388 -0.012467977 -0.05203958
000350 c4 ee e6 bc 94 2d b3 3d ea a9 91 bc 09 10 fe 3c
       -0.028190024 0.08748928 -0.017781217 0.031013506
000360 eb 2c 9d bd cc 49 06 3d bd 72 29 3c a4 a2 06 be
       -0.07674583 0.032785222 0.010342297 -0.1314798
000370 05 4d a2 3c 1a 5d 92 3d a7 56 54 bd 9c f5 b6 bc
       0.019812116 0.07146664 -0.05184045 -0.022333913
000380 cd c0 73 3d 07 c1 aa bd 3e 02 66 bd a7 a5 00 be
       0.05951004 -0.08337598 -0.056154482 -0.12563191
000390 84 92 62 bd f5 ce 47 3b ca 28 8d bd 89 82 0b be
       -0.05531551 0.0030488346 -0.068925455 -0.13624014
0003a0 6e 2e 3b bd 1b 24 23 bd 3b d7 fe bd d6 af 05 be
       -0.045698576 -0.039829355 -0.12443396 -0.13055357
0003b0 f4 11 30 bd 33 f0 97 bd 28 d8 af 3c fa 70 06 bc
       -0.04298587 -0.07418861 0.021465376 -0.008205647
0003c0 74 f4 10 3c d5 bc 9f bc 1a a0 14 bc 7e 10 0c 3b
       0.008847345 -0.019499222 -0.009071374 0.0021372135
0003d0 13 b1 d3 bb f9 c4 3d bd b0 ec bc bc 6c b5 23 3c
       -0.006460318 -0.046330426 -0.02306208 0.009991985
0003e0 df 08 e8 bc 12 05 d0 bd b7 47 32 bd ee 43 9e 3d
       -0.028324543 -0.10157217 -0.043525424 0.077278
0003f0 88 34 2d bd a1 1d f5 bd a3 44 7e bd 75 7e f4 bd
       -0.042286426 -0.11968542 -0.062077176 -0.11938182

bias f4 [256]
000000 92 6a 55 3b 5d a9 f5 3d 9e 7d b0 bc 71 72 db 3d
       0.0032564742 0.11995194 -0.021544274 0.10715187
000010 38 70 3b 3d a0 d3 68 bd 40 bb a9 3c 7e 0d 84 3b
       0.045761317 -0.056842446 0.02071917 0.0040299287
000020 44 9b 0c 3d e6 30 0d 3d 63 75 21 3d 8f 89 fc 3d
       0.03432776 0.03447046 0.03941859 0.12330925
000030 70 29 96 3d ae 42 91 3d 07 d8 8a 3d fc ad f8 3d
       0.07332122 0.07092796 0.06779485 0.1214256
000040 24 07 67 3d 51 1e 8d bb 66 fb 5c bd 96 e4 b6 3c
       0.056403294 -0.0043065925 -0.05395069 0.022325795
000050 31 fb 1c 3d 0f 1e 26 3c 25 0c 48 3c 60 56 1a 3d
       0.038325492 0.010139002 0.012209927 0.03768003
000060 a5 dd 86 3d e2 c5 43 3d eb be f5 bb b4 50 26 3d
       0.06585244 0.047796138 -0.007499566 0.04060431
000070 dc ef 83 3d 80 22 10 3d 3c fe 0f 3e af e6 19 bd
       0.06442234 0.03518915 0.14061826 -0.037573513
000080 7a 23 a3 3d 15 9c d2 bb 04 3a 64 3d ca 43 c8 3c
       0.07965751 -0.006427298 0.05571939 0.024446387
000090 2d f7 17 3d 1e 25 77 3c dd 83 0c bc 1d bb 51 3d
       0.03710096 0.015084533 -0.0085763605 0.051203836
0000a0 1f b1 d1 3a df b4 3e bc 25 cf d0 3d 53 56 41 bd
       0.0015998221 -0.011639803 0.1019576 -0.047201466
0000b0 6b 08 57 3d ef c2 c5 3d 8a 58 d6 3c bf 9a 63 bc
       0.052498262 0.09656321 0.026165266 -0.013891875
0000c0 39 6f fc 3c a9 62 05 3e 84 4c 86 3d 0a 2c 44 bc
       0.030814754 0.13025917 0.06557563 -0.01197339
0000d0 15 de d4 3c ab c6 29 3d c6 77 29 3d 60 dc 36 bd
       0.025984803 0.04144923 0.04137399 -0.04464376
0000e0 2d de 48 3d c5 98 9a 3d ad 93 89 3d b3 6b 65 3c
       0.04904001 0.0754867 0.0671762 0.014002728
0000f0 eb 47 9b 3c 5d 85 fb 3c 61 44 3b 3d c3 c8 89 3d
       0.018955192 0.030703241 0.045719508 0.067277454
000100 10 68 1a 3d 40 8c 98 bd c7 e2 2d bc ea 9b 27 bb
       0.037696898 -0.074486256 -0.01061315 -0.002557511
000110 80 81 80 3c 8f 12 11 be e0 b2 c4 bd 8b 79 72 3d
       0.01568675 -0.14167236 -0.0960443 0.059197944
000120 4a 25 b6 3a 55 d1 86 3d 47 65 73 3c 7d e3 61 3d
       0.0013896611 0.06582896 0.014855689 0.05514859
000130 f2 d2 b5 3d b3 67 62 bc a1 c1 3a 3b a8 67 06 bd
       0.08878125 -0.013818669 0.002849676 -0.032813698
000140 9f 41 5d 3c f1 af b3 3d b9 4a 1a 3d 25 d2 99 3c
       0.013504415 0.087737925 0.037668917 0.018776963
000150 63 19 a4 3c 99 a0 29 bd 73 bd 08 bd fa b1 02 3d
       0.020031637 -0.041412923 -0.033383798 0.031908013
000160 9c 95 04 3d 55 05 46 bd b7 7c 69 3d e1 f1 93 3d
       0.03236924 -0.04834493 0.057003703 0.07223869
000170 97 2b 38 bc 0a ac 4f bb f3 87 ac bc ad 3c 22 3d
       -0.011240861 -0.0031688237 -0.02106092 0.039608646
000180 53 5e e8 3d 10 01 0b 3c 66 19 18 3d 3e d2 a0 3d
       0.11346116 0.00848414 0.037133597 0.078526005
000190 74 f8 32 bb 82 99 7f 3d a0 59 66 3d 5c 14 49 3d
       -0.0027308734 0.062402256 0.056237817 0.04909168
0001a0 67 67 b1 3d d7 6c 66 3d bd 83 be 3c b6 f9 81 3c
       0.086623006 0.05625614 0.023256177 0.015866142
0001b0 4f 23 e1 3b e9 dd c2 3d a0 f3 cd 3d 0f c3 63 3c
       0.006870664 0.09514982 0.100562334 0.013901486
0001c0 93 57 a9 3c 01 0b 3b bd 8b 82 32 bd 74 48 ad 3d
       0.020671641 -0.04566479 -0.043581527 0.08461085
0001d0 3d d4 61 3a 5a 3a b6 ba 4e af 96 3c a0 ff 1c 3d
       0.0008614695 -0.0013902888 0.018394139 0.03832972
0001e0 56 77 fa 3c 86 62 c9 bc 3b 5b 3c 3d b4 70 05 3d
       0.030574482 -0.024583112 0.04598544 0.032578185
0001f0 6a eb 28 3d c7 75 a6 3c d8 59 8d 3d b5 e4 bd 3c
       0.041240133 0.020319832 0.06901902 0.023180345
000200 11 79 31 3d b6 28 98 3c 67 6b c9 3c 66 74 a6 3c
       0.04332835 0.0185741 0.024587346 0.020319175
000210 c5 4d f9 3c 69 22 49 3d 75 15 e1 ba 47 cf 09 3d
       0.030432591 0.04910508 -0.0017172532 0.03364494
000220 62 4d 17 3d a5 e8 26 bd 24 e2 87 3d 3f 77 b7 3d
       0.036939032 -0.04074921 0.0663493 0.08958291
000230 9c 5c 47 3c 00 28 28 bd b3 18 1f bd fc 3a ae 3c
       0.012168076 -0.041053772 -0.038841914 0.02126836
000240 fc bd 8e 3d 80 3f 5e bc 32 36 12 3c c8 5a a8 3c
       0.069698304 -0.013564944 0.008924054 0.0205511
000250 d3 4f 0a 3d ce ee ef bb 37 79 38 3d 12 24 e5 3d
       0.033767533 -0.007322169 0.045037474 0.111885205
000260 e3 7f e0 bc 03 4e 21 3d 60 c0 a3 3d b4 4d 0e bc
       -0.027404731 0.03938104 0.07995677 -0.008685518
000270 a6 14 ef bc 51 e5 34 bd b0 85 c3 3c a6 f6 31 bd
       -0.02918465 -0.044164006 0.023867458 -0.043448113
000280 00 3d b4 3c e5 34 0d 3c 54 3d d8 bb 9e 1a 98 bd
       0.022001743 0.008618568 -0.0065991078 -0.07426952
000290 8e 85 d7 3c 2d 60 6e 3d 3f 0e df bb f7 21 e9 bd
       0.026308801 0.05819719 -0.006807118 -0.113834314
0002a0 95 87 15 3d 4b 79 5a 3d a6 3d 8c bd 88 fb cc 3c
       0.036506254 0.05333833 -0.06847696 0.025022283
0002b0 2e 95 c2 3a e6 1e eb 3c f7 94 28 bc 99 fa d4 3d
       0.0014845484 0.028701257 -0.010289422 0.1039936
0002c0 d5 6d ca 3c 0e 4e 4b 3c fe 89 97 3d e0 02 0b bd
       0.024710575 0.012408746 0.07399367 -0.03393829
0002d0 af 55 04 3d 8e 87 69 3d 37 9b 23 3d 6f 6e 75 bd
       0.032308277 0.05701404 0.039942946 -0.05991977
0002e0 bc 01 8a 3c ca ad 9d 3d e2 3b ea 3d aa 18 ab 3d
       0.01684653 0.07699163 0.11437203 0.08354314
0002f0 d8 60 1d 3d 09 50 a5 bc 5e 0c 3d bd 7b 97 53 bc
       0.038422436 -0.020179765 -0.046154372 -0.012914534
000300 93 41 8c bd db fd 64 3d e1 ad 65 3d 8c 68 3f 3d
       -0.06848445 0.055906158 0.056074027 0.046730563
000310 4d 01 22 3d ad 45 ca 3b a3 ea ee 3c 9e 27 1a 3d
       0.03955202 0.006172857 0.029164618 0.03763544
000320 46 89 44 3d e7 3f a1 3c 83 e3 40 3d 46 83 9a 3d
       0.047982477 0.019683791 0.047091972 0.0754457
000330 e4 b6 ac bd 8a 05 ef 3c 84 4f f2 3c 57 a0 c0 bc
       -0.08433321 0.029177446 0.029578932 -0.023513956
000340 41 20 54 bc 72 f4 7f bb b6 d6 6c bd 4f f8 99 3c
       -0.012947143 -0.0039055613 -0.05782195 0.01879516
000350 48 3b 5c 3d 75 1e 17 3d 36 96 85 3d c4 0e 40 bc
       0.053767473 0.03689428 0.06522791 -0.01172227
000360 21 09 10 3d ca 2e 34 3d 91 6a 35 3c 20 06 2d 3d
       0.035164956 0.043989934 0.011072771 0.04224217
000370 cc f9 b2 3c 26 df 24 bd a6 42 57 3d c4 5b e6 3c
       0.021847628 -0.040251873 0.052553795 0.02811993
000380 df 28 b5 3c 8b a1 bc 3d 15 c6 0d 3d 55 9c 53 3d
       0.022114215 0.092104994 0.034612734 0.05166276
000390 80 df f0 3c 20 5c bd 3d 90 b0 c9 3c 59 65 dc 3b
       0.029403448 0.09246087 0.024620324 0.006725949
0003a0 ef a0 68 3d 8d ee ec bd 6e be 50 3d f4 7c 9f bd
       0.056794103 -0.115689375 0.050962858 -0.07787505
0003b0 52 98 55 3c 3c 8a dc 3c 33 94 01 3d e3 e0 87 3c
       0.013036804 0.026921384 0.031635474 0.016586727
0003c0 10 17 d3 3c ae e3 30 3d 11 39 65 39 1e 30 19 bd
       0.025767833 0.043185882 0.00021860401 -0.037399404
0003d0 59 d9 e5 3c 89 78 bd bc 80 dd 39 be 77 bd 80 bd
       0.028057741 -0.023128765 -0.18150902 -0.062861376
0003e0 29 cc 32 bd c0 4c cd bc ab ee 7d bc da 1d b9 bd
       -0.043651734 -0.025061011 -0.015498797 -0.09038897
0003f0 05 3d 33 bd 69 77 e8 3c 63 55 c0 3c 9a e7 f4 3c
       -0.043759365 0.028377252 0.023478216 0.029895592

weight f4 [256]
000000 95 4f 8d 3f 8c 25 90 3f 15 7a 8f 3f 7a ad 86 3f
       1.1039912 1.1261458 1.1209131 1.0521691
000010 ae 42 85 3f 06 42 9a 3f 60 85 95 3f ff 73 89 3f
       1.0410974 1.2051399 1.1681328 1.0738524
000020 b1 a7 82 3f 18 4b a0 3f ae 6b 9b 3f 24 ef 8f 3f
       1.0207425 1.2522917 1.2142236 1.1244855
000030 7c 33 82 3f 36 05 84 3f 0d 3a 9f 3f c6 7b 8b 3f
       1.0171962 1.031409 1.2439591 1.0897148
000040 e0 27 91 3f c5 05 91 3f e5 98 6f 3f c3 4e 86 3f
       1.1340294 1.1329886 0.93592674 1.0492786
000050 35 b3 8e 3f 2e 0b 8e 3f 26 cb 86 3f 83 40 80 3f
       1.114844 1.1097162 1.0530746 1.0019687
000060 ab 70 81 3f 7a 01 93 3f 21 b5 93 3f 8f 04 8d 3f
       1.0112509 1.1484826 1.1539651 1.1017016
000070 69 4d 89 3f c0 f8 94 3f f9 5c 97 3f 5f 09 99 3f
       1.0726749 1.1638412 1.1825248 1.1955985
000080 c2 ae 9f 3f f2 8e 95 3f ae 7c 86 3f f0 bd 99 3f
       1.2475207 1.1684248 1.0506799 1.2011089
000090 61 ed 8e 3f f3 26 8e 3f fc 41 8d 3f bd 71 94 3f
       1.1166192 1.1105636 1.1035762 1.159721
0000a0 70 c1 8d 3f dc 05 92 3f a3 09 79 3f 4a 98 75 3f
       1.1074657 1.1408038 0.9728033 0.959355
0000b0 4b 15 92 3f 16 03 83 3f 23 25 8a 3f 63 75 8f 3f
       1.1412748 1.0235317 1.0792583 1.1207699
0000c0 84 0f 9e 3f 5b 0d a4 3f 48 0f 85 3f 63 4c 98 3f
       1.2348485 1.2816576 1.0395288 1.1898311
0000d0 89 7a 81 3f 45 a3 95 3f f3 dc 94 3f b9 a6 8c 3f
       1.011552 1.1690451 1.1629928 1.098838
0000e0 b0 dc 8e 3f 47 c0 94 3f 84 90 93 3f 59 65 97 3f
       1.1161098 1.1621178 1.1528478 1.1827804
0000f0 5b 5f 8e 3f be 9e 93 3f 59 1d 91 3f 3f 4c 99 3f
       1.112285 1.1532819 1.1337081 1.1976393
000100 4d cb 8c 3f 76 90 73 3f d7 ab 87 3f 52 f4 93 3f
       1.0999542 0.95142305 1.0599316 1.1558936
000110 26 42 a4 3f 5e 9c 6c 3f 66 8b 93 3f 05 02 90 3f
       1.2832687 0.924261 1.1526916 1.1250616
000120 86 1b 8d 3f 3f 9f 89 3f e3 33 97 3f fb a0 8e 3f
       1.1024024 1.0751723 1.181271 1.1142877
000130 29 d4 8f 3f be b4 8f 3f 61 d0 8a 3f 97 c8 90 3f
       1.1236621 1.1227033 1.0844842 1.1311215
000140 07 a3 8a 3f e3 e1 92 3f 7e 92 8f 3f dc 1e 81 3f
       1.0831002 1.1475185 1.1216581 1.0087543
000150 11 bd 8d 3f 78 1b 95 3f 64 40 8a 3f e9 b4 93 3f
       1.1073323 1.1649008 1.08009 1.1539584
000160 5b a7 90 3f ab f9 9d 3f a2 93 7b 3f 38 d2 91 3f
       1.1301073 1.2341818 0.98272145 1.1392279
000170 f0 e5 93 3f 34 9a 8a 3f e1 19 85 3f c8 5e 93 3f
       1.1554546 1.0828309 1.0398523 1.15133
000180 92 53 98 3f eb 69 85 3f 82 01 89 3f bb aa 8d 3f
       1.1900504 1.0422949 1.0703585 1.1067728
000190 a4 61 93 3f 76 7e 8e 3f 28 c9 94 3f 21 e9 88 3f
       1.1514173 1.1132343 1.1623888 1.0696145
0001a0 1a bb 95 3f 8b aa 8b 3f 6c 11 8d 3f 8a 4e 8d 3f
       1.1697724 1.091142 1.1020942 1.1039593
0001b0 68 87 9b 3f 61 a6 9b 3f d7 f4 8e 3f fa 32 8b 3f
       1.2150698 1.216015 1.1168469 1.0874932
0001c0 06 da 88 3f 1d 2f 8f 3f a3 bd 98 3f 13 19 98 3f
       1.0691535 1.1186253 1.1932873 1.1882652
0001d0 d7 9a 85 3f 97 7b 9e 3f f8 45 95 3f d8 02 95 3f
       1.0437878 1.2381467 1.1661978 1.1641493
0001e0 8d e4 8d 3f 3f e2 90 3f 49 90 97 3f d4 21 7a 3f
       1.1085373 1.1319045 1.1840907 0.9770787
0001f0 8f 90 9b 3f 1a a7 8e 3f ba 5b 8a 3f 4b 5a 8f 3f
       1.2153491 1.1144745 1.0809243 1.119943
000200 5b ee 9a 3f 1e be 88 3f 39 cb 97 3f 3d c7 90 3f
       1.210399 1.0683019 1.1858894 1.1310803
000210 42 80 92 3f b2 dc 96 3f 97 70 88 3f f2 0d 82 3f
       1.1445391 1.1786101 1.065936 1.0160506
000220 6e 80 8d 3f a3 aa 92 3f 29 18 8c 3f fd dd 75 3f
       1.1054819 1.1458324 1.0944873 0.9604185
000230 71 f4 8f 3f 29 cb 75 3f 50 c7 83 3f 97 eb 91 3f
       1.1246473 0.9601312 1.02952 1.1400021
000240 8c 89 8c 3f 51 08 7f 3f 55 bf 94 3f bd 7e a6 3f
       1.0979476 0.99622065 1.162089 1.3007427
000250 f6 f6 91 3f 03 f9 87 3f 53 78 94 3f fa ed 93 3f
       1.1403491 1.0622867 1.159922 1.1557
000260 b0 bb 8f 3f 1a fd 82 3f b5 60 9a 3f 8a 45 88 3f
       1.1229153 1.023349 1.2060763 1.0646222
000270 45 e3 78 3f 88 bb 7e 3f 2f 90 8f 3f e5 2f 8b 3f
       0.97221786 0.995049 1.1215876 1.0873991
000280 bf f0 90 3f d9 ce 8d 3f e2 05 92 3f e7 17 90 3f
       1.132347 1.107875 1.1408045 1.1257294
000290 0f 1e 83 3f 44 3d 7d 3f d0 e2 94 3f 58 d6 6f 3f
       1.0243548 0.9892161 1.1631718 0.9368644
0002a0 b4 58 91 3f 36 8f 8f 3f a0 ca 8b 3f 0b c0 8c 3f
       1.1355195 1.121558 1.0921211 1.0996107
0002b0 fe a8 8e 3f a5 6b 86 3f 7f 46 8d 3f 10 72 9c 3f
       1.1145322 1.05016 1.1037139 1.2222309
0002c0 9c e5 9d 3f 43 ef 82 3f 86 76 8f 3f e8 75 98 3f
       1.2335696 1.0229267 1.1208045 1.1910982
0002d0 14 1a 8e 3f f5 6a 91 3f 24 8b 82 3f ff 7d 94 3f
       1.1101708 1.1360766 1.0198712 1.1600951
0002e0 f4 48 97 3f c7 3a 7e 3f 91 3e 96 3f 51 d0 93 3f
       1.1819139 0.9930844 1.1737844 1.1547948
0002f0 6a f1 96 3f a6 a5 99 3f aa 9f 8f 3f 28 3b 8e 3f
       1.1792424 1.2003677 1.1220601 1.1111803
000300 31 2b 8f 3f 33 ab 94 3f 80 58 8f 3f b4 e7 82 3f
       1.1185056 1.1614746 1.1198883 1.022696
000310 76 a4 82 3f 63 a2 8e 3f 80 44 8a 3f 86 77 8d 3f
       1.020644 1.1143306 1.0802155 1.1052101
000320 63 03 93 3f 5e c9 94 3f 6c 18 9c 3f ad c7 85 3f
       1.1485409 1.1623952 1.2194953 1.0451561
000330 0c 4d 97 3f 56 38 87 3f 24 07 7c 3f 04 ae 8d 3f
       1.1820388 1.0564067 0.98448396 1.106873
000340 7e 3c 89 3f 2a f2 8e 3f 7e 48 94 3f 45 35 9a 3f
       1.0721586 1.1167653 1.1584623 1.2047507
000350 1e 29 93 3f 2e 53 8c 3f b7 68 89 3f 8b f6 90 3f
       1.1496923 1.0962884 1.0735081 1.1325239
000360 28 68 8d 3f 16 30 a0 3f 92 26 a1 3f 62 65 86 3f
       1.1047411 1.2514675 1.2589896 1.049969
000370 ac a8 81 3f c9 9d 7b 3f 4b fc 87 3f 9c 61 93 3f
       1.01296 0.98287636 1.0623869 1.1514163
000380 e6 81 8f 3f 8e e7 95 3f 1c ec 8e 3f ca 6a 8d 3f
       1.1211517 1.171129 1.1165805 1.1048214
000390 f8 a7 8d 3f c1 37 84 3f 1c e2 95 3f 27 84 90 3f
       1.1066885 1.0329515 1.1709628 1.129033
0003a0 e3 cf 90 3f 76 90 76 3f 96 b1 9a 3f fe dd 7a 3f
       1.1313442 0.9631418 1.2085445 0.97994983
0003b0 35 ee 82 3f 31 7d 9f 3f 8a f4 95 3f 04 4a 8d 3f
       1.0228945 1.246008 1.1715252 1.1038213
0003c0 a9 0b 8e 3f 58 7c 89 3f 26 8c 9c 3f d8 2d 8d 3f
       1.1097308 1.0741072 1.223027 1.1029615
0003d0 f7 01 9f 3f 05 4a 8d 3f f1 89 77 3f 01 c6 85 3f
       1.2422475 1.1038214 0.96694857 1.0451051
0003e0 68 e9 90 3f 55 0a 7a 3f 6c b0 8a 3f 94 a0 95 3f
       1.132123 0.97672015 1.083509 1.168963
0003f0 ee b2 90 3f fe 7d 88 3f da ba 7b 3f b2 6d 99 3f
       1.1304605 1.066345 0.9833199 1.1986601

bias f4 [256]
000000 40 8b 9f 3d 58 6d e3 bc 05 6c dc 3d 45 d3 9d 3c
       0.07790232 -0.0277621 0.107627906 0.01926578
000010 cb fd 1c 3d d7 c9 e3 3d a3 20 1e 3d ae 26 91 3d
       0.038327973 0.11122482 0.038605344 0.07087456
000020 2a 72 83 3d 67 68 2e 3d 31 26 bc 3d b4 08 cf 3d
       0.064182594 0.042580035 0.09186972 0.10109082
000030 14 5c a3 3d f6 46 ff 3d b1 8c ca 3d 4b 95 28 3d
       0.07976547 0.124647066 0.09890116 0.041158002
000040 f0 38 98 3d ea 70 48 3d d3 59 b7 3d a4 d8 ce 3d
       0.07432735 0.04893581 0.089526795 0.10099915
000050 3c 92 bc 3d f5 c1 24 3e e9 a0 37 bd cf cf c8 3d
       0.092075795 0.16089614 -0.04483119 0.09805261
000060 8f 2b 65 3d 70 57 22 3d 36 28 2c 3d 65 00 4b 3d
       0.055949744 0.03963417 0.042030536 0.049560923
000070 11 fc 94 3d 1a c9 3a 3d bd 89 60 bd 2d d0 8e 3d
       0.0727464 0.04560194 -0.054818857 0.069733
000080 4a dc a9 bd 77 61 32 3e e6 9e 92 3d c8 0e f2 3d
       -0.0829397 0.17419992 0.07159214 0.118192255
000090 27 31 11 3d 7d 85 76 bb 13 62 d6 3d 81 08 52 3d
       0.035447266 -0.0037616186 0.10467925 0.05127764
0000a0 d4 f2 c6 3d 84 63 7b 3d bb 93 99 bc 8d 5e 2a 3d
       0.097142845 0.061374202 -0.018747201 0.041594077
0000b0 3d 10 7f 3d 21 98 f5 3d 7c 40 94 3d bc e0 d6 3d
       0.062271345 0.11991907 0.07238862 0.104920834
0000c0 ec b0 b8 3d b3 bf 9f bd 72 4b a0 3d 30 ec c6 3d
       0.0901812 -0.078002356 0.0782689 0.09713018
0000d0 e4 b0 87 3d 16 24 7f 3d 99 38 8b bd 22 93 04 3e
       0.06625536 0.062290274 -0.067979045 0.12946752
0000e0 b3 30 e6 3d da 32 d9 bc f1 33 2c 3d fb f9 9b 3c
       0.112397574 -0.026513506 0.042041723 0.019040098
0000f0 8f 81 23 3d cf a0 59 3c 1e 25 6a 3d 24 1f c1 3d
       0.03991848 0.013282969 0.057164304 0.09429768
000100 fb d8 bd 3d 79 1a 95 3d b0 9c 5f 3d e7 a7 ed 3c
       0.09269901 0.0728044 0.05459279 0.029010726
000110 5a fe 25 bd 9b 55 70 3d f6 a7 cc 3d 5e 20 d1 3c
       -0.04052577 0.05867539 0.099929735 0.02552813
000120 64 ad d5 3d bc c2 67 bd 6f 97 e4 3d a0 02 ef 3d
       0.10433462 -0.056582198 0.11161696 0.116704226
000130 c3 fe af 3d a1 0c 81 3d 76 80 ab 3d bb d2 23 3a
       0.08593514 0.06301237 0.08374111 0.0006249358
000140 4a ce a7 3c 15 39 25 bd 4c 89 c0 3b 60 23 11 3e
       0.020484108 -0.04033764 0.005875742 0.1417365
000150 98 66 3d 3d 81 93 56 3d 10 df 41 3c b9 e5 7a 3d
       0.04624042 0.052386764 0.011832967 0.061254237
000160 40 db 6c 3d 73 fd 2c 3e 61 e1 1f bd 6c 2a 91 3d
       0.05782628 0.16893558 -0.039033297 0.070881695
000170 17 21 a2 3d 54 ee 50 3d ba d2 e6 3c 82 2a ab bd
       0.07916468 0.051008537 0.028176654 -0.08357717
000180 3b de 20 3d 77 11 b8 3d 95 83 a5 bc 09 77 d5 3d
       0.039274435 0.08987706 -0.020204345 0.10423095
000190 3b 6d 04 3e c8 ce 09 3e c9 6e 1f 3d 78 b4 57 3a
       0.12932293 0.13457787 0.038924012 0.0008228491
0001a0 8e c8 32 3e e4 5b 8d 3d f0 30 df 3d 20 21 63 3d
       0.17459318 0.06902292 0.10898006 0.055451512
0001b0 ce 1c 76 3d a5 fa a5 bd bd 73 4a 3d d8 26 83 3d
       0.060086064 -0.08104447 0.049426783 0.06403893
0001c0 f0 d6 29 3d 7a 0e b9 3c 24 6d a4 3d ff bc 0d 3d
       0.041464746 0.02258991 0.080286294 0.03460407
0001d0 c2 cd 1f 3d cb 8f d7 3c d8 8e 0a 3c 6e 9e ac 3d
       0.039014585 0.026313683 0.008456908 0.084286556
0001e0 c0 93 81 3d d8 c5 91 3d b3 b2 9d 3c d0 eb 69 3d
       0.06327009 0.07117814 0.01925025 0.057109654
0001f0 1d d1 3e 3d 3e e4 00 3d 51 d9 d4 bb 79 c0 8c 3d
       0.046586145 0.03146767 -0.0064956327 0.06872649
000200 34 80 ce 3d 6d b3 80 3d f6 d6 66 3c 3f 8c 02 3d
       0.100830466 0.06284223 0.014089337 0.03187203
000210 a8 1a b9 3d 6a f4 eb 3d 4d 39 d5 3d 94 7e fe 3c
       0.090382874 0.11521228 0.1041132 0.031066217
000220 28 5a 28 3d 54 9c b4 3d 8b d8 9f 3d 6d 92 d4 3d
       0.041101605 0.0881888 0.07804974 0.10379491
000230 ac fc cf 3d 3a 8f 34 3d ca cd e6 3d 1b fe c8 3d
       0.10155615 0.044081904 0.1126972 0.09814092
000240 30 47 99 3c ec 45 80 bc 13 ef 19 3e 2d 1c 34 3d
       0.018710703 -0.015658341 0.15032606 0.043972183
000250 89 df 12 3e 57 06 33 3c 41 cb a3 3c 9e a7 76 3d
       0.14343084 0.0109268045 0.01999438 0.060218446
000260 0c e8 28 3e 84 ef 22 3d 5a b8 14 3d 5c 91 c3 3d
       0.16494769 0.0397792 0.036308624 0.095492095
000270 e5 12 c5 3d e8 9d af 3d 1e e6 21 3d ec 86 af 3d
       0.096227445 0.0857504 0.039526097 0.08570656
000280 d3 02 3c 3d 46 ad fe 3d cf 83 3c 3d 38 09 39 3e
       0.04590113 0.12435393 0.04602414 0.18069923
000290 57 34 68 bd 69 fb 96 3d c4 5f dd 3d 96 3d e3 3d
       -0.05669054 0.073721714 0.108092815 0.11095731
0002a0 18 80 6c 3c 58 20 55 3d 65 af 2b 3e ef d8 a2 bc
       0.014434837 0.0520328 0.16766126 -0.019878833
0002b0 c5 bc d5 3d 29 83 8b 3d e3 dd db 3d 68 1a 8d bd
       0.104363956 0.06812126 0.10735681 -0.06889802
0002c0 36 4e 1e 3d 3a 0e cd 3c 64 30 b5 3d 03 e2 3d 3e
       0.038648807 0.025031198 0.088471204 0.18543248
0002d0 0e 7b 8a 3c 07 6d 93 3d 0c b2 d1 3d 45 f8 63 3d
       0.01690438 0.0719853 0.10239038 0.05565669
0002e0 96 60 0f 3e cd 18 87 3d 3a 5e 9b bc 7d c9 2c 3d
       0.14001688 0.06596527 -0.01896583 0.04218434
0002f0 d2 f8 ff ba 5b 0c 99 3d db 38 ca 3d 38 58 19 3c
       -0.001952911 0.0747306 0.098741256 0.009359412
000300 6f f6 15 3e 39 ce 9a 3d 44 54 30 bd 5c 24 80 3d
       0.14644788 0.07558865 -0.043049112 0.06256935
000310 dc 7a e7 3d 6b 2c 9c 3c d1 65 bd 3d 76 ca 6b 3d
       0.113027304 0.019064149 0.092479356 0.05756613
000320 82 80 9e 3d aa c8 4c 3d 34 65 c3 3d 51 5a c3 3d
       0.07739355 0.049996056 0.09540787 0.09538711
000330 fc 73 87 3c c7 b5 bc bc 9c 10 0a 3d bc 67 21 3d
       0.016534798 -0.023035897 0.033707246 0.03940557
000340 a5 ae b7 3d 84 bd 4a 3d 20 1d 98 3d 0a fd 08 3e
       0.08968858 0.049497142 0.0742743 0.13377777
000350 22 f0 bc 3d b9 8b 12 bd 2a 8a 11 3d 04 3c a4 3d
       0.09225489 -0.03577778 0.035532154 0.080192596
000360 b1 4f 6b 3d 84 79 a0 3a 8c 5e f5 3d 34 c3 75 3d
       0.057449047 0.0012243246 0.11980924 0.060000613
000370 d2 31 a7 3c f5 a5 f2 bc 08 f8 1e 3c 41 5b 84 3c
       0.020409498 -0.02962015 0.00970269 0.016156795
000380 a0 e0 37 3d 68 5a 95 bb f9 63 c3 3d 06 97 ec 3d
       0.044891953 -0.0045578964 0.09540553 0.11552243
000390 9b 7d a9 3d 22 5d 2d bd 54 06 54 3d c2 f7 73 3d
       0.082759105 -0.042325146 0.051763847 0.059562452
0003a0 04 04 c9 3d 31 a6 7b 3d a4 36 96 3d 54 4e 87 3c
       0.09815219 0.06143779 0.073346406 0.016516842
0003b0 f1 31 53 bc d7 d1 a8 3c 9a 3d 47 3d 1f f4 11 3d
       -0.012890325 0.020607872 0.048642732 0.035633203
0003c0 7f a2 b1 3d e1 da 81 bc 5d ca 9a 3d 3a bd 93 3d
       0.08673572 -0.01585144 0.07558129 0.072138265
0003d0 34 59 34 3d fc 4b 16 3d ce 08 0d 3e d0 22 d3 3d
       0.044030383 0.036693558 0.1377289 0.10309374
0003e0 98 d3 c8 bb 5e e5 ae bc 93 22 c1 3d 6c 4e 23 3e
       -0.0061287396 -0.021349605 0.09430423 0.15947884
0003f0 a8 60 88 3d 6f 5b 33 3d 67 b9 92 3d 1a a9 72 3c
       0.06659061 0.04378837 0.07164269 0.014810825
